…
I0810 18:49:15.935967  4638 net.cpp:313] The NetState phase (0) differed from the phase (1) specified by a rule in layer accuracy/top5
I0810 18:49:15.936187  4638 net.cpp:49] Initializing net from parameters: 
name: "AlexNet-Teacher VGG16-Student"
state {
  phase: TRAIN
}
layer {
  name: "data"
  type: "Data"
  top: "data"
  top: "label"
  include {
    phase: TRAIN
  }
  transform_param {
    mirror: true
    crop_size: 227
    mean_file: "/home/ubuntu/caffe/data/ilsvrc12/imagenet_mean.binaryproto"
  }
  data_param {
    source: "/home/ubuntu/caffe/examples/imagenet/ilsvrc12_train_lmdb"
    batch_size: 20
    backend: LMDB
  }
}
layer {
  name: "conv_st_1_1"
  type: "Convolution"
  bottom: "data"
  top: "conv_st_1_1"
  convolution_param {
    num_output: 64
    pad: 1
    kernel_size: 3
    weight_filler {
      type: "xavier"
    }
    bias_filler {
      type: "constant"
      value: 0
    }
  }
}
layer {
  name: "relu_st_1_1"
  type: "ReLU"
  bottom: "conv_st_1_1"
  top: "conv_st_1_1"
}
layer {
  name: "conv_st_1_2"
  type: "Convolution"
  bottom: "conv_st_1_1"
  top: "conv_st_1_2"
  convolution_param {
    num_output: 64
    pad: 1
    kernel_size: 3
    weight_filler {
      type: "xavier"
    }
    bias_filler {
      type: "constant"
      value: 0
    }
  }
}
layer {
  name: "relu_st_1_2"
  type: "ReLU"
  bottom: "conv_st_1_2"
  top: "conv_st_1_2"
}
layer {
  name: "pool_st_1"
  type: "Pooling"
  bottom: "conv_st_1_2"
  top: "pool_st_1"
  pooling_param {
    pool: MAX
    kernel_size: 2
    stride: 2
  }
}
layer {
  name: "conv_st_2_1"
  type: "Convolution"
  bottom: "pool_st_1"
  top: "conv_st_2_1"
  convolution_param {
    num_output: 128
    pad: 1
    kernel_size: 3
    weight_filler {
      type: "xavier"
    }
    bias_filler {
      type: "constant"
      value: 0
    }
  }
}
layer {
  name: "relu_st_2_1"
  type: "ReLU"
  bottom: "conv_st_2_1"
  top: "conv_st_2_1"
}
layer {
  name: "conv_st_2_2"
  type: "Convolution"
  bottom: "conv_st_2_1"
  top: "conv_st_2_2"
  convolution_param {
    num_output: 128
    pad: 1
    kernel_size: 3
    weight_filler {
      type: "xavier"
    }
    bias_filler {
      type: "constant"
      value: 0
    }
  }
}
layer {
  name: "relu_st_2_2"
  type: "ReLU"
  bottom: "conv_st_2_2"
  top: "conv_st_2_2"
}
layer {
  name: "pool_st_2"
  type: "Pooling"
  bottom: "conv_st_2_2"
  top: "pool_st_2"
  pooling_param {
    pool: MAX
    kernel_size: 2
    stride: 2
  }
}
layer {
  name: "conv_st_3_1"
  type: "Convolution"
  bottom: "pool_st_2"
  top: "conv_st_3_1"
  convolution_param {
    num_output: 256
    pad: 1
    kernel_size: 3
    weight_filler {
      type: "xavier"
    }
    bias_filler {
      type: "constant"
      value: 0
    }
  }
}
layer {
  name: "relu_st_3_1"
  type: "ReLU"
  bottom: "conv_st_3_1"
  top: "conv_st_3_1"
}
layer {
  name: "conv_st_3_2"
  type: "Convolution"
  bottom: "conv_st_3_1"
  top: "conv_st_3_2"
  convolution_param {
    num_output: 256
    pad: 1
    kernel_size: 3
    weight_filler {
      type: "xavier"
    }
    bias_filler {
      type: "constant"
      value: 0
    }
  }
}
layer {
  name: "relu_st_3_2"
  type: "ReLU"
  bottom: "conv_st_3_2"
  top: "conv_st_3_2"
}
layer {
  name: "conv_st_3_3"
  type: "Convolution"
  bottom: "conv_st_3_2"
  top: "conv_st_3_3"
  convolution_param {
    num_output: 256
    pad: 1
    kernel_size: 3
    weight_filler {
      type: "xavier"
    }
    bias_filler {
      type: "constant"
      value: 0
    }
  }
}
layer {
  name: "relu_st_3_3"
  type: "ReLU"
  bottom: "conv_st_3_3"
  top: "conv_st_3_3"
}
layer {
  name: "pool_st_3"
  type: "Pooling"
  bottom: "conv_st_3_3"
  top: "pool_st_3"
  pooling_param {
    pool: MAX
    kernel_size: 2
    stride: 2
  }
}
layer {
  name: "conv_st_4_1"
  type: "Convolution"
  bottom: "pool_st_3"
  top: "conv_st_4_1"
  convolution_param {
    num_output: 512
    pad: 1
    kernel_size: 3
    weight_filler {
      type: "xavier"
    }
    bias_filler {
      type: "constant"
      value: 0
    }
  }
}
layer {
  name: "relu_st_4_1"
  type: "ReLU"
  bottom: "conv_st_4_1"
  top: "conv_st_4_1"
}
layer {
  name: "conv_st_4_2"
  type: "Convolution"
  bottom: "conv_st_4_1"
  top: "conv_st_4_2"
  convolution_param {
    num_output: 512
    pad: 1
    kernel_size: 3
    weight_filler {
      type: "xavier"
    }
    bias_filler {
      type: "constant"
      value: 0
    }
  }
}
layer {
  name: "relu_st_4_2"
  type: "ReLU"
  bottom: "conv_st_4_2"
  top: "conv_st_4_2"
}
layer {
  name: "conv_st_4_3"
  type: "Convolution"
  bottom: "conv_st_4_2"
  top: "conv_st_4_3"
  convolution_param {
    num_output: 512
    pad: 1
    kernel_size: 3
    weight_filler {
      type: "xavier"
    }
    bias_filler {
      type: "constant"
      value: 0
    }
  }
}
layer {
  name: "relu_st_4_3"
  type: "ReLU"
  bottom: "conv_st_4_3"
  top: "conv_st_4_3"
}
layer {
  name: "pool_st_4"
  type: "Pooling"
  bottom: "conv_st_4_3"
  top: "pool_st_4"
  pooling_param {
    pool: MAX
    kernel_size: 2
    stride: 2
  }
}
layer {
  name: "conv_st_5_1"
  type: "Convolution"
  bottom: "pool_st_4"
  top: "conv_st_5_1"
  convolution_param {
    num_output: 512
    pad: 1
    kernel_size: 3
    weight_filler {
      type: "xavier"
    }
    bias_filler {
      type: "constant"
      value: 0
    }
  }
}
layer {
  name: "relu_st_5_1"
  type: "ReLU"
  bottom: "conv_st_5_1"
  top: "conv_st_5_1"
}
layer {
  name: "conv_st_5_2"
  type: "Convolution"
  bottom: "conv_st_5_1"
  top: "conv_st_5_2"
  convolution_param {
    num_output: 512
    pad: 1
    kernel_size: 3
    weight_filler {
      type: "xavier"
    }
    bias_filler {
      type: "constant"
      value: 0
    }
  }
}
layer {
  name: "relu_st_5_2"
  type: "ReLU"
  bottom: "conv_st_5_2"
  top: "conv_st_5_2"
}
layer {
  name: "conv_st_5_3"
  type: "Convolution"
  bottom: "conv_st_5_2"
  top: "conv_st_5_3"
  convolution_param {
    num_output: 512
    pad: 1
    kernel_size: 3
    weight_filler {
      type: "xavier"
    }
    bias_filler {
      type: "constant"
      value: 0
    }
  }
}
layer {
  name: "relu_st_5_3"
  type: "ReLU"
  bottom: "conv_st_5_3"
  top: "conv_st_5_3"
}
layer {
  name: "pool_st_5"
  type: "Pooling"
  bottom: "conv_st_5_3"
  top: "pool_st_5"
  pooling_param {
    pool: MAX
    kernel_size: 2
    stride: 2
  }
}
layer {
  name: "fc_st_6"
  type: "InnerProduct"
  bottom: "pool_st_5"
  top: "fc_st_6"
  inner_product_param {
    num_output: 4096
    weight_filler {
      type: "xavier"
    }
    bias_filler {
      type: "constant"
      value: 0
    }
  }
}
layer {
  name: "relu_st_6"
  type: "ReLU"
  bottom: "fc_st_6"
  top: "fc_st_6"
}
layer {
  name: "fc_st_7"
  type: "InnerProduct"
  bottom: "fc_st_6"
  top: "fc_st_7"
  inner_product_param {
    num_output: 4096
    weight_filler {
      type: "xavier"
    }
    bias_filler {
      type: "constant"
      value: 0
    }
  }
}
layer {
  name: "relu_st_7"
  type: "ReLU"
  bottom: "fc_st_7"
  top: "fc_st_7"
}
layer {
  name: "fc_st_8"
  type: "InnerProduct"
  bottom: "fc_st_7"
  top: "fc_st_8"
  inner_product_param {
    num_output: 1000
    weight_filler {
      type: "xavier"
    }
    bias_filler {
      type: "constant"
      value: 0
    }
  }
}
layer {
  name: "loss"
  type: "SoftmaxWithLoss"
  bottom: "fc_st_8"
  bottom: "label"
  top: "loss"
}
I0810 18:49:15.936468  4638 layer_factory.hpp:77] Creating layer data
I0810 18:49:15.937788  4638 net.cpp:91] Creating Layer data
I0810 18:49:15.937846  4638 net.cpp:399] data -> data
I0810 18:49:15.937925  4638 net.cpp:399] data -> label
I0810 18:49:15.937955  4638 data_transformer.cpp:25] Loading mean file from: /home/ubuntu/caffe/data/ilsvrc12/imagenet_mean.binaryproto
I0810 18:49:15.938830  4641 db_lmdb.cpp:35] Opened lmdb /home/ubuntu/caffe/examples/imagenet/ilsvrc12_train_lmdb
I0810 18:49:15.951748  4638 data_layer.cpp:41] output data size: 20,3,227,227
I0810 18:49:15.981909  4638 net.cpp:141] Setting up data
I0810 18:49:15.981963  4638 net.cpp:148] Top shape: 20 3 227 227 (3091740)
I0810 18:49:15.981976  4638 net.cpp:148] Top shape: 20 (20)
I0810 18:49:15.981981  4638 net.cpp:156] Memory required for data: 12367040
I0810 18:49:15.981998  4638 layer_factory.hpp:77] Creating layer conv_st_1_1
I0810 18:49:15.982040  4638 net.cpp:91] Creating Layer conv_st_1_1
I0810 18:49:15.982055  4638 net.cpp:425] conv_st_1_1 <- data
I0810 18:49:15.982082  4638 net.cpp:399] conv_st_1_1 -> conv_st_1_1
I0810 18:49:16.158131  4638 net.cpp:141] Setting up conv_st_1_1
I0810 18:49:16.158174  4638 net.cpp:148] Top shape: 20 64 227 227 (65957120)
I0810 18:49:16.158181  4638 net.cpp:156] Memory required for data: 276195520
I0810 18:49:16.158215  4638 layer_factory.hpp:77] Creating layer relu_st_1_1
I0810 18:49:16.158238  4638 net.cpp:91] Creating Layer relu_st_1_1
I0810 18:49:16.158246  4638 net.cpp:425] relu_st_1_1 <- conv_st_1_1
I0810 18:49:16.158257  4638 net.cpp:386] relu_st_1_1 -> conv_st_1_1 (in-place)
I0810 18:49:16.158457  4638 net.cpp:141] Setting up relu_st_1_1
I0810 18:49:16.158475  4638 net.cpp:148] Top shape: 20 64 227 227 (65957120)
I0810 18:49:16.158483  4638 net.cpp:156] Memory required for data: 540024000
I0810 18:49:16.158488  4638 layer_factory.hpp:77] Creating layer conv_st_1_2
I0810 18:49:16.158509  4638 net.cpp:91] Creating Layer conv_st_1_2
I0810 18:49:16.158516  4638 net.cpp:425] conv_st_1_2 <- conv_st_1_1
I0810 18:49:16.158527  4638 net.cpp:399] conv_st_1_2 -> conv_st_1_2
I0810 18:49:16.159639  4638 net.cpp:141] Setting up conv_st_1_2
I0810 18:49:16.159662  4638 net.cpp:148] Top shape: 20 64 227 227 (65957120)
I0810 18:49:16.159669  4638 net.cpp:156] Memory required for data: 803852480
I0810 18:49:16.159685  4638 layer_factory.hpp:77] Creating layer relu_st_1_2
I0810 18:49:16.159698  4638 net.cpp:91] Creating Layer relu_st_1_2
I0810 18:49:16.159704  4638 net.cpp:425] relu_st_1_2 <- conv_st_1_2
I0810 18:49:16.159713  4638 net.cpp:386] relu_st_1_2 -> conv_st_1_2 (in-place)
I0810 18:49:16.159996  4638 net.cpp:141] Setting up relu_st_1_2
I0810 18:49:16.160019  4638 net.cpp:148] Top shape: 20 64 227 227 (65957120)
I0810 18:49:16.160027  4638 net.cpp:156] Memory required for data: 1067680960
I0810 18:49:16.160032  4638 layer_factory.hpp:77] Creating layer pool_st_1
I0810 18:49:16.160044  4638 net.cpp:91] Creating Layer pool_st_1
I0810 18:49:16.160051  4638 net.cpp:425] pool_st_1 <- conv_st_1_2
I0810 18:49:16.160060  4638 net.cpp:399] pool_st_1 -> pool_st_1
I0810 18:49:16.160135  4638 net.cpp:141] Setting up pool_st_1
I0810 18:49:16.160151  4638 net.cpp:148] Top shape: 20 64 114 114 (16634880)
I0810 18:49:16.160157  4638 net.cpp:156] Memory required for data: 1134220480
I0810 18:49:16.160163  4638 layer_factory.hpp:77] Creating layer conv_st_2_1
I0810 18:49:16.160181  4638 net.cpp:91] Creating Layer conv_st_2_1
I0810 18:49:16.160188  4638 net.cpp:425] conv_st_2_1 <- pool_st_1
I0810 18:49:16.160199  4638 net.cpp:399] conv_st_2_1 -> conv_st_2_1
I0810 18:49:16.163000  4638 net.cpp:141] Setting up conv_st_2_1
I0810 18:49:16.163024  4638 net.cpp:148] Top shape: 20 128 114 114 (33269760)
I0810 18:49:16.163031  4638 net.cpp:156] Memory required for data: 1267299520
I0810 18:49:16.163048  4638 layer_factory.hpp:77] Creating layer relu_st_2_1
I0810 18:49:16.163060  4638 net.cpp:91] Creating Layer relu_st_2_1
I0810 18:49:16.163069  4638 net.cpp:425] relu_st_2_1 <- conv_st_2_1
I0810 18:49:16.163079  4638 net.cpp:386] relu_st_2_1 -> conv_st_2_1 (in-place)
I0810 18:49:16.163280  4638 net.cpp:141] Setting up relu_st_2_1
I0810 18:49:16.163312  4638 net.cpp:148] Top shape: 20 128 114 114 (33269760)
I0810 18:49:16.163318  4638 net.cpp:156] Memory required for data: 1400378560
I0810 18:49:16.163324  4638 layer_factory.hpp:77] Creating layer conv_st_2_2
I0810 18:49:16.163347  4638 net.cpp:91] Creating Layer conv_st_2_2
I0810 18:49:16.163354  4638 net.cpp:425] conv_st_2_2 <- conv_st_2_1
I0810 18:49:16.163365  4638 net.cpp:399] conv_st_2_2 -> conv_st_2_2
I0810 18:49:16.165155  4638 net.cpp:141] Setting up conv_st_2_2
I0810 18:49:16.165179  4638 net.cpp:148] Top shape: 20 128 114 114 (33269760)
I0810 18:49:16.165186  4638 net.cpp:156] Memory required for data: 1533457600
I0810 18:49:16.165213  4638 layer_factory.hpp:77] Creating layer relu_st_2_2
I0810 18:49:16.165225  4638 net.cpp:91] Creating Layer relu_st_2_2
I0810 18:49:16.165232  4638 net.cpp:425] relu_st_2_2 <- conv_st_2_2
I0810 18:49:16.165246  4638 net.cpp:386] relu_st_2_2 -> conv_st_2_2 (in-place)
I0810 18:49:16.165427  4638 net.cpp:141] Setting up relu_st_2_2
I0810 18:49:16.165446  4638 net.cpp:148] Top shape: 20 128 114 114 (33269760)
I0810 18:49:16.165452  4638 net.cpp:156] Memory required for data: 1666536640
I0810 18:49:16.165457  4638 layer_factory.hpp:77] Creating layer pool_st_2
I0810 18:49:16.165472  4638 net.cpp:91] Creating Layer pool_st_2
I0810 18:49:16.165477  4638 net.cpp:425] pool_st_2 <- conv_st_2_2
I0810 18:49:16.165487  4638 net.cpp:399] pool_st_2 -> pool_st_2
I0810 18:49:16.165546  4638 net.cpp:141] Setting up pool_st_2
I0810 18:49:16.165560  4638 net.cpp:148] Top shape: 20 128 57 57 (8317440)
I0810 18:49:16.165566  4638 net.cpp:156] Memory required for data: 1699806400
I0810 18:49:16.165572  4638 layer_factory.hpp:77] Creating layer conv_st_3_1
I0810 18:49:16.165590  4638 net.cpp:91] Creating Layer conv_st_3_1
I0810 18:49:16.165596  4638 net.cpp:425] conv_st_3_1 <- pool_st_2
I0810 18:49:16.165606  4638 net.cpp:399] conv_st_3_1 -> conv_st_3_1
I0810 18:49:16.168917  4638 net.cpp:141] Setting up conv_st_3_1
I0810 18:49:16.168941  4638 net.cpp:148] Top shape: 20 256 57 57 (16634880)
I0810 18:49:16.168948  4638 net.cpp:156] Memory required for data: 1766345920
I0810 18:49:16.168964  4638 layer_factory.hpp:77] Creating layer relu_st_3_1
I0810 18:49:16.168979  4638 net.cpp:91] Creating Layer relu_st_3_1
I0810 18:49:16.168987  4638 net.cpp:425] relu_st_3_1 <- conv_st_3_1
I0810 18:49:16.168995  4638 net.cpp:386] relu_st_3_1 -> conv_st_3_1 (in-place)
I0810 18:49:16.169293  4638 net.cpp:141] Setting up relu_st_3_1
I0810 18:49:16.169314  4638 net.cpp:148] Top shape: 20 256 57 57 (16634880)
I0810 18:49:16.169322  4638 net.cpp:156] Memory required for data: 1832885440
I0810 18:49:16.169327  4638 layer_factory.hpp:77] Creating layer conv_st_3_2
I0810 18:49:16.169348  4638 net.cpp:91] Creating Layer conv_st_3_2
I0810 18:49:16.169354  4638 net.cpp:425] conv_st_3_2 <- conv_st_3_1
I0810 18:49:16.169365  4638 net.cpp:399] conv_st_3_2 -> conv_st_3_2
I0810 18:49:16.174993  4638 net.cpp:141] Setting up conv_st_3_2
I0810 18:49:16.175016  4638 net.cpp:148] Top shape: 20 256 57 57 (16634880)
I0810 18:49:16.175024  4638 net.cpp:156] Memory required for data: 1899424960
I0810 18:49:16.175035  4638 layer_factory.hpp:77] Creating layer relu_st_3_2
I0810 18:49:16.175050  4638 net.cpp:91] Creating Layer relu_st_3_2
I0810 18:49:16.175055  4638 net.cpp:425] relu_st_3_2 <- conv_st_3_2
I0810 18:49:16.175065  4638 net.cpp:386] relu_st_3_2 -> conv_st_3_2 (in-place)
I0810 18:49:16.175256  4638 net.cpp:141] Setting up relu_st_3_2
I0810 18:49:16.175273  4638 net.cpp:148] Top shape: 20 256 57 57 (16634880)
I0810 18:49:16.175279  4638 net.cpp:156] Memory required for data: 1965964480
I0810 18:49:16.175285  4638 layer_factory.hpp:77] Creating layer conv_st_3_3
I0810 18:49:16.175307  4638 net.cpp:91] Creating Layer conv_st_3_3
I0810 18:49:16.175314  4638 net.cpp:425] conv_st_3_3 <- conv_st_3_2
I0810 18:49:16.175325  4638 net.cpp:399] conv_st_3_3 -> conv_st_3_3
I0810 18:49:16.180960  4638 net.cpp:141] Setting up conv_st_3_3
I0810 18:49:16.180989  4638 net.cpp:148] Top shape: 20 256 57 57 (16634880)
I0810 18:49:16.181015  4638 net.cpp:156] Memory required for data: 2032504000
I0810 18:49:16.181027  4638 layer_factory.hpp:77] Creating layer relu_st_3_3
I0810 18:49:16.181041  4638 net.cpp:91] Creating Layer relu_st_3_3
I0810 18:49:16.181048  4638 net.cpp:425] relu_st_3_3 <- conv_st_3_3
I0810 18:49:16.181058  4638 net.cpp:386] relu_st_3_3 -> conv_st_3_3 (in-place)
I0810 18:49:16.181363  4638 net.cpp:141] Setting up relu_st_3_3
I0810 18:49:16.181385  4638 net.cpp:148] Top shape: 20 256 57 57 (16634880)
I0810 18:49:16.181391  4638 net.cpp:156] Memory required for data: 2099043520
I0810 18:49:16.181397  4638 layer_factory.hpp:77] Creating layer pool_st_3
I0810 18:49:16.181408  4638 net.cpp:91] Creating Layer pool_st_3
I0810 18:49:16.181414  4638 net.cpp:425] pool_st_3 <- conv_st_3_3
I0810 18:49:16.181427  4638 net.cpp:399] pool_st_3 -> pool_st_3
I0810 18:49:16.181490  4638 net.cpp:141] Setting up pool_st_3
I0810 18:49:16.181505  4638 net.cpp:148] Top shape: 20 256 29 29 (4305920)
I0810 18:49:16.181511  4638 net.cpp:156] Memory required for data: 2116267200
I0810 18:49:16.181516  4638 layer_factory.hpp:77] Creating layer conv_st_4_1
I0810 18:49:16.181536  4638 net.cpp:91] Creating Layer conv_st_4_1
I0810 18:49:16.181543  4638 net.cpp:425] conv_st_4_1 <- pool_st_3
I0810 18:49:16.181555  4638 net.cpp:399] conv_st_4_1 -> conv_st_4_1
I0810 18:49:16.192459  4638 net.cpp:141] Setting up conv_st_4_1
I0810 18:49:16.192492  4638 net.cpp:148] Top shape: 20 512 29 29 (8611840)
I0810 18:49:16.192499  4638 net.cpp:156] Memory required for data: 2150714560
I0810 18:49:16.192510  4638 layer_factory.hpp:77] Creating layer relu_st_4_1
I0810 18:49:16.192523  4638 net.cpp:91] Creating Layer relu_st_4_1
I0810 18:49:16.192530  4638 net.cpp:425] relu_st_4_1 <- conv_st_4_1
I0810 18:49:16.192543  4638 net.cpp:386] relu_st_4_1 -> conv_st_4_1 (in-place)
I0810 18:49:16.192839  4638 net.cpp:141] Setting up relu_st_4_1
I0810 18:49:16.192862  4638 net.cpp:148] Top shape: 20 512 29 29 (8611840)
I0810 18:49:16.192867  4638 net.cpp:156] Memory required for data: 2185161920
I0810 18:49:16.192873  4638 layer_factory.hpp:77] Creating layer conv_st_4_2
I0810 18:49:16.192893  4638 net.cpp:91] Creating Layer conv_st_4_2
I0810 18:49:16.192900  4638 net.cpp:425] conv_st_4_2 <- conv_st_4_1
I0810 18:49:16.192914  4638 net.cpp:399] conv_st_4_2 -> conv_st_4_2
I0810 18:49:16.235791  4638 net.cpp:141] Setting up conv_st_4_2
I0810 18:49:16.235836  4638 net.cpp:148] Top shape: 20 512 29 29 (8611840)
I0810 18:49:16.235843  4638 net.cpp:156] Memory required for data: 2219609280
I0810 18:49:16.235870  4638 layer_factory.hpp:77] Creating layer relu_st_4_2
I0810 18:49:16.235887  4638 net.cpp:91] Creating Layer relu_st_4_2
I0810 18:49:16.235894  4638 net.cpp:425] relu_st_4_2 <- conv_st_4_2
I0810 18:49:16.235904  4638 net.cpp:386] relu_st_4_2 -> conv_st_4_2 (in-place)
I0810 18:49:16.236122  4638 net.cpp:141] Setting up relu_st_4_2
I0810 18:49:16.236143  4638 net.cpp:148] Top shape: 20 512 29 29 (8611840)
I0810 18:49:16.236150  4638 net.cpp:156] Memory required for data: 2254056640
I0810 18:49:16.236156  4638 layer_factory.hpp:77] Creating layer conv_st_4_3
I0810 18:49:16.236177  4638 net.cpp:91] Creating Layer conv_st_4_3
I0810 18:49:16.236184  4638 net.cpp:425] conv_st_4_3 <- conv_st_4_2
I0810 18:49:16.236196  4638 net.cpp:399] conv_st_4_3 -> conv_st_4_3
I0810 18:49:16.255736  4638 net.cpp:141] Setting up conv_st_4_3
I0810 18:49:16.255774  4638 net.cpp:148] Top shape: 20 512 29 29 (8611840)
I0810 18:49:16.255781  4638 net.cpp:156] Memory required for data: 2288504000
I0810 18:49:16.255794  4638 layer_factory.hpp:77] Creating layer relu_st_4_3
I0810 18:49:16.255806  4638 net.cpp:91] Creating Layer relu_st_4_3
I0810 18:49:16.255815  4638 net.cpp:425] relu_st_4_3 <- conv_st_4_3
I0810 18:49:16.255828  4638 net.cpp:386] relu_st_4_3 -> conv_st_4_3 (in-place)
I0810 18:49:16.256036  4638 net.cpp:141] Setting up relu_st_4_3
I0810 18:49:16.256053  4638 net.cpp:148] Top shape: 20 512 29 29 (8611840)
I0810 18:49:16.256062  4638 net.cpp:156] Memory required for data: 2322951360
I0810 18:49:16.256099  4638 layer_factory.hpp:77] Creating layer pool_st_4
I0810 18:49:16.256112  4638 net.cpp:91] Creating Layer pool_st_4
I0810 18:49:16.256119  4638 net.cpp:425] pool_st_4 <- conv_st_4_3
I0810 18:49:16.256129  4638 net.cpp:399] pool_st_4 -> pool_st_4
I0810 18:49:16.256192  4638 net.cpp:141] Setting up pool_st_4
I0810 18:49:16.256207  4638 net.cpp:148] Top shape: 20 512 15 15 (2304000)
I0810 18:49:16.256213  4638 net.cpp:156] Memory required for data: 2332167360
I0810 18:49:16.256219  4638 layer_factory.hpp:77] Creating layer conv_st_5_1
I0810 18:49:16.256238  4638 net.cpp:91] Creating Layer conv_st_5_1
I0810 18:49:16.256245  4638 net.cpp:425] conv_st_5_1 <- pool_st_4
I0810 18:49:16.256258  4638 net.cpp:399] conv_st_5_1 -> conv_st_5_1
I0810 18:49:16.276505  4638 net.cpp:141] Setting up conv_st_5_1
I0810 18:49:16.276546  4638 net.cpp:148] Top shape: 20 512 15 15 (2304000)
I0810 18:49:16.276553  4638 net.cpp:156] Memory required for data: 2341383360
I0810 18:49:16.276567  4638 layer_factory.hpp:77] Creating layer relu_st_5_1
I0810 18:49:16.276581  4638 net.cpp:91] Creating Layer relu_st_5_1
I0810 18:49:16.276588  4638 net.cpp:425] relu_st_5_1 <- conv_st_5_1
I0810 18:49:16.276599  4638 net.cpp:386] relu_st_5_1 -> conv_st_5_1 (in-place)
I0810 18:49:16.276952  4638 net.cpp:141] Setting up relu_st_5_1
I0810 18:49:16.276975  4638 net.cpp:148] Top shape: 20 512 15 15 (2304000)
I0810 18:49:16.276983  4638 net.cpp:156] Memory required for data: 2350599360
I0810 18:49:16.276988  4638 layer_factory.hpp:77] Creating layer conv_st_5_2
I0810 18:49:16.277009  4638 net.cpp:91] Creating Layer conv_st_5_2
I0810 18:49:16.277017  4638 net.cpp:425] conv_st_5_2 <- conv_st_5_1
I0810 18:49:16.277029  4638 net.cpp:399] conv_st_5_2 -> conv_st_5_2
I0810 18:49:16.296561  4638 net.cpp:141] Setting up conv_st_5_2
I0810 18:49:16.296598  4638 net.cpp:148] Top shape: 20 512 15 15 (2304000)
I0810 18:49:16.296605  4638 net.cpp:156] Memory required for data: 2359815360
I0810 18:49:16.296617  4638 layer_factory.hpp:77] Creating layer relu_st_5_2
I0810 18:49:16.296630  4638 net.cpp:91] Creating Layer relu_st_5_2
I0810 18:49:16.296638  4638 net.cpp:425] relu_st_5_2 <- conv_st_5_2
I0810 18:49:16.296653  4638 net.cpp:386] relu_st_5_2 -> conv_st_5_2 (in-place)
I0810 18:49:16.296862  4638 net.cpp:141] Setting up relu_st_5_2
I0810 18:49:16.296882  4638 net.cpp:148] Top shape: 20 512 15 15 (2304000)
I0810 18:49:16.296890  4638 net.cpp:156] Memory required for data: 2369031360
I0810 18:49:16.296895  4638 layer_factory.hpp:77] Creating layer conv_st_5_3
I0810 18:49:16.296914  4638 net.cpp:91] Creating Layer conv_st_5_3
I0810 18:49:16.296922  4638 net.cpp:425] conv_st_5_3 <- conv_st_5_2
I0810 18:49:16.296933  4638 net.cpp:399] conv_st_5_3 -> conv_st_5_3
I0810 18:49:16.316619  4638 net.cpp:141] Setting up conv_st_5_3
I0810 18:49:16.316654  4638 net.cpp:148] Top shape: 20 512 15 15 (2304000)
I0810 18:49:16.316663  4638 net.cpp:156] Memory required for data: 2378247360
I0810 18:49:16.316678  4638 layer_factory.hpp:77] Creating layer relu_st_5_3
I0810 18:49:16.316692  4638 net.cpp:91] Creating Layer relu_st_5_3
I0810 18:49:16.316700  4638 net.cpp:425] relu_st_5_3 <- conv_st_5_3
I0810 18:49:16.316709  4638 net.cpp:386] relu_st_5_3 -> conv_st_5_3 (in-place)
I0810 18:49:16.316931  4638 net.cpp:141] Setting up relu_st_5_3
I0810 18:49:16.316951  4638 net.cpp:148] Top shape: 20 512 15 15 (2304000)
I0810 18:49:16.316956  4638 net.cpp:156] Memory required for data: 2387463360
I0810 18:49:16.316963  4638 layer_factory.hpp:77] Creating layer pool_st_5
I0810 18:49:16.316975  4638 net.cpp:91] Creating Layer pool_st_5
I0810 18:49:16.316982  4638 net.cpp:425] pool_st_5 <- conv_st_5_3
I0810 18:49:16.316994  4638 net.cpp:399] pool_st_5 -> pool_st_5
I0810 18:49:16.317059  4638 net.cpp:141] Setting up pool_st_5
I0810 18:49:16.317082  4638 net.cpp:148] Top shape: 20 512 8 8 (655360)
I0810 18:49:16.317088  4638 net.cpp:156] Memory required for data: 2390084800
I0810 18:49:16.317095  4638 layer_factory.hpp:77] Creating layer fc_st_6
I0810 18:49:16.317116  4638 net.cpp:91] Creating Layer fc_st_6
I0810 18:49:16.317143  4638 net.cpp:425] fc_st_6 <- pool_st_5
I0810 18:49:16.317157  4638 net.cpp:399] fc_st_6 -> fc_st_6
I0810 18:49:17.497516  4638 net.cpp:141] Setting up fc_st_6
I0810 18:49:17.497557  4638 net.cpp:148] Top shape: 20 4096 (81920)
I0810 18:49:17.497562  4638 net.cpp:156] Memory required for data: 2390412480
I0810 18:49:17.497573  4638 layer_factory.hpp:77] Creating layer relu_st_6
I0810 18:49:17.497589  4638 net.cpp:91] Creating Layer relu_st_6
I0810 18:49:17.497594  4638 net.cpp:425] relu_st_6 <- fc_st_6
I0810 18:49:17.497601  4638 net.cpp:386] relu_st_6 -> fc_st_6 (in-place)
I0810 18:49:17.498049  4638 net.cpp:141] Setting up relu_st_6
I0810 18:49:17.498071  4638 net.cpp:148] Top shape: 20 4096 (81920)
I0810 18:49:17.498075  4638 net.cpp:156] Memory required for data: 2390740160
I0810 18:49:17.498080  4638 layer_factory.hpp:77] Creating layer fc_st_7
I0810 18:49:17.498090  4638 net.cpp:91] Creating Layer fc_st_7
I0810 18:49:17.498093  4638 net.cpp:425] fc_st_7 <- fc_st_6
I0810 18:49:17.498100  4638 net.cpp:399] fc_st_7 -> fc_st_7
I0810 18:49:17.634594  4638 net.cpp:141] Setting up fc_st_7
I0810 18:49:17.634636  4638 net.cpp:148] Top shape: 20 4096 (81920)
I0810 18:49:17.634641  4638 net.cpp:156] Memory required for data: 2391067840
I0810 18:49:17.634654  4638 layer_factory.hpp:77] Creating layer relu_st_7
I0810 18:49:17.634667  4638 net.cpp:91] Creating Layer relu_st_7
I0810 18:49:17.634673  4638 net.cpp:425] relu_st_7 <- fc_st_7
I0810 18:49:17.634680  4638 net.cpp:386] relu_st_7 -> fc_st_7 (in-place)
I0810 18:49:17.635134  4638 net.cpp:141] Setting up relu_st_7
I0810 18:49:17.635154  4638 net.cpp:148] Top shape: 20 4096 (81920)
I0810 18:49:17.635159  4638 net.cpp:156] Memory required for data: 2391395520
I0810 18:49:17.635164  4638 layer_factory.hpp:77] Creating layer fc_st_8
I0810 18:49:17.635175  4638 net.cpp:91] Creating Layer fc_st_8
I0810 18:49:17.635179  4638 net.cpp:425] fc_st_8 <- fc_st_7
I0810 18:49:17.635187  4638 net.cpp:399] fc_st_8 -> fc_st_8
I0810 18:49:17.667492  4638 net.cpp:141] Setting up fc_st_8
I0810 18:49:17.667531  4638 net.cpp:148] Top shape: 20 1000 (20000)
I0810 18:49:17.667536  4638 net.cpp:156] Memory required for data: 2391475520
I0810 18:49:17.667547  4638 layer_factory.hpp:77] Creating layer loss
I0810 18:49:17.667564  4638 net.cpp:91] Creating Layer loss
I0810 18:49:17.667570  4638 net.cpp:425] loss <- fc_st_8
I0810 18:49:17.667577  4638 net.cpp:425] loss <- label
I0810 18:49:17.667585  4638 net.cpp:399] loss -> loss
I0810 18:49:17.667615  4638 layer_factory.hpp:77] Creating layer loss
…
I0810 18:49:17.669476  4638 net.cpp:313] The NetState phase (1) differed from the phase (0) specified by a rule in layer data
I0810 18:49:17.669749  4638 net.cpp:49] Initializing net from parameters: 
name: "AlexNet-Teacher VGG16-Student"
state {
  phase: TEST
}
layer {
  name: "data"
  type: "Data"
  top: "data"
  top: "label"
  include {
    phase: TEST
  }
  transform_param {
    mirror: true
    crop_size: 227
    mean_file: "/home/ubuntu/caffe/data/ilsvrc12/imagenet_mean.binaryproto"
  }
  data_param {
    source: "/home/ubuntu/caffe/examples/imagenet/ilsvrc12_val_lmdb"
    batch_size: 75
    backend: LMDB
  }
}
layer {
  name: "conv_st_1_1"
  type: "Convolution"
  bottom: "data"
  top: "conv_st_1_1"
  convolution_param {
    num_output: 64
    pad: 1
    kernel_size: 3
    weight_filler {
      type: "xavier"
    }
    bias_filler {
      type: "constant"
      value: 0
    }
  }
}
layer {
  name: "relu_st_1_1"
  type: "ReLU"
  bottom: "conv_st_1_1"
  top: "conv_st_1_1"
}
layer {
  name: "conv_st_1_2"
  type: "Convolution"
  bottom: "conv_st_1_1"
  top: "conv_st_1_2"
  convolution_param {
    num_output: 64
    pad: 1
    kernel_size: 3
    weight_filler {
      type: "xavier"
    }
    bias_filler {
      type: "constant"
      value: 0
    }
  }
}
layer {
  name: "relu_st_1_2"
  type: "ReLU"
  bottom: "conv_st_1_2"
  top: "conv_st_1_2"
}
layer {
  name: "pool_st_1"
  type: "Pooling"
  bottom: "conv_st_1_2"
  top: "pool_st_1"
  pooling_param {
    pool: MAX
    kernel_size: 2
    stride: 2
  }
}
layer {
  name: "conv_st_2_1"
  type: "Convolution"
  bottom: "pool_st_1"
  top: "conv_st_2_1"
  convolution_param {
    num_output: 128
    pad: 1
    kernel_size: 3
    weight_filler {
      type: "xavier"
    }
    bias_filler {
      type: "constant"
      value: 0
    }
  }
}
layer {
  name: "relu_st_2_1"
  type: "ReLU"
  bottom: "conv_st_2_1"
  top: "conv_st_2_1"
}
layer {
  name: "conv_st_2_2"
  type: "Convolution"
  bottom: "conv_st_2_1"
  top: "conv_st_2_2"
  convolution_param {
    num_output: 128
    pad: 1
    kernel_size: 3
    weight_filler {
      type: "xavier"
    }
    bias_filler {
      type: "constant"
      value: 0
    }
  }
}
layer {
  name: "relu_st_2_2"
  type: "ReLU"
  bottom: "conv_st_2_2"
  top: "conv_st_2_2"
}
layer {
  name: "pool_st_2"
  type: "Pooling"
  bottom: "conv_st_2_2"
  top: "pool_st_2"
  pooling_param {
    pool: MAX
    kernel_size: 2
    stride: 2
  }
}
layer {
  name: "conv_st_3_1"
  type: "Convolution"
  bottom: "pool_st_2"
  top: "conv_st_3_1"
  convolution_param {
    num_output: 256
    pad: 1
    kernel_size: 3
    weight_filler {
      type: "xavier"
    }
    bias_filler {
      type: "constant"
      value: 0
    }
  }
}
layer {
  name: "relu_st_3_1"
  type: "ReLU"
  bottom: "conv_st_3_1"
  top: "conv_st_3_1"
}
layer {
  name: "conv_st_3_2"
  type: "Convolution"
  bottom: "conv_st_3_1"
  top: "conv_st_3_2"
  convolution_param {
    num_output: 256
    pad: 1
    kernel_size: 3
    weight_filler {
      type: "xavier"
    }
    bias_filler {
      type: "constant"
      value: 0
    }
  }
}
layer {
  name: "relu_st_3_2"
  type: "ReLU"
  bottom: "conv_st_3_2"
  top: "conv_st_3_2"
}
layer {
  name: "conv_st_3_3"
  type: "Convolution"
  bottom: "conv_st_3_2"
  top: "conv_st_3_3"
  convolution_param {
    num_output: 256
    pad: 1
    kernel_size: 3
    weight_filler {
      type: "xavier"
    }
    bias_filler {
      type: "constant"
      value: 0
    }
  }
}
layer {
  name: "relu_st_3_3"
  type: "ReLU"
  bottom: "conv_st_3_3"
  top: "conv_st_3_3"
}
layer {
  name: "pool_st_3"
  type: "Pooling"
  bottom: "conv_st_3_3"
  top: "pool_st_3"
  pooling_param {
    pool: MAX
    kernel_size: 2
    stride: 2
  }
}
layer {
  name: "conv_st_4_1"
  type: "Convolution"
  bottom: "pool_st_3"
  top: "conv_st_4_1"
  convolution_param {
    num_output: 512
    pad: 1
    kernel_size: 3
    weight_filler {
      type: "xavier"
    }
    bias_filler {
      type: "constant"
      value: 0
    }
  }
}
layer {
  name: "relu_st_4_1"
  type: "ReLU"
  bottom: "conv_st_4_1"
  top: "conv_st_4_1"
}
layer {
  name: "conv_st_4_2"
  type: "Convolution"
  bottom: "conv_st_4_1"
  top: "conv_st_4_2"
  convolution_param {
    num_output: 512
    pad: 1
    kernel_size: 3
    weight_filler {
      type: "xavier"
    }
    bias_filler {
      type: "constant"
      value: 0
    }
  }
}
layer {
  name: "relu_st_4_2"
  type: "ReLU"
  bottom: "conv_st_4_2"
  top: "conv_st_4_2"
}
layer {
  name: "conv_st_4_3"
  type: "Convolution"
  bottom: "conv_st_4_2"
  top: "conv_st_4_3"
  convolution_param {
    num_output: 512
    pad: 1
    kernel_size: 3
    weight_filler {
      type: "xavier"
    }
    bias_filler {
      type: "constant"
      value: 0
    }
  }
}
layer {
  name: "relu_st_4_3"
  type: "ReLU"
  bottom: "conv_st_4_3"
  top: "conv_st_4_3"
}
layer {
  name: "pool_st_4"
  type: "Pooling"
  bottom: "conv_st_4_3"
  top: "pool_st_4"
  pooling_param {
    pool: MAX
    kernel_size: 2
    stride: 2
  }
}
layer {
  name: "conv_st_5_1"
  type: "Convolution"
  bottom: "pool_st_4"
  top: "conv_st_5_1"
  convolution_param {
    num_output: 512
    pad: 1
    kernel_size: 3
    weight_filler {
      type: "xavier"
    }
    bias_filler {
      type: "constant"
      value: 0
    }
  }
}
layer {
  name: "relu_st_5_1"
  type: "ReLU"
  bottom: "conv_st_5_1"
  top: "conv_st_5_1"
}
layer {
  name: "conv_st_5_2"
  type: "Convolution"
  bottom: "conv_st_5_1"
  top: "conv_st_5_2"
  convolution_param {
    num_output: 512
    pad: 1
    kernel_size: 3
    weight_filler {
      type: "xavier"
    }
    bias_filler {
      type: "constant"
      value: 0
    }
  }
}
layer {
  name: "relu_st_5_2"
  type: "ReLU"
  bottom: "conv_st_5_2"
  top: "conv_st_5_2"
}
layer {
  name: "conv_st_5_3"
  type: "Convolution"
  bottom: "conv_st_5_2"
  top: "conv_st_5_3"
  convolution_param {
    num_output: 512
    pad: 1
    kernel_size: 3
    weight_filler {
      type: "xavier"
    }
    bias_filler {
      type: "constant"
      value: 0
    }
  }
}
layer {
  name: "relu_st_5_3"
  type: "ReLU"
  bottom: "conv_st_5_3"
  top: "conv_st_5_3"
}
layer {
  name: "pool_st_5"
  type: "Pooling"
  bottom: "conv_st_5_3"
  top: "pool_st_5"
  pooling_param {
    pool: MAX
    kernel_size: 2
    stride: 2
  }
}
layer {
  name: "fc_st_6"
  type: "InnerProduct"
  bottom: "pool_st_5"
  top: "fc_st_6"
  inner_product_param {
    num_output: 4096
    weight_filler {
      type: "xavier"
    }
    bias_filler {
      type: "constant"
      value: 0
    }
  }
}
layer {
  name: "relu_st_6"
  type: "ReLU"
  bottom: "fc_st_6"
  top: "fc_st_6"
}
layer {
  name: "fc_st_7"
  type: "InnerProduct"
  bottom: "fc_st_6"
  top: "fc_st_7"
  inner_product_param {
    num_output: 4096
    weight_filler {
      type: "xavier"
    }
    bias_filler {
      type: "constant"
      value: 0
    }
  }
}
layer {
  name: "relu_st_7"
  type: "ReLU"
  bottom: "fc_st_7"
  top: "fc_st_7"
}
layer {
  name: "fc_st_8"
  type: "InnerProduct"
  bottom: "fc_st_7"
  top: "fc_st_8"
  inner_product_param {
    num_output: 1000
    weight_filler {
      type: "xavier"
    }
    bias_filler {
      type: "constant"
      value: 0
    }
  }
}
layer {
  name: "loss"
  type: "SoftmaxWithLoss"
  bottom: "fc_st_8"
  bottom: "label"
  top: "loss"
}
layer {
  name: "accuracy/top1"
  type: "Accuracy"
  bottom: "fc_st_8"
  bottom: "label"
  top: "accuracy@1"
  include {
    phase: TEST
  }
  accuracy_param {
    top_k: 1
  }
}
layer {
  name: "accuracy/top5"
  type: "Accuracy"
  bottom: "fc_st_8"
  bottom: "label"
  top: "accuracy@5"
  include {
    phase: TEST
  }
  accuracy_param {
    top_k: 5
  }
}
I0810 18:49:17.670071  4638 layer_factory.hpp:77] Creating layer data
I0810 18:49:17.670243  4638 net.cpp:91] Creating Layer data
I0810 18:49:17.670256  4638 net.cpp:399] data -> data
I0810 18:49:17.670271  4638 net.cpp:399] data -> label
I0810 18:49:17.670284  4638 data_transformer.cpp:25] Loading mean file from: /home/ubuntu/caffe/data/ilsvrc12/imagenet_mean.binaryproto
I0810 18:49:17.671468  4643 db_lmdb.cpp:35] Opened lmdb /home/ubuntu/caffe/examples/imagenet/ilsvrc12_val_lmdb
I0810 18:49:17.673955  4638 data_layer.cpp:41] output data size: 75,3,227,227
I0810 18:49:17.814193  4638 net.cpp:141] Setting up data
I0810 18:49:17.814231  4638 net.cpp:148] Top shape: 75 3 227 227 (11594025)
I0810 18:49:17.814241  4638 net.cpp:148] Top shape: 75 (75)
I0810 18:49:17.814246  4638 net.cpp:156] Memory required for data: 46376400
I0810 18:49:17.814255  4638 layer_factory.hpp:77] Creating layer label_data_1_split
I0810 18:49:17.814283  4638 net.cpp:91] Creating Layer label_data_1_split
I0810 18:49:17.814291  4638 net.cpp:425] label_data_1_split <- label
I0810 18:49:17.814303  4638 net.cpp:399] label_data_1_split -> label_data_1_split_0
I0810 18:49:17.814321  4638 net.cpp:399] label_data_1_split -> label_data_1_split_1
I0810 18:49:17.814332  4638 net.cpp:399] label_data_1_split -> label_data_1_split_2
I0810 18:49:17.814455  4638 net.cpp:141] Setting up label_data_1_split
I0810 18:49:17.814471  4638 net.cpp:148] Top shape: 75 (75)
I0810 18:49:17.814479  4638 net.cpp:148] Top shape: 75 (75)
I0810 18:49:17.814486  4638 net.cpp:148] Top shape: 75 (75)
I0810 18:49:17.814492  4638 net.cpp:156] Memory required for data: 46377300
I0810 18:49:17.814498  4638 layer_factory.hpp:77] Creating layer conv_st_1_1
I0810 18:49:17.814520  4638 net.cpp:91] Creating Layer conv_st_1_1
I0810 18:49:17.814529  4638 net.cpp:425] conv_st_1_1 <- data
I0810 18:49:17.814540  4638 net.cpp:399] conv_st_1_1 -> conv_st_1_1
I0810 18:49:17.815896  4638 net.cpp:141] Setting up conv_st_1_1
I0810 18:49:17.815917  4638 net.cpp:148] Top shape: 75 64 227 227 (247339200)
I0810 18:49:17.815923  4638 net.cpp:156] Memory required for data: 1035734100
I0810 18:49:17.815943  4638 layer_factory.hpp:77] Creating layer relu_st_1_1
I0810 18:49:17.815956  4638 net.cpp:91] Creating Layer relu_st_1_1
I0810 18:49:17.815964  4638 net.cpp:425] relu_st_1_1 <- conv_st_1_1
I0810 18:49:17.815974  4638 net.cpp:386] relu_st_1_1 -> conv_st_1_1 (in-place)
I0810 18:49:17.821949  4638 net.cpp:141] Setting up relu_st_1_1
I0810 18:49:17.821969  4638 net.cpp:148] Top shape: 75 64 227 227 (247339200)
I0810 18:49:17.822000  4638 net.cpp:156] Memory required for data: 2025090900
I0810 18:49:17.822008  4638 layer_factory.hpp:77] Creating layer conv_st_1_2
I0810 18:49:17.822028  4638 net.cpp:91] Creating Layer conv_st_1_2
I0810 18:49:17.822039  4638 net.cpp:425] conv_st_1_2 <- conv_st_1_1
I0810 18:49:17.822053  4638 net.cpp:399] conv_st_1_2 -> conv_st_1_2
I0810 18:49:17.824113  4638 net.cpp:141] Setting up conv_st_1_2
I0810 18:49:17.824137  4638 net.cpp:148] Top shape: 75 64 227 227 (247339200)
I0810 18:49:17.824144  4638 net.cpp:156] Memory required for data: 3014447700
I0810 18:49:17.824160  4638 layer_factory.hpp:77] Creating layer relu_st_1_2
I0810 18:49:17.824172  4638 net.cpp:91] Creating Layer relu_st_1_2
I0810 18:49:17.824179  4638 net.cpp:425] relu_st_1_2 <- conv_st_1_2
I0810 18:49:17.824189  4638 net.cpp:386] relu_st_1_2 -> conv_st_1_2 (in-place)
I0810 18:49:17.824492  4638 net.cpp:141] Setting up relu_st_1_2
I0810 18:49:17.824513  4638 net.cpp:148] Top shape: 75 64 227 227 (247339200)
I0810 18:49:17.824520  4638 net.cpp:156] Memory required for data: 4003804500
I0810 18:49:17.824527  4638 layer_factory.hpp:77] Creating layer pool_st_1
I0810 18:49:17.824538  4638 net.cpp:91] Creating Layer pool_st_1
I0810 18:49:17.824545  4638 net.cpp:425] pool_st_1 <- conv_st_1_2
I0810 18:49:17.824555  4638 net.cpp:399] pool_st_1 -> pool_st_1
I0810 18:49:17.824622  4638 net.cpp:141] Setting up pool_st_1
I0810 18:49:17.824638  4638 net.cpp:148] Top shape: 75 64 114 114 (62380800)
I0810 18:49:17.824645  4638 net.cpp:156] Memory required for data: 4253327700
I0810 18:49:17.824651  4638 layer_factory.hpp:77] Creating layer conv_st_2_1
I0810 18:49:17.824666  4638 net.cpp:91] Creating Layer conv_st_2_1
I0810 18:49:17.824672  4638 net.cpp:425] conv_st_2_1 <- pool_st_1
I0810 18:49:17.824684  4638 net.cpp:399] conv_st_2_1 -> conv_st_2_1
I0810 18:49:17.826851  4638 net.cpp:141] Setting up conv_st_2_1
I0810 18:49:17.826877  4638 net.cpp:148] Top shape: 75 128 114 114 (124761600)
I0810 18:49:17.826884  4638 net.cpp:156] Memory required for data: 4752374100
I0810 18:49:17.826900  4638 layer_factory.hpp:77] Creating layer relu_st_2_1
I0810 18:49:17.826915  4638 net.cpp:91] Creating Layer relu_st_2_1
I0810 18:49:17.826921  4638 net.cpp:425] relu_st_2_1 <- conv_st_2_1
I0810 18:49:17.826932  4638 net.cpp:386] relu_st_2_1 -> conv_st_2_1 (in-place)
I0810 18:49:17.827145  4638 net.cpp:141] Setting up relu_st_2_1
I0810 18:49:17.827165  4638 net.cpp:148] Top shape: 75 128 114 114 (124761600)
I0810 18:49:17.827172  4638 net.cpp:156] Memory required for data: 5251420500
I0810 18:49:17.827178  4638 layer_factory.hpp:77] Creating layer conv_st_2_2
I0810 18:49:17.827194  4638 net.cpp:91] Creating Layer conv_st_2_2
I0810 18:49:17.827201  4638 net.cpp:425] conv_st_2_2 <- conv_st_2_1
I0810 18:49:17.827214  4638 net.cpp:399] conv_st_2_2 -> conv_st_2_2
I0810 18:49:17.829058  4638 net.cpp:141] Setting up conv_st_2_2
I0810 18:49:17.829082  4638 net.cpp:148] Top shape: 75 128 114 114 (124761600)
I0810 18:49:17.829088  4638 net.cpp:156] Memory required for data: 5750466900
I0810 18:49:17.829100  4638 layer_factory.hpp:77] Creating layer relu_st_2_2
I0810 18:49:17.829111  4638 net.cpp:91] Creating Layer relu_st_2_2
I0810 18:49:17.829118  4638 net.cpp:425] relu_st_2_2 <- conv_st_2_2
I0810 18:49:17.829128  4638 net.cpp:386] relu_st_2_2 -> conv_st_2_2 (in-place)
I0810 18:49:17.829358  4638 net.cpp:141] Setting up relu_st_2_2
I0810 18:49:17.829377  4638 net.cpp:148] Top shape: 75 128 114 114 (124761600)
I0810 18:49:17.829383  4638 net.cpp:156] Memory required for data: 6249513300
I0810 18:49:17.829390  4638 layer_factory.hpp:77] Creating layer pool_st_2
I0810 18:49:17.829401  4638 net.cpp:91] Creating Layer pool_st_2
I0810 18:49:17.829407  4638 net.cpp:425] pool_st_2 <- conv_st_2_2
I0810 18:49:17.829418  4638 net.cpp:399] pool_st_2 -> pool_st_2
I0810 18:49:17.829484  4638 net.cpp:141] Setting up pool_st_2
I0810 18:49:17.829499  4638 net.cpp:148] Top shape: 75 128 57 57 (31190400)
I0810 18:49:17.829505  4638 net.cpp:156] Memory required for data: 6374274900
I0810 18:49:17.829530  4638 layer_factory.hpp:77] Creating layer conv_st_3_1
I0810 18:49:17.829547  4638 net.cpp:91] Creating Layer conv_st_3_1
I0810 18:49:17.829555  4638 net.cpp:425] conv_st_3_1 <- pool_st_2
I0810 18:49:17.829566  4638 net.cpp:399] conv_st_3_1 -> conv_st_3_1
I0810 18:49:17.832953  4638 net.cpp:141] Setting up conv_st_3_1
I0810 18:49:17.832978  4638 net.cpp:148] Top shape: 75 256 57 57 (62380800)
I0810 18:49:17.832984  4638 net.cpp:156] Memory required for data: 6623798100
I0810 18:49:17.833001  4638 layer_factory.hpp:77] Creating layer relu_st_3_1
I0810 18:49:17.833014  4638 net.cpp:91] Creating Layer relu_st_3_1
I0810 18:49:17.833020  4638 net.cpp:425] relu_st_3_1 <- conv_st_3_1
I0810 18:49:17.833030  4638 net.cpp:386] relu_st_3_1 -> conv_st_3_1 (in-place)
I0810 18:49:17.833350  4638 net.cpp:141] Setting up relu_st_3_1
I0810 18:49:17.833372  4638 net.cpp:148] Top shape: 75 256 57 57 (62380800)
I0810 18:49:17.833379  4638 net.cpp:156] Memory required for data: 6873321300
I0810 18:49:17.833385  4638 layer_factory.hpp:77] Creating layer conv_st_3_2
I0810 18:49:17.833401  4638 net.cpp:91] Creating Layer conv_st_3_2
I0810 18:49:17.833410  4638 net.cpp:425] conv_st_3_2 <- conv_st_3_1
I0810 18:49:17.833422  4638 net.cpp:399] conv_st_3_2 -> conv_st_3_2
I0810 18:49:17.862112  4638 net.cpp:141] Setting up conv_st_3_2
I0810 18:49:17.862149  4638 net.cpp:148] Top shape: 75 256 57 57 (62380800)
I0810 18:49:17.862157  4638 net.cpp:156] Memory required for data: 7122844500
I0810 18:49:17.862169  4638 layer_factory.hpp:77] Creating layer relu_st_3_2
I0810 18:49:17.862185  4638 net.cpp:91] Creating Layer relu_st_3_2
I0810 18:49:17.862193  4638 net.cpp:425] relu_st_3_2 <- conv_st_3_2
I0810 18:49:17.862205  4638 net.cpp:386] relu_st_3_2 -> conv_st_3_2 (in-place)
I0810 18:49:17.862542  4638 net.cpp:141] Setting up relu_st_3_2
I0810 18:49:17.862563  4638 net.cpp:148] Top shape: 75 256 57 57 (62380800)
I0810 18:49:17.862571  4638 net.cpp:156] Memory required for data: 7372367700
I0810 18:49:17.862576  4638 layer_factory.hpp:77] Creating layer conv_st_3_3
I0810 18:49:17.862601  4638 net.cpp:91] Creating Layer conv_st_3_3
I0810 18:49:17.862608  4638 net.cpp:425] conv_st_3_3 <- conv_st_3_2
I0810 18:49:17.862622  4638 net.cpp:399] conv_st_3_3 -> conv_st_3_3
I0810 18:49:17.868429  4638 net.cpp:141] Setting up conv_st_3_3
I0810 18:49:17.868458  4638 net.cpp:148] Top shape: 75 256 57 57 (62380800)
I0810 18:49:17.868465  4638 net.cpp:156] Memory required for data: 7621890900
I0810 18:49:17.868476  4638 layer_factory.hpp:77] Creating layer relu_st_3_3
I0810 18:49:17.868489  4638 net.cpp:91] Creating Layer relu_st_3_3
I0810 18:49:17.868496  4638 net.cpp:425] relu_st_3_3 <- conv_st_3_3
I0810 18:49:17.868507  4638 net.cpp:386] relu_st_3_3 -> conv_st_3_3 (in-place)
I0810 18:49:17.868728  4638 net.cpp:141] Setting up relu_st_3_3
I0810 18:49:17.868749  4638 net.cpp:148] Top shape: 75 256 57 57 (62380800)
I0810 18:49:17.868755  4638 net.cpp:156] Memory required for data: 7871414100
I0810 18:49:17.868762  4638 layer_factory.hpp:77] Creating layer pool_st_3
I0810 18:49:17.868774  4638 net.cpp:91] Creating Layer pool_st_3
I0810 18:49:17.868782  4638 net.cpp:425] pool_st_3 <- conv_st_3_3
I0810 18:49:17.868793  4638 net.cpp:399] pool_st_3 -> pool_st_3
I0810 18:49:17.868861  4638 net.cpp:141] Setting up pool_st_3
I0810 18:49:17.868877  4638 net.cpp:148] Top shape: 75 256 29 29 (16147200)
I0810 18:49:17.868883  4638 net.cpp:156] Memory required for data: 7936002900
I0810 18:49:17.868890  4638 layer_factory.hpp:77] Creating layer conv_st_4_1
I0810 18:49:17.868906  4638 net.cpp:91] Creating Layer conv_st_4_1
I0810 18:49:17.868912  4638 net.cpp:425] conv_st_4_1 <- pool_st_3
I0810 18:49:17.868924  4638 net.cpp:399] conv_st_4_1 -> conv_st_4_1
I0810 18:49:17.879459  4638 net.cpp:141] Setting up conv_st_4_1
I0810 18:49:17.879498  4638 net.cpp:148] Top shape: 75 512 29 29 (32294400)
I0810 18:49:17.879504  4638 net.cpp:156] Memory required for data: 8065180500
I0810 18:49:17.879516  4638 layer_factory.hpp:77] Creating layer relu_st_4_1
I0810 18:49:17.879564  4638 net.cpp:91] Creating Layer relu_st_4_1
I0810 18:49:17.879572  4638 net.cpp:425] relu_st_4_1 <- conv_st_4_1
I0810 18:49:17.879585  4638 net.cpp:386] relu_st_4_1 -> conv_st_4_1 (in-place)
I0810 18:49:17.879899  4638 net.cpp:141] Setting up relu_st_4_1
I0810 18:49:17.879922  4638 net.cpp:148] Top shape: 75 512 29 29 (32294400)
I0810 18:49:17.879928  4638 net.cpp:156] Memory required for data: 8194358100
I0810 18:49:17.879935  4638 layer_factory.hpp:77] Creating layer conv_st_4_2
I0810 18:49:17.879954  4638 net.cpp:91] Creating Layer conv_st_4_2
I0810 18:49:17.879961  4638 net.cpp:425] conv_st_4_2 <- conv_st_4_1
I0810 18:49:17.879974  4638 net.cpp:399] conv_st_4_2 -> conv_st_4_2
I0810 18:49:17.900058  4638 net.cpp:141] Setting up conv_st_4_2
I0810 18:49:17.900104  4638 net.cpp:148] Top shape: 75 512 29 29 (32294400)
I0810 18:49:17.900111  4638 net.cpp:156] Memory required for data: 8323535700
I0810 18:49:17.900135  4638 layer_factory.hpp:77] Creating layer relu_st_4_2
I0810 18:49:17.900151  4638 net.cpp:91] Creating Layer relu_st_4_2
I0810 18:49:17.900161  4638 net.cpp:425] relu_st_4_2 <- conv_st_4_2
I0810 18:49:17.900171  4638 net.cpp:386] relu_st_4_2 -> conv_st_4_2 (in-place)
I0810 18:49:17.900398  4638 net.cpp:141] Setting up relu_st_4_2
I0810 18:49:17.900418  4638 net.cpp:148] Top shape: 75 512 29 29 (32294400)
I0810 18:49:17.900424  4638 net.cpp:156] Memory required for data: 8452713300
I0810 18:49:17.900429  4638 layer_factory.hpp:77] Creating layer conv_st_4_3
I0810 18:49:17.900449  4638 net.cpp:91] Creating Layer conv_st_4_3
I0810 18:49:17.900456  4638 net.cpp:425] conv_st_4_3 <- conv_st_4_2
I0810 18:49:17.900468  4638 net.cpp:399] conv_st_4_3 -> conv_st_4_3
I0810 18:49:17.920572  4638 net.cpp:141] Setting up conv_st_4_3
I0810 18:49:17.920608  4638 net.cpp:148] Top shape: 75 512 29 29 (32294400)
I0810 18:49:17.920616  4638 net.cpp:156] Memory required for data: 8581890900
I0810 18:49:17.920629  4638 layer_factory.hpp:77] Creating layer relu_st_4_3
I0810 18:49:17.920644  4638 net.cpp:91] Creating Layer relu_st_4_3
I0810 18:49:17.920652  4638 net.cpp:425] relu_st_4_3 <- conv_st_4_3
I0810 18:49:17.920666  4638 net.cpp:386] relu_st_4_3 -> conv_st_4_3 (in-place)
I0810 18:49:17.920897  4638 net.cpp:141] Setting up relu_st_4_3
I0810 18:49:17.920948  4638 net.cpp:148] Top shape: 75 512 29 29 (32294400)
I0810 18:49:17.920961  4638 net.cpp:156] Memory required for data: 8711068500
I0810 18:49:17.920969  4638 layer_factory.hpp:77] Creating layer pool_st_4
I0810 18:49:17.920984  4638 net.cpp:91] Creating Layer pool_st_4
I0810 18:49:17.920990  4638 net.cpp:425] pool_st_4 <- conv_st_4_3
I0810 18:49:17.921001  4638 net.cpp:399] pool_st_4 -> pool_st_4
I0810 18:49:17.921089  4638 net.cpp:141] Setting up pool_st_4
I0810 18:49:17.921105  4638 net.cpp:148] Top shape: 75 512 15 15 (8640000)
I0810 18:49:17.921113  4638 net.cpp:156] Memory required for data: 8745628500
I0810 18:49:17.921118  4638 layer_factory.hpp:77] Creating layer conv_st_5_1
I0810 18:49:17.921136  4638 net.cpp:91] Creating Layer conv_st_5_1
I0810 18:49:17.921144  4638 net.cpp:425] conv_st_5_1 <- pool_st_4
I0810 18:49:17.921157  4638 net.cpp:399] conv_st_5_1 -> conv_st_5_1
I0810 18:49:17.940991  4638 net.cpp:141] Setting up conv_st_5_1
I0810 18:49:17.941030  4638 net.cpp:148] Top shape: 75 512 15 15 (8640000)
I0810 18:49:17.941037  4638 net.cpp:156] Memory required for data: 8780188500
I0810 18:49:17.941049  4638 layer_factory.hpp:77] Creating layer relu_st_5_1
I0810 18:49:17.941069  4638 net.cpp:91] Creating Layer relu_st_5_1
I0810 18:49:17.941079  4638 net.cpp:425] relu_st_5_1 <- conv_st_5_1
I0810 18:49:17.941090  4638 net.cpp:386] relu_st_5_1 -> conv_st_5_1 (in-place)
I0810 18:49:17.941459  4638 net.cpp:141] Setting up relu_st_5_1
I0810 18:49:17.941481  4638 net.cpp:148] Top shape: 75 512 15 15 (8640000)
I0810 18:49:17.941488  4638 net.cpp:156] Memory required for data: 8814748500
I0810 18:49:17.941494  4638 layer_factory.hpp:77] Creating layer conv_st_5_2
I0810 18:49:17.941519  4638 net.cpp:91] Creating Layer conv_st_5_2
I0810 18:49:17.941551  4638 net.cpp:425] conv_st_5_2 <- conv_st_5_1
I0810 18:49:17.941565  4638 net.cpp:399] conv_st_5_2 -> conv_st_5_2
I0810 18:49:17.961606  4638 net.cpp:141] Setting up conv_st_5_2
I0810 18:49:17.961647  4638 net.cpp:148] Top shape: 75 512 15 15 (8640000)
I0810 18:49:17.961655  4638 net.cpp:156] Memory required for data: 8849308500
I0810 18:49:17.961670  4638 layer_factory.hpp:77] Creating layer relu_st_5_2
I0810 18:49:17.961685  4638 net.cpp:91] Creating Layer relu_st_5_2
I0810 18:49:17.961694  4638 net.cpp:425] relu_st_5_2 <- conv_st_5_2
I0810 18:49:17.961709  4638 net.cpp:386] relu_st_5_2 -> conv_st_5_2 (in-place)
I0810 18:49:17.961961  4638 net.cpp:141] Setting up relu_st_5_2
I0810 18:49:17.961980  4638 net.cpp:148] Top shape: 75 512 15 15 (8640000)
I0810 18:49:17.961987  4638 net.cpp:156] Memory required for data: 8883868500
I0810 18:49:17.961993  4638 layer_factory.hpp:77] Creating layer conv_st_5_3
I0810 18:49:17.962014  4638 net.cpp:91] Creating Layer conv_st_5_3
I0810 18:49:17.962023  4638 net.cpp:425] conv_st_5_3 <- conv_st_5_2
I0810 18:49:17.962040  4638 net.cpp:399] conv_st_5_3 -> conv_st_5_3
I0810 18:49:17.981784  4638 net.cpp:141] Setting up conv_st_5_3
I0810 18:49:17.981822  4638 net.cpp:148] Top shape: 75 512 15 15 (8640000)
I0810 18:49:17.981830  4638 net.cpp:156] Memory required for data: 8918428500
I0810 18:49:17.981842  4638 layer_factory.hpp:77] Creating layer relu_st_5_3
I0810 18:49:17.981859  4638 net.cpp:91] Creating Layer relu_st_5_3
I0810 18:49:17.981868  4638 net.cpp:425] relu_st_5_3 <- conv_st_5_3
I0810 18:49:17.981879  4638 net.cpp:386] relu_st_5_3 -> conv_st_5_3 (in-place)
I0810 18:49:17.982125  4638 net.cpp:141] Setting up relu_st_5_3
I0810 18:49:17.982146  4638 net.cpp:148] Top shape: 75 512 15 15 (8640000)
I0810 18:49:17.982152  4638 net.cpp:156] Memory required for data: 8952988500
I0810 18:49:17.982158  4638 layer_factory.hpp:77] Creating layer pool_st_5
I0810 18:49:17.982180  4638 net.cpp:91] Creating Layer pool_st_5
I0810 18:49:17.982188  4638 net.cpp:425] pool_st_5 <- conv_st_5_3
I0810 18:49:17.982199  4638 net.cpp:399] pool_st_5 -> pool_st_5
I0810 18:49:17.982296  4638 net.cpp:141] Setting up pool_st_5
I0810 18:49:17.982316  4638 net.cpp:148] Top shape: 75 512 8 8 (2457600)
I0810 18:49:17.982321  4638 net.cpp:156] Memory required for data: 8962818900
I0810 18:49:17.982327  4638 layer_factory.hpp:77] Creating layer fc_st_6
I0810 18:49:17.982341  4638 net.cpp:91] Creating Layer fc_st_6
I0810 18:49:17.982347  4638 net.cpp:425] fc_st_6 <- pool_st_5
I0810 18:49:17.982360  4638 net.cpp:399] fc_st_6 -> fc_st_6
I0810 18:49:19.161582  4638 net.cpp:141] Setting up fc_st_6
I0810 18:49:19.161628  4638 net.cpp:148] Top shape: 75 4096 (307200)
I0810 18:49:19.161635  4638 net.cpp:156] Memory required for data: 8964047700
I0810 18:49:19.161650  4638 layer_factory.hpp:77] Creating layer relu_st_6
I0810 18:49:19.161665  4638 net.cpp:91] Creating Layer relu_st_6
I0810 18:49:19.161674  4638 net.cpp:425] relu_st_6 <- fc_st_6
I0810 18:49:19.161689  4638 net.cpp:386] relu_st_6 -> fc_st_6 (in-place)
I0810 18:49:19.162160  4638 net.cpp:141] Setting up relu_st_6
I0810 18:49:19.162183  4638 net.cpp:148] Top shape: 75 4096 (307200)
I0810 18:49:19.162189  4638 net.cpp:156] Memory required for data: 8965276500
I0810 18:49:19.162195  4638 layer_factory.hpp:77] Creating layer fc_st_7
I0810 18:49:19.162216  4638 net.cpp:91] Creating Layer fc_st_7
I0810 18:49:19.162225  4638 net.cpp:425] fc_st_7 <- fc_st_6
I0810 18:49:19.162235  4638 net.cpp:399] fc_st_7 -> fc_st_7
I0810 18:49:19.298842  4638 net.cpp:141] Setting up fc_st_7
I0810 18:49:19.298887  4638 net.cpp:148] Top shape: 75 4096 (307200)
I0810 18:49:19.298893  4638 net.cpp:156] Memory required for data: 8966505300
I0810 18:49:19.298907  4638 layer_factory.hpp:77] Creating layer relu_st_7
I0810 18:49:19.298929  4638 net.cpp:91] Creating Layer relu_st_7
I0810 18:49:19.298938  4638 net.cpp:425] relu_st_7 <- fc_st_7
I0810 18:49:19.298949  4638 net.cpp:386] relu_st_7 -> fc_st_7 (in-place)
I0810 18:49:19.299449  4638 net.cpp:141] Setting up relu_st_7
I0810 18:49:19.299490  4638 net.cpp:148] Top shape: 75 4096 (307200)
I0810 18:49:19.299497  4638 net.cpp:156] Memory required for data: 8967734100
I0810 18:49:19.299504  4638 layer_factory.hpp:77] Creating layer fc_st_8
I0810 18:49:19.299518  4638 net.cpp:91] Creating Layer fc_st_8
I0810 18:49:19.299525  4638 net.cpp:425] fc_st_8 <- fc_st_7
I0810 18:49:19.299535  4638 net.cpp:399] fc_st_8 -> fc_st_8
I0810 18:49:19.355446  4638 net.cpp:141] Setting up fc_st_8
I0810 18:49:19.355490  4638 net.cpp:148] Top shape: 75 1000 (75000)
I0810 18:49:19.355499  4638 net.cpp:156] Memory required for data: 8968034100
I0810 18:49:19.355514  4638 layer_factory.hpp:77] Creating layer fc_st_8_fc_st_8_0_split
I0810 18:49:19.355530  4638 net.cpp:91] Creating Layer fc_st_8_fc_st_8_0_split
I0810 18:49:19.355538  4638 net.cpp:425] fc_st_8_fc_st_8_0_split <- fc_st_8
I0810 18:49:19.355551  4638 net.cpp:399] fc_st_8_fc_st_8_0_split -> fc_st_8_fc_st_8_0_split_0
I0810 18:49:19.355571  4638 net.cpp:399] fc_st_8_fc_st_8_0_split -> fc_st_8_fc_st_8_0_split_1
I0810 18:49:19.355582  4638 net.cpp:399] fc_st_8_fc_st_8_0_split -> fc_st_8_fc_st_8_0_split_2
I0810 18:49:19.355679  4638 net.cpp:141] Setting up fc_st_8_fc_st_8_0_split
I0810 18:49:19.355697  4638 net.cpp:148] Top shape: 75 1000 (75000)
I0810 18:49:19.355705  4638 net.cpp:148] Top shape: 75 1000 (75000)
I0810 18:49:19.355710  4638 net.cpp:148] Top shape: 75 1000 (75000)
I0810 18:49:19.355715  4638 net.cpp:156] Memory required for data: 8968934100
I0810 18:49:19.355721  4638 layer_factory.hpp:77] Creating layer loss
I0810 18:49:19.355733  4638 net.cpp:91] Creating Layer loss
I0810 18:49:19.355739  4638 net.cpp:425] loss <- fc_st_8_fc_st_8_0_split_0
I0810 18:49:19.355747  4638 net.cpp:425] loss <- label_data_1_split_0
I0810 18:49:19.355756  4638 net.cpp:399] loss -> loss
…
