…
I0810 05:58:29.510548  2733 net.cpp:313] The NetState phase (0) differed from the phase (1) specified by a rule in layer accuracy/top5
I0810 05:58:29.510923  2733 net.cpp:49] Initializing net from parameters: 
name: "AlexNet-Teacher VGG16-Student"
state {
  phase: TRAIN
}
layer {
  name: "data"
  type: "Data"
  top: "data"
  top: "label"
  include {
    phase: TRAIN
  }
  transform_param {
    mirror: true
    crop_size: 227
    mean_file: "/home/ubuntu/caffe/data/ilsvrc12/imagenet_mean.binaryproto"
  }
  data_param {
    source: "/home/ubuntu/caffe/examples/imagenet/ilsvrc12_train_lmdb"
    batch_size: 20
    backend: LMDB
  }
}
layer {
  name: "conv1"
  type: "Convolution"
  bottom: "data"
  top: "conv1"
  param {
    lr_mult: 0
  }
  param {
    lr_mult: 0
  }
  convolution_param {
    num_output: 96
    kernel_size: 11
    stride: 4
    weight_filler {
      type: "gaussian"
      std: 0.01
    }
    bias_filler {
      type: "constant"
      value: 0
    }
  }
}
layer {
  name: "relu1"
  type: "ReLU"
  bottom: "conv1"
  top: "conv1"
}
layer {
  name: "norm1"
  type: "LRN"
  bottom: "conv1"
  top: "norm1"
  lrn_param {
    local_size: 5
    alpha: 0.0001
    beta: 0.75
  }
}
layer {
  name: "pool1"
  type: "Pooling"
  bottom: "norm1"
  top: "pool1"
  pooling_param {
    pool: MAX
    kernel_size: 3
    stride: 2
  }
}
layer {
  name: "conv2"
  type: "Convolution"
  bottom: "pool1"
  top: "conv2"
  param {
    lr_mult: 0
  }
  param {
    lr_mult: 0
  }
  convolution_param {
    num_output: 256
    pad: 2
    kernel_size: 5
    group: 2
    weight_filler {
      type: "gaussian"
      std: 0.01
    }
    bias_filler {
      type: "constant"
      value: 0.1
    }
  }
}
layer {
  name: "relu2"
  type: "ReLU"
  bottom: "conv2"
  top: "conv2"
}
layer {
  name: "norm2"
  type: "LRN"
  bottom: "conv2"
  top: "norm2"
  lrn_param {
    local_size: 5
    alpha: 0.0001
    beta: 0.75
  }
}
layer {
  name: "pool2"
  type: "Pooling"
  bottom: "norm2"
  top: "pool2"
  pooling_param {
    pool: MAX
    kernel_size: 3
    stride: 2
  }
}
layer {
  name: "conv3"
  type: "Convolution"
  bottom: "pool2"
  top: "conv3"
  param {
    lr_mult: 0
  }
  param {
    lr_mult: 0
  }
  convolution_param {
    num_output: 384
    pad: 1
    kernel_size: 3
    weight_filler {
      type: "gaussian"
      std: 0.01
    }
    bias_filler {
      type: "constant"
      value: 0
    }
  }
}
layer {
  name: "relu3"
  type: "ReLU"
  bottom: "conv3"
  top: "conv3"
}
layer {
  name: "conv4"
  type: "Convolution"
  bottom: "conv3"
  top: "conv4"
  param {
    lr_mult: 0
  }
  param {
    lr_mult: 0
  }
  convolution_param {
    num_output: 384
    pad: 1
    kernel_size: 3
    group: 2
    weight_filler {
      type: "gaussian"
      std: 0.01
    }
    bias_filler {
      type: "constant"
      value: 0.1
    }
  }
}
layer {
  name: "relu4"
  type: "ReLU"
  bottom: "conv4"
  top: "conv4"
}
layer {
  name: "conv5"
  type: "Convolution"
  bottom: "conv4"
  top: "conv5"
  param {
    lr_mult: 0
  }
  param {
    lr_mult: 0
  }
  convolution_param {
    num_output: 256
    pad: 1
    kernel_size: 3
    group: 2
    weight_filler {
      type: "gaussian"
      std: 0.01
    }
    bias_filler {
      type: "constant"
      value: 0.1
    }
  }
}
layer {
  name: "relu5"
  type: "ReLU"
  bottom: "conv5"
  top: "conv5"
}
layer {
  name: "pool5"
  type: "Pooling"
  bottom: "conv5"
  top: "pool5"
  pooling_param {
    pool: MAX
    kernel_size: 3
    stride: 2
  }
}
layer {
  name: "fc6"
  type: "InnerProduct"
  bottom: "pool5"
  top: "fc6"
  param {
    lr_mult: 0
  }
  param {
    lr_mult: 0
  }
  inner_product_param {
    num_output: 4096
    weight_filler {
      type: "gaussian"
      std: 0.005
    }
    bias_filler {
      type: "constant"
      value: 0.1
    }
  }
}
layer {
  name: "relu6"
  type: "ReLU"
  bottom: "fc6"
  top: "fc6"
}
layer {
  name: "fc7"
  type: "InnerProduct"
  bottom: "fc6"
  top: "fc7"
  param {
    lr_mult: 0
  }
  param {
    lr_mult: 0
  }
  inner_product_param {
    num_output: 4096
    weight_filler {
      type: "gaussian"
      std: 0.005
    }
    bias_filler {
      type: "constant"
      value: 0.1
    }
  }
}
layer {
  name: "relu7"
  type: "ReLU"
  bottom: "fc7"
  top: "fc7"
}
layer {
  name: "fc8"
  type: "InnerProduct"
  bottom: "fc7"
  top: "fc8"
  param {
    lr_mult: 0
  }
  param {
    lr_mult: 0
  }
  inner_product_param {
    num_output: 1000
    weight_filler {
      type: "gaussian"
      std: 0.01
    }
    bias_filler {
      type: "constant"
      value: 0
    }
  }
}
layer {
  name: "conv_st_1_1"
  type: "Convolution"
  bottom: "data"
  top: "conv_st_1_1"
  convolution_param {
    num_output: 64
    pad: 1
    kernel_size: 3
    weight_filler {
      type: "xavier"
    }
    bias_filler {
      type: "constant"
      value: 0
    }
  }
}
layer {
  name: "relu_st_1_1"
  type: "ReLU"
  bottom: "conv_st_1_1"
  top: "conv_st_1_1"
}
layer {
  name: "conv_st_1_2"
  type: "Convolution"
  bottom: "conv_st_1_1"
  top: "conv_st_1_2"
  convolution_param {
    num_output: 64
    pad: 1
    kernel_size: 3
    weight_filler {
      type: "xavier"
    }
    bias_filler {
      type: "constant"
      value: 0
    }
  }
}
layer {
  name: "relu_st_1_2"
  type: "ReLU"
  bottom: "conv_st_1_2"
  top: "conv_st_1_2"
}
layer {
  name: "pool_st_1"
  type: "Pooling"
  bottom: "conv_st_1_2"
  top: "pool_st_1"
  pooling_param {
    pool: MAX
    kernel_size: 2
    stride: 2
  }
}
layer {
  name: "conv_st_2_1"
  type: "Convolution"
  bottom: "pool_st_1"
  top: "conv_st_2_1"
  convolution_param {
    num_output: 128
    pad: 1
    kernel_size: 3
    weight_filler {
      type: "xavier"
    }
    bias_filler {
      type: "constant"
      value: 0
    }
  }
}
layer {
  name: "relu_st_2_1"
  type: "ReLU"
  bottom: "conv_st_2_1"
  top: "conv_st_2_1"
}
layer {
  name: "conv_st_2_2"
  type: "Convolution"
  bottom: "conv_st_2_1"
  top: "conv_st_2_2"
  convolution_param {
    num_output: 128
    pad: 1
    kernel_size: 3
    weight_filler {
      type: "xavier"
    }
    bias_filler {
      type: "constant"
      value: 0
    }
  }
}
layer {
  name: "relu_st_2_2"
  type: "ReLU"
  bottom: "conv_st_2_2"
  top: "conv_st_2_2"
}
layer {
  name: "pool_st_2"
  type: "Pooling"
  bottom: "conv_st_2_2"
  top: "pool_st_2"
  pooling_param {
    pool: MAX
    kernel_size: 2
    stride: 2
  }
}
layer {
  name: "conv_st_3_1"
  type: "Convolution"
  bottom: "pool_st_2"
  top: "conv_st_3_1"
  convolution_param {
    num_output: 256
    pad: 1
    kernel_size: 3
    weight_filler {
      type: "xavier"
    }
    bias_filler {
      type: "constant"
      value: 0
    }
  }
}
layer {
  name: "relu_st_3_1"
  type: "ReLU"
  bottom: "conv_st_3_1"
  top: "conv_st_3_1"
}
layer {
  name: "conv_st_3_2"
  type: "Convolution"
  bottom: "conv_st_3_1"
  top: "conv_st_3_2"
  convolution_param {
    num_output: 256
    pad: 1
    kernel_size: 3
    weight_filler {
      type: "xavier"
    }
    bias_filler {
      type: "constant"
      value: 0
    }
  }
}
layer {
  name: "relu_st_3_2"
  type: "ReLU"
  bottom: "conv_st_3_2"
  top: "conv_st_3_2"
}
layer {
  name: "conv_st_3_3"
  type: "Convolution"
  bottom: "conv_st_3_2"
  top: "conv_st_3_3"
  convolution_param {
    num_output: 256
    pad: 1
    kernel_size: 3
    weight_filler {
      type: "xavier"
    }
    bias_filler {
      type: "constant"
      value: 0
    }
  }
}
layer {
  name: "relu_st_3_3"
  type: "ReLU"
  bottom: "conv_st_3_3"
  top: "conv_st_3_3"
}
layer {
  name: "pool_st_3"
  type: "Pooling"
  bottom: "conv_st_3_3"
  top: "pool_st_3"
  pooling_param {
    pool: MAX
    kernel_size: 2
    stride: 2
  }
}
layer {
  name: "conv_st_4_1"
  type: "Convolution"
  bottom: "pool_st_3"
  top: "conv_st_4_1"
  convolution_param {
    num_output: 512
    pad: 1
    kernel_size: 3
    weight_filler {
      type: "xavier"
    }
    bias_filler {
      type: "constant"
      value: 0
    }
  }
}
layer {
  name: "relu_st_4_1"
  type: "ReLU"
  bottom: "conv_st_4_1"
  top: "conv_st_4_1"
}
layer {
  name: "conv_st_4_2"
  type: "Convolution"
  bottom: "conv_st_4_1"
  top: "conv_st_4_2"
  convolution_param {
    num_output: 512
    pad: 1
    kernel_size: 3
    weight_filler {
      type: "xavier"
    }
    bias_filler {
      type: "constant"
      value: 0
    }
  }
}
layer {
  name: "relu_st_4_2"
  type: "ReLU"
  bottom: "conv_st_4_2"
  top: "conv_st_4_2"
}
layer {
  name: "conv_st_4_3"
  type: "Convolution"
  bottom: "conv_st_4_2"
  top: "conv_st_4_3"
  convolution_param {
    num_output: 512
    pad: 1
    kernel_size: 3
    weight_filler {
      type: "xavier"
    }
    bias_filler {
      type: "constant"
      value: 0
    }
  }
}
layer {
  name: "relu_st_4_3"
  type: "ReLU"
  bottom: "conv_st_4_3"
  top: "conv_st_4_3"
}
layer {
  name: "pool_st_4"
  type: "Pooling"
  bottom: "conv_st_4_3"
  top: "pool_st_4"
  pooling_param {
    pool: MAX
    kernel_size: 2
    stride: 2
  }
}
layer {
  name: "conv_st_5_1"
  type: "Convolution"
  bottom: "pool_st_4"
  top: "conv_st_5_1"
  convolution_param {
    num_output: 512
    pad: 1
    kernel_size: 3
    weight_filler {
      type: "xavier"
    }
    bias_filler {
      type: "constant"
      value: 0
    }
  }
}
layer {
  name: "relu_st_5_1"
  type: "ReLU"
  bottom: "conv_st_5_1"
  top: "conv_st_5_1"
}
layer {
  name: "conv_st_5_2"
  type: "Convolution"
  bottom: "conv_st_5_1"
  top: "conv_st_5_2"
  convolution_param {
    num_output: 512
    pad: 1
    kernel_size: 3
    weight_filler {
      type: "xavier"
    }
    bias_filler {
      type: "constant"
      value: 0
    }
  }
}
layer {
  name: "relu_st_5_2"
  type: "ReLU"
  bottom: "conv_st_5_2"
  top: "conv_st_5_2"
}
layer {
  name: "conv_st_5_3"
  type: "Convolution"
  bottom: "conv_st_5_2"
  top: "conv_st_5_3"
  convolution_param {
    num_output: 512
    pad: 1
    kernel_size: 3
    weight_filler {
      type: "xavier"
    }
    bias_filler {
      type: "constant"
      value: 0
    }
  }
}
layer {
  name: "relu_st_5_3"
  type: "ReLU"
  bottom: "conv_st_5_3"
  top: "conv_st_5_3"
}
layer {
  name: "pool_st_5"
  type: "Pooling"
  bottom: "conv_st_5_3"
  top: "pool_st_5"
  pooling_param {
    pool: MAX
    kernel_size: 2
    stride: 2
  }
}
layer {
  name: "fc_st_6"
  type: "InnerProduct"
  bottom: "pool_st_5"
  top: "fc_st_6"
  inner_product_param {
    num_output: 4096
    weight_filler {
      type: "xavier"
    }
    bias_filler {
      type: "constant"
      value: 0
    }
  }
}
layer {
  name: "relu_st_6"
  type: "ReLU"
  bottom: "fc_st_6"
  top: "fc_st_6"
}
layer {
  name: "fc_st_7"
  type: "InnerProduct"
  bottom: "fc_st_6"
  top: "fc_st_7"
  inner_product_param {
    num_output: 4096
    weight_filler {
      type: "xavier"
    }
    bias_filler {
      type: "constant"
      value: 0
    }
  }
}
layer {
  name: "relu_st_7"
  type: "ReLU"
  bottom: "fc_st_7"
  top: "fc_st_7"
}
layer {
  name: "fc_st_8"
  type: "InnerProduct"
  bottom: "fc_st_7"
  top: "fc_st_8"
  inner_product_param {
    num_output: 1000
    weight_filler {
      type: "xavier"
    }
    bias_filler {
      type: "constant"
      value: 0
    }
  }
}
layer {
  name: "prob"
  type: "Softmax"
  bottom: "fc_st_8"
  top: "prob"
}
layer {
  name: "soft_label"
  type: "Softmax"
  bottom: "fc8"
  top: "soft_label"
}
layer {
  name: "loss"
  type: "SoftmaxWithLoss"
  bottom: "fc_st_8"
  bottom: "label"
  top: "loss"
  loss_weight: 0.995
}
layer {
  name: "st_loss"
  type: "SigmoidCrossEntropyLoss"
  bottom: "prob"
  bottom: "soft_label"
  top: "st_loss"
  loss_weight: 0.005
}
I0810 05:58:29.511240  2733 layer_factory.hpp:77] Creating layer data
I0810 05:58:29.512208  2733 net.cpp:91] Creating Layer data
I0810 05:58:29.512223  2733 net.cpp:399] data -> data
I0810 05:58:29.512254  2733 net.cpp:399] data -> label
I0810 05:58:29.512272  2733 data_transformer.cpp:25] Loading mean file from: /home/ubuntu/caffe/data/ilsvrc12/imagenet_mean.binaryproto
I0810 05:58:29.515506  2736 db_lmdb.cpp:35] Opened lmdb /home/ubuntu/caffe/examples/imagenet/ilsvrc12_train_lmdb
I0810 05:58:29.525954  2733 data_layer.cpp:41] output data size: 20,3,227,227
I0810 05:58:29.555308  2733 net.cpp:141] Setting up data
I0810 05:58:29.555347  2733 net.cpp:148] Top shape: 20 3 227 227 (3091740)
I0810 05:58:29.555364  2733 net.cpp:148] Top shape: 20 (20)
I0810 05:58:29.555371  2733 net.cpp:156] Memory required for data: 12367040
I0810 05:58:29.555387  2733 layer_factory.hpp:77] Creating layer data_data_0_split
I0810 05:58:29.555409  2733 net.cpp:91] Creating Layer data_data_0_split
I0810 05:58:29.555420  2733 net.cpp:425] data_data_0_split <- data
I0810 05:58:29.555443  2733 net.cpp:399] data_data_0_split -> data_data_0_split_0
I0810 05:58:29.555464  2733 net.cpp:399] data_data_0_split -> data_data_0_split_1
I0810 05:58:29.555523  2733 net.cpp:141] Setting up data_data_0_split
I0810 05:58:29.555539  2733 net.cpp:148] Top shape: 20 3 227 227 (3091740)
I0810 05:58:29.555547  2733 net.cpp:148] Top shape: 20 3 227 227 (3091740)
I0810 05:58:29.555553  2733 net.cpp:156] Memory required for data: 37100960
I0810 05:58:29.555560  2733 layer_factory.hpp:77] Creating layer conv1
I0810 05:58:29.555593  2733 net.cpp:91] Creating Layer conv1
I0810 05:58:29.555603  2733 net.cpp:425] conv1 <- data_data_0_split_0
I0810 05:58:29.555616  2733 net.cpp:399] conv1 -> conv1
I0810 05:58:29.732331  2733 net.cpp:141] Setting up conv1
I0810 05:58:29.732372  2733 net.cpp:148] Top shape: 20 96 55 55 (5808000)
I0810 05:58:29.732378  2733 net.cpp:156] Memory required for data: 60332960
I0810 05:58:29.732410  2733 layer_factory.hpp:77] Creating layer relu1
I0810 05:58:29.732431  2733 net.cpp:91] Creating Layer relu1
I0810 05:58:29.732439  2733 net.cpp:425] relu1 <- conv1
I0810 05:58:29.732450  2733 net.cpp:386] relu1 -> conv1 (in-place)
I0810 05:58:29.732679  2733 net.cpp:141] Setting up relu1
I0810 05:58:29.732699  2733 net.cpp:148] Top shape: 20 96 55 55 (5808000)
I0810 05:58:29.732707  2733 net.cpp:156] Memory required for data: 83564960
I0810 05:58:29.732712  2733 layer_factory.hpp:77] Creating layer norm1
I0810 05:58:29.732733  2733 net.cpp:91] Creating Layer norm1
I0810 05:58:29.732741  2733 net.cpp:425] norm1 <- conv1
I0810 05:58:29.732751  2733 net.cpp:399] norm1 -> norm1
I0810 05:58:29.733072  2733 net.cpp:141] Setting up norm1
I0810 05:58:29.733093  2733 net.cpp:148] Top shape: 20 96 55 55 (5808000)
I0810 05:58:29.733100  2733 net.cpp:156] Memory required for data: 106796960
I0810 05:58:29.733108  2733 layer_factory.hpp:77] Creating layer pool1
I0810 05:58:29.733119  2733 net.cpp:91] Creating Layer pool1
I0810 05:58:29.733125  2733 net.cpp:425] pool1 <- norm1
I0810 05:58:29.733135  2733 net.cpp:399] pool1 -> pool1
I0810 05:58:29.733220  2733 net.cpp:141] Setting up pool1
I0810 05:58:29.733248  2733 net.cpp:148] Top shape: 20 96 27 27 (1399680)
I0810 05:58:29.733254  2733 net.cpp:156] Memory required for data: 112395680
I0810 05:58:29.733258  2733 layer_factory.hpp:77] Creating layer conv2
I0810 05:58:29.733271  2733 net.cpp:91] Creating Layer conv2
I0810 05:58:29.733275  2733 net.cpp:425] conv2 <- pool1
I0810 05:58:29.733283  2733 net.cpp:399] conv2 -> conv2
I0810 05:58:29.744590  2733 net.cpp:141] Setting up conv2
I0810 05:58:29.744613  2733 net.cpp:148] Top shape: 20 256 27 27 (3732480)
I0810 05:58:29.744618  2733 net.cpp:156] Memory required for data: 127325600
I0810 05:58:29.744630  2733 layer_factory.hpp:77] Creating layer relu2
I0810 05:58:29.744637  2733 net.cpp:91] Creating Layer relu2
I0810 05:58:29.744642  2733 net.cpp:425] relu2 <- conv2
I0810 05:58:29.744665  2733 net.cpp:386] relu2 -> conv2 (in-place)
I0810 05:58:29.744889  2733 net.cpp:141] Setting up relu2
I0810 05:58:29.744906  2733 net.cpp:148] Top shape: 20 256 27 27 (3732480)
I0810 05:58:29.744910  2733 net.cpp:156] Memory required for data: 142255520
I0810 05:58:29.744915  2733 layer_factory.hpp:77] Creating layer norm2
I0810 05:58:29.744925  2733 net.cpp:91] Creating Layer norm2
I0810 05:58:29.744930  2733 net.cpp:425] norm2 <- conv2
I0810 05:58:29.744935  2733 net.cpp:399] norm2 -> norm2
I0810 05:58:29.745265  2733 net.cpp:141] Setting up norm2
I0810 05:58:29.745286  2733 net.cpp:148] Top shape: 20 256 27 27 (3732480)
I0810 05:58:29.745290  2733 net.cpp:156] Memory required for data: 157185440
I0810 05:58:29.745295  2733 layer_factory.hpp:77] Creating layer pool2
I0810 05:58:29.745302  2733 net.cpp:91] Creating Layer pool2
I0810 05:58:29.745306  2733 net.cpp:425] pool2 <- norm2
I0810 05:58:29.745311  2733 net.cpp:399] pool2 -> pool2
I0810 05:58:29.745352  2733 net.cpp:141] Setting up pool2
I0810 05:58:29.745362  2733 net.cpp:148] Top shape: 20 256 13 13 (865280)
I0810 05:58:29.745365  2733 net.cpp:156] Memory required for data: 160646560
I0810 05:58:29.745368  2733 layer_factory.hpp:77] Creating layer conv3
I0810 05:58:29.745383  2733 net.cpp:91] Creating Layer conv3
I0810 05:58:29.745388  2733 net.cpp:425] conv3 <- pool2
I0810 05:58:29.745393  2733 net.cpp:399] conv3 -> conv3
I0810 05:58:29.772275  2733 net.cpp:141] Setting up conv3
I0810 05:58:29.772301  2733 net.cpp:148] Top shape: 20 384 13 13 (1297920)
I0810 05:58:29.772305  2733 net.cpp:156] Memory required for data: 165838240
I0810 05:58:29.772320  2733 layer_factory.hpp:77] Creating layer relu3
I0810 05:58:29.772327  2733 net.cpp:91] Creating Layer relu3
I0810 05:58:29.772331  2733 net.cpp:425] relu3 <- conv3
I0810 05:58:29.772339  2733 net.cpp:386] relu3 -> conv3 (in-place)
I0810 05:58:29.772629  2733 net.cpp:141] Setting up relu3
I0810 05:58:29.772647  2733 net.cpp:148] Top shape: 20 384 13 13 (1297920)
I0810 05:58:29.772651  2733 net.cpp:156] Memory required for data: 171029920
I0810 05:58:29.772655  2733 layer_factory.hpp:77] Creating layer conv4
I0810 05:58:29.772667  2733 net.cpp:91] Creating Layer conv4
I0810 05:58:29.772672  2733 net.cpp:425] conv4 <- conv3
I0810 05:58:29.772680  2733 net.cpp:399] conv4 -> conv4
I0810 05:58:29.793805  2733 net.cpp:141] Setting up conv4
I0810 05:58:29.793830  2733 net.cpp:148] Top shape: 20 384 13 13 (1297920)
I0810 05:58:29.793834  2733 net.cpp:156] Memory required for data: 176221600
I0810 05:58:29.793843  2733 layer_factory.hpp:77] Creating layer relu4
I0810 05:58:29.793853  2733 net.cpp:91] Creating Layer relu4
I0810 05:58:29.793857  2733 net.cpp:425] relu4 <- conv4
I0810 05:58:29.793864  2733 net.cpp:386] relu4 -> conv4 (in-place)
I0810 05:58:29.794082  2733 net.cpp:141] Setting up relu4
I0810 05:58:29.794100  2733 net.cpp:148] Top shape: 20 384 13 13 (1297920)
I0810 05:58:29.794103  2733 net.cpp:156] Memory required for data: 181413280
I0810 05:58:29.794107  2733 layer_factory.hpp:77] Creating layer conv5
I0810 05:58:29.794121  2733 net.cpp:91] Creating Layer conv5
I0810 05:58:29.794126  2733 net.cpp:425] conv5 <- conv4
I0810 05:58:29.794133  2733 net.cpp:399] conv5 -> conv5
I0810 05:58:29.809105  2733 net.cpp:141] Setting up conv5
I0810 05:58:29.809128  2733 net.cpp:148] Top shape: 20 256 13 13 (865280)
I0810 05:58:29.809132  2733 net.cpp:156] Memory required for data: 184874400
I0810 05:58:29.809144  2733 layer_factory.hpp:77] Creating layer relu5
I0810 05:58:29.809152  2733 net.cpp:91] Creating Layer relu5
I0810 05:58:29.809156  2733 net.cpp:425] relu5 <- conv5
I0810 05:58:29.809162  2733 net.cpp:386] relu5 -> conv5 (in-place)
I0810 05:58:29.809386  2733 net.cpp:141] Setting up relu5
I0810 05:58:29.809404  2733 net.cpp:148] Top shape: 20 256 13 13 (865280)
I0810 05:58:29.809408  2733 net.cpp:156] Memory required for data: 188335520
I0810 05:58:29.809412  2733 layer_factory.hpp:77] Creating layer pool5
I0810 05:58:29.809424  2733 net.cpp:91] Creating Layer pool5
I0810 05:58:29.809430  2733 net.cpp:425] pool5 <- conv5
I0810 05:58:29.809454  2733 net.cpp:399] pool5 -> pool5
I0810 05:58:29.809504  2733 net.cpp:141] Setting up pool5
I0810 05:58:29.809521  2733 net.cpp:148] Top shape: 20 256 6 6 (184320)
I0810 05:58:29.809527  2733 net.cpp:156] Memory required for data: 189072800
I0810 05:58:29.809533  2733 layer_factory.hpp:77] Creating layer fc6
I0810 05:58:29.809545  2733 net.cpp:91] Creating Layer fc6
I0810 05:58:29.809552  2733 net.cpp:425] fc6 <- pool5
I0810 05:58:29.809566  2733 net.cpp:399] fc6 -> fc6
I0810 05:58:30.967355  2733 net.cpp:141] Setting up fc6
I0810 05:58:30.967401  2733 net.cpp:148] Top shape: 20 4096 (81920)
I0810 05:58:30.967406  2733 net.cpp:156] Memory required for data: 189400480
I0810 05:58:30.967417  2733 layer_factory.hpp:77] Creating layer relu6
I0810 05:58:30.967429  2733 net.cpp:91] Creating Layer relu6
I0810 05:58:30.967434  2733 net.cpp:425] relu6 <- fc6
I0810 05:58:30.967442  2733 net.cpp:386] relu6 -> fc6 (in-place)
I0810 05:58:30.967891  2733 net.cpp:141] Setting up relu6
I0810 05:58:30.967912  2733 net.cpp:148] Top shape: 20 4096 (81920)
I0810 05:58:30.967917  2733 net.cpp:156] Memory required for data: 189728160
I0810 05:58:30.967921  2733 layer_factory.hpp:77] Creating layer fc7
I0810 05:58:30.967931  2733 net.cpp:91] Creating Layer fc7
I0810 05:58:30.967936  2733 net.cpp:425] fc7 <- fc6
I0810 05:58:30.967943  2733 net.cpp:399] fc7 -> fc7
I0810 05:58:31.463073  2733 net.cpp:141] Setting up fc7
I0810 05:58:31.463116  2733 net.cpp:148] Top shape: 20 4096 (81920)
I0810 05:58:31.463121  2733 net.cpp:156] Memory required for data: 190055840
I0810 05:58:31.463132  2733 layer_factory.hpp:77] Creating layer relu7
I0810 05:58:31.463146  2733 net.cpp:91] Creating Layer relu7
I0810 05:58:31.463151  2733 net.cpp:425] relu7 <- fc7
I0810 05:58:31.463158  2733 net.cpp:386] relu7 -> fc7 (in-place)
I0810 05:58:31.463466  2733 net.cpp:141] Setting up relu7
I0810 05:58:31.463485  2733 net.cpp:148] Top shape: 20 4096 (81920)
I0810 05:58:31.463490  2733 net.cpp:156] Memory required for data: 190383520
I0810 05:58:31.463493  2733 layer_factory.hpp:77] Creating layer fc8
I0810 05:58:31.463506  2733 net.cpp:91] Creating Layer fc8
I0810 05:58:31.463511  2733 net.cpp:425] fc8 <- fc7
I0810 05:58:31.463517  2733 net.cpp:399] fc8 -> fc8
I0810 05:58:31.583706  2733 net.cpp:141] Setting up fc8
I0810 05:58:31.583747  2733 net.cpp:148] Top shape: 20 1000 (20000)
I0810 05:58:31.583752  2733 net.cpp:156] Memory required for data: 190463520
I0810 05:58:31.583762  2733 layer_factory.hpp:77] Creating layer conv_st_1_1
I0810 05:58:31.583780  2733 net.cpp:91] Creating Layer conv_st_1_1
I0810 05:58:31.583786  2733 net.cpp:425] conv_st_1_1 <- data_data_0_split_1
I0810 05:58:31.583799  2733 net.cpp:399] conv_st_1_1 -> conv_st_1_1
I0810 05:58:31.585048  2733 net.cpp:141] Setting up conv_st_1_1
I0810 05:58:31.585070  2733 net.cpp:148] Top shape: 20 64 227 227 (65957120)
I0810 05:58:31.585075  2733 net.cpp:156] Memory required for data: 454292000
I0810 05:58:31.585090  2733 layer_factory.hpp:77] Creating layer relu_st_1_1
I0810 05:58:31.585099  2733 net.cpp:91] Creating Layer relu_st_1_1
I0810 05:58:31.585103  2733 net.cpp:425] relu_st_1_1 <- conv_st_1_1
I0810 05:58:31.585109  2733 net.cpp:386] relu_st_1_1 -> conv_st_1_1 (in-place)
I0810 05:58:31.585422  2733 net.cpp:141] Setting up relu_st_1_1
I0810 05:58:31.585443  2733 net.cpp:148] Top shape: 20 64 227 227 (65957120)
I0810 05:58:31.585448  2733 net.cpp:156] Memory required for data: 718120480
I0810 05:58:31.585453  2733 layer_factory.hpp:77] Creating layer conv_st_1_2
I0810 05:58:31.585464  2733 net.cpp:91] Creating Layer conv_st_1_2
I0810 05:58:31.585469  2733 net.cpp:425] conv_st_1_2 <- conv_st_1_1
I0810 05:58:31.585477  2733 net.cpp:399] conv_st_1_2 -> conv_st_1_2
I0810 05:58:31.586654  2733 net.cpp:141] Setting up conv_st_1_2
I0810 05:58:31.586675  2733 net.cpp:148] Top shape: 20 64 227 227 (65957120)
I0810 05:58:31.586683  2733 net.cpp:156] Memory required for data: 981948960
I0810 05:58:31.586690  2733 layer_factory.hpp:77] Creating layer relu_st_1_2
I0810 05:58:31.586722  2733 net.cpp:91] Creating Layer relu_st_1_2
I0810 05:58:31.586727  2733 net.cpp:425] relu_st_1_2 <- conv_st_1_2
I0810 05:58:31.586733  2733 net.cpp:386] relu_st_1_2 -> conv_st_1_2 (in-place)
I0810 05:58:31.587028  2733 net.cpp:141] Setting up relu_st_1_2
I0810 05:58:31.587049  2733 net.cpp:148] Top shape: 20 64 227 227 (65957120)
I0810 05:58:31.587052  2733 net.cpp:156] Memory required for data: 1245777440
I0810 05:58:31.587056  2733 layer_factory.hpp:77] Creating layer pool_st_1
I0810 05:58:31.587065  2733 net.cpp:91] Creating Layer pool_st_1
I0810 05:58:31.587069  2733 net.cpp:425] pool_st_1 <- conv_st_1_2
I0810 05:58:31.587075  2733 net.cpp:399] pool_st_1 -> pool_st_1
I0810 05:58:31.587126  2733 net.cpp:141] Setting up pool_st_1
I0810 05:58:31.587136  2733 net.cpp:148] Top shape: 20 64 114 114 (16634880)
I0810 05:58:31.587139  2733 net.cpp:156] Memory required for data: 1312316960
I0810 05:58:31.587143  2733 layer_factory.hpp:77] Creating layer conv_st_2_1
I0810 05:58:31.587157  2733 net.cpp:91] Creating Layer conv_st_2_1
I0810 05:58:31.587162  2733 net.cpp:425] conv_st_2_1 <- pool_st_1
I0810 05:58:31.587175  2733 net.cpp:399] conv_st_2_1 -> conv_st_2_1
I0810 05:58:31.590823  2733 net.cpp:141] Setting up conv_st_2_1
I0810 05:58:31.590848  2733 net.cpp:148] Top shape: 20 128 114 114 (33269760)
I0810 05:58:31.590852  2733 net.cpp:156] Memory required for data: 1445396000
I0810 05:58:31.590860  2733 layer_factory.hpp:77] Creating layer relu_st_2_1
I0810 05:58:31.590867  2733 net.cpp:91] Creating Layer relu_st_2_1
I0810 05:58:31.590873  2733 net.cpp:425] relu_st_2_1 <- conv_st_2_1
I0810 05:58:31.590880  2733 net.cpp:386] relu_st_2_1 -> conv_st_2_1 (in-place)
I0810 05:58:31.591096  2733 net.cpp:141] Setting up relu_st_2_1
I0810 05:58:31.591116  2733 net.cpp:148] Top shape: 20 128 114 114 (33269760)
I0810 05:58:31.591120  2733 net.cpp:156] Memory required for data: 1578475040
I0810 05:58:31.591125  2733 layer_factory.hpp:77] Creating layer conv_st_2_2
I0810 05:58:31.591136  2733 net.cpp:91] Creating Layer conv_st_2_2
I0810 05:58:31.591141  2733 net.cpp:425] conv_st_2_2 <- conv_st_2_1
I0810 05:58:31.591148  2733 net.cpp:399] conv_st_2_2 -> conv_st_2_2
I0810 05:58:31.592998  2733 net.cpp:141] Setting up conv_st_2_2
I0810 05:58:31.593019  2733 net.cpp:148] Top shape: 20 128 114 114 (33269760)
I0810 05:58:31.593024  2733 net.cpp:156] Memory required for data: 1711554080
I0810 05:58:31.593031  2733 layer_factory.hpp:77] Creating layer relu_st_2_2
I0810 05:58:31.593037  2733 net.cpp:91] Creating Layer relu_st_2_2
I0810 05:58:31.593042  2733 net.cpp:425] relu_st_2_2 <- conv_st_2_2
I0810 05:58:31.593047  2733 net.cpp:386] relu_st_2_2 -> conv_st_2_2 (in-place)
I0810 05:58:31.593354  2733 net.cpp:141] Setting up relu_st_2_2
I0810 05:58:31.593374  2733 net.cpp:148] Top shape: 20 128 114 114 (33269760)
I0810 05:58:31.593379  2733 net.cpp:156] Memory required for data: 1844633120
I0810 05:58:31.593382  2733 layer_factory.hpp:77] Creating layer pool_st_2
I0810 05:58:31.593389  2733 net.cpp:91] Creating Layer pool_st_2
I0810 05:58:31.593394  2733 net.cpp:425] pool_st_2 <- conv_st_2_2
I0810 05:58:31.593402  2733 net.cpp:399] pool_st_2 -> pool_st_2
I0810 05:58:31.593449  2733 net.cpp:141] Setting up pool_st_2
I0810 05:58:31.593461  2733 net.cpp:148] Top shape: 20 128 57 57 (8317440)
I0810 05:58:31.593464  2733 net.cpp:156] Memory required for data: 1877902880
I0810 05:58:31.593468  2733 layer_factory.hpp:77] Creating layer conv_st_3_1
I0810 05:58:31.593487  2733 net.cpp:91] Creating Layer conv_st_3_1
I0810 05:58:31.593492  2733 net.cpp:425] conv_st_3_1 <- pool_st_2
I0810 05:58:31.593498  2733 net.cpp:399] conv_st_3_1 -> conv_st_3_1
I0810 05:58:31.596813  2733 net.cpp:141] Setting up conv_st_3_1
I0810 05:58:31.596835  2733 net.cpp:148] Top shape: 20 256 57 57 (16634880)
I0810 05:58:31.596842  2733 net.cpp:156] Memory required for data: 1944442400
I0810 05:58:31.596848  2733 layer_factory.hpp:77] Creating layer relu_st_3_1
I0810 05:58:31.596856  2733 net.cpp:91] Creating Layer relu_st_3_1
I0810 05:58:31.596860  2733 net.cpp:425] relu_st_3_1 <- conv_st_3_1
I0810 05:58:31.596879  2733 net.cpp:386] relu_st_3_1 -> conv_st_3_1 (in-place)
I0810 05:58:31.597167  2733 net.cpp:141] Setting up relu_st_3_1
I0810 05:58:31.597189  2733 net.cpp:148] Top shape: 20 256 57 57 (16634880)
I0810 05:58:31.597193  2733 net.cpp:156] Memory required for data: 2010981920
I0810 05:58:31.597198  2733 layer_factory.hpp:77] Creating layer conv_st_3_2
I0810 05:58:31.597221  2733 net.cpp:91] Creating Layer conv_st_3_2
I0810 05:58:31.597230  2733 net.cpp:425] conv_st_3_2 <- conv_st_3_1
I0810 05:58:31.597237  2733 net.cpp:399] conv_st_3_2 -> conv_st_3_2
I0810 05:58:31.602944  2733 net.cpp:141] Setting up conv_st_3_2
I0810 05:58:31.602968  2733 net.cpp:148] Top shape: 20 256 57 57 (16634880)
I0810 05:58:31.602973  2733 net.cpp:156] Memory required for data: 2077521440
I0810 05:58:31.602980  2733 layer_factory.hpp:77] Creating layer relu_st_3_2
I0810 05:58:31.602988  2733 net.cpp:91] Creating Layer relu_st_3_2
I0810 05:58:31.602993  2733 net.cpp:425] relu_st_3_2 <- conv_st_3_2
I0810 05:58:31.603000  2733 net.cpp:386] relu_st_3_2 -> conv_st_3_2 (in-place)
I0810 05:58:31.603204  2733 net.cpp:141] Setting up relu_st_3_2
I0810 05:58:31.603224  2733 net.cpp:148] Top shape: 20 256 57 57 (16634880)
I0810 05:58:31.603227  2733 net.cpp:156] Memory required for data: 2144060960
I0810 05:58:31.603232  2733 layer_factory.hpp:77] Creating layer conv_st_3_3
I0810 05:58:31.603245  2733 net.cpp:91] Creating Layer conv_st_3_3
I0810 05:58:31.603248  2733 net.cpp:425] conv_st_3_3 <- conv_st_3_2
I0810 05:58:31.603255  2733 net.cpp:399] conv_st_3_3 -> conv_st_3_3
I0810 05:58:31.609151  2733 net.cpp:141] Setting up conv_st_3_3
I0810 05:58:31.609176  2733 net.cpp:148] Top shape: 20 256 57 57 (16634880)
I0810 05:58:31.609180  2733 net.cpp:156] Memory required for data: 2210600480
I0810 05:58:31.609189  2733 layer_factory.hpp:77] Creating layer relu_st_3_3
I0810 05:58:31.609199  2733 net.cpp:91] Creating Layer relu_st_3_3
I0810 05:58:31.609215  2733 net.cpp:425] relu_st_3_3 <- conv_st_3_3
I0810 05:58:31.609220  2733 net.cpp:386] relu_st_3_3 -> conv_st_3_3 (in-place)
I0810 05:58:31.609529  2733 net.cpp:141] Setting up relu_st_3_3
I0810 05:58:31.609552  2733 net.cpp:148] Top shape: 20 256 57 57 (16634880)
I0810 05:58:31.609557  2733 net.cpp:156] Memory required for data: 2277140000
I0810 05:58:31.609561  2733 layer_factory.hpp:77] Creating layer pool_st_3
I0810 05:58:31.609570  2733 net.cpp:91] Creating Layer pool_st_3
I0810 05:58:31.609575  2733 net.cpp:425] pool_st_3 <- conv_st_3_3
I0810 05:58:31.609580  2733 net.cpp:399] pool_st_3 -> pool_st_3
I0810 05:58:31.609633  2733 net.cpp:141] Setting up pool_st_3
I0810 05:58:31.609644  2733 net.cpp:148] Top shape: 20 256 29 29 (4305920)
I0810 05:58:31.609648  2733 net.cpp:156] Memory required for data: 2294363680
I0810 05:58:31.609652  2733 layer_factory.hpp:77] Creating layer conv_st_4_1
I0810 05:58:31.609668  2733 net.cpp:91] Creating Layer conv_st_4_1
I0810 05:58:31.609675  2733 net.cpp:425] conv_st_4_1 <- pool_st_3
I0810 05:58:31.609688  2733 net.cpp:399] conv_st_4_1 -> conv_st_4_1
I0810 05:58:31.619916  2733 net.cpp:141] Setting up conv_st_4_1
I0810 05:58:31.619940  2733 net.cpp:148] Top shape: 20 512 29 29 (8611840)
I0810 05:58:31.619943  2733 net.cpp:156] Memory required for data: 2328811040
I0810 05:58:31.619951  2733 layer_factory.hpp:77] Creating layer relu_st_4_1
I0810 05:58:31.619961  2733 net.cpp:91] Creating Layer relu_st_4_1
I0810 05:58:31.619966  2733 net.cpp:425] relu_st_4_1 <- conv_st_4_1
I0810 05:58:31.619971  2733 net.cpp:386] relu_st_4_1 -> conv_st_4_1 (in-place)
I0810 05:58:31.620265  2733 net.cpp:141] Setting up relu_st_4_1
I0810 05:58:31.620285  2733 net.cpp:148] Top shape: 20 512 29 29 (8611840)
I0810 05:58:31.620290  2733 net.cpp:156] Memory required for data: 2363258400
I0810 05:58:31.620293  2733 layer_factory.hpp:77] Creating layer conv_st_4_2
I0810 05:58:31.620313  2733 net.cpp:91] Creating Layer conv_st_4_2
I0810 05:58:31.620323  2733 net.cpp:425] conv_st_4_2 <- conv_st_4_1
I0810 05:58:31.620331  2733 net.cpp:399] conv_st_4_2 -> conv_st_4_2
I0810 05:58:31.639771  2733 net.cpp:141] Setting up conv_st_4_2
I0810 05:58:31.639797  2733 net.cpp:148] Top shape: 20 512 29 29 (8611840)
I0810 05:58:31.639801  2733 net.cpp:156] Memory required for data: 2397705760
I0810 05:58:31.639819  2733 layer_factory.hpp:77] Creating layer relu_st_4_2
I0810 05:58:31.639827  2733 net.cpp:91] Creating Layer relu_st_4_2
I0810 05:58:31.639832  2733 net.cpp:425] relu_st_4_2 <- conv_st_4_2
I0810 05:58:31.639839  2733 net.cpp:386] relu_st_4_2 -> conv_st_4_2 (in-place)
I0810 05:58:31.640045  2733 net.cpp:141] Setting up relu_st_4_2
I0810 05:58:31.640064  2733 net.cpp:148] Top shape: 20 512 29 29 (8611840)
I0810 05:58:31.640069  2733 net.cpp:156] Memory required for data: 2432153120
I0810 05:58:31.640072  2733 layer_factory.hpp:77] Creating layer conv_st_4_3
I0810 05:58:31.640082  2733 net.cpp:91] Creating Layer conv_st_4_3
I0810 05:58:31.640086  2733 net.cpp:425] conv_st_4_3 <- conv_st_4_2
I0810 05:58:31.640094  2733 net.cpp:399] conv_st_4_3 -> conv_st_4_3
I0810 05:58:31.659492  2733 net.cpp:141] Setting up conv_st_4_3
I0810 05:58:31.659519  2733 net.cpp:148] Top shape: 20 512 29 29 (8611840)
I0810 05:58:31.659523  2733 net.cpp:156] Memory required for data: 2466600480
I0810 05:58:31.659531  2733 layer_factory.hpp:77] Creating layer relu_st_4_3
I0810 05:58:31.659540  2733 net.cpp:91] Creating Layer relu_st_4_3
I0810 05:58:31.659545  2733 net.cpp:425] relu_st_4_3 <- conv_st_4_3
I0810 05:58:31.659551  2733 net.cpp:386] relu_st_4_3 -> conv_st_4_3 (in-place)
I0810 05:58:31.659824  2733 net.cpp:141] Setting up relu_st_4_3
I0810 05:58:31.659842  2733 net.cpp:148] Top shape: 20 512 29 29 (8611840)
I0810 05:58:31.659847  2733 net.cpp:156] Memory required for data: 2501047840
I0810 05:58:31.659850  2733 layer_factory.hpp:77] Creating layer pool_st_4
I0810 05:58:31.659860  2733 net.cpp:91] Creating Layer pool_st_4
I0810 05:58:31.659865  2733 net.cpp:425] pool_st_4 <- conv_st_4_3
I0810 05:58:31.659873  2733 net.cpp:399] pool_st_4 -> pool_st_4
I0810 05:58:31.659922  2733 net.cpp:141] Setting up pool_st_4
I0810 05:58:31.659934  2733 net.cpp:148] Top shape: 20 512 15 15 (2304000)
I0810 05:58:31.659939  2733 net.cpp:156] Memory required for data: 2510263840
I0810 05:58:31.659941  2733 layer_factory.hpp:77] Creating layer conv_st_5_1
I0810 05:58:31.659953  2733 net.cpp:91] Creating Layer conv_st_5_1
I0810 05:58:31.659956  2733 net.cpp:425] conv_st_5_1 <- pool_st_4
I0810 05:58:31.659965  2733 net.cpp:399] conv_st_5_1 -> conv_st_5_1
I0810 05:58:31.679404  2733 net.cpp:141] Setting up conv_st_5_1
I0810 05:58:31.679443  2733 net.cpp:148] Top shape: 20 512 15 15 (2304000)
I0810 05:58:31.679447  2733 net.cpp:156] Memory required for data: 2519479840
I0810 05:58:31.679457  2733 layer_factory.hpp:77] Creating layer relu_st_5_1
I0810 05:58:31.679467  2733 net.cpp:91] Creating Layer relu_st_5_1
I0810 05:58:31.679472  2733 net.cpp:425] relu_st_5_1 <- conv_st_5_1
I0810 05:58:31.679479  2733 net.cpp:386] relu_st_5_1 -> conv_st_5_1 (in-place)
I0810 05:58:31.679766  2733 net.cpp:141] Setting up relu_st_5_1
I0810 05:58:31.679783  2733 net.cpp:148] Top shape: 20 512 15 15 (2304000)
I0810 05:58:31.679787  2733 net.cpp:156] Memory required for data: 2528695840
I0810 05:58:31.679791  2733 layer_factory.hpp:77] Creating layer conv_st_5_2
I0810 05:58:31.679805  2733 net.cpp:91] Creating Layer conv_st_5_2
I0810 05:58:31.679810  2733 net.cpp:425] conv_st_5_2 <- conv_st_5_1
I0810 05:58:31.679818  2733 net.cpp:399] conv_st_5_2 -> conv_st_5_2
I0810 05:58:31.722899  2733 net.cpp:141] Setting up conv_st_5_2
I0810 05:58:31.722941  2733 net.cpp:148] Top shape: 20 512 15 15 (2304000)
I0810 05:58:31.722946  2733 net.cpp:156] Memory required for data: 2537911840
I0810 05:58:31.722955  2733 layer_factory.hpp:77] Creating layer relu_st_5_2
I0810 05:58:31.722967  2733 net.cpp:91] Creating Layer relu_st_5_2
I0810 05:58:31.722973  2733 net.cpp:425] relu_st_5_2 <- conv_st_5_2
I0810 05:58:31.722982  2733 net.cpp:386] relu_st_5_2 -> conv_st_5_2 (in-place)
I0810 05:58:31.723206  2733 net.cpp:141] Setting up relu_st_5_2
I0810 05:58:31.723239  2733 net.cpp:148] Top shape: 20 512 15 15 (2304000)
I0810 05:58:31.723244  2733 net.cpp:156] Memory required for data: 2547127840
I0810 05:58:31.723248  2733 layer_factory.hpp:77] Creating layer conv_st_5_3
I0810 05:58:31.723263  2733 net.cpp:91] Creating Layer conv_st_5_3
I0810 05:58:31.723268  2733 net.cpp:425] conv_st_5_3 <- conv_st_5_2
I0810 05:58:31.723274  2733 net.cpp:399] conv_st_5_3 -> conv_st_5_3
I0810 05:58:31.743046  2733 net.cpp:141] Setting up conv_st_5_3
I0810 05:58:31.743085  2733 net.cpp:148] Top shape: 20 512 15 15 (2304000)
I0810 05:58:31.743090  2733 net.cpp:156] Memory required for data: 2556343840
I0810 05:58:31.743099  2733 layer_factory.hpp:77] Creating layer relu_st_5_3
I0810 05:58:31.743110  2733 net.cpp:91] Creating Layer relu_st_5_3
I0810 05:58:31.743116  2733 net.cpp:425] relu_st_5_3 <- conv_st_5_3
I0810 05:58:31.743124  2733 net.cpp:386] relu_st_5_3 -> conv_st_5_3 (in-place)
I0810 05:58:31.743432  2733 net.cpp:141] Setting up relu_st_5_3
I0810 05:58:31.743453  2733 net.cpp:148] Top shape: 20 512 15 15 (2304000)
I0810 05:58:31.743456  2733 net.cpp:156] Memory required for data: 2565559840
I0810 05:58:31.743460  2733 layer_factory.hpp:77] Creating layer pool_st_5
I0810 05:58:31.743471  2733 net.cpp:91] Creating Layer pool_st_5
I0810 05:58:31.743475  2733 net.cpp:425] pool_st_5 <- conv_st_5_3
I0810 05:58:31.743482  2733 net.cpp:399] pool_st_5 -> pool_st_5
I0810 05:58:31.743541  2733 net.cpp:141] Setting up pool_st_5
I0810 05:58:31.743556  2733 net.cpp:148] Top shape: 20 512 8 8 (655360)
I0810 05:58:31.743562  2733 net.cpp:156] Memory required for data: 2568181280
I0810 05:58:31.743567  2733 layer_factory.hpp:77] Creating layer fc_st_6
I0810 05:58:31.743579  2733 net.cpp:91] Creating Layer fc_st_6
I0810 05:58:31.743589  2733 net.cpp:425] fc_st_6 <- pool_st_5
I0810 05:58:31.743599  2733 net.cpp:399] fc_st_6 -> fc_st_6
I0810 05:58:32.923808  2733 net.cpp:141] Setting up fc_st_6
I0810 05:58:32.923853  2733 net.cpp:148] Top shape: 20 4096 (81920)
I0810 05:58:32.923858  2733 net.cpp:156] Memory required for data: 2568508960
I0810 05:58:32.923869  2733 layer_factory.hpp:77] Creating layer relu_st_6
I0810 05:58:32.923883  2733 net.cpp:91] Creating Layer relu_st_6
I0810 05:58:32.923888  2733 net.cpp:425] relu_st_6 <- fc_st_6
I0810 05:58:32.923897  2733 net.cpp:386] relu_st_6 -> fc_st_6 (in-place)
I0810 05:58:32.924202  2733 net.cpp:141] Setting up relu_st_6
I0810 05:58:32.924219  2733 net.cpp:148] Top shape: 20 4096 (81920)
I0810 05:58:32.924223  2733 net.cpp:156] Memory required for data: 2568836640
I0810 05:58:32.924228  2733 layer_factory.hpp:77] Creating layer fc_st_7
I0810 05:58:32.924237  2733 net.cpp:91] Creating Layer fc_st_7
I0810 05:58:32.924242  2733 net.cpp:425] fc_st_7 <- fc_st_6
I0810 05:58:32.924252  2733 net.cpp:399] fc_st_7 -> fc_st_7
I0810 05:58:33.060623  2733 net.cpp:141] Setting up fc_st_7
I0810 05:58:33.060667  2733 net.cpp:148] Top shape: 20 4096 (81920)
I0810 05:58:33.060672  2733 net.cpp:156] Memory required for data: 2569164320
I0810 05:58:33.060681  2733 layer_factory.hpp:77] Creating layer relu_st_7
I0810 05:58:33.060694  2733 net.cpp:91] Creating Layer relu_st_7
I0810 05:58:33.060699  2733 net.cpp:425] relu_st_7 <- fc_st_7
I0810 05:58:33.060708  2733 net.cpp:386] relu_st_7 -> fc_st_7 (in-place)
I0810 05:58:33.061183  2733 net.cpp:141] Setting up relu_st_7
I0810 05:58:33.061215  2733 net.cpp:148] Top shape: 20 4096 (81920)
I0810 05:58:33.061219  2733 net.cpp:156] Memory required for data: 2569492000
I0810 05:58:33.061224  2733 layer_factory.hpp:77] Creating layer fc_st_8
I0810 05:58:33.061236  2733 net.cpp:91] Creating Layer fc_st_8
I0810 05:58:33.061241  2733 net.cpp:425] fc_st_8 <- fc_st_7
I0810 05:58:33.061247  2733 net.cpp:399] fc_st_8 -> fc_st_8
I0810 05:58:33.093961  2733 net.cpp:141] Setting up fc_st_8
I0810 05:58:33.093999  2733 net.cpp:148] Top shape: 20 1000 (20000)
I0810 05:58:33.094004  2733 net.cpp:156] Memory required for data: 2569572000
I0810 05:58:33.094014  2733 layer_factory.hpp:77] Creating layer fc_st_8_fc_st_8_0_split
I0810 05:58:33.094027  2733 net.cpp:91] Creating Layer fc_st_8_fc_st_8_0_split
I0810 05:58:33.094055  2733 net.cpp:425] fc_st_8_fc_st_8_0_split <- fc_st_8
I0810 05:58:33.094065  2733 net.cpp:399] fc_st_8_fc_st_8_0_split -> fc_st_8_fc_st_8_0_split_0
I0810 05:58:33.094075  2733 net.cpp:399] fc_st_8_fc_st_8_0_split -> fc_st_8_fc_st_8_0_split_1
I0810 05:58:33.094131  2733 net.cpp:141] Setting up fc_st_8_fc_st_8_0_split
I0810 05:58:33.094146  2733 net.cpp:148] Top shape: 20 1000 (20000)
I0810 05:58:33.094152  2733 net.cpp:148] Top shape: 20 1000 (20000)
I0810 05:58:33.094157  2733 net.cpp:156] Memory required for data: 2569732000
I0810 05:58:33.094163  2733 layer_factory.hpp:77] Creating layer prob
I0810 05:58:33.094177  2733 net.cpp:91] Creating Layer prob
I0810 05:58:33.094182  2733 net.cpp:425] prob <- fc_st_8_fc_st_8_0_split_0
I0810 05:58:33.094192  2733 net.cpp:399] prob -> prob
I0810 05:58:33.094568  2733 net.cpp:141] Setting up prob
I0810 05:58:33.094585  2733 net.cpp:148] Top shape: 20 1000 (20000)
I0810 05:58:33.094589  2733 net.cpp:156] Memory required for data: 2569812000
I0810 05:58:33.094594  2733 layer_factory.hpp:77] Creating layer soft_label
I0810 05:58:33.094600  2733 net.cpp:91] Creating Layer soft_label
I0810 05:58:33.094604  2733 net.cpp:425] soft_label <- fc8
I0810 05:58:33.094612  2733 net.cpp:399] soft_label -> soft_label
I0810 05:58:33.095072  2733 net.cpp:141] Setting up soft_label
I0810 05:58:33.095090  2733 net.cpp:148] Top shape: 20 1000 (20000)
I0810 05:58:33.095094  2733 net.cpp:156] Memory required for data: 2569892000
I0810 05:58:33.095098  2733 layer_factory.hpp:77] Creating layer loss
I0810 05:58:33.095108  2733 net.cpp:91] Creating Layer loss
I0810 05:58:33.095113  2733 net.cpp:425] loss <- fc_st_8_fc_st_8_0_split_1
I0810 05:58:33.095118  2733 net.cpp:425] loss <- label
I0810 05:58:33.095124  2733 net.cpp:399] loss -> loss
…
I0810 05:58:33.097851  2733 net.cpp:313] The NetState phase (1) differed from the phase (0) specified by a rule in layer data
I0810 05:58:33.098239  2733 net.cpp:49] Initializing net from parameters: 
name: "AlexNet-Teacher VGG16-Student"
state {
  phase: TEST
}
layer {
  name: "data"
  type: "Data"
  top: "data"
  top: "label"
  include {
    phase: TEST
  }
  transform_param {
    mirror: true
    crop_size: 227
    mean_file: "/home/ubuntu/caffe/data/ilsvrc12/imagenet_mean.binaryproto"
  }
  data_param {
    source: "/home/ubuntu/caffe/examples/imagenet/ilsvrc12_val_lmdb"
    batch_size: 75
    backend: LMDB
  }
}
layer {
  name: "conv1"
  type: "Convolution"
  bottom: "data"
  top: "conv1"
  param {
    lr_mult: 0
  }
  param {
    lr_mult: 0
  }
  convolution_param {
    num_output: 96
    kernel_size: 11
    stride: 4
    weight_filler {
      type: "gaussian"
      std: 0.01
    }
    bias_filler {
      type: "constant"
      value: 0
    }
  }
}
layer {
  name: "relu1"
  type: "ReLU"
  bottom: "conv1"
  top: "conv1"
}
layer {
  name: "norm1"
  type: "LRN"
  bottom: "conv1"
  top: "norm1"
  lrn_param {
    local_size: 5
    alpha: 0.0001
    beta: 0.75
  }
}
layer {
  name: "pool1"
  type: "Pooling"
  bottom: "norm1"
  top: "pool1"
  pooling_param {
    pool: MAX
    kernel_size: 3
    stride: 2
  }
}
layer {
  name: "conv2"
  type: "Convolution"
  bottom: "pool1"
  top: "conv2"
  param {
    lr_mult: 0
  }
  param {
    lr_mult: 0
  }
  convolution_param {
    num_output: 256
    pad: 2
    kernel_size: 5
    group: 2
    weight_filler {
      type: "gaussian"
      std: 0.01
    }
    bias_filler {
      type: "constant"
      value: 0.1
    }
  }
}
layer {
  name: "relu2"
  type: "ReLU"
  bottom: "conv2"
  top: "conv2"
}
layer {
  name: "norm2"
  type: "LRN"
  bottom: "conv2"
  top: "norm2"
  lrn_param {
    local_size: 5
    alpha: 0.0001
    beta: 0.75
  }
}
layer {
  name: "pool2"
  type: "Pooling"
  bottom: "norm2"
  top: "pool2"
  pooling_param {
    pool: MAX
    kernel_size: 3
    stride: 2
  }
}
layer {
  name: "conv3"
  type: "Convolution"
  bottom: "pool2"
  top: "conv3"
  param {
    lr_mult: 0
  }
  param {
    lr_mult: 0
  }
  convolution_param {
    num_output: 384
    pad: 1
    kernel_size: 3
    weight_filler {
      type: "gaussian"
      std: 0.01
    }
    bias_filler {
      type: "constant"
      value: 0
    }
  }
}
layer {
  name: "relu3"
  type: "ReLU"
  bottom: "conv3"
  top: "conv3"
}
layer {
  name: "conv4"
  type: "Convolution"
  bottom: "conv3"
  top: "conv4"
  param {
    lr_mult: 0
  }
  param {
    lr_mult: 0
  }
  convolution_param {
    num_output: 384
    pad: 1
    kernel_size: 3
    group: 2
    weight_filler {
      type: "gaussian"
      std: 0.01
    }
    bias_filler {
      type: "constant"
      value: 0.1
    }
  }
}
layer {
  name: "relu4"
  type: "ReLU"
  bottom: "conv4"
  top: "conv4"
}
layer {
  name: "conv5"
  type: "Convolution"
  bottom: "conv4"
  top: "conv5"
  param {
    lr_mult: 0
  }
  param {
    lr_mult: 0
  }
  convolution_param {
    num_output: 256
    pad: 1
    kernel_size: 3
    group: 2
    weight_filler {
      type: "gaussian"
      std: 0.01
    }
    bias_filler {
      type: "constant"
      value: 0.1
    }
  }
}
layer {
  name: "relu5"
  type: "ReLU"
  bottom: "conv5"
  top: "conv5"
}
layer {
  name: "pool5"
  type: "Pooling"
  bottom: "conv5"
  top: "pool5"
  pooling_param {
    pool: MAX
    kernel_size: 3
    stride: 2
  }
}
layer {
  name: "fc6"
  type: "InnerProduct"
  bottom: "pool5"
  top: "fc6"
  param {
    lr_mult: 0
  }
  param {
    lr_mult: 0
  }
  inner_product_param {
    num_output: 4096
    weight_filler {
      type: "gaussian"
      std: 0.005
    }
    bias_filler {
      type: "constant"
      value: 0.1
    }
  }
}
layer {
  name: "relu6"
  type: "ReLU"
  bottom: "fc6"
  top: "fc6"
}
layer {
  name: "fc7"
  type: "InnerProduct"
  bottom: "fc6"
  top: "fc7"
  param {
    lr_mult: 0
  }
  param {
    lr_mult: 0
  }
  inner_product_param {
    num_output: 4096
    weight_filler {
      type: "gaussian"
      std: 0.005
    }
    bias_filler {
      type: "constant"
      value: 0.1
    }
  }
}
layer {
  name: "relu7"
  type: "ReLU"
  bottom: "fc7"
  top: "fc7"
}
layer {
  name: "fc8"
  type: "InnerProduct"
  bottom: "fc7"
  top: "fc8"
  param {
    lr_mult: 0
  }
  param {
    lr_mult: 0
  }
  inner_product_param {
    num_output: 1000
    weight_filler {
      type: "gaussian"
      std: 0.01
    }
    bias_filler {
      type: "constant"
      value: 0
    }
  }
}
layer {
  name: "conv_st_1_1"
  type: "Convolution"
  bottom: "data"
  top: "conv_st_1_1"
  convolution_param {
    num_output: 64
    pad: 1
    kernel_size: 3
    weight_filler {
      type: "xavier"
    }
    bias_filler {
      type: "constant"
      value: 0
    }
  }
}
layer {
  name: "relu_st_1_1"
  type: "ReLU"
  bottom: "conv_st_1_1"
  top: "conv_st_1_1"
}
layer {
  name: "conv_st_1_2"
  type: "Convolution"
  bottom: "conv_st_1_1"
  top: "conv_st_1_2"
  convolution_param {
    num_output: 64
    pad: 1
    kernel_size: 3
    weight_filler {
      type: "xavier"
    }
    bias_filler {
      type: "constant"
      value: 0
    }
  }
}
layer {
  name: "relu_st_1_2"
  type: "ReLU"
  bottom: "conv_st_1_2"
  top: "conv_st_1_2"
}
layer {
  name: "pool_st_1"
  type: "Pooling"
  bottom: "conv_st_1_2"
  top: "pool_st_1"
  pooling_param {
    pool: MAX
    kernel_size: 2
    stride: 2
  }
}
layer {
  name: "conv_st_2_1"
  type: "Convolution"
  bottom: "pool_st_1"
  top: "conv_st_2_1"
  convolution_param {
    num_output: 128
    pad: 1
    kernel_size: 3
    weight_filler {
      type: "xavier"
    }
    bias_filler {
      type: "constant"
      value: 0
    }
  }
}
layer {
  name: "relu_st_2_1"
  type: "ReLU"
  bottom: "conv_st_2_1"
  top: "conv_st_2_1"
}
layer {
  name: "conv_st_2_2"
  type: "Convolution"
  bottom: "conv_st_2_1"
  top: "conv_st_2_2"
  convolution_param {
    num_output: 128
    pad: 1
    kernel_size: 3
    weight_filler {
      type: "xavier"
    }
    bias_filler {
      type: "constant"
      value: 0
    }
  }
}
layer {
  name: "relu_st_2_2"
  type: "ReLU"
  bottom: "conv_st_2_2"
  top: "conv_st_2_2"
}
layer {
  name: "pool_st_2"
  type: "Pooling"
  bottom: "conv_st_2_2"
  top: "pool_st_2"
  pooling_param {
    pool: MAX
    kernel_size: 2
    stride: 2
  }
}
layer {
  name: "conv_st_3_1"
  type: "Convolution"
  bottom: "pool_st_2"
  top: "conv_st_3_1"
  convolution_param {
    num_output: 256
    pad: 1
    kernel_size: 3
    weight_filler {
      type: "xavier"
    }
    bias_filler {
      type: "constant"
      value: 0
    }
  }
}
layer {
  name: "relu_st_3_1"
  type: "ReLU"
  bottom: "conv_st_3_1"
  top: "conv_st_3_1"
}
layer {
  name: "conv_st_3_2"
  type: "Convolution"
  bottom: "conv_st_3_1"
  top: "conv_st_3_2"
  convolution_param {
    num_output: 256
    pad: 1
    kernel_size: 3
    weight_filler {
      type: "xavier"
    }
    bias_filler {
      type: "constant"
      value: 0
    }
  }
}
layer {
  name: "relu_st_3_2"
  type: "ReLU"
  bottom: "conv_st_3_2"
  top: "conv_st_3_2"
}
layer {
  name: "conv_st_3_3"
  type: "Convolution"
  bottom: "conv_st_3_2"
  top: "conv_st_3_3"
  convolution_param {
    num_output: 256
    pad: 1
    kernel_size: 3
    weight_filler {
      type: "xavier"
    }
    bias_filler {
      type: "constant"
      value: 0
    }
  }
}
layer {
  name: "relu_st_3_3"
  type: "ReLU"
  bottom: "conv_st_3_3"
  top: "conv_st_3_3"
}
layer {
  name: "pool_st_3"
  type: "Pooling"
  bottom: "conv_st_3_3"
  top: "pool_st_3"
  pooling_param {
    pool: MAX
    kernel_size: 2
    stride: 2
  }
}
layer {
  name: "conv_st_4_1"
  type: "Convolution"
  bottom: "pool_st_3"
  top: "conv_st_4_1"
  convolution_param {
    num_output: 512
    pad: 1
    kernel_size: 3
    weight_filler {
      type: "xavier"
    }
    bias_filler {
      type: "constant"
      value: 0
    }
  }
}
layer {
  name: "relu_st_4_1"
  type: "ReLU"
  bottom: "conv_st_4_1"
  top: "conv_st_4_1"
}
layer {
  name: "conv_st_4_2"
  type: "Convolution"
  bottom: "conv_st_4_1"
  top: "conv_st_4_2"
  convolution_param {
    num_output: 512
    pad: 1
    kernel_size: 3
    weight_filler {
      type: "xavier"
    }
    bias_filler {
      type: "constant"
      value: 0
    }
  }
}
layer {
  name: "relu_st_4_2"
  type: "ReLU"
  bottom: "conv_st_4_2"
  top: "conv_st_4_2"
}
layer {
  name: "conv_st_4_3"
  type: "Convolution"
  bottom: "conv_st_4_2"
  top: "conv_st_4_3"
  convolution_param {
    num_output: 512
    pad: 1
    kernel_size: 3
    weight_filler {
      type: "xavier"
    }
    bias_filler {
      type: "constant"
      value: 0
    }
  }
}
layer {
  name: "relu_st_4_3"
  type: "ReLU"
  bottom: "conv_st_4_3"
  top: "conv_st_4_3"
}
layer {
  name: "pool_st_4"
  type: "Pooling"
  bottom: "conv_st_4_3"
  top: "pool_st_4"
  pooling_param {
    pool: MAX
    kernel_size: 2
    stride: 2
  }
}
layer {
  name: "conv_st_5_1"
  type: "Convolution"
  bottom: "pool_st_4"
  top: "conv_st_5_1"
  convolution_param {
    num_output: 512
    pad: 1
    kernel_size: 3
    weight_filler {
      type: "xavier"
    }
    bias_filler {
      type: "constant"
      value: 0
    }
  }
}
layer {
  name: "relu_st_5_1"
  type: "ReLU"
  bottom: "conv_st_5_1"
  top: "conv_st_5_1"
}
layer {
  name: "conv_st_5_2"
  type: "Convolution"
  bottom: "conv_st_5_1"
  top: "conv_st_5_2"
  convolution_param {
    num_output: 512
    pad: 1
    kernel_size: 3
    weight_filler {
      type: "xavier"
    }
    bias_filler {
      type: "constant"
      value: 0
    }
  }
}
layer {
  name: "relu_st_5_2"
  type: "ReLU"
  bottom: "conv_st_5_2"
  top: "conv_st_5_2"
}
layer {
  name: "conv_st_5_3"
  type: "Convolution"
  bottom: "conv_st_5_2"
  top: "conv_st_5_3"
  convolution_param {
    num_output: 512
    pad: 1
    kernel_size: 3
    weight_filler {
      type: "xavier"
    }
    bias_filler {
      type: "constant"
      value: 0
    }
  }
}
layer {
  name: "relu_st_5_3"
  type: "ReLU"
  bottom: "conv_st_5_3"
  top: "conv_st_5_3"
}
layer {
  name: "pool_st_5"
  type: "Pooling"
  bottom: "conv_st_5_3"
  top: "pool_st_5"
  pooling_param {
    pool: MAX
    kernel_size: 2
    stride: 2
  }
}
layer {
  name: "fc_st_6"
  type: "InnerProduct"
  bottom: "pool_st_5"
  top: "fc_st_6"
  inner_product_param {
    num_output: 4096
    weight_filler {
      type: "xavier"
    }
    bias_filler {
      type: "constant"
      value: 0
    }
  }
}
layer {
  name: "relu_st_6"
  type: "ReLU"
  bottom: "fc_st_6"
  top: "fc_st_6"
}
layer {
  name: "fc_st_7"
  type: "InnerProduct"
  bottom: "fc_st_6"
  top: "fc_st_7"
  inner_product_param {
    num_output: 4096
    weight_filler {
      type: "xavier"
    }
    bias_filler {
      type: "constant"
      value: 0
    }
  }
}
layer {
  name: "relu_st_7"
  type: "ReLU"
  bottom: "fc_st_7"
  top: "fc_st_7"
}
layer {
  name: "fc_st_8"
  type: "InnerProduct"
  bottom: "fc_st_7"
  top: "fc_st_8"
  inner_product_param {
    num_output: 1000
    weight_filler {
      type: "xavier"
    }
    bias_filler {
      type: "constant"
      value: 0
    }
  }
}
layer {
  name: "prob"
  type: "Softmax"
  bottom: "fc_st_8"
  top: "prob"
}
layer {
  name: "soft_label"
  type: "Softmax"
  bottom: "fc8"
  top: "soft_label"
}
layer {
  name: "loss"
  type: "SoftmaxWithLoss"
  bottom: "fc_st_8"
  bottom: "label"
  top: "loss"
  loss_weight: 0.995
}
layer {
  name: "st_loss"
  type: "SigmoidCrossEntropyLoss"
  bottom: "prob"
  bottom: "soft_label"
  top: "st_loss"
  loss_weight: 0.005
}
layer {
  name: "accuracy/top1"
  type: "Accuracy"
  bottom: "fc_st_8"
  bottom: "label"
  top: "accuracy@1"
  include {
    phase: TEST
  }
  accuracy_param {
    top_k: 1
  }
}
layer {
  name: "accuracy/top5"
  type: "Accuracy"
  bottom: "fc_st_8"
  bottom: "label"
  top: "accuracy@5"
  include {
    phase: TEST
  }
  accuracy_param {
    top_k: 5
  }
}
I0810 05:58:33.098556  2733 layer_factory.hpp:77] Creating layer data
I0810 05:58:33.099139  2733 net.cpp:91] Creating Layer data
I0810 05:58:33.099150  2733 net.cpp:399] data -> data
I0810 05:58:33.099160  2733 net.cpp:399] data -> label
I0810 05:58:33.099169  2733 data_transformer.cpp:25] Loading mean file from: /home/ubuntu/caffe/data/ilsvrc12/imagenet_mean.binaryproto
I0810 05:58:33.102679  2738 db_lmdb.cpp:35] Opened lmdb /home/ubuntu/caffe/examples/imagenet/ilsvrc12_val_lmdb
I0810 05:58:33.103088  2733 data_layer.cpp:41] output data size: 75,3,227,227
I0810 05:58:33.243502  2733 net.cpp:141] Setting up data
I0810 05:58:33.243543  2733 net.cpp:148] Top shape: 75 3 227 227 (11594025)
I0810 05:58:33.243553  2733 net.cpp:148] Top shape: 75 (75)
I0810 05:58:33.243564  2733 net.cpp:156] Memory required for data: 46376400
I0810 05:58:33.243577  2733 layer_factory.hpp:77] Creating layer data_data_0_split
I0810 05:58:33.243597  2733 net.cpp:91] Creating Layer data_data_0_split
I0810 05:58:33.243604  2733 net.cpp:425] data_data_0_split <- data
I0810 05:58:33.243616  2733 net.cpp:399] data_data_0_split -> data_data_0_split_0
I0810 05:58:33.243633  2733 net.cpp:399] data_data_0_split -> data_data_0_split_1
I0810 05:58:33.243734  2733 net.cpp:141] Setting up data_data_0_split
I0810 05:58:33.243752  2733 net.cpp:148] Top shape: 75 3 227 227 (11594025)
I0810 05:58:33.243759  2733 net.cpp:148] Top shape: 75 3 227 227 (11594025)
I0810 05:58:33.243765  2733 net.cpp:156] Memory required for data: 139128600
I0810 05:58:33.243772  2733 layer_factory.hpp:77] Creating layer label_data_1_split
I0810 05:58:33.243782  2733 net.cpp:91] Creating Layer label_data_1_split
I0810 05:58:33.243789  2733 net.cpp:425] label_data_1_split <- label
I0810 05:58:33.243799  2733 net.cpp:399] label_data_1_split -> label_data_1_split_0
I0810 05:58:33.243813  2733 net.cpp:399] label_data_1_split -> label_data_1_split_1
I0810 05:58:33.243822  2733 net.cpp:399] label_data_1_split -> label_data_1_split_2
I0810 05:58:33.243903  2733 net.cpp:141] Setting up label_data_1_split
I0810 05:58:33.243919  2733 net.cpp:148] Top shape: 75 (75)
I0810 05:58:33.243927  2733 net.cpp:148] Top shape: 75 (75)
I0810 05:58:33.243933  2733 net.cpp:148] Top shape: 75 (75)
I0810 05:58:33.243938  2733 net.cpp:156] Memory required for data: 139129500
I0810 05:58:33.243945  2733 layer_factory.hpp:77] Creating layer conv1
I0810 05:58:33.243966  2733 net.cpp:91] Creating Layer conv1
I0810 05:58:33.243974  2733 net.cpp:425] conv1 <- data_data_0_split_0
I0810 05:58:33.243988  2733 net.cpp:399] conv1 -> conv1
I0810 05:58:33.251401  2733 net.cpp:141] Setting up conv1
I0810 05:58:33.251427  2733 net.cpp:148] Top shape: 75 96 55 55 (21780000)
I0810 05:58:33.251435  2733 net.cpp:156] Memory required for data: 226249500
I0810 05:58:33.251452  2733 layer_factory.hpp:77] Creating layer relu1
I0810 05:58:33.251468  2733 net.cpp:91] Creating Layer relu1
I0810 05:58:33.251476  2733 net.cpp:425] relu1 <- conv1
I0810 05:58:33.251485  2733 net.cpp:386] relu1 -> conv1 (in-place)
I0810 05:58:33.251780  2733 net.cpp:141] Setting up relu1
I0810 05:58:33.251802  2733 net.cpp:148] Top shape: 75 96 55 55 (21780000)
I0810 05:58:33.251809  2733 net.cpp:156] Memory required for data: 313369500
I0810 05:58:33.251816  2733 layer_factory.hpp:77] Creating layer norm1
I0810 05:58:33.251829  2733 net.cpp:91] Creating Layer norm1
I0810 05:58:33.251837  2733 net.cpp:425] norm1 <- conv1
I0810 05:58:33.251847  2733 net.cpp:399] norm1 -> norm1
I0810 05:58:33.252080  2733 net.cpp:141] Setting up norm1
I0810 05:58:33.252099  2733 net.cpp:148] Top shape: 75 96 55 55 (21780000)
I0810 05:58:33.252105  2733 net.cpp:156] Memory required for data: 400489500
I0810 05:58:33.252111  2733 layer_factory.hpp:77] Creating layer pool1
I0810 05:58:33.252123  2733 net.cpp:91] Creating Layer pool1
I0810 05:58:33.252130  2733 net.cpp:425] pool1 <- norm1
I0810 05:58:33.252140  2733 net.cpp:399] pool1 -> pool1
I0810 05:58:33.252200  2733 net.cpp:141] Setting up pool1
I0810 05:58:33.252215  2733 net.cpp:148] Top shape: 75 96 27 27 (5248800)
I0810 05:58:33.252221  2733 net.cpp:156] Memory required for data: 421484700
I0810 05:58:33.252228  2733 layer_factory.hpp:77] Creating layer conv2
I0810 05:58:33.252244  2733 net.cpp:91] Creating Layer conv2
I0810 05:58:33.252251  2733 net.cpp:425] conv2 <- pool1
I0810 05:58:33.252264  2733 net.cpp:399] conv2 -> conv2
I0810 05:58:33.264593  2733 net.cpp:141] Setting up conv2
I0810 05:58:33.264629  2733 net.cpp:148] Top shape: 75 256 27 27 (13996800)
I0810 05:58:33.264636  2733 net.cpp:156] Memory required for data: 477471900
I0810 05:58:33.264654  2733 layer_factory.hpp:77] Creating layer relu2
I0810 05:58:33.264672  2733 net.cpp:91] Creating Layer relu2
I0810 05:58:33.264679  2733 net.cpp:425] relu2 <- conv2
I0810 05:58:33.264691  2733 net.cpp:386] relu2 -> conv2 (in-place)
I0810 05:58:33.264943  2733 net.cpp:141] Setting up relu2
I0810 05:58:33.264961  2733 net.cpp:148] Top shape: 75 256 27 27 (13996800)
I0810 05:58:33.264966  2733 net.cpp:156] Memory required for data: 533459100
I0810 05:58:33.264972  2733 layer_factory.hpp:77] Creating layer norm2
I0810 05:58:33.264986  2733 net.cpp:91] Creating Layer norm2
I0810 05:58:33.264993  2733 net.cpp:425] norm2 <- conv2
I0810 05:58:33.265003  2733 net.cpp:399] norm2 -> norm2
I0810 05:58:33.265357  2733 net.cpp:141] Setting up norm2
I0810 05:58:33.265377  2733 net.cpp:148] Top shape: 75 256 27 27 (13996800)
I0810 05:58:33.265383  2733 net.cpp:156] Memory required for data: 589446300
I0810 05:58:33.265389  2733 layer_factory.hpp:77] Creating layer pool2
I0810 05:58:33.265401  2733 net.cpp:91] Creating Layer pool2
I0810 05:58:33.265408  2733 net.cpp:425] pool2 <- norm2
I0810 05:58:33.265417  2733 net.cpp:399] pool2 -> pool2
I0810 05:58:33.265496  2733 net.cpp:141] Setting up pool2
I0810 05:58:33.265517  2733 net.cpp:148] Top shape: 75 256 13 13 (3244800)
I0810 05:58:33.265523  2733 net.cpp:156] Memory required for data: 602425500
I0810 05:58:33.265529  2733 layer_factory.hpp:77] Creating layer conv3
I0810 05:58:33.265548  2733 net.cpp:91] Creating Layer conv3
I0810 05:58:33.265555  2733 net.cpp:425] conv3 <- pool2
I0810 05:58:33.265566  2733 net.cpp:399] conv3 -> conv3
I0810 05:58:33.295825  2733 net.cpp:141] Setting up conv3
I0810 05:58:33.295864  2733 net.cpp:148] Top shape: 75 384 13 13 (4867200)
I0810 05:58:33.295871  2733 net.cpp:156] Memory required for data: 621894300
I0810 05:58:33.295892  2733 layer_factory.hpp:77] Creating layer relu3
I0810 05:58:33.295907  2733 net.cpp:91] Creating Layer relu3
I0810 05:58:33.295915  2733 net.cpp:425] relu3 <- conv3
I0810 05:58:33.295925  2733 net.cpp:386] relu3 -> conv3 (in-place)
I0810 05:58:33.296167  2733 net.cpp:141] Setting up relu3
I0810 05:58:33.296183  2733 net.cpp:148] Top shape: 75 384 13 13 (4867200)
I0810 05:58:33.296190  2733 net.cpp:156] Memory required for data: 641363100
I0810 05:58:33.296195  2733 layer_factory.hpp:77] Creating layer conv4
I0810 05:58:33.296214  2733 net.cpp:91] Creating Layer conv4
I0810 05:58:33.296222  2733 net.cpp:425] conv4 <- conv3
I0810 05:58:33.296234  2733 net.cpp:399] conv4 -> conv4
I0810 05:58:33.326212  2733 net.cpp:141] Setting up conv4
I0810 05:58:33.326253  2733 net.cpp:148] Top shape: 75 384 13 13 (4867200)
I0810 05:58:33.326259  2733 net.cpp:156] Memory required for data: 660831900
I0810 05:58:33.326272  2733 layer_factory.hpp:77] Creating layer relu4
I0810 05:58:33.326287  2733 net.cpp:91] Creating Layer relu4
I0810 05:58:33.326295  2733 net.cpp:425] relu4 <- conv4
I0810 05:58:33.326306  2733 net.cpp:386] relu4 -> conv4 (in-place)
I0810 05:58:33.326575  2733 net.cpp:141] Setting up relu4
I0810 05:58:33.326593  2733 net.cpp:148] Top shape: 75 384 13 13 (4867200)
I0810 05:58:33.326599  2733 net.cpp:156] Memory required for data: 680300700
I0810 05:58:33.326606  2733 layer_factory.hpp:77] Creating layer conv5
I0810 05:58:33.326624  2733 net.cpp:91] Creating Layer conv5
I0810 05:58:33.326632  2733 net.cpp:425] conv5 <- conv4
I0810 05:58:33.326645  2733 net.cpp:399] conv5 -> conv5
I0810 05:58:33.343624  2733 net.cpp:141] Setting up conv5
I0810 05:58:33.343660  2733 net.cpp:148] Top shape: 75 256 13 13 (3244800)
I0810 05:58:33.343667  2733 net.cpp:156] Memory required for data: 693279900
I0810 05:58:33.343688  2733 layer_factory.hpp:77] Creating layer relu5
I0810 05:58:33.343708  2733 net.cpp:91] Creating Layer relu5
I0810 05:58:33.343717  2733 net.cpp:425] relu5 <- conv5
I0810 05:58:33.343729  2733 net.cpp:386] relu5 -> conv5 (in-place)
I0810 05:58:33.344056  2733 net.cpp:141] Setting up relu5
I0810 05:58:33.344079  2733 net.cpp:148] Top shape: 75 256 13 13 (3244800)
I0810 05:58:33.344085  2733 net.cpp:156] Memory required for data: 706259100
I0810 05:58:33.344091  2733 layer_factory.hpp:77] Creating layer pool5
I0810 05:58:33.344105  2733 net.cpp:91] Creating Layer pool5
I0810 05:58:33.344111  2733 net.cpp:425] pool5 <- conv5
I0810 05:58:33.344122  2733 net.cpp:399] pool5 -> pool5
I0810 05:58:33.344200  2733 net.cpp:141] Setting up pool5
I0810 05:58:33.344216  2733 net.cpp:148] Top shape: 75 256 6 6 (691200)
I0810 05:58:33.344223  2733 net.cpp:156] Memory required for data: 709023900
I0810 05:58:33.344228  2733 layer_factory.hpp:77] Creating layer fc6
I0810 05:58:33.344244  2733 net.cpp:91] Creating Layer fc6
I0810 05:58:33.344250  2733 net.cpp:425] fc6 <- pool5
I0810 05:58:33.344262  2733 net.cpp:399] fc6 -> fc6
I0810 05:58:34.489691  2733 net.cpp:141] Setting up fc6
I0810 05:58:34.489732  2733 net.cpp:148] Top shape: 75 4096 (307200)
I0810 05:58:34.489738  2733 net.cpp:156] Memory required for data: 710252700
I0810 05:58:34.489753  2733 layer_factory.hpp:77] Creating layer relu6
I0810 05:58:34.489768  2733 net.cpp:91] Creating Layer relu6
I0810 05:58:34.489776  2733 net.cpp:425] relu6 <- fc6
I0810 05:58:34.489786  2733 net.cpp:386] relu6 -> fc6 (in-place)
I0810 05:58:34.490085  2733 net.cpp:141] Setting up relu6
I0810 05:58:34.490095  2733 net.cpp:148] Top shape: 75 4096 (307200)
I0810 05:58:34.490099  2733 net.cpp:156] Memory required for data: 711481500
I0810 05:58:34.490103  2733 layer_factory.hpp:77] Creating layer fc7
I0810 05:58:34.490113  2733 net.cpp:91] Creating Layer fc7
I0810 05:58:34.490118  2733 net.cpp:425] fc7 <- fc6
I0810 05:58:34.490124  2733 net.cpp:399] fc7 -> fc7
I0810 05:58:35.009955  2733 net.cpp:141] Setting up fc7
I0810 05:58:35.009999  2733 net.cpp:148] Top shape: 75 4096 (307200)
I0810 05:58:35.010004  2733 net.cpp:156] Memory required for data: 712710300
I0810 05:58:35.010015  2733 layer_factory.hpp:77] Creating layer relu7
I0810 05:58:35.010027  2733 net.cpp:91] Creating Layer relu7
I0810 05:58:35.010033  2733 net.cpp:425] relu7 <- fc7
I0810 05:58:35.010041  2733 net.cpp:386] relu7 -> fc7 (in-place)
I0810 05:58:35.010509  2733 net.cpp:141] Setting up relu7
I0810 05:58:35.010530  2733 net.cpp:148] Top shape: 75 4096 (307200)
I0810 05:58:35.010537  2733 net.cpp:156] Memory required for data: 713939100
I0810 05:58:35.010543  2733 layer_factory.hpp:77] Creating layer fc8
I0810 05:58:35.010558  2733 net.cpp:91] Creating Layer fc8
I0810 05:58:35.010565  2733 net.cpp:425] fc8 <- fc7
I0810 05:58:35.010577  2733 net.cpp:399] fc8 -> fc8
I0810 05:58:35.131364  2733 net.cpp:141] Setting up fc8
I0810 05:58:35.131410  2733 net.cpp:148] Top shape: 75 1000 (75000)
I0810 05:58:35.131417  2733 net.cpp:156] Memory required for data: 714239100
I0810 05:58:35.131433  2733 layer_factory.hpp:77] Creating layer conv_st_1_1
I0810 05:58:35.131456  2733 net.cpp:91] Creating Layer conv_st_1_1
I0810 05:58:35.131465  2733 net.cpp:425] conv_st_1_1 <- data_data_0_split_1
I0810 05:58:35.131479  2733 net.cpp:399] conv_st_1_1 -> conv_st_1_1
I0810 05:58:35.133396  2733 net.cpp:141] Setting up conv_st_1_1
I0810 05:58:35.133420  2733 net.cpp:148] Top shape: 75 64 227 227 (247339200)
I0810 05:58:35.133426  2733 net.cpp:156] Memory required for data: 1703595900
I0810 05:58:35.133448  2733 layer_factory.hpp:77] Creating layer relu_st_1_1
I0810 05:58:35.133460  2733 net.cpp:91] Creating Layer relu_st_1_1
I0810 05:58:35.133467  2733 net.cpp:425] relu_st_1_1 <- conv_st_1_1
I0810 05:58:35.133478  2733 net.cpp:386] relu_st_1_1 -> conv_st_1_1 (in-place)
I0810 05:58:35.133783  2733 net.cpp:141] Setting up relu_st_1_1
I0810 05:58:35.133805  2733 net.cpp:148] Top shape: 75 64 227 227 (247339200)
I0810 05:58:35.133812  2733 net.cpp:156] Memory required for data: 2692952700
I0810 05:58:35.133818  2733 layer_factory.hpp:77] Creating layer conv_st_1_2
I0810 05:58:35.133836  2733 net.cpp:91] Creating Layer conv_st_1_2
I0810 05:58:35.133873  2733 net.cpp:425] conv_st_1_2 <- conv_st_1_1
I0810 05:58:35.133888  2733 net.cpp:399] conv_st_1_2 -> conv_st_1_2
I0810 05:58:35.135215  2733 net.cpp:141] Setting up conv_st_1_2
I0810 05:58:35.135237  2733 net.cpp:148] Top shape: 75 64 227 227 (247339200)
I0810 05:58:35.135244  2733 net.cpp:156] Memory required for data: 3682309500
I0810 05:58:35.135255  2733 layer_factory.hpp:77] Creating layer relu_st_1_2
I0810 05:58:35.135269  2733 net.cpp:91] Creating Layer relu_st_1_2
I0810 05:58:35.135277  2733 net.cpp:425] relu_st_1_2 <- conv_st_1_2
I0810 05:58:35.135285  2733 net.cpp:386] relu_st_1_2 -> conv_st_1_2 (in-place)
I0810 05:58:35.135496  2733 net.cpp:141] Setting up relu_st_1_2
I0810 05:58:35.135515  2733 net.cpp:148] Top shape: 75 64 227 227 (247339200)
I0810 05:58:35.135521  2733 net.cpp:156] Memory required for data: 4671666300
I0810 05:58:35.135527  2733 layer_factory.hpp:77] Creating layer pool_st_1
I0810 05:58:35.135538  2733 net.cpp:91] Creating Layer pool_st_1
I0810 05:58:35.135545  2733 net.cpp:425] pool_st_1 <- conv_st_1_2
I0810 05:58:35.135557  2733 net.cpp:399] pool_st_1 -> pool_st_1
I0810 05:58:35.135629  2733 net.cpp:141] Setting up pool_st_1
I0810 05:58:35.135644  2733 net.cpp:148] Top shape: 75 64 114 114 (62380800)
I0810 05:58:35.135650  2733 net.cpp:156] Memory required for data: 4921189500
I0810 05:58:35.135656  2733 layer_factory.hpp:77] Creating layer conv_st_2_1
I0810 05:58:35.135675  2733 net.cpp:91] Creating Layer conv_st_2_1
I0810 05:58:35.135682  2733 net.cpp:425] conv_st_2_1 <- pool_st_1
I0810 05:58:35.135692  2733 net.cpp:399] conv_st_2_1 -> conv_st_2_1
I0810 05:58:35.137902  2733 net.cpp:141] Setting up conv_st_2_1
I0810 05:58:35.137925  2733 net.cpp:148] Top shape: 75 128 114 114 (124761600)
I0810 05:58:35.137933  2733 net.cpp:156] Memory required for data: 5420235900
I0810 05:58:35.137943  2733 layer_factory.hpp:77] Creating layer relu_st_2_1
I0810 05:58:35.137959  2733 net.cpp:91] Creating Layer relu_st_2_1
I0810 05:58:35.137965  2733 net.cpp:425] relu_st_2_1 <- conv_st_2_1
I0810 05:58:35.137975  2733 net.cpp:386] relu_st_2_1 -> conv_st_2_1 (in-place)
I0810 05:58:35.138289  2733 net.cpp:141] Setting up relu_st_2_1
I0810 05:58:35.138310  2733 net.cpp:148] Top shape: 75 128 114 114 (124761600)
I0810 05:58:35.138317  2733 net.cpp:156] Memory required for data: 5919282300
I0810 05:58:35.138324  2733 layer_factory.hpp:77] Creating layer conv_st_2_2
I0810 05:58:35.138344  2733 net.cpp:91] Creating Layer conv_st_2_2
I0810 05:58:35.138351  2733 net.cpp:425] conv_st_2_2 <- conv_st_2_1
I0810 05:58:35.138363  2733 net.cpp:399] conv_st_2_2 -> conv_st_2_2
I0810 05:58:35.140287  2733 net.cpp:141] Setting up conv_st_2_2
I0810 05:58:35.140311  2733 net.cpp:148] Top shape: 75 128 114 114 (124761600)
I0810 05:58:35.140317  2733 net.cpp:156] Memory required for data: 6418328700
I0810 05:58:35.140328  2733 layer_factory.hpp:77] Creating layer relu_st_2_2
I0810 05:58:35.140342  2733 net.cpp:91] Creating Layer relu_st_2_2
I0810 05:58:35.140349  2733 net.cpp:425] relu_st_2_2 <- conv_st_2_2
I0810 05:58:35.140362  2733 net.cpp:386] relu_st_2_2 -> conv_st_2_2 (in-place)
I0810 05:58:35.140671  2733 net.cpp:141] Setting up relu_st_2_2
I0810 05:58:35.140691  2733 net.cpp:148] Top shape: 75 128 114 114 (124761600)
I0810 05:58:35.140697  2733 net.cpp:156] Memory required for data: 6917375100
I0810 05:58:35.140703  2733 layer_factory.hpp:77] Creating layer pool_st_2
I0810 05:58:35.140722  2733 net.cpp:91] Creating Layer pool_st_2
I0810 05:58:35.140729  2733 net.cpp:425] pool_st_2 <- conv_st_2_2
I0810 05:58:35.140740  2733 net.cpp:399] pool_st_2 -> pool_st_2
I0810 05:58:35.140815  2733 net.cpp:141] Setting up pool_st_2
I0810 05:58:35.140830  2733 net.cpp:148] Top shape: 75 128 57 57 (31190400)
I0810 05:58:35.140836  2733 net.cpp:156] Memory required for data: 7042136700
I0810 05:58:35.140841  2733 layer_factory.hpp:77] Creating layer conv_st_3_1
I0810 05:58:35.140863  2733 net.cpp:91] Creating Layer conv_st_3_1
I0810 05:58:35.140871  2733 net.cpp:425] conv_st_3_1 <- pool_st_2
I0810 05:58:35.140883  2733 net.cpp:399] conv_st_3_1 -> conv_st_3_1
I0810 05:58:35.144413  2733 net.cpp:141] Setting up conv_st_3_1
I0810 05:58:35.144438  2733 net.cpp:148] Top shape: 75 256 57 57 (62380800)
I0810 05:58:35.144444  2733 net.cpp:156] Memory required for data: 7291659900
I0810 05:58:35.144456  2733 layer_factory.hpp:77] Creating layer relu_st_3_1
I0810 05:58:35.144469  2733 net.cpp:91] Creating Layer relu_st_3_1
I0810 05:58:35.144477  2733 net.cpp:425] relu_st_3_1 <- conv_st_3_1
I0810 05:58:35.144486  2733 net.cpp:386] relu_st_3_1 -> conv_st_3_1 (in-place)
I0810 05:58:35.144693  2733 net.cpp:141] Setting up relu_st_3_1
I0810 05:58:35.144711  2733 net.cpp:148] Top shape: 75 256 57 57 (62380800)
I0810 05:58:35.144717  2733 net.cpp:156] Memory required for data: 7541183100
I0810 05:58:35.144723  2733 layer_factory.hpp:77] Creating layer conv_st_3_2
I0810 05:58:35.144742  2733 net.cpp:91] Creating Layer conv_st_3_2
I0810 05:58:35.144750  2733 net.cpp:425] conv_st_3_2 <- conv_st_3_1
I0810 05:58:35.144762  2733 net.cpp:399] conv_st_3_2 -> conv_st_3_2
I0810 05:58:35.150542  2733 net.cpp:141] Setting up conv_st_3_2
I0810 05:58:35.150568  2733 net.cpp:148] Top shape: 75 256 57 57 (62380800)
I0810 05:58:35.150574  2733 net.cpp:156] Memory required for data: 7790706300
I0810 05:58:35.150585  2733 layer_factory.hpp:77] Creating layer relu_st_3_2
I0810 05:58:35.150599  2733 net.cpp:91] Creating Layer relu_st_3_2
I0810 05:58:35.150606  2733 net.cpp:425] relu_st_3_2 <- conv_st_3_2
I0810 05:58:35.150616  2733 net.cpp:386] relu_st_3_2 -> conv_st_3_2 (in-place)
I0810 05:58:35.150920  2733 net.cpp:141] Setting up relu_st_3_2
I0810 05:58:35.150940  2733 net.cpp:148] Top shape: 75 256 57 57 (62380800)
I0810 05:58:35.150946  2733 net.cpp:156] Memory required for data: 8040229500
I0810 05:58:35.150952  2733 layer_factory.hpp:77] Creating layer conv_st_3_3
I0810 05:58:35.150971  2733 net.cpp:91] Creating Layer conv_st_3_3
I0810 05:58:35.150979  2733 net.cpp:425] conv_st_3_3 <- conv_st_3_2
I0810 05:58:35.150992  2733 net.cpp:399] conv_st_3_3 -> conv_st_3_3
I0810 05:58:35.156709  2733 net.cpp:141] Setting up conv_st_3_3
I0810 05:58:35.156736  2733 net.cpp:148] Top shape: 75 256 57 57 (62380800)
I0810 05:58:35.156744  2733 net.cpp:156] Memory required for data: 8289752700
I0810 05:58:35.156755  2733 layer_factory.hpp:77] Creating layer relu_st_3_3
I0810 05:58:35.156767  2733 net.cpp:91] Creating Layer relu_st_3_3
I0810 05:58:35.156774  2733 net.cpp:425] relu_st_3_3 <- conv_st_3_3
I0810 05:58:35.156783  2733 net.cpp:386] relu_st_3_3 -> conv_st_3_3 (in-place)
I0810 05:58:35.157100  2733 net.cpp:141] Setting up relu_st_3_3
I0810 05:58:35.157124  2733 net.cpp:148] Top shape: 75 256 57 57 (62380800)
I0810 05:58:35.157130  2733 net.cpp:156] Memory required for data: 8539275900
I0810 05:58:35.157136  2733 layer_factory.hpp:77] Creating layer pool_st_3
I0810 05:58:35.157148  2733 net.cpp:91] Creating Layer pool_st_3
I0810 05:58:35.157155  2733 net.cpp:425] pool_st_3 <- conv_st_3_3
I0810 05:58:35.157166  2733 net.cpp:399] pool_st_3 -> pool_st_3
I0810 05:58:35.157261  2733 net.cpp:141] Setting up pool_st_3
I0810 05:58:35.157277  2733 net.cpp:148] Top shape: 75 256 29 29 (16147200)
I0810 05:58:35.157284  2733 net.cpp:156] Memory required for data: 8603864700
I0810 05:58:35.157289  2733 layer_factory.hpp:77] Creating layer conv_st_4_1
I0810 05:58:35.157307  2733 net.cpp:91] Creating Layer conv_st_4_1
I0810 05:58:35.157315  2733 net.cpp:425] conv_st_4_1 <- pool_st_3
I0810 05:58:35.157327  2733 net.cpp:399] conv_st_4_1 -> conv_st_4_1
I0810 05:58:35.167686  2733 net.cpp:141] Setting up conv_st_4_1
I0810 05:58:35.167712  2733 net.cpp:148] Top shape: 75 512 29 29 (32294400)
I0810 05:58:35.167719  2733 net.cpp:156] Memory required for data: 8733042300
I0810 05:58:35.167729  2733 layer_factory.hpp:77] Creating layer relu_st_4_1
I0810 05:58:35.167743  2733 net.cpp:91] Creating Layer relu_st_4_1
I0810 05:58:35.167752  2733 net.cpp:425] relu_st_4_1 <- conv_st_4_1
I0810 05:58:35.167760  2733 net.cpp:386] relu_st_4_1 -> conv_st_4_1 (in-place)
I0810 05:58:35.167976  2733 net.cpp:141] Setting up relu_st_4_1
I0810 05:58:35.168011  2733 net.cpp:148] Top shape: 75 512 29 29 (32294400)
I0810 05:58:35.168017  2733 net.cpp:156] Memory required for data: 8862219900
I0810 05:58:35.168023  2733 layer_factory.hpp:77] Creating layer conv_st_4_2
I0810 05:58:35.168045  2733 net.cpp:91] Creating Layer conv_st_4_2
I0810 05:58:35.168052  2733 net.cpp:425] conv_st_4_2 <- conv_st_4_1
I0810 05:58:35.168063  2733 net.cpp:399] conv_st_4_2 -> conv_st_4_2
I0810 05:58:35.187726  2733 net.cpp:141] Setting up conv_st_4_2
I0810 05:58:35.187758  2733 net.cpp:148] Top shape: 75 512 29 29 (32294400)
I0810 05:58:35.187764  2733 net.cpp:156] Memory required for data: 8991397500
I0810 05:58:35.187790  2733 layer_factory.hpp:77] Creating layer relu_st_4_2
I0810 05:58:35.187804  2733 net.cpp:91] Creating Layer relu_st_4_2
I0810 05:58:35.187813  2733 net.cpp:425] relu_st_4_2 <- conv_st_4_2
I0810 05:58:35.187825  2733 net.cpp:386] relu_st_4_2 -> conv_st_4_2 (in-place)
I0810 05:58:35.188138  2733 net.cpp:141] Setting up relu_st_4_2
I0810 05:58:35.188159  2733 net.cpp:148] Top shape: 75 512 29 29 (32294400)
I0810 05:58:35.188166  2733 net.cpp:156] Memory required for data: 9120575100
I0810 05:58:35.188172  2733 layer_factory.hpp:77] Creating layer conv_st_4_3
I0810 05:58:35.188192  2733 net.cpp:91] Creating Layer conv_st_4_3
I0810 05:58:35.188199  2733 net.cpp:425] conv_st_4_3 <- conv_st_4_2
I0810 05:58:35.188213  2733 net.cpp:399] conv_st_4_3 -> conv_st_4_3
I0810 05:58:35.207958  2733 net.cpp:141] Setting up conv_st_4_3
I0810 05:58:35.207999  2733 net.cpp:148] Top shape: 75 512 29 29 (32294400)
I0810 05:58:35.208006  2733 net.cpp:156] Memory required for data: 9249752700
I0810 05:58:35.208019  2733 layer_factory.hpp:77] Creating layer relu_st_4_3
I0810 05:58:35.208032  2733 net.cpp:91] Creating Layer relu_st_4_3
I0810 05:58:35.208041  2733 net.cpp:425] relu_st_4_3 <- conv_st_4_3
I0810 05:58:35.208055  2733 net.cpp:386] relu_st_4_3 -> conv_st_4_3 (in-place)
I0810 05:58:35.208477  2733 net.cpp:141] Setting up relu_st_4_3
I0810 05:58:35.208498  2733 net.cpp:148] Top shape: 75 512 29 29 (32294400)
I0810 05:58:35.208505  2733 net.cpp:156] Memory required for data: 9378930300
I0810 05:58:35.208511  2733 layer_factory.hpp:77] Creating layer pool_st_4
I0810 05:58:35.208523  2733 net.cpp:91] Creating Layer pool_st_4
I0810 05:58:35.208530  2733 net.cpp:425] pool_st_4 <- conv_st_4_3
I0810 05:58:35.208544  2733 net.cpp:399] pool_st_4 -> pool_st_4
I0810 05:58:35.208626  2733 net.cpp:141] Setting up pool_st_4
I0810 05:58:35.208642  2733 net.cpp:148] Top shape: 75 512 15 15 (8640000)
I0810 05:58:35.208648  2733 net.cpp:156] Memory required for data: 9413490300
I0810 05:58:35.208654  2733 layer_factory.hpp:77] Creating layer conv_st_5_1
I0810 05:58:35.208676  2733 net.cpp:91] Creating Layer conv_st_5_1
I0810 05:58:35.208683  2733 net.cpp:425] conv_st_5_1 <- pool_st_4
I0810 05:58:35.208694  2733 net.cpp:399] conv_st_5_1 -> conv_st_5_1
I0810 05:58:35.228514  2733 net.cpp:141] Setting up conv_st_5_1
I0810 05:58:35.228552  2733 net.cpp:148] Top shape: 75 512 15 15 (8640000)
I0810 05:58:35.228559  2733 net.cpp:156] Memory required for data: 9448050300
I0810 05:58:35.228572  2733 layer_factory.hpp:77] Creating layer relu_st_5_1
I0810 05:58:35.228585  2733 net.cpp:91] Creating Layer relu_st_5_1
I0810 05:58:35.228593  2733 net.cpp:425] relu_st_5_1 <- conv_st_5_1
I0810 05:58:35.228607  2733 net.cpp:386] relu_st_5_1 -> conv_st_5_1 (in-place)
I0810 05:58:35.228824  2733 net.cpp:141] Setting up relu_st_5_1
I0810 05:58:35.228842  2733 net.cpp:148] Top shape: 75 512 15 15 (8640000)
I0810 05:58:35.228848  2733 net.cpp:156] Memory required for data: 9482610300
I0810 05:58:35.228854  2733 layer_factory.hpp:77] Creating layer conv_st_5_2
I0810 05:58:35.228874  2733 net.cpp:91] Creating Layer conv_st_5_2
I0810 05:58:35.228883  2733 net.cpp:425] conv_st_5_2 <- conv_st_5_1
I0810 05:58:35.228895  2733 net.cpp:399] conv_st_5_2 -> conv_st_5_2
I0810 05:58:35.248607  2733 net.cpp:141] Setting up conv_st_5_2
I0810 05:58:35.248646  2733 net.cpp:148] Top shape: 75 512 15 15 (8640000)
I0810 05:58:35.248684  2733 net.cpp:156] Memory required for data: 9517170300
I0810 05:58:35.248699  2733 layer_factory.hpp:77] Creating layer relu_st_5_2
I0810 05:58:35.248713  2733 net.cpp:91] Creating Layer relu_st_5_2
I0810 05:58:35.248723  2733 net.cpp:425] relu_st_5_2 <- conv_st_5_2
I0810 05:58:35.248735  2733 net.cpp:386] relu_st_5_2 -> conv_st_5_2 (in-place)
I0810 05:58:35.249049  2733 net.cpp:141] Setting up relu_st_5_2
I0810 05:58:35.249070  2733 net.cpp:148] Top shape: 75 512 15 15 (8640000)
I0810 05:58:35.249076  2733 net.cpp:156] Memory required for data: 9551730300
I0810 05:58:35.249083  2733 layer_factory.hpp:77] Creating layer conv_st_5_3
I0810 05:58:35.249104  2733 net.cpp:91] Creating Layer conv_st_5_3
I0810 05:58:35.249111  2733 net.cpp:425] conv_st_5_3 <- conv_st_5_2
I0810 05:58:35.249125  2733 net.cpp:399] conv_st_5_3 -> conv_st_5_3
I0810 05:58:35.292114  2733 net.cpp:141] Setting up conv_st_5_3
I0810 05:58:35.292155  2733 net.cpp:148] Top shape: 75 512 15 15 (8640000)
I0810 05:58:35.292162  2733 net.cpp:156] Memory required for data: 9586290300
I0810 05:58:35.292176  2733 layer_factory.hpp:77] Creating layer relu_st_5_3
I0810 05:58:35.292196  2733 net.cpp:91] Creating Layer relu_st_5_3
I0810 05:58:35.292206  2733 net.cpp:425] relu_st_5_3 <- conv_st_5_3
I0810 05:58:35.292218  2733 net.cpp:386] relu_st_5_3 -> conv_st_5_3 (in-place)
I0810 05:58:35.292541  2733 net.cpp:141] Setting up relu_st_5_3
I0810 05:58:35.292562  2733 net.cpp:148] Top shape: 75 512 15 15 (8640000)
I0810 05:58:35.292567  2733 net.cpp:156] Memory required for data: 9620850300
I0810 05:58:35.292574  2733 layer_factory.hpp:77] Creating layer pool_st_5
I0810 05:58:35.292588  2733 net.cpp:91] Creating Layer pool_st_5
I0810 05:58:35.292596  2733 net.cpp:425] pool_st_5 <- conv_st_5_3
I0810 05:58:35.292606  2733 net.cpp:399] pool_st_5 -> pool_st_5
I0810 05:58:35.292691  2733 net.cpp:141] Setting up pool_st_5
I0810 05:58:35.292707  2733 net.cpp:148] Top shape: 75 512 8 8 (2457600)
I0810 05:58:35.292713  2733 net.cpp:156] Memory required for data: 9630680700
I0810 05:58:35.292719  2733 layer_factory.hpp:77] Creating layer fc_st_6
I0810 05:58:35.292734  2733 net.cpp:91] Creating Layer fc_st_6
I0810 05:58:35.292742  2733 net.cpp:425] fc_st_6 <- pool_st_5
I0810 05:58:35.292752  2733 net.cpp:399] fc_st_6 -> fc_st_6
I0810 05:58:36.472265  2733 net.cpp:141] Setting up fc_st_6
I0810 05:58:36.472312  2733 net.cpp:148] Top shape: 75 4096 (307200)
I0810 05:58:36.472319  2733 net.cpp:156] Memory required for data: 9631909500
I0810 05:58:36.472334  2733 layer_factory.hpp:77] Creating layer relu_st_6
I0810 05:58:36.472352  2733 net.cpp:91] Creating Layer relu_st_6
I0810 05:58:36.472360  2733 net.cpp:425] relu_st_6 <- fc_st_6
I0810 05:58:36.472371  2733 net.cpp:386] relu_st_6 -> fc_st_6 (in-place)
I0810 05:58:36.472659  2733 net.cpp:141] Setting up relu_st_6
I0810 05:58:36.472678  2733 net.cpp:148] Top shape: 75 4096 (307200)
I0810 05:58:36.472684  2733 net.cpp:156] Memory required for data: 9633138300
I0810 05:58:36.472690  2733 layer_factory.hpp:77] Creating layer fc_st_7
I0810 05:58:36.472704  2733 net.cpp:91] Creating Layer fc_st_7
I0810 05:58:36.472710  2733 net.cpp:425] fc_st_7 <- fc_st_6
I0810 05:58:36.472728  2733 net.cpp:399] fc_st_7 -> fc_st_7
I0810 05:58:36.609369  2733 net.cpp:141] Setting up fc_st_7
I0810 05:58:36.609412  2733 net.cpp:148] Top shape: 75 4096 (307200)
I0810 05:58:36.609418  2733 net.cpp:156] Memory required for data: 9634367100
I0810 05:58:36.609433  2733 layer_factory.hpp:77] Creating layer relu_st_7
I0810 05:58:36.609449  2733 net.cpp:91] Creating Layer relu_st_7
I0810 05:58:36.609457  2733 net.cpp:425] relu_st_7 <- fc_st_7
I0810 05:58:36.609469  2733 net.cpp:386] relu_st_7 -> fc_st_7 (in-place)
I0810 05:58:36.609942  2733 net.cpp:141] Setting up relu_st_7
I0810 05:58:36.609963  2733 net.cpp:148] Top shape: 75 4096 (307200)
I0810 05:58:36.609971  2733 net.cpp:156] Memory required for data: 9635595900
I0810 05:58:36.609977  2733 layer_factory.hpp:77] Creating layer fc_st_8
I0810 05:58:36.609995  2733 net.cpp:91] Creating Layer fc_st_8
I0810 05:58:36.610029  2733 net.cpp:425] fc_st_8 <- fc_st_7
I0810 05:58:36.610041  2733 net.cpp:399] fc_st_8 -> fc_st_8
I0810 05:58:36.642741  2733 net.cpp:141] Setting up fc_st_8
I0810 05:58:36.642784  2733 net.cpp:148] Top shape: 75 1000 (75000)
I0810 05:58:36.642791  2733 net.cpp:156] Memory required for data: 9635895900
I0810 05:58:36.642805  2733 layer_factory.hpp:77] Creating layer fc_st_8_fc_st_8_0_split
I0810 05:58:36.642822  2733 net.cpp:91] Creating Layer fc_st_8_fc_st_8_0_split
I0810 05:58:36.642829  2733 net.cpp:425] fc_st_8_fc_st_8_0_split <- fc_st_8
I0810 05:58:36.642851  2733 net.cpp:399] fc_st_8_fc_st_8_0_split -> fc_st_8_fc_st_8_0_split_0
I0810 05:58:36.642866  2733 net.cpp:399] fc_st_8_fc_st_8_0_split -> fc_st_8_fc_st_8_0_split_1
I0810 05:58:36.642879  2733 net.cpp:399] fc_st_8_fc_st_8_0_split -> fc_st_8_fc_st_8_0_split_2
I0810 05:58:36.642889  2733 net.cpp:399] fc_st_8_fc_st_8_0_split -> fc_st_8_fc_st_8_0_split_3
I0810 05:58:36.643013  2733 net.cpp:141] Setting up fc_st_8_fc_st_8_0_split
I0810 05:58:36.643031  2733 net.cpp:148] Top shape: 75 1000 (75000)
I0810 05:58:36.643039  2733 net.cpp:148] Top shape: 75 1000 (75000)
I0810 05:58:36.643046  2733 net.cpp:148] Top shape: 75 1000 (75000)
I0810 05:58:36.643054  2733 net.cpp:148] Top shape: 75 1000 (75000)
I0810 05:58:36.643059  2733 net.cpp:156] Memory required for data: 9637095900
I0810 05:58:36.643064  2733 layer_factory.hpp:77] Creating layer prob
I0810 05:58:36.643075  2733 net.cpp:91] Creating Layer prob
I0810 05:58:36.643082  2733 net.cpp:425] prob <- fc_st_8_fc_st_8_0_split_0
I0810 05:58:36.643095  2733 net.cpp:399] prob -> prob
I0810 05:58:36.643640  2733 net.cpp:141] Setting up prob
I0810 05:58:36.643662  2733 net.cpp:148] Top shape: 75 1000 (75000)
I0810 05:58:36.643668  2733 net.cpp:156] Memory required for data: 9637395900
I0810 05:58:36.643674  2733 layer_factory.hpp:77] Creating layer soft_label
I0810 05:58:36.643687  2733 net.cpp:91] Creating Layer soft_label
I0810 05:58:36.643694  2733 net.cpp:425] soft_label <- fc8
I0810 05:58:36.643707  2733 net.cpp:399] soft_label -> soft_label
I0810 05:58:36.644004  2733 net.cpp:141] Setting up soft_label
I0810 05:58:36.644022  2733 net.cpp:148] Top shape: 75 1000 (75000)
I0810 05:58:36.644028  2733 net.cpp:156] Memory required for data: 9637695900
I0810 05:58:36.644034  2733 layer_factory.hpp:77] Creating layer loss
I0810 05:58:36.644045  2733 net.cpp:91] Creating Layer loss
I0810 05:58:36.644052  2733 net.cpp:425] loss <- fc_st_8_fc_st_8_0_split_1
I0810 05:58:36.644060  2733 net.cpp:425] loss <- label_data_1_split_0
I0810 05:58:36.644073  2733 net.cpp:399] loss -> loss
…
