…
I0811 01:38:14.360833  9685 net.cpp:313] The NetState phase (0) differed from the phase (1) specified by a rule in layer accuracy/top5
I0811 01:38:14.361043  9685 net.cpp:49] Initializing net from parameters: 
name: "AlexNet-Teacher VGG16-Student"
state {
  phase: TRAIN
}
layer {
  name: "data"
  type: "Data"
  top: "data"
  top: "label"
  include {
    phase: TRAIN
  }
  transform_param {
    mirror: true
    crop_size: 224
    mean_file: "/home/ubuntu/caffe/data/ilsvrc12/imagenet_mean.binaryproto"
  }
  data_param {
    source: "/home/ubuntu/caffe/examples/imagenet/ilsvrc12_train_lmdb"
    batch_size: 20
    backend: LMDB
  }
}
layer {
  name: "conv_st_1_1"
  type: "Convolution"
  bottom: "data"
  top: "conv_st_1_1"
  convolution_param {
    num_output: 64
    pad: 1
    kernel_size: 3
    weight_filler {
      type: "xavier"
    }
    bias_filler {
      type: "constant"
      value: 0
    }
  }
}
layer {
  name: "relu_st_1_1"
  type: "ReLU"
  bottom: "conv_st_1_1"
  top: "conv_st_1_1"
}
layer {
  name: "conv_st_1_2"
  type: "Convolution"
  bottom: "conv_st_1_1"
  top: "conv_st_1_2"
  convolution_param {
    num_output: 64
    pad: 1
    kernel_size: 3
    weight_filler {
      type: "xavier"
    }
    bias_filler {
      type: "constant"
      value: 0
    }
  }
}
layer {
  name: "relu_st_1_2"
  type: "ReLU"
  bottom: "conv_st_1_2"
  top: "conv_st_1_2"
}
layer {
  name: "pool_st_1"
  type: "Pooling"
  bottom: "conv_st_1_2"
  top: "pool_st_1"
  pooling_param {
    pool: MAX
    kernel_size: 2
    stride: 2
  }
}
layer {
  name: "conv_st_2_1"
  type: "Convolution"
  bottom: "pool_st_1"
  top: "conv_st_2_1"
  convolution_param {
    num_output: 128
    pad: 1
    kernel_size: 3
    weight_filler {
      type: "xavier"
    }
    bias_filler {
      type: "constant"
      value: 0
    }
  }
}
layer {
  name: "relu_st_2_1"
  type: "ReLU"
  bottom: "conv_st_2_1"
  top: "conv_st_2_1"
}
layer {
  name: "conv_st_2_2"
  type: "Convolution"
  bottom: "conv_st_2_1"
  top: "conv_st_2_2"
  convolution_param {
    num_output: 128
    pad: 1
    kernel_size: 3
    weight_filler {
      type: "xavier"
    }
    bias_filler {
      type: "constant"
      value: 0
    }
  }
}
layer {
  name: "relu_st_2_2"
  type: "ReLU"
  bottom: "conv_st_2_2"
  top: "conv_st_2_2"
}
layer {
  name: "pool_st_2"
  type: "Pooling"
  bottom: "conv_st_2_2"
  top: "pool_st_2"
  pooling_param {
    pool: MAX
    kernel_size: 2
    stride: 2
  }
}
layer {
  name: "conv_st_3_1"
  type: "Convolution"
  bottom: "pool_st_2"
  top: "conv_st_3_1"
  convolution_param {
    num_output: 256
    pad: 1
    kernel_size: 3
    weight_filler {
      type: "xavier"
    }
    bias_filler {
      type: "constant"
      value: 0
    }
  }
}
layer {
  name: "relu_st_3_1"
  type: "ReLU"
  bottom: "conv_st_3_1"
  top: "conv_st_3_1"
}
layer {
  name: "conv_st_3_2"
  type: "Convolution"
  bottom: "conv_st_3_1"
  top: "conv_st_3_2"
  convolution_param {
    num_output: 256
    pad: 1
    kernel_size: 3
    weight_filler {
      type: "xavier"
    }
    bias_filler {
      type: "constant"
      value: 0
    }
  }
}
layer {
  name: "relu_st_3_2"
  type: "ReLU"
  bottom: "conv_st_3_2"
  top: "conv_st_3_2"
}
layer {
  name: "conv_st_3_3"
  type: "Convolution"
  bottom: "conv_st_3_2"
  top: "conv_st_3_3"
  convolution_param {
    num_output: 256
    pad: 1
    kernel_size: 3
    weight_filler {
      type: "xavier"
    }
    bias_filler {
      type: "constant"
      value: 0
    }
  }
}
layer {
  name: "relu_st_3_3"
  type: "ReLU"
  bottom: "conv_st_3_3"
  top: "conv_st_3_3"
}
layer {
  name: "pool_st_3"
  type: "Pooling"
  bottom: "conv_st_3_3"
  top: "pool_st_3"
  pooling_param {
    pool: MAX
    kernel_size: 2
    stride: 2
  }
}
layer {
  name: "conv_st_4_1"
  type: "Convolution"
  bottom: "pool_st_3"
  top: "conv_st_4_1"
  convolution_param {
    num_output: 512
    pad: 1
    kernel_size: 3
    weight_filler {
      type: "xavier"
    }
    bias_filler {
      type: "constant"
      value: 0
    }
  }
}
layer {
  name: "relu_st_4_1"
  type: "ReLU"
  bottom: "conv_st_4_1"
  top: "conv_st_4_1"
}
layer {
  name: "conv_st_4_2"
  type: "Convolution"
  bottom: "conv_st_4_1"
  top: "conv_st_4_2"
  convolution_param {
    num_output: 512
    pad: 1
    kernel_size: 3
    weight_filler {
      type: "xavier"
    }
    bias_filler {
      type: "constant"
      value: 0
    }
  }
}
layer {
  name: "relu_st_4_2"
  type: "ReLU"
  bottom: "conv_st_4_2"
  top: "conv_st_4_2"
}
layer {
  name: "conv_st_4_3"
  type: "Convolution"
  bottom: "conv_st_4_2"
  top: "conv_st_4_3"
  convolution_param {
    num_output: 512
    pad: 1
    kernel_size: 3
    weight_filler {
      type: "xavier"
    }
    bias_filler {
      type: "constant"
      value: 0
    }
  }
}
layer {
  name: "relu_st_4_3"
  type: "ReLU"
  bottom: "conv_st_4_3"
  top: "conv_st_4_3"
}
layer {
  name: "pool_st_4"
  type: "Pooling"
  bottom: "conv_st_4_3"
  top: "pool_st_4"
  pooling_param {
    pool: MAX
    kernel_size: 2
    stride: 2
  }
}
layer {
  name: "conv_st_5_1"
  type: "Convolution"
  bottom: "pool_st_4"
  top: "conv_st_5_1"
  convolution_param {
    num_output: 512
    pad: 1
    kernel_size: 3
    weight_filler {
      type: "xavier"
    }
    bias_filler {
      type: "constant"
      value: 0
    }
  }
}
layer {
  name: "relu_st_5_1"
  type: "ReLU"
  bottom: "conv_st_5_1"
  top: "conv_st_5_1"
}
layer {
  name: "conv_st_5_2"
  type: "Convolution"
  bottom: "conv_st_5_1"
  top: "conv_st_5_2"
  convolution_param {
    num_output: 512
    pad: 1
    kernel_size: 3
    weight_filler {
      type: "xavier"
    }
    bias_filler {
      type: "constant"
      value: 0
    }
  }
}
layer {
  name: "relu_st_5_2"
  type: "ReLU"
  bottom: "conv_st_5_2"
  top: "conv_st_5_2"
}
layer {
  name: "conv_st_5_3"
  type: "Convolution"
  bottom: "conv_st_5_2"
  top: "conv_st_5_3"
  convolution_param {
    num_output: 512
    pad: 1
    kernel_size: 3
    weight_filler {
      type: "xavier"
    }
    bias_filler {
      type: "constant"
      value: 0
    }
  }
}
layer {
  name: "relu_st_5_3"
  type: "ReLU"
  bottom: "conv_st_5_3"
  top: "conv_st_5_3"
}
layer {
  name: "pool_st_5"
  type: "Pooling"
  bottom: "conv_st_5_3"
  top: "pool_st_5"
  pooling_param {
    pool: MAX
    kernel_size: 2
    stride: 2
  }
}
layer {
  name: "fc_st_6"
  type: "InnerProduct"
  bottom: "pool_st_5"
  top: "fc_st_6"
  inner_product_param {
    num_output: 4096
    weight_filler {
      type: "xavier"
    }
    bias_filler {
      type: "constant"
      value: 0
    }
  }
}
layer {
  name: "relu_st_6"
  type: "ReLU"
  bottom: "fc_st_6"
  top: "fc_st_6"
}
layer {
  name: "fc_st_7"
  type: "InnerProduct"
  bottom: "fc_st_6"
  top: "fc_st_7"
  inner_product_param {
    num_output: 4096
    weight_filler {
      type: "xavier"
    }
    bias_filler {
      type: "constant"
      value: 0
    }
  }
}
layer {
  name: "relu_st_7"
  type: "ReLU"
  bottom: "fc_st_7"
  top: "fc_st_7"
}
layer {
  name: "fc_st_8"
  type: "InnerProduct"
  bottom: "fc_st_7"
  top: "fc_st_8"
  inner_product_param {
    num_output: 1000
    weight_filler {
      type: "xavier"
    }
    bias_filler {
      type: "constant"
      value: 0
    }
  }
}
layer {
  name: "loss"
  type: "SoftmaxWithLoss"
  bottom: "fc_st_8"
  bottom: "label"
  top: "loss"
  loss_weight: 0.995
}
I0811 01:38:14.361259  9685 layer_factory.hpp:77] Creating layer data
I0811 01:38:14.362239  9685 net.cpp:91] Creating Layer data
I0811 01:38:14.362254  9685 net.cpp:399] data -> data
I0811 01:38:14.362287  9685 net.cpp:399] data -> label
I0811 01:38:14.362304  9685 data_transformer.cpp:25] Loading mean file from: /home/ubuntu/caffe/data/ilsvrc12/imagenet_mean.binaryproto
I0811 01:38:14.364176  9688 db_lmdb.cpp:35] Opened lmdb /home/ubuntu/caffe/examples/imagenet/ilsvrc12_train_lmdb
I0811 01:38:14.376240  9685 data_layer.cpp:41] output data size: 20,3,224,224
I0811 01:38:14.405659  9685 net.cpp:141] Setting up data
I0811 01:38:14.405699  9685 net.cpp:148] Top shape: 20 3 224 224 (3010560)
I0811 01:38:14.405719  9685 net.cpp:148] Top shape: 20 (20)
I0811 01:38:14.405725  9685 net.cpp:156] Memory required for data: 12042320
I0811 01:38:14.405740  9685 layer_factory.hpp:77] Creating layer conv_st_1_1
I0811 01:38:14.405782  9685 net.cpp:91] Creating Layer conv_st_1_1
I0811 01:38:14.405794  9685 net.cpp:425] conv_st_1_1 <- data
I0811 01:38:14.405824  9685 net.cpp:399] conv_st_1_1 -> conv_st_1_1
I0811 01:38:14.583968  9685 net.cpp:141] Setting up conv_st_1_1
I0811 01:38:14.584014  9685 net.cpp:148] Top shape: 20 64 224 224 (64225280)
I0811 01:38:14.584022  9685 net.cpp:156] Memory required for data: 268943440
I0811 01:38:14.584054  9685 layer_factory.hpp:77] Creating layer relu_st_1_1
I0811 01:38:14.584076  9685 net.cpp:91] Creating Layer relu_st_1_1
I0811 01:38:14.584084  9685 net.cpp:425] relu_st_1_1 <- conv_st_1_1
I0811 01:38:14.584095  9685 net.cpp:386] relu_st_1_1 -> conv_st_1_1 (in-place)
I0811 01:38:14.584311  9685 net.cpp:141] Setting up relu_st_1_1
I0811 01:38:14.584329  9685 net.cpp:148] Top shape: 20 64 224 224 (64225280)
I0811 01:38:14.584336  9685 net.cpp:156] Memory required for data: 525844560
I0811 01:38:14.584342  9685 layer_factory.hpp:77] Creating layer conv_st_1_2
I0811 01:38:14.584363  9685 net.cpp:91] Creating Layer conv_st_1_2
I0811 01:38:14.584372  9685 net.cpp:425] conv_st_1_2 <- conv_st_1_1
I0811 01:38:14.584385  9685 net.cpp:399] conv_st_1_2 -> conv_st_1_2
I0811 01:38:14.585551  9685 net.cpp:141] Setting up conv_st_1_2
I0811 01:38:14.585573  9685 net.cpp:148] Top shape: 20 64 224 224 (64225280)
I0811 01:38:14.585580  9685 net.cpp:156] Memory required for data: 782745680
I0811 01:38:14.585597  9685 layer_factory.hpp:77] Creating layer relu_st_1_2
I0811 01:38:14.585613  9685 net.cpp:91] Creating Layer relu_st_1_2
I0811 01:38:14.585619  9685 net.cpp:425] relu_st_1_2 <- conv_st_1_2
I0811 01:38:14.585628  9685 net.cpp:386] relu_st_1_2 -> conv_st_1_2 (in-place)
I0811 01:38:14.585902  9685 net.cpp:141] Setting up relu_st_1_2
I0811 01:38:14.585922  9685 net.cpp:148] Top shape: 20 64 224 224 (64225280)
I0811 01:38:14.585929  9685 net.cpp:156] Memory required for data: 1039646800
I0811 01:38:14.585935  9685 layer_factory.hpp:77] Creating layer pool_st_1
I0811 01:38:14.585950  9685 net.cpp:91] Creating Layer pool_st_1
I0811 01:38:14.585958  9685 net.cpp:425] pool_st_1 <- conv_st_1_2
I0811 01:38:14.585968  9685 net.cpp:399] pool_st_1 -> pool_st_1
I0811 01:38:14.586040  9685 net.cpp:141] Setting up pool_st_1
I0811 01:38:14.586063  9685 net.cpp:148] Top shape: 20 64 112 112 (16056320)
I0811 01:38:14.586071  9685 net.cpp:156] Memory required for data: 1103872080
I0811 01:38:14.586076  9685 layer_factory.hpp:77] Creating layer conv_st_2_1
I0811 01:38:14.586093  9685 net.cpp:91] Creating Layer conv_st_2_1
I0811 01:38:14.586100  9685 net.cpp:425] conv_st_2_1 <- pool_st_1
I0811 01:38:14.586113  9685 net.cpp:399] conv_st_2_1 -> conv_st_2_1
I0811 01:38:14.589017  9685 net.cpp:141] Setting up conv_st_2_1
I0811 01:38:14.589040  9685 net.cpp:148] Top shape: 20 128 112 112 (32112640)
I0811 01:38:14.589047  9685 net.cpp:156] Memory required for data: 1232322640
I0811 01:38:14.589064  9685 layer_factory.hpp:77] Creating layer relu_st_2_1
I0811 01:38:14.589076  9685 net.cpp:91] Creating Layer relu_st_2_1
I0811 01:38:14.589082  9685 net.cpp:425] relu_st_2_1 <- conv_st_2_1
I0811 01:38:14.589095  9685 net.cpp:386] relu_st_2_1 -> conv_st_2_1 (in-place)
I0811 01:38:14.589337  9685 net.cpp:141] Setting up relu_st_2_1
I0811 01:38:14.589357  9685 net.cpp:148] Top shape: 20 128 112 112 (32112640)
I0811 01:38:14.589365  9685 net.cpp:156] Memory required for data: 1360773200
I0811 01:38:14.589371  9685 layer_factory.hpp:77] Creating layer conv_st_2_2
I0811 01:38:14.589391  9685 net.cpp:91] Creating Layer conv_st_2_2
I0811 01:38:14.589398  9685 net.cpp:425] conv_st_2_2 <- conv_st_2_1
I0811 01:38:14.589409  9685 net.cpp:399] conv_st_2_2 -> conv_st_2_2
I0811 01:38:14.591197  9685 net.cpp:141] Setting up conv_st_2_2
I0811 01:38:14.591228  9685 net.cpp:148] Top shape: 20 128 112 112 (32112640)
I0811 01:38:14.591235  9685 net.cpp:156] Memory required for data: 1489223760
I0811 01:38:14.591246  9685 layer_factory.hpp:77] Creating layer relu_st_2_2
I0811 01:38:14.591260  9685 net.cpp:91] Creating Layer relu_st_2_2
I0811 01:38:14.591269  9685 net.cpp:425] relu_st_2_2 <- conv_st_2_2
I0811 01:38:14.591277  9685 net.cpp:386] relu_st_2_2 -> conv_st_2_2 (in-place)
I0811 01:38:14.591470  9685 net.cpp:141] Setting up relu_st_2_2
I0811 01:38:14.591486  9685 net.cpp:148] Top shape: 20 128 112 112 (32112640)
I0811 01:38:14.591492  9685 net.cpp:156] Memory required for data: 1617674320
I0811 01:38:14.591498  9685 layer_factory.hpp:77] Creating layer pool_st_2
I0811 01:38:14.591508  9685 net.cpp:91] Creating Layer pool_st_2
I0811 01:38:14.591517  9685 net.cpp:425] pool_st_2 <- conv_st_2_2
I0811 01:38:14.591527  9685 net.cpp:399] pool_st_2 -> pool_st_2
I0811 01:38:14.591584  9685 net.cpp:141] Setting up pool_st_2
I0811 01:38:14.591599  9685 net.cpp:148] Top shape: 20 128 56 56 (8028160)
I0811 01:38:14.591605  9685 net.cpp:156] Memory required for data: 1649786960
I0811 01:38:14.591619  9685 layer_factory.hpp:77] Creating layer conv_st_3_1
I0811 01:38:14.591635  9685 net.cpp:91] Creating Layer conv_st_3_1
I0811 01:38:14.591646  9685 net.cpp:425] conv_st_3_1 <- pool_st_2
I0811 01:38:14.591657  9685 net.cpp:399] conv_st_3_1 -> conv_st_3_1
I0811 01:38:14.594995  9685 net.cpp:141] Setting up conv_st_3_1
I0811 01:38:14.595019  9685 net.cpp:148] Top shape: 20 256 56 56 (16056320)
I0811 01:38:14.595026  9685 net.cpp:156] Memory required for data: 1714012240
I0811 01:38:14.595042  9685 layer_factory.hpp:77] Creating layer relu_st_3_1
I0811 01:38:14.595057  9685 net.cpp:91] Creating Layer relu_st_3_1
I0811 01:38:14.595063  9685 net.cpp:425] relu_st_3_1 <- conv_st_3_1
I0811 01:38:14.595072  9685 net.cpp:386] relu_st_3_1 -> conv_st_3_1 (in-place)
I0811 01:38:14.595348  9685 net.cpp:141] Setting up relu_st_3_1
I0811 01:38:14.595369  9685 net.cpp:148] Top shape: 20 256 56 56 (16056320)
I0811 01:38:14.595376  9685 net.cpp:156] Memory required for data: 1778237520
I0811 01:38:14.595381  9685 layer_factory.hpp:77] Creating layer conv_st_3_2
I0811 01:38:14.595399  9685 net.cpp:91] Creating Layer conv_st_3_2
I0811 01:38:14.595407  9685 net.cpp:425] conv_st_3_2 <- conv_st_3_1
I0811 01:38:14.595420  9685 net.cpp:399] conv_st_3_2 -> conv_st_3_2
I0811 01:38:14.601099  9685 net.cpp:141] Setting up conv_st_3_2
I0811 01:38:14.601125  9685 net.cpp:148] Top shape: 20 256 56 56 (16056320)
I0811 01:38:14.601132  9685 net.cpp:156] Memory required for data: 1842462800
I0811 01:38:14.601143  9685 layer_factory.hpp:77] Creating layer relu_st_3_2
I0811 01:38:14.601155  9685 net.cpp:91] Creating Layer relu_st_3_2
I0811 01:38:14.601162  9685 net.cpp:425] relu_st_3_2 <- conv_st_3_2
I0811 01:38:14.601174  9685 net.cpp:386] relu_st_3_2 -> conv_st_3_2 (in-place)
I0811 01:38:14.601373  9685 net.cpp:141] Setting up relu_st_3_2
I0811 01:38:14.601390  9685 net.cpp:148] Top shape: 20 256 56 56 (16056320)
I0811 01:38:14.601397  9685 net.cpp:156] Memory required for data: 1906688080
I0811 01:38:14.601402  9685 layer_factory.hpp:77] Creating layer conv_st_3_3
I0811 01:38:14.601421  9685 net.cpp:91] Creating Layer conv_st_3_3
I0811 01:38:14.601428  9685 net.cpp:425] conv_st_3_3 <- conv_st_3_2
I0811 01:38:14.601441  9685 net.cpp:399] conv_st_3_3 -> conv_st_3_3
I0811 01:38:14.607177  9685 net.cpp:141] Setting up conv_st_3_3
I0811 01:38:14.607216  9685 net.cpp:148] Top shape: 20 256 56 56 (16056320)
I0811 01:38:14.607223  9685 net.cpp:156] Memory required for data: 1970913360
I0811 01:38:14.607234  9685 layer_factory.hpp:77] Creating layer relu_st_3_3
I0811 01:38:14.607254  9685 net.cpp:91] Creating Layer relu_st_3_3
I0811 01:38:14.607261  9685 net.cpp:425] relu_st_3_3 <- conv_st_3_3
I0811 01:38:14.607271  9685 net.cpp:386] relu_st_3_3 -> conv_st_3_3 (in-place)
I0811 01:38:14.607564  9685 net.cpp:141] Setting up relu_st_3_3
I0811 01:38:14.607585  9685 net.cpp:148] Top shape: 20 256 56 56 (16056320)
I0811 01:38:14.607591  9685 net.cpp:156] Memory required for data: 2035138640
I0811 01:38:14.607599  9685 layer_factory.hpp:77] Creating layer pool_st_3
I0811 01:38:14.607609  9685 net.cpp:91] Creating Layer pool_st_3
I0811 01:38:14.607616  9685 net.cpp:425] pool_st_3 <- conv_st_3_3
I0811 01:38:14.607628  9685 net.cpp:399] pool_st_3 -> pool_st_3
I0811 01:38:14.607688  9685 net.cpp:141] Setting up pool_st_3
I0811 01:38:14.607707  9685 net.cpp:148] Top shape: 20 256 28 28 (4014080)
I0811 01:38:14.607712  9685 net.cpp:156] Memory required for data: 2051194960
I0811 01:38:14.607718  9685 layer_factory.hpp:77] Creating layer conv_st_4_1
I0811 01:38:14.607733  9685 net.cpp:91] Creating Layer conv_st_4_1
I0811 01:38:14.607739  9685 net.cpp:425] conv_st_4_1 <- pool_st_3
I0811 01:38:14.607753  9685 net.cpp:399] conv_st_4_1 -> conv_st_4_1
I0811 01:38:14.618656  9685 net.cpp:141] Setting up conv_st_4_1
I0811 01:38:14.618683  9685 net.cpp:148] Top shape: 20 512 28 28 (8028160)
I0811 01:38:14.618690  9685 net.cpp:156] Memory required for data: 2083307600
I0811 01:38:14.618701  9685 layer_factory.hpp:77] Creating layer relu_st_4_1
I0811 01:38:14.618713  9685 net.cpp:91] Creating Layer relu_st_4_1
I0811 01:38:14.618721  9685 net.cpp:425] relu_st_4_1 <- conv_st_4_1
I0811 01:38:14.618732  9685 net.cpp:386] relu_st_4_1 -> conv_st_4_1 (in-place)
I0811 01:38:14.619010  9685 net.cpp:141] Setting up relu_st_4_1
I0811 01:38:14.619031  9685 net.cpp:148] Top shape: 20 512 28 28 (8028160)
I0811 01:38:14.619038  9685 net.cpp:156] Memory required for data: 2115420240
I0811 01:38:14.619045  9685 layer_factory.hpp:77] Creating layer conv_st_4_2
I0811 01:38:14.619062  9685 net.cpp:91] Creating Layer conv_st_4_2
I0811 01:38:14.619069  9685 net.cpp:425] conv_st_4_2 <- conv_st_4_1
I0811 01:38:14.619081  9685 net.cpp:399] conv_st_4_2 -> conv_st_4_2
I0811 01:38:14.662423  9685 net.cpp:141] Setting up conv_st_4_2
I0811 01:38:14.662470  9685 net.cpp:148] Top shape: 20 512 28 28 (8028160)
I0811 01:38:14.662478  9685 net.cpp:156] Memory required for data: 2147532880
I0811 01:38:14.662500  9685 layer_factory.hpp:77] Creating layer relu_st_4_2
I0811 01:38:14.662518  9685 net.cpp:91] Creating Layer relu_st_4_2
I0811 01:38:14.662525  9685 net.cpp:425] relu_st_4_2 <- conv_st_4_2
I0811 01:38:14.662539  9685 net.cpp:386] relu_st_4_2 -> conv_st_4_2 (in-place)
I0811 01:38:14.662744  9685 net.cpp:141] Setting up relu_st_4_2
I0811 01:38:14.662762  9685 net.cpp:148] Top shape: 20 512 28 28 (8028160)
I0811 01:38:14.662770  9685 net.cpp:156] Memory required for data: 2179645520
I0811 01:38:14.662775  9685 layer_factory.hpp:77] Creating layer conv_st_4_3
I0811 01:38:14.662796  9685 net.cpp:91] Creating Layer conv_st_4_3
I0811 01:38:14.662803  9685 net.cpp:425] conv_st_4_3 <- conv_st_4_2
I0811 01:38:14.662814  9685 net.cpp:399] conv_st_4_3 -> conv_st_4_3
I0811 01:38:14.682622  9685 net.cpp:141] Setting up conv_st_4_3
I0811 01:38:14.682658  9685 net.cpp:148] Top shape: 20 512 28 28 (8028160)
I0811 01:38:14.682665  9685 net.cpp:156] Memory required for data: 2211758160
I0811 01:38:14.682678  9685 layer_factory.hpp:77] Creating layer relu_st_4_3
I0811 01:38:14.682695  9685 net.cpp:91] Creating Layer relu_st_4_3
I0811 01:38:14.682704  9685 net.cpp:425] relu_st_4_3 <- conv_st_4_3
I0811 01:38:14.682714  9685 net.cpp:386] relu_st_4_3 -> conv_st_4_3 (in-place)
I0811 01:38:14.682922  9685 net.cpp:141] Setting up relu_st_4_3
I0811 01:38:14.682940  9685 net.cpp:148] Top shape: 20 512 28 28 (8028160)
I0811 01:38:14.682974  9685 net.cpp:156] Memory required for data: 2243870800
I0811 01:38:14.682982  9685 layer_factory.hpp:77] Creating layer pool_st_4
I0811 01:38:14.682996  9685 net.cpp:91] Creating Layer pool_st_4
I0811 01:38:14.683002  9685 net.cpp:425] pool_st_4 <- conv_st_4_3
I0811 01:38:14.683015  9685 net.cpp:399] pool_st_4 -> pool_st_4
I0811 01:38:14.683081  9685 net.cpp:141] Setting up pool_st_4
I0811 01:38:14.683102  9685 net.cpp:148] Top shape: 20 512 14 14 (2007040)
I0811 01:38:14.683109  9685 net.cpp:156] Memory required for data: 2251898960
I0811 01:38:14.683115  9685 layer_factory.hpp:77] Creating layer conv_st_5_1
I0811 01:38:14.683137  9685 net.cpp:91] Creating Layer conv_st_5_1
I0811 01:38:14.683147  9685 net.cpp:425] conv_st_5_1 <- pool_st_4
I0811 01:38:14.683158  9685 net.cpp:399] conv_st_5_1 -> conv_st_5_1
I0811 01:38:14.702739  9685 net.cpp:141] Setting up conv_st_5_1
I0811 01:38:14.702776  9685 net.cpp:148] Top shape: 20 512 14 14 (2007040)
I0811 01:38:14.702785  9685 net.cpp:156] Memory required for data: 2259927120
I0811 01:38:14.702796  9685 layer_factory.hpp:77] Creating layer relu_st_5_1
I0811 01:38:14.702814  9685 net.cpp:91] Creating Layer relu_st_5_1
I0811 01:38:14.702822  9685 net.cpp:425] relu_st_5_1 <- conv_st_5_1
I0811 01:38:14.702832  9685 net.cpp:386] relu_st_5_1 -> conv_st_5_1 (in-place)
I0811 01:38:14.703872  9685 net.cpp:141] Setting up relu_st_5_1
I0811 01:38:14.703893  9685 net.cpp:148] Top shape: 20 512 14 14 (2007040)
I0811 01:38:14.703900  9685 net.cpp:156] Memory required for data: 2267955280
I0811 01:38:14.703907  9685 layer_factory.hpp:77] Creating layer conv_st_5_2
I0811 01:38:14.703932  9685 net.cpp:91] Creating Layer conv_st_5_2
I0811 01:38:14.703941  9685 net.cpp:425] conv_st_5_2 <- conv_st_5_1
I0811 01:38:14.703953  9685 net.cpp:399] conv_st_5_2 -> conv_st_5_2
I0811 01:38:14.723518  9685 net.cpp:141] Setting up conv_st_5_2
I0811 01:38:14.723547  9685 net.cpp:148] Top shape: 20 512 14 14 (2007040)
I0811 01:38:14.723554  9685 net.cpp:156] Memory required for data: 2275983440
I0811 01:38:14.723567  9685 layer_factory.hpp:77] Creating layer relu_st_5_2
I0811 01:38:14.723578  9685 net.cpp:91] Creating Layer relu_st_5_2
I0811 01:38:14.723587  9685 net.cpp:425] relu_st_5_2 <- conv_st_5_2
I0811 01:38:14.723598  9685 net.cpp:386] relu_st_5_2 -> conv_st_5_2 (in-place)
I0811 01:38:14.723795  9685 net.cpp:141] Setting up relu_st_5_2
I0811 01:38:14.723814  9685 net.cpp:148] Top shape: 20 512 14 14 (2007040)
I0811 01:38:14.723819  9685 net.cpp:156] Memory required for data: 2284011600
I0811 01:38:14.723825  9685 layer_factory.hpp:77] Creating layer conv_st_5_3
I0811 01:38:14.723845  9685 net.cpp:91] Creating Layer conv_st_5_3
I0811 01:38:14.723855  9685 net.cpp:425] conv_st_5_3 <- conv_st_5_2
I0811 01:38:14.723866  9685 net.cpp:399] conv_st_5_3 -> conv_st_5_3
I0811 01:38:14.743666  9685 net.cpp:141] Setting up conv_st_5_3
I0811 01:38:14.743707  9685 net.cpp:148] Top shape: 20 512 14 14 (2007040)
I0811 01:38:14.743716  9685 net.cpp:156] Memory required for data: 2292039760
I0811 01:38:14.743727  9685 layer_factory.hpp:77] Creating layer relu_st_5_3
I0811 01:38:14.743741  9685 net.cpp:91] Creating Layer relu_st_5_3
I0811 01:38:14.743749  9685 net.cpp:425] relu_st_5_3 <- conv_st_5_3
I0811 01:38:14.743763  9685 net.cpp:386] relu_st_5_3 -> conv_st_5_3 (in-place)
I0811 01:38:14.743970  9685 net.cpp:141] Setting up relu_st_5_3
I0811 01:38:14.743990  9685 net.cpp:148] Top shape: 20 512 14 14 (2007040)
I0811 01:38:14.743996  9685 net.cpp:156] Memory required for data: 2300067920
I0811 01:38:14.744002  9685 layer_factory.hpp:77] Creating layer pool_st_5
I0811 01:38:14.744014  9685 net.cpp:91] Creating Layer pool_st_5
I0811 01:38:14.744021  9685 net.cpp:425] pool_st_5 <- conv_st_5_3
I0811 01:38:14.744031  9685 net.cpp:399] pool_st_5 -> pool_st_5
I0811 01:38:14.744101  9685 net.cpp:141] Setting up pool_st_5
I0811 01:38:14.744115  9685 net.cpp:148] Top shape: 20 512 7 7 (501760)
I0811 01:38:14.744122  9685 net.cpp:156] Memory required for data: 2302074960
I0811 01:38:14.744128  9685 layer_factory.hpp:77] Creating layer fc_st_6
I0811 01:38:14.744174  9685 net.cpp:91] Creating Layer fc_st_6
I0811 01:38:14.744189  9685 net.cpp:425] fc_st_6 <- pool_st_5
I0811 01:38:14.744201  9685 net.cpp:399] fc_st_6 -> fc_st_6
I0811 01:38:15.647655  9685 net.cpp:141] Setting up fc_st_6
I0811 01:38:15.647702  9685 net.cpp:148] Top shape: 20 4096 (81920)
I0811 01:38:15.647709  9685 net.cpp:156] Memory required for data: 2302402640
I0811 01:38:15.647724  9685 layer_factory.hpp:77] Creating layer relu_st_6
I0811 01:38:15.647740  9685 net.cpp:91] Creating Layer relu_st_6
I0811 01:38:15.647747  9685 net.cpp:425] relu_st_6 <- fc_st_6
I0811 01:38:15.647763  9685 net.cpp:386] relu_st_6 -> fc_st_6 (in-place)
I0811 01:38:15.648190  9685 net.cpp:141] Setting up relu_st_6
I0811 01:38:15.648212  9685 net.cpp:148] Top shape: 20 4096 (81920)
I0811 01:38:15.648218  9685 net.cpp:156] Memory required for data: 2302730320
I0811 01:38:15.648226  9685 layer_factory.hpp:77] Creating layer fc_st_7
I0811 01:38:15.648242  9685 net.cpp:91] Creating Layer fc_st_7
I0811 01:38:15.648249  9685 net.cpp:425] fc_st_7 <- fc_st_6
I0811 01:38:15.648260  9685 net.cpp:399] fc_st_7 -> fc_st_7
I0811 01:38:15.785907  9685 net.cpp:141] Setting up fc_st_7
I0811 01:38:15.785953  9685 net.cpp:148] Top shape: 20 4096 (81920)
I0811 01:38:15.785959  9685 net.cpp:156] Memory required for data: 2303058000
I0811 01:38:15.785975  9685 layer_factory.hpp:77] Creating layer relu_st_7
I0811 01:38:15.785992  9685 net.cpp:91] Creating Layer relu_st_7
I0811 01:38:15.786000  9685 net.cpp:425] relu_st_7 <- fc_st_7
I0811 01:38:15.786011  9685 net.cpp:386] relu_st_7 -> fc_st_7 (in-place)
I0811 01:38:15.786458  9685 net.cpp:141] Setting up relu_st_7
I0811 01:38:15.786479  9685 net.cpp:148] Top shape: 20 4096 (81920)
I0811 01:38:15.786486  9685 net.cpp:156] Memory required for data: 2303385680
I0811 01:38:15.786492  9685 layer_factory.hpp:77] Creating layer fc_st_8
I0811 01:38:15.786512  9685 net.cpp:91] Creating Layer fc_st_8
I0811 01:38:15.786520  9685 net.cpp:425] fc_st_8 <- fc_st_7
I0811 01:38:15.786530  9685 net.cpp:399] fc_st_8 -> fc_st_8
I0811 01:38:15.819551  9685 net.cpp:141] Setting up fc_st_8
I0811 01:38:15.819595  9685 net.cpp:148] Top shape: 20 1000 (20000)
I0811 01:38:15.819602  9685 net.cpp:156] Memory required for data: 2303465680
I0811 01:38:15.819617  9685 layer_factory.hpp:77] Creating layer loss
I0811 01:38:15.819643  9685 net.cpp:91] Creating Layer loss
I0811 01:38:15.819651  9685 net.cpp:425] loss <- fc_st_8
I0811 01:38:15.819660  9685 net.cpp:425] loss <- label
I0811 01:38:15.819674  9685 net.cpp:399] loss -> loss
I0811 01:38:15.819705  9685 layer_factory.hpp:77] Creating layer loss
…
I0811 01:38:15.821589  9685 net.cpp:313] The NetState phase (1) differed from the phase (0) specified by a rule in layer data
I0811 01:38:15.821851  9685 net.cpp:49] Initializing net from parameters: 
name: "AlexNet-Teacher VGG16-Student"
state {
  phase: TEST
}
layer {
  name: "data"
  type: "Data"
  top: "data"
  top: "label"
  include {
    phase: TEST
  }
  transform_param {
    mirror: true
    crop_size: 224
    mean_file: "/home/ubuntu/caffe/data/ilsvrc12/imagenet_mean.binaryproto"
  }
  data_param {
    source: "/home/ubuntu/caffe/examples/imagenet/ilsvrc12_val_lmdb"
    batch_size: 75
    backend: LMDB
  }
}
layer {
  name: "conv_st_1_1"
  type: "Convolution"
  bottom: "data"
  top: "conv_st_1_1"
  convolution_param {
    num_output: 64
    pad: 1
    kernel_size: 3
    weight_filler {
      type: "xavier"
    }
    bias_filler {
      type: "constant"
      value: 0
    }
  }
}
layer {
  name: "relu_st_1_1"
  type: "ReLU"
  bottom: "conv_st_1_1"
  top: "conv_st_1_1"
}
layer {
  name: "conv_st_1_2"
  type: "Convolution"
  bottom: "conv_st_1_1"
  top: "conv_st_1_2"
  convolution_param {
    num_output: 64
    pad: 1
    kernel_size: 3
    weight_filler {
      type: "xavier"
    }
    bias_filler {
      type: "constant"
      value: 0
    }
  }
}
layer {
  name: "relu_st_1_2"
  type: "ReLU"
  bottom: "conv_st_1_2"
  top: "conv_st_1_2"
}
layer {
  name: "pool_st_1"
  type: "Pooling"
  bottom: "conv_st_1_2"
  top: "pool_st_1"
  pooling_param {
    pool: MAX
    kernel_size: 2
    stride: 2
  }
}
layer {
  name: "conv_st_2_1"
  type: "Convolution"
  bottom: "pool_st_1"
  top: "conv_st_2_1"
  convolution_param {
    num_output: 128
    pad: 1
    kernel_size: 3
    weight_filler {
      type: "xavier"
    }
    bias_filler {
      type: "constant"
      value: 0
    }
  }
}
layer {
  name: "relu_st_2_1"
  type: "ReLU"
  bottom: "conv_st_2_1"
  top: "conv_st_2_1"
}
layer {
  name: "conv_st_2_2"
  type: "Convolution"
  bottom: "conv_st_2_1"
  top: "conv_st_2_2"
  convolution_param {
    num_output: 128
    pad: 1
    kernel_size: 3
    weight_filler {
      type: "xavier"
    }
    bias_filler {
      type: "constant"
      value: 0
    }
  }
}
layer {
  name: "relu_st_2_2"
  type: "ReLU"
  bottom: "conv_st_2_2"
  top: "conv_st_2_2"
}
layer {
  name: "pool_st_2"
  type: "Pooling"
  bottom: "conv_st_2_2"
  top: "pool_st_2"
  pooling_param {
    pool: MAX
    kernel_size: 2
    stride: 2
  }
}
layer {
  name: "conv_st_3_1"
  type: "Convolution"
  bottom: "pool_st_2"
  top: "conv_st_3_1"
  convolution_param {
    num_output: 256
    pad: 1
    kernel_size: 3
    weight_filler {
      type: "xavier"
    }
    bias_filler {
      type: "constant"
      value: 0
    }
  }
}
layer {
  name: "relu_st_3_1"
  type: "ReLU"
  bottom: "conv_st_3_1"
  top: "conv_st_3_1"
}
layer {
  name: "conv_st_3_2"
  type: "Convolution"
  bottom: "conv_st_3_1"
  top: "conv_st_3_2"
  convolution_param {
    num_output: 256
    pad: 1
    kernel_size: 3
    weight_filler {
      type: "xavier"
    }
    bias_filler {
      type: "constant"
      value: 0
    }
  }
}
layer {
  name: "relu_st_3_2"
  type: "ReLU"
  bottom: "conv_st_3_2"
  top: "conv_st_3_2"
}
layer {
  name: "conv_st_3_3"
  type: "Convolution"
  bottom: "conv_st_3_2"
  top: "conv_st_3_3"
  convolution_param {
    num_output: 256
    pad: 1
    kernel_size: 3
    weight_filler {
      type: "xavier"
    }
    bias_filler {
      type: "constant"
      value: 0
    }
  }
}
layer {
  name: "relu_st_3_3"
  type: "ReLU"
  bottom: "conv_st_3_3"
  top: "conv_st_3_3"
}
layer {
  name: "pool_st_3"
  type: "Pooling"
  bottom: "conv_st_3_3"
  top: "pool_st_3"
  pooling_param {
    pool: MAX
    kernel_size: 2
    stride: 2
  }
}
layer {
  name: "conv_st_4_1"
  type: "Convolution"
  bottom: "pool_st_3"
  top: "conv_st_4_1"
  convolution_param {
    num_output: 512
    pad: 1
    kernel_size: 3
    weight_filler {
      type: "xavier"
    }
    bias_filler {
      type: "constant"
      value: 0
    }
  }
}
layer {
  name: "relu_st_4_1"
  type: "ReLU"
  bottom: "conv_st_4_1"
  top: "conv_st_4_1"
}
layer {
  name: "conv_st_4_2"
  type: "Convolution"
  bottom: "conv_st_4_1"
  top: "conv_st_4_2"
  convolution_param {
    num_output: 512
    pad: 1
    kernel_size: 3
    weight_filler {
      type: "xavier"
    }
    bias_filler {
      type: "constant"
      value: 0
    }
  }
}
layer {
  name: "relu_st_4_2"
  type: "ReLU"
  bottom: "conv_st_4_2"
  top: "conv_st_4_2"
}
layer {
  name: "conv_st_4_3"
  type: "Convolution"
  bottom: "conv_st_4_2"
  top: "conv_st_4_3"
  convolution_param {
    num_output: 512
    pad: 1
    kernel_size: 3
    weight_filler {
      type: "xavier"
    }
    bias_filler {
      type: "constant"
      value: 0
    }
  }
}
layer {
  name: "relu_st_4_3"
  type: "ReLU"
  bottom: "conv_st_4_3"
  top: "conv_st_4_3"
}
layer {
  name: "pool_st_4"
  type: "Pooling"
  bottom: "conv_st_4_3"
  top: "pool_st_4"
  pooling_param {
    pool: MAX
    kernel_size: 2
    stride: 2
  }
}
layer {
  name: "conv_st_5_1"
  type: "Convolution"
  bottom: "pool_st_4"
  top: "conv_st_5_1"
  convolution_param {
    num_output: 512
    pad: 1
    kernel_size: 3
    weight_filler {
      type: "xavier"
    }
    bias_filler {
      type: "constant"
      value: 0
    }
  }
}
layer {
  name: "relu_st_5_1"
  type: "ReLU"
  bottom: "conv_st_5_1"
  top: "conv_st_5_1"
}
layer {
  name: "conv_st_5_2"
  type: "Convolution"
  bottom: "conv_st_5_1"
  top: "conv_st_5_2"
  convolution_param {
    num_output: 512
    pad: 1
    kernel_size: 3
    weight_filler {
      type: "xavier"
    }
    bias_filler {
      type: "constant"
      value: 0
    }
  }
}
layer {
  name: "relu_st_5_2"
  type: "ReLU"
  bottom: "conv_st_5_2"
  top: "conv_st_5_2"
}
layer {
  name: "conv_st_5_3"
  type: "Convolution"
  bottom: "conv_st_5_2"
  top: "conv_st_5_3"
  convolution_param {
    num_output: 512
    pad: 1
    kernel_size: 3
    weight_filler {
      type: "xavier"
    }
    bias_filler {
      type: "constant"
      value: 0
    }
  }
}
layer {
  name: "relu_st_5_3"
  type: "ReLU"
  bottom: "conv_st_5_3"
  top: "conv_st_5_3"
}
layer {
  name: "pool_st_5"
  type: "Pooling"
  bottom: "conv_st_5_3"
  top: "pool_st_5"
  pooling_param {
    pool: MAX
    kernel_size: 2
    stride: 2
  }
}
layer {
  name: "fc_st_6"
  type: "InnerProduct"
  bottom: "pool_st_5"
  top: "fc_st_6"
  inner_product_param {
    num_output: 4096
    weight_filler {
      type: "xavier"
    }
    bias_filler {
      type: "constant"
      value: 0
    }
  }
}
layer {
  name: "relu_st_6"
  type: "ReLU"
  bottom: "fc_st_6"
  top: "fc_st_6"
}
layer {
  name: "fc_st_7"
  type: "InnerProduct"
  bottom: "fc_st_6"
  top: "fc_st_7"
  inner_product_param {
    num_output: 4096
    weight_filler {
      type: "xavier"
    }
    bias_filler {
      type: "constant"
      value: 0
    }
  }
}
layer {
  name: "relu_st_7"
  type: "ReLU"
  bottom: "fc_st_7"
  top: "fc_st_7"
}
layer {
  name: "fc_st_8"
  type: "InnerProduct"
  bottom: "fc_st_7"
  top: "fc_st_8"
  inner_product_param {
    num_output: 1000
    weight_filler {
      type: "xavier"
    }
    bias_filler {
      type: "constant"
      value: 0
    }
  }
}
layer {
  name: "loss"
  type: "SoftmaxWithLoss"
  bottom: "fc_st_8"
  bottom: "label"
  top: "loss"
  loss_weight: 0.995
}
layer {
  name: "accuracy/top1"
  type: "Accuracy"
  bottom: "fc_st_8"
  bottom: "label"
  top: "accuracy@1"
  include {
    phase: TEST
  }
  accuracy_param {
    top_k: 1
  }
}
layer {
  name: "accuracy/top5"
  type: "Accuracy"
  bottom: "fc_st_8"
  bottom: "label"
  top: "accuracy@5"
  include {
    phase: TEST
  }
  accuracy_param {
    top_k: 5
  }
}
I0811 01:38:15.822161  9685 layer_factory.hpp:77] Creating layer data
I0811 01:38:15.822332  9685 net.cpp:91] Creating Layer data
I0811 01:38:15.822345  9685 net.cpp:399] data -> data
I0811 01:38:15.822360  9685 net.cpp:399] data -> label
I0811 01:38:15.822372  9685 data_transformer.cpp:25] Loading mean file from: /home/ubuntu/caffe/data/ilsvrc12/imagenet_mean.binaryproto
I0811 01:38:15.823814  9690 db_lmdb.cpp:35] Opened lmdb /home/ubuntu/caffe/examples/imagenet/ilsvrc12_val_lmdb
I0811 01:38:15.825963  9685 data_layer.cpp:41] output data size: 75,3,224,224
I0811 01:38:15.965091  9685 net.cpp:141] Setting up data
I0811 01:38:15.965131  9685 net.cpp:148] Top shape: 75 3 224 224 (11289600)
I0811 01:38:15.965150  9685 net.cpp:148] Top shape: 75 (75)
I0811 01:38:15.965157  9685 net.cpp:156] Memory required for data: 45158700
I0811 01:38:15.965167  9685 layer_factory.hpp:77] Creating layer label_data_1_split
I0811 01:38:15.965193  9685 net.cpp:91] Creating Layer label_data_1_split
I0811 01:38:15.965215  9685 net.cpp:425] label_data_1_split <- label
I0811 01:38:15.965229  9685 net.cpp:399] label_data_1_split -> label_data_1_split_0
I0811 01:38:15.965253  9685 net.cpp:399] label_data_1_split -> label_data_1_split_1
I0811 01:38:15.965265  9685 net.cpp:399] label_data_1_split -> label_data_1_split_2
I0811 01:38:15.965538  9685 net.cpp:141] Setting up label_data_1_split
I0811 01:38:15.965553  9685 net.cpp:148] Top shape: 75 (75)
I0811 01:38:15.965560  9685 net.cpp:148] Top shape: 75 (75)
I0811 01:38:15.965567  9685 net.cpp:148] Top shape: 75 (75)
I0811 01:38:15.965574  9685 net.cpp:156] Memory required for data: 45159600
I0811 01:38:15.965579  9685 layer_factory.hpp:77] Creating layer conv_st_1_1
I0811 01:38:15.965600  9685 net.cpp:91] Creating Layer conv_st_1_1
I0811 01:38:15.965607  9685 net.cpp:425] conv_st_1_1 <- data
I0811 01:38:15.965620  9685 net.cpp:399] conv_st_1_1 -> conv_st_1_1
I0811 01:38:15.972785  9685 net.cpp:141] Setting up conv_st_1_1
I0811 01:38:15.972815  9685 net.cpp:148] Top shape: 75 64 224 224 (240844800)
I0811 01:38:15.972822  9685 net.cpp:156] Memory required for data: 1008538800
I0811 01:38:15.972841  9685 layer_factory.hpp:77] Creating layer relu_st_1_1
I0811 01:38:15.972856  9685 net.cpp:91] Creating Layer relu_st_1_1
I0811 01:38:15.972863  9685 net.cpp:425] relu_st_1_1 <- conv_st_1_1
I0811 01:38:15.972872  9685 net.cpp:386] relu_st_1_1 -> conv_st_1_1 (in-place)
I0811 01:38:15.973120  9685 net.cpp:141] Setting up relu_st_1_1
I0811 01:38:15.973137  9685 net.cpp:148] Top shape: 75 64 224 224 (240844800)
I0811 01:38:15.973145  9685 net.cpp:156] Memory required for data: 1971918000
I0811 01:38:15.973150  9685 layer_factory.hpp:77] Creating layer conv_st_1_2
I0811 01:38:15.973170  9685 net.cpp:91] Creating Layer conv_st_1_2
I0811 01:38:15.973177  9685 net.cpp:425] conv_st_1_2 <- conv_st_1_1
I0811 01:38:15.973189  9685 net.cpp:399] conv_st_1_2 -> conv_st_1_2
I0811 01:38:15.997932  9685 net.cpp:141] Setting up conv_st_1_2
I0811 01:38:15.997973  9685 net.cpp:148] Top shape: 75 64 224 224 (240844800)
I0811 01:38:15.997980  9685 net.cpp:156] Memory required for data: 2935297200
I0811 01:38:15.998003  9685 layer_factory.hpp:77] Creating layer relu_st_1_2
I0811 01:38:15.998019  9685 net.cpp:91] Creating Layer relu_st_1_2
I0811 01:38:15.998028  9685 net.cpp:425] relu_st_1_2 <- conv_st_1_2
I0811 01:38:15.998039  9685 net.cpp:386] relu_st_1_2 -> conv_st_1_2 (in-place)
I0811 01:38:15.998463  9685 net.cpp:141] Setting up relu_st_1_2
I0811 01:38:15.998486  9685 net.cpp:148] Top shape: 75 64 224 224 (240844800)
I0811 01:38:15.998492  9685 net.cpp:156] Memory required for data: 3898676400
I0811 01:38:15.998498  9685 layer_factory.hpp:77] Creating layer pool_st_1
I0811 01:38:15.998510  9685 net.cpp:91] Creating Layer pool_st_1
I0811 01:38:15.998517  9685 net.cpp:425] pool_st_1 <- conv_st_1_2
I0811 01:38:15.998528  9685 net.cpp:399] pool_st_1 -> pool_st_1
I0811 01:38:15.998611  9685 net.cpp:141] Setting up pool_st_1
I0811 01:38:15.998627  9685 net.cpp:148] Top shape: 75 64 112 112 (60211200)
I0811 01:38:15.998633  9685 net.cpp:156] Memory required for data: 4139521200
I0811 01:38:15.998639  9685 layer_factory.hpp:77] Creating layer conv_st_2_1
I0811 01:38:15.998666  9685 net.cpp:91] Creating Layer conv_st_2_1
I0811 01:38:15.998675  9685 net.cpp:425] conv_st_2_1 <- pool_st_1
I0811 01:38:15.998688  9685 net.cpp:399] conv_st_2_1 -> conv_st_2_1
I0811 01:38:16.000854  9685 net.cpp:141] Setting up conv_st_2_1
I0811 01:38:16.000879  9685 net.cpp:148] Top shape: 75 128 112 112 (120422400)
I0811 01:38:16.000885  9685 net.cpp:156] Memory required for data: 4621210800
I0811 01:38:16.000902  9685 layer_factory.hpp:77] Creating layer relu_st_2_1
I0811 01:38:16.000917  9685 net.cpp:91] Creating Layer relu_st_2_1
I0811 01:38:16.000924  9685 net.cpp:425] relu_st_2_1 <- conv_st_2_1
I0811 01:38:16.000934  9685 net.cpp:386] relu_st_2_1 -> conv_st_2_1 (in-place)
I0811 01:38:16.001127  9685 net.cpp:141] Setting up relu_st_2_1
I0811 01:38:16.001144  9685 net.cpp:148] Top shape: 75 128 112 112 (120422400)
I0811 01:38:16.001152  9685 net.cpp:156] Memory required for data: 5102900400
I0811 01:38:16.001157  9685 layer_factory.hpp:77] Creating layer conv_st_2_2
I0811 01:38:16.001174  9685 net.cpp:91] Creating Layer conv_st_2_2
I0811 01:38:16.001181  9685 net.cpp:425] conv_st_2_2 <- conv_st_2_1
I0811 01:38:16.001194  9685 net.cpp:399] conv_st_2_2 -> conv_st_2_2
I0811 01:38:16.003016  9685 net.cpp:141] Setting up conv_st_2_2
I0811 01:38:16.003041  9685 net.cpp:148] Top shape: 75 128 112 112 (120422400)
I0811 01:38:16.003047  9685 net.cpp:156] Memory required for data: 5584590000
I0811 01:38:16.003058  9685 layer_factory.hpp:77] Creating layer relu_st_2_2
I0811 01:38:16.003070  9685 net.cpp:91] Creating Layer relu_st_2_2
I0811 01:38:16.003077  9685 net.cpp:425] relu_st_2_2 <- conv_st_2_2
I0811 01:38:16.003087  9685 net.cpp:386] relu_st_2_2 -> conv_st_2_2 (in-place)
I0811 01:38:16.003273  9685 net.cpp:141] Setting up relu_st_2_2
I0811 01:38:16.003291  9685 net.cpp:148] Top shape: 75 128 112 112 (120422400)
I0811 01:38:16.003298  9685 net.cpp:156] Memory required for data: 6066279600
I0811 01:38:16.003304  9685 layer_factory.hpp:77] Creating layer pool_st_2
I0811 01:38:16.003315  9685 net.cpp:91] Creating Layer pool_st_2
I0811 01:38:16.003321  9685 net.cpp:425] pool_st_2 <- conv_st_2_2
I0811 01:38:16.003331  9685 net.cpp:399] pool_st_2 -> pool_st_2
I0811 01:38:16.003401  9685 net.cpp:141] Setting up pool_st_2
I0811 01:38:16.003432  9685 net.cpp:148] Top shape: 75 128 56 56 (30105600)
I0811 01:38:16.003438  9685 net.cpp:156] Memory required for data: 6186702000
I0811 01:38:16.003444  9685 layer_factory.hpp:77] Creating layer conv_st_3_1
I0811 01:38:16.003460  9685 net.cpp:91] Creating Layer conv_st_3_1
I0811 01:38:16.003468  9685 net.cpp:425] conv_st_3_1 <- pool_st_2
I0811 01:38:16.003479  9685 net.cpp:399] conv_st_3_1 -> conv_st_3_1
I0811 01:38:16.006887  9685 net.cpp:141] Setting up conv_st_3_1
I0811 01:38:16.006911  9685 net.cpp:148] Top shape: 75 256 56 56 (60211200)
I0811 01:38:16.006918  9685 net.cpp:156] Memory required for data: 6427546800
I0811 01:38:16.006935  9685 layer_factory.hpp:77] Creating layer relu_st_3_1
I0811 01:38:16.006947  9685 net.cpp:91] Creating Layer relu_st_3_1
I0811 01:38:16.006954  9685 net.cpp:425] relu_st_3_1 <- conv_st_3_1
I0811 01:38:16.006964  9685 net.cpp:386] relu_st_3_1 -> conv_st_3_1 (in-place)
I0811 01:38:16.007254  9685 net.cpp:141] Setting up relu_st_3_1
I0811 01:38:16.007275  9685 net.cpp:148] Top shape: 75 256 56 56 (60211200)
I0811 01:38:16.007284  9685 net.cpp:156] Memory required for data: 6668391600
I0811 01:38:16.007292  9685 layer_factory.hpp:77] Creating layer conv_st_3_2
I0811 01:38:16.007308  9685 net.cpp:91] Creating Layer conv_st_3_2
I0811 01:38:16.007314  9685 net.cpp:425] conv_st_3_2 <- conv_st_3_1
I0811 01:38:16.007326  9685 net.cpp:399] conv_st_3_2 -> conv_st_3_2
I0811 01:38:16.013021  9685 net.cpp:141] Setting up conv_st_3_2
I0811 01:38:16.013047  9685 net.cpp:148] Top shape: 75 256 56 56 (60211200)
I0811 01:38:16.013056  9685 net.cpp:156] Memory required for data: 6909236400
I0811 01:38:16.013065  9685 layer_factory.hpp:77] Creating layer relu_st_3_2
I0811 01:38:16.013077  9685 net.cpp:91] Creating Layer relu_st_3_2
I0811 01:38:16.013084  9685 net.cpp:425] relu_st_3_2 <- conv_st_3_2
I0811 01:38:16.013094  9685 net.cpp:386] relu_st_3_2 -> conv_st_3_2 (in-place)
I0811 01:38:16.013411  9685 net.cpp:141] Setting up relu_st_3_2
I0811 01:38:16.013432  9685 net.cpp:148] Top shape: 75 256 56 56 (60211200)
I0811 01:38:16.013438  9685 net.cpp:156] Memory required for data: 7150081200
I0811 01:38:16.013445  9685 layer_factory.hpp:77] Creating layer conv_st_3_3
I0811 01:38:16.013465  9685 net.cpp:91] Creating Layer conv_st_3_3
I0811 01:38:16.013473  9685 net.cpp:425] conv_st_3_3 <- conv_st_3_2
I0811 01:38:16.013485  9685 net.cpp:399] conv_st_3_3 -> conv_st_3_3
I0811 01:38:16.019199  9685 net.cpp:141] Setting up conv_st_3_3
I0811 01:38:16.019223  9685 net.cpp:148] Top shape: 75 256 56 56 (60211200)
I0811 01:38:16.019230  9685 net.cpp:156] Memory required for data: 7390926000
I0811 01:38:16.019243  9685 layer_factory.hpp:77] Creating layer relu_st_3_3
I0811 01:38:16.019253  9685 net.cpp:91] Creating Layer relu_st_3_3
I0811 01:38:16.019261  9685 net.cpp:425] relu_st_3_3 <- conv_st_3_3
I0811 01:38:16.019271  9685 net.cpp:386] relu_st_3_3 -> conv_st_3_3 (in-place)
I0811 01:38:16.019465  9685 net.cpp:141] Setting up relu_st_3_3
I0811 01:38:16.019484  9685 net.cpp:148] Top shape: 75 256 56 56 (60211200)
I0811 01:38:16.019490  9685 net.cpp:156] Memory required for data: 7631770800
I0811 01:38:16.019496  9685 layer_factory.hpp:77] Creating layer pool_st_3
I0811 01:38:16.019508  9685 net.cpp:91] Creating Layer pool_st_3
I0811 01:38:16.019515  9685 net.cpp:425] pool_st_3 <- conv_st_3_3
I0811 01:38:16.019526  9685 net.cpp:399] pool_st_3 -> pool_st_3
I0811 01:38:16.019593  9685 net.cpp:141] Setting up pool_st_3
I0811 01:38:16.019606  9685 net.cpp:148] Top shape: 75 256 28 28 (15052800)
I0811 01:38:16.019613  9685 net.cpp:156] Memory required for data: 7691982000
I0811 01:38:16.019619  9685 layer_factory.hpp:77] Creating layer conv_st_4_1
I0811 01:38:16.019634  9685 net.cpp:91] Creating Layer conv_st_4_1
I0811 01:38:16.019642  9685 net.cpp:425] conv_st_4_1 <- pool_st_3
I0811 01:38:16.019654  9685 net.cpp:399] conv_st_4_1 -> conv_st_4_1
I0811 01:38:16.030026  9685 net.cpp:141] Setting up conv_st_4_1
I0811 01:38:16.030057  9685 net.cpp:148] Top shape: 75 512 28 28 (30105600)
I0811 01:38:16.030064  9685 net.cpp:156] Memory required for data: 7812404400
I0811 01:38:16.030105  9685 layer_factory.hpp:77] Creating layer relu_st_4_1
I0811 01:38:16.030119  9685 net.cpp:91] Creating Layer relu_st_4_1
I0811 01:38:16.030128  9685 net.cpp:425] relu_st_4_1 <- conv_st_4_1
I0811 01:38:16.030138  9685 net.cpp:386] relu_st_4_1 -> conv_st_4_1 (in-place)
I0811 01:38:16.030431  9685 net.cpp:141] Setting up relu_st_4_1
I0811 01:38:16.030452  9685 net.cpp:148] Top shape: 75 512 28 28 (30105600)
I0811 01:38:16.030458  9685 net.cpp:156] Memory required for data: 7932826800
I0811 01:38:16.030464  9685 layer_factory.hpp:77] Creating layer conv_st_4_2
I0811 01:38:16.030481  9685 net.cpp:91] Creating Layer conv_st_4_2
I0811 01:38:16.030488  9685 net.cpp:425] conv_st_4_2 <- conv_st_4_1
I0811 01:38:16.030500  9685 net.cpp:399] conv_st_4_2 -> conv_st_4_2
I0811 01:38:16.050603  9685 net.cpp:141] Setting up conv_st_4_2
I0811 01:38:16.050645  9685 net.cpp:148] Top shape: 75 512 28 28 (30105600)
I0811 01:38:16.050652  9685 net.cpp:156] Memory required for data: 8053249200
I0811 01:38:16.050675  9685 layer_factory.hpp:77] Creating layer relu_st_4_2
I0811 01:38:16.050691  9685 net.cpp:91] Creating Layer relu_st_4_2
I0811 01:38:16.050699  9685 net.cpp:425] relu_st_4_2 <- conv_st_4_2
I0811 01:38:16.050710  9685 net.cpp:386] relu_st_4_2 -> conv_st_4_2 (in-place)
I0811 01:38:16.050920  9685 net.cpp:141] Setting up relu_st_4_2
I0811 01:38:16.050937  9685 net.cpp:148] Top shape: 75 512 28 28 (30105600)
I0811 01:38:16.050943  9685 net.cpp:156] Memory required for data: 8173671600
I0811 01:38:16.050950  9685 layer_factory.hpp:77] Creating layer conv_st_4_3
I0811 01:38:16.050967  9685 net.cpp:91] Creating Layer conv_st_4_3
I0811 01:38:16.050974  9685 net.cpp:425] conv_st_4_3 <- conv_st_4_2
I0811 01:38:16.050987  9685 net.cpp:399] conv_st_4_3 -> conv_st_4_3
I0811 01:38:16.071331  9685 net.cpp:141] Setting up conv_st_4_3
I0811 01:38:16.071370  9685 net.cpp:148] Top shape: 75 512 28 28 (30105600)
I0811 01:38:16.071378  9685 net.cpp:156] Memory required for data: 8294094000
I0811 01:38:16.071393  9685 layer_factory.hpp:77] Creating layer relu_st_4_3
I0811 01:38:16.071411  9685 net.cpp:91] Creating Layer relu_st_4_3
I0811 01:38:16.071420  9685 net.cpp:425] relu_st_4_3 <- conv_st_4_3
I0811 01:38:16.071431  9685 net.cpp:386] relu_st_4_3 -> conv_st_4_3 (in-place)
I0811 01:38:16.071638  9685 net.cpp:141] Setting up relu_st_4_3
I0811 01:38:16.071656  9685 net.cpp:148] Top shape: 75 512 28 28 (30105600)
I0811 01:38:16.071672  9685 net.cpp:156] Memory required for data: 8414516400
I0811 01:38:16.071678  9685 layer_factory.hpp:77] Creating layer pool_st_4
I0811 01:38:16.071691  9685 net.cpp:91] Creating Layer pool_st_4
I0811 01:38:16.071697  9685 net.cpp:425] pool_st_4 <- conv_st_4_3
I0811 01:38:16.071710  9685 net.cpp:399] pool_st_4 -> pool_st_4
I0811 01:38:16.071779  9685 net.cpp:141] Setting up pool_st_4
I0811 01:38:16.071794  9685 net.cpp:148] Top shape: 75 512 14 14 (7526400)
I0811 01:38:16.071800  9685 net.cpp:156] Memory required for data: 8444622000
I0811 01:38:16.071806  9685 layer_factory.hpp:77] Creating layer conv_st_5_1
I0811 01:38:16.071827  9685 net.cpp:91] Creating Layer conv_st_5_1
I0811 01:38:16.071835  9685 net.cpp:425] conv_st_5_1 <- pool_st_4
I0811 01:38:16.071851  9685 net.cpp:399] conv_st_5_1 -> conv_st_5_1
I0811 01:38:16.092082  9685 net.cpp:141] Setting up conv_st_5_1
I0811 01:38:16.092123  9685 net.cpp:148] Top shape: 75 512 14 14 (7526400)
I0811 01:38:16.092130  9685 net.cpp:156] Memory required for data: 8474727600
I0811 01:38:16.092144  9685 layer_factory.hpp:77] Creating layer relu_st_5_1
I0811 01:38:16.092159  9685 net.cpp:91] Creating Layer relu_st_5_1
I0811 01:38:16.092167  9685 net.cpp:425] relu_st_5_1 <- conv_st_5_1
I0811 01:38:16.092178  9685 net.cpp:386] relu_st_5_1 -> conv_st_5_1 (in-place)
I0811 01:38:16.092520  9685 net.cpp:141] Setting up relu_st_5_1
I0811 01:38:16.092541  9685 net.cpp:148] Top shape: 75 512 14 14 (7526400)
I0811 01:38:16.092548  9685 net.cpp:156] Memory required for data: 8504833200
I0811 01:38:16.092555  9685 layer_factory.hpp:77] Creating layer conv_st_5_2
I0811 01:38:16.092603  9685 net.cpp:91] Creating Layer conv_st_5_2
I0811 01:38:16.092618  9685 net.cpp:425] conv_st_5_2 <- conv_st_5_1
I0811 01:38:16.092633  9685 net.cpp:399] conv_st_5_2 -> conv_st_5_2
I0811 01:38:16.112644  9685 net.cpp:141] Setting up conv_st_5_2
I0811 01:38:16.112684  9685 net.cpp:148] Top shape: 75 512 14 14 (7526400)
I0811 01:38:16.112691  9685 net.cpp:156] Memory required for data: 8534938800
I0811 01:38:16.112709  9685 layer_factory.hpp:77] Creating layer relu_st_5_2
I0811 01:38:16.112723  9685 net.cpp:91] Creating Layer relu_st_5_2
I0811 01:38:16.112731  9685 net.cpp:425] relu_st_5_2 <- conv_st_5_2
I0811 01:38:16.112743  9685 net.cpp:386] relu_st_5_2 -> conv_st_5_2 (in-place)
I0811 01:38:16.112967  9685 net.cpp:141] Setting up relu_st_5_2
I0811 01:38:16.112984  9685 net.cpp:148] Top shape: 75 512 14 14 (7526400)
I0811 01:38:16.112990  9685 net.cpp:156] Memory required for data: 8565044400
I0811 01:38:16.112996  9685 layer_factory.hpp:77] Creating layer conv_st_5_3
I0811 01:38:16.113018  9685 net.cpp:91] Creating Layer conv_st_5_3
I0811 01:38:16.113026  9685 net.cpp:425] conv_st_5_3 <- conv_st_5_2
I0811 01:38:16.113037  9685 net.cpp:399] conv_st_5_3 -> conv_st_5_3
I0811 01:38:16.133076  9685 net.cpp:141] Setting up conv_st_5_3
I0811 01:38:16.133116  9685 net.cpp:148] Top shape: 75 512 14 14 (7526400)
I0811 01:38:16.133123  9685 net.cpp:156] Memory required for data: 8595150000
I0811 01:38:16.133137  9685 layer_factory.hpp:77] Creating layer relu_st_5_3
I0811 01:38:16.133150  9685 net.cpp:91] Creating Layer relu_st_5_3
I0811 01:38:16.133159  9685 net.cpp:425] relu_st_5_3 <- conv_st_5_3
I0811 01:38:16.133170  9685 net.cpp:386] relu_st_5_3 -> conv_st_5_3 (in-place)
I0811 01:38:16.133399  9685 net.cpp:141] Setting up relu_st_5_3
I0811 01:38:16.133417  9685 net.cpp:148] Top shape: 75 512 14 14 (7526400)
I0811 01:38:16.133424  9685 net.cpp:156] Memory required for data: 8625255600
I0811 01:38:16.133430  9685 layer_factory.hpp:77] Creating layer pool_st_5
I0811 01:38:16.133452  9685 net.cpp:91] Creating Layer pool_st_5
I0811 01:38:16.133460  9685 net.cpp:425] pool_st_5 <- conv_st_5_3
I0811 01:38:16.133471  9685 net.cpp:399] pool_st_5 -> pool_st_5
I0811 01:38:16.133565  9685 net.cpp:141] Setting up pool_st_5
I0811 01:38:16.133581  9685 net.cpp:148] Top shape: 75 512 7 7 (1881600)
I0811 01:38:16.133587  9685 net.cpp:156] Memory required for data: 8632782000
I0811 01:38:16.133594  9685 layer_factory.hpp:77] Creating layer fc_st_6
I0811 01:38:16.133610  9685 net.cpp:91] Creating Layer fc_st_6
I0811 01:38:16.133616  9685 net.cpp:425] fc_st_6 <- pool_st_5
I0811 01:38:16.133626  9685 net.cpp:399] fc_st_6 -> fc_st_6
I0811 01:38:17.039273  9685 net.cpp:141] Setting up fc_st_6
I0811 01:38:17.039321  9685 net.cpp:148] Top shape: 75 4096 (307200)
I0811 01:38:17.039328  9685 net.cpp:156] Memory required for data: 8634010800
I0811 01:38:17.039343  9685 layer_factory.hpp:77] Creating layer relu_st_6
I0811 01:38:17.039358  9685 net.cpp:91] Creating Layer relu_st_6
I0811 01:38:17.039367  9685 net.cpp:425] relu_st_6 <- fc_st_6
I0811 01:38:17.039377  9685 net.cpp:386] relu_st_6 -> fc_st_6 (in-place)
I0811 01:38:17.039842  9685 net.cpp:141] Setting up relu_st_6
I0811 01:38:17.039865  9685 net.cpp:148] Top shape: 75 4096 (307200)
I0811 01:38:17.039871  9685 net.cpp:156] Memory required for data: 8635239600
I0811 01:38:17.039877  9685 layer_factory.hpp:77] Creating layer fc_st_7
I0811 01:38:17.039891  9685 net.cpp:91] Creating Layer fc_st_7
I0811 01:38:17.039898  9685 net.cpp:425] fc_st_7 <- fc_st_6
I0811 01:38:17.039912  9685 net.cpp:399] fc_st_7 -> fc_st_7
I0811 01:38:17.199242  9685 net.cpp:141] Setting up fc_st_7
I0811 01:38:17.199282  9685 net.cpp:148] Top shape: 75 4096 (307200)
I0811 01:38:17.199290  9685 net.cpp:156] Memory required for data: 8636468400
I0811 01:38:17.199304  9685 layer_factory.hpp:77] Creating layer relu_st_7
I0811 01:38:17.199321  9685 net.cpp:91] Creating Layer relu_st_7
I0811 01:38:17.199328  9685 net.cpp:425] relu_st_7 <- fc_st_7
I0811 01:38:17.199342  9685 net.cpp:386] relu_st_7 -> fc_st_7 (in-place)
I0811 01:38:17.199826  9685 net.cpp:141] Setting up relu_st_7
I0811 01:38:17.199846  9685 net.cpp:148] Top shape: 75 4096 (307200)
I0811 01:38:17.199852  9685 net.cpp:156] Memory required for data: 8637697200
I0811 01:38:17.199858  9685 layer_factory.hpp:77] Creating layer fc_st_8
I0811 01:38:17.199872  9685 net.cpp:91] Creating Layer fc_st_8
I0811 01:38:17.199879  9685 net.cpp:425] fc_st_8 <- fc_st_7
I0811 01:38:17.199893  9685 net.cpp:399] fc_st_8 -> fc_st_8
I0811 01:38:17.232257  9685 net.cpp:141] Setting up fc_st_8
I0811 01:38:17.232300  9685 net.cpp:148] Top shape: 75 1000 (75000)
I0811 01:38:17.232306  9685 net.cpp:156] Memory required for data: 8637997200
I0811 01:38:17.232321  9685 layer_factory.hpp:77] Creating layer fc_st_8_fc_st_8_0_split
I0811 01:38:17.232334  9685 net.cpp:91] Creating Layer fc_st_8_fc_st_8_0_split
I0811 01:38:17.232343  9685 net.cpp:425] fc_st_8_fc_st_8_0_split <- fc_st_8
I0811 01:38:17.232360  9685 net.cpp:399] fc_st_8_fc_st_8_0_split -> fc_st_8_fc_st_8_0_split_0
I0811 01:38:17.232376  9685 net.cpp:399] fc_st_8_fc_st_8_0_split -> fc_st_8_fc_st_8_0_split_1
I0811 01:38:17.232388  9685 net.cpp:399] fc_st_8_fc_st_8_0_split -> fc_st_8_fc_st_8_0_split_2
I0811 01:38:17.232475  9685 net.cpp:141] Setting up fc_st_8_fc_st_8_0_split
I0811 01:38:17.232491  9685 net.cpp:148] Top shape: 75 1000 (75000)
I0811 01:38:17.232497  9685 net.cpp:148] Top shape: 75 1000 (75000)
I0811 01:38:17.232504  9685 net.cpp:148] Top shape: 75 1000 (75000)
I0811 01:38:17.232511  9685 net.cpp:156] Memory required for data: 8638897200
I0811 01:38:17.232517  9685 layer_factory.hpp:77] Creating layer loss
I0811 01:38:17.232528  9685 net.cpp:91] Creating Layer loss
I0811 01:38:17.232547  9685 net.cpp:425] loss <- fc_st_8_fc_st_8_0_split_0
I0811 01:38:17.232555  9685 net.cpp:425] loss <- label_data_1_split_0
I0811 01:38:17.232564  9685 net.cpp:399] loss -> loss
…
