…
I0808 14:34:41.682045 23453 net.cpp:294] The NetState phase (0) differed from the phase (1) specified by a rule in layer data
I0808 14:34:41.682145 23453 net.cpp:294] The NetState phase (0) differed from the phase (1) specified by a rule in layer accuracy
I0808 14:34:41.682770 23453 net.cpp:51] Initializing net from parameters: 
name: "AlexNet"
state {
  phase: TRAIN
  level: 0
  stage: ""
}
layer {
  name: "data"
  type: "Data"
  top: "data"
  top: "label"
  include {
    phase: TRAIN
  }
  transform_param {
    mirror: true
    crop_size: 227
  }
  data_param {
    source: "../imagenet/ilsvrc12_train_lmdb"
    batch_size: 128
    backend: LMDB
  }
}
layer {
  name: "data/bn"
  type: "BatchNorm"
  bottom: "data"
  top: "data/bn"
  param {
    lr_mult: 0
    decay_mult: 0
  }
  param {
    lr_mult: 0
    decay_mult: 0
  }
  param {
    lr_mult: 0
    decay_mult: 0
  }
  batch_norm_param {
    moving_average_fraction: 0.9
  }
}
layer {
  name: "data/scale"
  type: "Scale"
  bottom: "data/bn"
  top: "data/scale"
  param {
    lr_mult: 1
    decay_mult: 1
  }
  param {
    lr_mult: 2
    decay_mult: 0
  }
  scale_param {
    bias_term: true
  }
}
layer {
  name: "conv1"
  type: "Convolution"
  bottom: "data/scale"
  top: "conv1"
  param {
    lr_mult: 1
    decay_mult: 1
  }
  param {
    lr_mult: 2
    decay_mult: 0
  }
  convolution_param {
    num_output: 96
    kernel_size: 11
    stride: 4
    weight_filler {
      type: "msra"
    }
    bias_filler {
      type: "constant"
      value: 0
    }
  }
}
layer {
  name: "conv1/bn"
  type: "BatchNorm"
  bottom: "conv1"
  top: "conv1/bn"
  param {
    lr_mult: 0
    decay_mult: 0
  }
  param {
    lr_mult: 0
    decay_mult: 0
  }
  param {
    lr_mult: 0
    decay_mult: 0
  }
  batch_norm_param {
    moving_average_fraction: 0.9
  }
}
layer {
  name: "relu1"
  type: "ReLU"
  bottom: "conv1/bn"
  top: "norm1"
}
layer {
  name: "pool1"
  type: "Pooling"
  bottom: "norm1"
  top: "pool1"
  pooling_param {
    pool: MAX
    kernel_size: 3
    stride: 2
  }
}
layer {
  name: "conv2"
  type: "Convolution"
  bottom: "pool1"
  top: "conv2"
  param {
    lr_mult: 1
    decay_mult: 1
  }
  param {
    lr_mult: 2
    decay_mult: 0
  }
  convolution_param {
    num_output: 256
    pad: 2
    kernel_size: 5
    group: 2
    weight_filler {
      type: "msra"
    }
    bias_filler {
      type: "constant"
      value: 0
    }
  }
}
layer {
  name: "conv2/bn"
  type: "BatchNorm"
  bottom: "conv2"
  top: "conv2/bn"
  param {
    lr_mult: 0
    decay_mult: 0
  }
  param {
    lr_mult: 0
    decay_mult: 0
  }
  param {
    lr_mult: 0
    decay_mult: 0
  }
  batch_norm_param {
    moving_average_fraction: 0.9
  }
}
layer {
  name: "relu2"
  type: "ReLU"
  bottom: "conv2/bn"
  top: "norm2"
}
layer {
  name: "pool2"
  type: "Pooling"
  bottom: "norm2"
  top: "pool2"
  pooling_param {
    pool: MAX
    kernel_size: 3
    stride: 2
  }
}
layer {
  name: "conv3"
  type: "Convolution"
  bottom: "pool2"
  top: "conv3"
  param {
    lr_mult: 1
    decay_mult: 1
  }
  param {
    lr_mult: 2
    decay_mult: 0
  }
  convolution_param {
    num_output: 384
    pad: 1
    kernel_size: 3
    weight_filler {
      type: "msra"
    }
    bias_filler {
      type: "constant"
      value: 0
    }
  }
}
layer {
  name: "conv3/bn"
  type: "BatchNorm"
  bottom: "conv3"
  top: "conv3/bn"
  param {
    lr_mult: 0
    decay_mult: 0
  }
  param {
    lr_mult: 0
    decay_mult: 0
  }
  param {
    lr_mult: 0
    decay_mult: 0
  }
  batch_norm_param {
    moving_average_fraction: 0.9
  }
}
layer {
  name: "relu3"
  type: "ReLU"
  bottom: "conv3/bn"
  top: "conv3/bn"
}
layer {
  name: "conv4"
  type: "Convolution"
  bottom: "conv3/bn"
  top: "conv4"
  param {
    lr_mult: 1
    decay_mult: 1
  }
  param {
    lr_mult: 2
    decay_mult: 0
  }
  convolution_param {
    num_output: 384
    pad: 1
    kernel_size: 3
    group: 2
    weight_filler {
      type: "msra"
    }
    bias_filler {
      type: "constant"
      value: 0
    }
  }
}
layer {
  name: "conv4/bn"
  type: "BatchNorm"
  bottom: "conv4"
  top: "conv4/bn"
  param {
    lr_mult: 0
    decay_mult: 0
  }
  param {
    lr_mult: 0
    decay_mult: 0
  }
  param {
    lr_mult: 0
    decay_mult: 0
  }
  batch_norm_param {
    moving_average_fraction: 0.9
  }
}
layer {
  name: "relu4"
  type: "ReLU"
  bottom: "conv4/bn"
  top: "conv4/bn"
}
layer {
  name: "conv5"
  type: "Convolution"
  bottom: "conv4/bn"
  top: "conv5"
  param {
    lr_mult: 1
    decay_mult: 1
  }
  param {
    lr_mult: 2
    decay_mult: 0
  }
  convolution_param {
    num_output: 256
    pad: 1
    kernel_size: 3
    group: 2
    weight_filler {
      type: "msra"
    }
    bias_filler {
      type: "constant"
      value: 0
    }
  }
}
layer {
  name: "conv5/bn"
  type: "BatchNorm"
  bottom: "conv5"
  top: "conv5/bn"
  param {
    lr_mult: 0
    decay_mult: 0
  }
  param {
    lr_mult: 0
    decay_mult: 0
  }
  param {
    lr_mult: 0
    decay_mult: 0
  }
  batch_norm_param {
    moving_average_fraction: 0.9
  }
}
layer {
  name: "relu5"
  type: "ReLU"
  bottom: "conv5/bn"
  top: "conv5/bn"
}
layer {
  name: "pool5"
  type: "Pooling"
  bottom: "conv5/bn"
  top: "pool5"
  pooling_param {
    pool: MAX
    kernel_size: 3
    stride: 2
  }
}
layer {
  name: "fc6"
  type: "InnerProduct"
  bottom: "pool5"
  top: "fc6"
  param {
    lr_mult: 1
    decay_mult: 1
  }
  param {
    lr_mult: 2
    decay_mult: 0
  }
  inner_product_param {
    num_output: 4096
    weight_filler {
      type: "msra"
    }
    bias_filler {
      type: "constant"
      value: 0
    }
  }
}
layer {
  name: "fc6/bn"
  type: "BatchNorm"
  bottom: "fc6"
  top: "fc6/bn"
  param {
    lr_mult: 0
    decay_mult: 0
  }
  param {
    lr_mult: 0
    decay_mult: 0
  }
  param {
    lr_mult: 0
    decay_mult: 0
  }
  batch_norm_param {
    moving_average_fraction: 0.9
  }
}
layer {
  name: "relu6"
  type: "ReLU"
  bottom: "fc6/bn"
  top: "fc6/bn"
}
layer {
  name: "fc7"
  type: "InnerProduct"
  bottom: "fc6/bn"
  top: "fc7"
  param {
    lr_mult: 1
    decay_mult: 1
  }
  param {
    lr_mult: 2
    decay_mult: 0
  }
  inner_product_param {
    num_output: 4096
    weight_filler {
      type: "msra"
    }
    bias_filler {
      type: "constant"
      value: 0
    }
  }
}
layer {
  name: "fc7/bn"
  type: "BatchNorm"
  bottom: "fc7"
  top: "fc7/bn"
  param {
    lr_mult: 0
    decay_mult: 0
  }
  param {
    lr_mult: 0
    decay_mult: 0
  }
  param {
    lr_mult: 0
    decay_mult: 0
  }
  batch_norm_param {
    moving_average_fraction: 0.9
  }
}
layer {
  name: "relu7"
  type: "ReLU"
  bottom: "fc7/bn"
  top: "fc7/bn"
}
layer {
  name: "fc8"
  type: "InnerProduct"
  bottom: "fc7/bn"
  top: "fc8"
  param {
    lr_mult: 1
    decay_mult: 1
  }
  param {
    lr_mult: 2
    decay_mult: 0
  }
  inner_product_param {
    num_output: 1000
    weight_filler {
      type: "msra"
    }
    bias_filler {
      type: "constant"
      value: 0
    }
  }
}
layer {
  name: "loss"
  type: "SoftmaxWithLoss"
  bottom: "fc8"
  bottom: "label"
  top: "loss"
}
I0808 14:34:41.685703 23453 layer_factory.hpp:77] Creating layer data
I0808 14:34:41.719008 23453 db_lmdb.cpp:35] Opened lmdb ../imagenet/ilsvrc12_train_lmdb
I0808 14:34:41.753113 23453 net.cpp:84] Creating Layer data
I0808 14:34:41.753152 23453 net.cpp:380] data -> data
I0808 14:34:41.753187 23453 net.cpp:380] data -> label
I0808 14:34:41.767668 23453 data_layer.cpp:45] output data size: 128,3,227,227
I0808 14:34:41.859431 23453 net.cpp:122] Setting up data
I0808 14:34:41.859457 23453 net.cpp:129] Top shape: 128 3 227 227 (19787136)
I0808 14:34:41.859462 23453 net.cpp:129] Top shape: 128 (128)
I0808 14:34:41.859465 23453 net.cpp:137] Memory required for data: 79149056
I0808 14:34:41.859474 23453 layer_factory.hpp:77] Creating layer data/bn
I0808 14:34:41.859484 23453 net.cpp:84] Creating Layer data/bn
I0808 14:34:41.859489 23453 net.cpp:406] data/bn <- data
I0808 14:34:41.859499 23453 net.cpp:380] data/bn -> data/bn
I0808 14:34:41.860106 23453 net.cpp:122] Setting up data/bn
I0808 14:34:41.860116 23453 net.cpp:129] Top shape: 128 3 227 227 (19787136)
I0808 14:34:41.860121 23453 net.cpp:137] Memory required for data: 158297600
I0808 14:34:41.860136 23453 layer_factory.hpp:77] Creating layer data/scale
I0808 14:34:41.860142 23453 net.cpp:84] Creating Layer data/scale
I0808 14:34:41.860146 23453 net.cpp:406] data/scale <- data/bn
I0808 14:34:41.860152 23453 net.cpp:380] data/scale -> data/scale
I0808 14:34:41.860179 23453 layer_factory.hpp:77] Creating layer data/scale
I0808 14:34:41.860281 23453 net.cpp:122] Setting up data/scale
I0808 14:34:41.860288 23453 net.cpp:129] Top shape: 128 3 227 227 (19787136)
I0808 14:34:41.860291 23453 net.cpp:137] Memory required for data: 237446144
I0808 14:34:41.860297 23453 layer_factory.hpp:77] Creating layer conv1
I0808 14:34:41.860307 23453 net.cpp:84] Creating Layer conv1
I0808 14:34:41.860311 23453 net.cpp:406] conv1 <- data/scale
I0808 14:34:41.860316 23453 net.cpp:380] conv1 -> conv1
I0808 14:34:42.526358 23453 net.cpp:122] Setting up conv1
I0808 14:34:42.526377 23453 net.cpp:129] Top shape: 128 96 55 55 (37171200)
I0808 14:34:42.526379 23453 net.cpp:137] Memory required for data: 386130944
I0808 14:34:42.526386 23453 layer_factory.hpp:77] Creating layer conv1/bn
I0808 14:34:42.526399 23453 net.cpp:84] Creating Layer conv1/bn
I0808 14:34:42.526401 23453 net.cpp:406] conv1/bn <- conv1
I0808 14:34:42.526409 23453 net.cpp:380] conv1/bn -> conv1/bn
I0808 14:34:42.526553 23453 net.cpp:122] Setting up conv1/bn
I0808 14:34:42.526557 23453 net.cpp:129] Top shape: 128 96 55 55 (37171200)
I0808 14:34:42.526559 23453 net.cpp:137] Memory required for data: 534815744
I0808 14:34:42.526566 23453 layer_factory.hpp:77] Creating layer relu1
I0808 14:34:42.526574 23453 net.cpp:84] Creating Layer relu1
I0808 14:34:42.526576 23453 net.cpp:406] relu1 <- conv1/bn
I0808 14:34:42.526579 23453 net.cpp:380] relu1 -> norm1
I0808 14:34:42.527005 23453 net.cpp:122] Setting up relu1
I0808 14:34:42.527014 23453 net.cpp:129] Top shape: 128 96 55 55 (37171200)
I0808 14:34:42.527015 23453 net.cpp:137] Memory required for data: 683500544
I0808 14:34:42.527017 23453 layer_factory.hpp:77] Creating layer pool1
I0808 14:34:42.527021 23453 net.cpp:84] Creating Layer pool1
I0808 14:34:42.527022 23453 net.cpp:406] pool1 <- norm1
I0808 14:34:42.527026 23453 net.cpp:380] pool1 -> pool1
I0808 14:34:42.527052 23453 net.cpp:122] Setting up pool1
I0808 14:34:42.527056 23453 net.cpp:129] Top shape: 128 96 27 27 (8957952)
I0808 14:34:42.527057 23453 net.cpp:137] Memory required for data: 719332352
I0808 14:34:42.527060 23453 layer_factory.hpp:77] Creating layer conv2
I0808 14:34:42.527065 23453 net.cpp:84] Creating Layer conv2
I0808 14:34:42.527066 23453 net.cpp:406] conv2 <- pool1
I0808 14:34:42.527070 23453 net.cpp:380] conv2 -> conv2
I0808 14:34:42.530987 23453 net.cpp:122] Setting up conv2
I0808 14:34:42.531000 23453 net.cpp:129] Top shape: 128 256 27 27 (23887872)
I0808 14:34:42.531002 23453 net.cpp:137] Memory required for data: 814883840
I0808 14:34:42.531008 23453 layer_factory.hpp:77] Creating layer conv2/bn
I0808 14:34:42.531015 23453 net.cpp:84] Creating Layer conv2/bn
I0808 14:34:42.531018 23453 net.cpp:406] conv2/bn <- conv2
I0808 14:34:42.531021 23453 net.cpp:380] conv2/bn -> conv2/bn
I0808 14:34:42.531141 23453 net.cpp:122] Setting up conv2/bn
I0808 14:34:42.531147 23453 net.cpp:129] Top shape: 128 256 27 27 (23887872)
I0808 14:34:42.531162 23453 net.cpp:137] Memory required for data: 910435328
I0808 14:34:42.531165 23453 layer_factory.hpp:77] Creating layer relu2
I0808 14:34:42.531168 23453 net.cpp:84] Creating Layer relu2
I0808 14:34:42.531170 23453 net.cpp:406] relu2 <- conv2/bn
I0808 14:34:42.531174 23453 net.cpp:380] relu2 -> norm2
I0808 14:34:42.531306 23453 net.cpp:122] Setting up relu2
I0808 14:34:42.531311 23453 net.cpp:129] Top shape: 128 256 27 27 (23887872)
I0808 14:34:42.531313 23453 net.cpp:137] Memory required for data: 1005986816
I0808 14:34:42.531316 23453 layer_factory.hpp:77] Creating layer pool2
I0808 14:34:42.531318 23453 net.cpp:84] Creating Layer pool2
I0808 14:34:42.531319 23453 net.cpp:406] pool2 <- norm2
I0808 14:34:42.531323 23453 net.cpp:380] pool2 -> pool2
I0808 14:34:42.531344 23453 net.cpp:122] Setting up pool2
I0808 14:34:42.531347 23453 net.cpp:129] Top shape: 128 256 13 13 (5537792)
I0808 14:34:42.531349 23453 net.cpp:137] Memory required for data: 1028137984
I0808 14:34:42.531350 23453 layer_factory.hpp:77] Creating layer conv3
I0808 14:34:42.531358 23453 net.cpp:84] Creating Layer conv3
I0808 14:34:42.531359 23453 net.cpp:406] conv3 <- pool2
I0808 14:34:42.531363 23453 net.cpp:380] conv3 -> conv3
I0808 14:34:42.538159 23453 net.cpp:122] Setting up conv3
I0808 14:34:42.538175 23453 net.cpp:129] Top shape: 128 384 13 13 (8306688)
I0808 14:34:42.538178 23453 net.cpp:137] Memory required for data: 1061364736
I0808 14:34:42.538187 23453 layer_factory.hpp:77] Creating layer conv3/bn
I0808 14:34:42.538195 23453 net.cpp:84] Creating Layer conv3/bn
I0808 14:34:42.538198 23453 net.cpp:406] conv3/bn <- conv3
I0808 14:34:42.538203 23453 net.cpp:380] conv3/bn -> conv3/bn
I0808 14:34:42.538327 23453 net.cpp:122] Setting up conv3/bn
I0808 14:34:42.538332 23453 net.cpp:129] Top shape: 128 384 13 13 (8306688)
I0808 14:34:42.538334 23453 net.cpp:137] Memory required for data: 1094591488
I0808 14:34:42.538338 23453 layer_factory.hpp:77] Creating layer relu3
I0808 14:34:42.538342 23453 net.cpp:84] Creating Layer relu3
I0808 14:34:42.538344 23453 net.cpp:406] relu3 <- conv3/bn
I0808 14:34:42.538347 23453 net.cpp:367] relu3 -> conv3/bn (in-place)
I0808 14:34:42.538465 23453 net.cpp:122] Setting up relu3
I0808 14:34:42.538470 23453 net.cpp:129] Top shape: 128 384 13 13 (8306688)
I0808 14:34:42.538472 23453 net.cpp:137] Memory required for data: 1127818240
I0808 14:34:42.538475 23453 layer_factory.hpp:77] Creating layer conv4
I0808 14:34:42.538483 23453 net.cpp:84] Creating Layer conv4
I0808 14:34:42.538486 23453 net.cpp:406] conv4 <- conv3/bn
I0808 14:34:42.538491 23453 net.cpp:380] conv4 -> conv4
I0808 14:34:42.544510 23453 net.cpp:122] Setting up conv4
I0808 14:34:42.544524 23453 net.cpp:129] Top shape: 128 384 13 13 (8306688)
I0808 14:34:42.544526 23453 net.cpp:137] Memory required for data: 1161044992
I0808 14:34:42.544531 23453 layer_factory.hpp:77] Creating layer conv4/bn
I0808 14:34:42.544538 23453 net.cpp:84] Creating Layer conv4/bn
I0808 14:34:42.544540 23453 net.cpp:406] conv4/bn <- conv4
I0808 14:34:42.544544 23453 net.cpp:380] conv4/bn -> conv4/bn
I0808 14:34:42.544663 23453 net.cpp:122] Setting up conv4/bn
I0808 14:34:42.544667 23453 net.cpp:129] Top shape: 128 384 13 13 (8306688)
I0808 14:34:42.544668 23453 net.cpp:137] Memory required for data: 1194271744
I0808 14:34:42.544672 23453 layer_factory.hpp:77] Creating layer relu4
I0808 14:34:42.544677 23453 net.cpp:84] Creating Layer relu4
I0808 14:34:42.544678 23453 net.cpp:406] relu4 <- conv4/bn
I0808 14:34:42.544682 23453 net.cpp:367] relu4 -> conv4/bn (in-place)
I0808 14:34:42.545042 23453 net.cpp:122] Setting up relu4
I0808 14:34:42.545049 23453 net.cpp:129] Top shape: 128 384 13 13 (8306688)
I0808 14:34:42.545051 23453 net.cpp:137] Memory required for data: 1227498496
I0808 14:34:42.545053 23453 layer_factory.hpp:77] Creating layer conv5
I0808 14:34:42.545060 23453 net.cpp:84] Creating Layer conv5
I0808 14:34:42.545063 23453 net.cpp:406] conv5 <- conv4/bn
I0808 14:34:42.545066 23453 net.cpp:380] conv5 -> conv5
I0808 14:34:42.549640 23453 net.cpp:122] Setting up conv5
I0808 14:34:42.549664 23453 net.cpp:129] Top shape: 128 256 13 13 (5537792)
I0808 14:34:42.549665 23453 net.cpp:137] Memory required for data: 1249649664
I0808 14:34:42.549670 23453 layer_factory.hpp:77] Creating layer conv5/bn
I0808 14:34:42.549675 23453 net.cpp:84] Creating Layer conv5/bn
I0808 14:34:42.549677 23453 net.cpp:406] conv5/bn <- conv5
I0808 14:34:42.549681 23453 net.cpp:380] conv5/bn -> conv5/bn
I0808 14:34:42.549801 23453 net.cpp:122] Setting up conv5/bn
I0808 14:34:42.549805 23453 net.cpp:129] Top shape: 128 256 13 13 (5537792)
I0808 14:34:42.549808 23453 net.cpp:137] Memory required for data: 1271800832
I0808 14:34:42.549810 23453 layer_factory.hpp:77] Creating layer relu5
I0808 14:34:42.549813 23453 net.cpp:84] Creating Layer relu5
I0808 14:34:42.549815 23453 net.cpp:406] relu5 <- conv5/bn
I0808 14:34:42.549818 23453 net.cpp:367] relu5 -> conv5/bn (in-place)
I0808 14:34:42.549932 23453 net.cpp:122] Setting up relu5
I0808 14:34:42.549937 23453 net.cpp:129] Top shape: 128 256 13 13 (5537792)
I0808 14:34:42.549938 23453 net.cpp:137] Memory required for data: 1293952000
I0808 14:34:42.549939 23453 layer_factory.hpp:77] Creating layer pool5
I0808 14:34:42.549943 23453 net.cpp:84] Creating Layer pool5
I0808 14:34:42.549945 23453 net.cpp:406] pool5 <- conv5/bn
I0808 14:34:42.549948 23453 net.cpp:380] pool5 -> pool5
I0808 14:34:42.549970 23453 net.cpp:122] Setting up pool5
I0808 14:34:42.549974 23453 net.cpp:129] Top shape: 128 256 6 6 (1179648)
I0808 14:34:42.549976 23453 net.cpp:137] Memory required for data: 1298670592
I0808 14:34:42.549979 23453 layer_factory.hpp:77] Creating layer fc6
I0808 14:34:42.549983 23453 net.cpp:84] Creating Layer fc6
I0808 14:34:42.549986 23453 net.cpp:406] fc6 <- pool5
I0808 14:34:42.549991 23453 net.cpp:380] fc6 -> fc6
I0808 14:34:42.786721 23453 net.cpp:122] Setting up fc6
I0808 14:34:42.786738 23453 net.cpp:129] Top shape: 128 4096 (524288)
I0808 14:34:42.786741 23453 net.cpp:137] Memory required for data: 1300767744
I0808 14:34:42.786751 23453 layer_factory.hpp:77] Creating layer fc6/bn
I0808 14:34:42.786761 23453 net.cpp:84] Creating Layer fc6/bn
I0808 14:34:42.786763 23453 net.cpp:406] fc6/bn <- fc6
I0808 14:34:42.786769 23453 net.cpp:380] fc6/bn -> fc6/bn
I0808 14:34:42.786893 23453 net.cpp:122] Setting up fc6/bn
I0808 14:34:42.786898 23453 net.cpp:129] Top shape: 128 4096 (524288)
I0808 14:34:42.786900 23453 net.cpp:137] Memory required for data: 1302864896
I0808 14:34:42.786908 23453 layer_factory.hpp:77] Creating layer relu6
I0808 14:34:42.786912 23453 net.cpp:84] Creating Layer relu6
I0808 14:34:42.786914 23453 net.cpp:406] relu6 <- fc6/bn
I0808 14:34:42.786918 23453 net.cpp:367] relu6 -> fc6/bn (in-place)
I0808 14:34:42.787078 23453 net.cpp:122] Setting up relu6
I0808 14:34:42.787083 23453 net.cpp:129] Top shape: 128 4096 (524288)
I0808 14:34:42.787084 23453 net.cpp:137] Memory required for data: 1304962048
I0808 14:34:42.787086 23453 layer_factory.hpp:77] Creating layer fc7
I0808 14:34:42.787091 23453 net.cpp:84] Creating Layer fc7
I0808 14:34:42.787093 23453 net.cpp:406] fc7 <- fc6/bn
I0808 14:34:42.787096 23453 net.cpp:380] fc7 -> fc7
I0808 14:34:42.893216 23453 net.cpp:122] Setting up fc7
I0808 14:34:42.893232 23453 net.cpp:129] Top shape: 128 4096 (524288)
I0808 14:34:42.893234 23453 net.cpp:137] Memory required for data: 1307059200
I0808 14:34:42.893239 23453 layer_factory.hpp:77] Creating layer fc7/bn
I0808 14:34:42.893246 23453 net.cpp:84] Creating Layer fc7/bn
I0808 14:34:42.893249 23453 net.cpp:406] fc7/bn <- fc7
I0808 14:34:42.893254 23453 net.cpp:380] fc7/bn -> fc7/bn
I0808 14:34:42.893371 23453 net.cpp:122] Setting up fc7/bn
I0808 14:34:42.893375 23453 net.cpp:129] Top shape: 128 4096 (524288)
I0808 14:34:42.893378 23453 net.cpp:137] Memory required for data: 1309156352
I0808 14:34:42.893380 23453 layer_factory.hpp:77] Creating layer relu7
I0808 14:34:42.893384 23453 net.cpp:84] Creating Layer relu7
I0808 14:34:42.893386 23453 net.cpp:406] relu7 <- fc7/bn
I0808 14:34:42.893389 23453 net.cpp:367] relu7 -> fc7/bn (in-place)
I0808 14:34:42.893549 23453 net.cpp:122] Setting up relu7
I0808 14:34:42.893568 23453 net.cpp:129] Top shape: 128 4096 (524288)
I0808 14:34:42.893570 23453 net.cpp:137] Memory required for data: 1311253504
I0808 14:34:42.893573 23453 layer_factory.hpp:77] Creating layer fc8
I0808 14:34:42.893576 23453 net.cpp:84] Creating Layer fc8
I0808 14:34:42.893579 23453 net.cpp:406] fc8 <- fc7/bn
I0808 14:34:42.893581 23453 net.cpp:380] fc8 -> fc8
I0808 14:34:42.920171 23453 net.cpp:122] Setting up fc8
I0808 14:34:42.920189 23453 net.cpp:129] Top shape: 128 1000 (128000)
I0808 14:34:42.920192 23453 net.cpp:137] Memory required for data: 1311765504
I0808 14:34:42.920197 23453 layer_factory.hpp:77] Creating layer loss
I0808 14:34:42.920203 23453 net.cpp:84] Creating Layer loss
I0808 14:34:42.920205 23453 net.cpp:406] loss <- fc8
I0808 14:34:42.920209 23453 net.cpp:406] loss <- label
I0808 14:34:42.920215 23453 net.cpp:380] loss -> loss
I0808 14:34:42.920222 23453 layer_factory.hpp:77] Creating layer loss
…
I0808 14:34:42.921079 23453 solver.cpp:172] Creating test net (#0) specified by net file: train_alexnet.prototxt
I0808 14:34:42.921099 23453 net.cpp:294] The NetState phase (1) differed from the phase (0) specified by a rule in layer data
I0808 14:34:42.921216 23453 net.cpp:51] Initializing net from parameters: 
name: "AlexNet"
state {
  phase: TEST
}
layer {
  name: "data"
  type: "Data"
  top: "data"
  top: "label"
  include {
    phase: TEST
  }
  transform_param {
    mirror: false
    crop_size: 227
  }
  data_param {
    source: "../imagenet/ilsvrc12_val_lmdb"
    batch_size: 50
    backend: LMDB
  }
}
layer {
  name: "data/bn"
  type: "BatchNorm"
  bottom: "data"
  top: "data/bn"
  param {
    lr_mult: 0
    decay_mult: 0
  }
  param {
    lr_mult: 0
    decay_mult: 0
  }
  param {
    lr_mult: 0
    decay_mult: 0
  }
  batch_norm_param {
    moving_average_fraction: 0.9
  }
}
layer {
  name: "data/scale"
  type: "Scale"
  bottom: "data/bn"
  top: "data/scale"
  param {
    lr_mult: 1
    decay_mult: 1
  }
  param {
    lr_mult: 2
    decay_mult: 0
  }
  scale_param {
    bias_term: true
  }
}
layer {
  name: "conv1"
  type: "Convolution"
  bottom: "data/scale"
  top: "conv1"
  param {
    lr_mult: 1
    decay_mult: 1
  }
  param {
    lr_mult: 2
    decay_mult: 0
  }
  convolution_param {
    num_output: 96
    kernel_size: 11
    stride: 4
    weight_filler {
      type: "msra"
    }
    bias_filler {
      type: "constant"
      value: 0
    }
  }
}
layer {
  name: "conv1/bn"
  type: "BatchNorm"
  bottom: "conv1"
  top: "conv1/bn"
  param {
    lr_mult: 0
    decay_mult: 0
  }
  param {
    lr_mult: 0
    decay_mult: 0
  }
  param {
    lr_mult: 0
    decay_mult: 0
  }
  batch_norm_param {
    moving_average_fraction: 0.9
  }
}
layer {
  name: "relu1"
  type: "ReLU"
  bottom: "conv1/bn"
  top: "norm1"
}
layer {
  name: "pool1"
  type: "Pooling"
  bottom: "norm1"
  top: "pool1"
  pooling_param {
    pool: MAX
    kernel_size: 3
    stride: 2
  }
}
layer {
  name: "conv2"
  type: "Convolution"
  bottom: "pool1"
  top: "conv2"
  param {
    lr_mult: 1
    decay_mult: 1
  }
  param {
    lr_mult: 2
    decay_mult: 0
  }
  convolution_param {
    num_output: 256
    pad: 2
    kernel_size: 5
    group: 2
    weight_filler {
      type: "msra"
    }
    bias_filler {
      type: "constant"
      value: 0
    }
  }
}
layer {
  name: "conv2/bn"
  type: "BatchNorm"
  bottom: "conv2"
  top: "conv2/bn"
  param {
    lr_mult: 0
    decay_mult: 0
  }
  param {
    lr_mult: 0
    decay_mult: 0
  }
  param {
    lr_mult: 0
    decay_mult: 0
  }
  batch_norm_param {
    moving_average_fraction: 0.9
  }
}
layer {
  name: "relu2"
  type: "ReLU"
  bottom: "conv2/bn"
  top: "norm2"
}
layer {
  name: "pool2"
  type: "Pooling"
  bottom: "norm2"
  top: "pool2"
  pooling_param {
    pool: MAX
    kernel_size: 3
    stride: 2
  }
}
layer {
  name: "conv3"
  type: "Convolution"
  bottom: "pool2"
  top: "conv3"
  param {
    lr_mult: 1
    decay_mult: 1
  }
  param {
    lr_mult: 2
    decay_mult: 0
  }
  convolution_param {
    num_output: 384
    pad: 1
    kernel_size: 3
    weight_filler {
      type: "msra"
    }
    bias_filler {
      type: "constant"
      value: 0
    }
  }
}
layer {
  name: "conv3/bn"
  type: "BatchNorm"
  bottom: "conv3"
  top: "conv3/bn"
  param {
    lr_mult: 0
    decay_mult: 0
  }
  param {
    lr_mult: 0
    decay_mult: 0
  }
  param {
    lr_mult: 0
    decay_mult: 0
  }
  batch_norm_param {
    moving_average_fraction: 0.9
  }
}
layer {
  name: "relu3"
  type: "ReLU"
  bottom: "conv3/bn"
  top: "conv3/bn"
}
layer {
  name: "conv4"
  type: "Convolution"
  bottom: "conv3/bn"
  top: "conv4"
  param {
    lr_mult: 1
    decay_mult: 1
  }
  param {
    lr_mult: 2
    decay_mult: 0
  }
  convolution_param {
    num_output: 384
    pad: 1
    kernel_size: 3
    group: 2
    weight_filler {
      type: "msra"
    }
    bias_filler {
      type: "constant"
      value: 0
    }
  }
}
layer {
  name: "conv4/bn"
  type: "BatchNorm"
  bottom: "conv4"
  top: "conv4/bn"
  param {
    lr_mult: 0
    decay_mult: 0
  }
  param {
    lr_mult: 0
    decay_mult: 0
  }
  param {
    lr_mult: 0
    decay_mult: 0
  }
  batch_norm_param {
    moving_average_fraction: 0.9
  }
}
layer {
  name: "relu4"
  type: "ReLU"
  bottom: "conv4/bn"
  top: "conv4/bn"
}
layer {
  name: "conv5"
  type: "Convolution"
  bottom: "conv4/bn"
  top: "conv5"
  param {
    lr_mult: 1
    decay_mult: 1
  }
  param {
    lr_mult: 2
    decay_mult: 0
  }
  convolution_param {
    num_output: 256
    pad: 1
    kernel_size: 3
    group: 2
    weight_filler {
      type: "msra"
    }
    bias_filler {
      type: "constant"
      value: 0
    }
  }
}
layer {
  name: "conv5/bn"
  type: "BatchNorm"
  bottom: "conv5"
  top: "conv5/bn"
  param {
    lr_mult: 0
    decay_mult: 0
  }
  param {
    lr_mult: 0
    decay_mult: 0
  }
  param {
    lr_mult: 0
    decay_mult: 0
  }
  batch_norm_param {
    moving_average_fraction: 0.9
  }
}
layer {
  name: "relu5"
  type: "ReLU"
  bottom: "conv5/bn"
  top: "conv5/bn"
}
layer {
  name: "pool5"
  type: "Pooling"
  bottom: "conv5/bn"
  top: "pool5"
  pooling_param {
    pool: MAX
    kernel_size: 3
    stride: 2
  }
}
layer {
  name: "fc6"
  type: "InnerProduct"
  bottom: "pool5"
  top: "fc6"
  param {
    lr_mult: 1
    decay_mult: 1
  }
  param {
    lr_mult: 2
    decay_mult: 0
  }
  inner_product_param {
    num_output: 4096
    weight_filler {
      type: "msra"
    }
    bias_filler {
      type: "constant"
      value: 0
    }
  }
}
layer {
  name: "fc6/bn"
  type: "BatchNorm"
  bottom: "fc6"
  top: "fc6/bn"
  param {
    lr_mult: 0
    decay_mult: 0
  }
  param {
    lr_mult: 0
    decay_mult: 0
  }
  param {
    lr_mult: 0
    decay_mult: 0
  }
  batch_norm_param {
    moving_average_fraction: 0.9
  }
}
layer {
  name: "relu6"
  type: "ReLU"
  bottom: "fc6/bn"
  top: "fc6/bn"
}
layer {
  name: "fc7"
  type: "InnerProduct"
  bottom: "fc6/bn"
  top: "fc7"
  param {
    lr_mult: 1
    decay_mult: 1
  }
  param {
    lr_mult: 2
    decay_mult: 0
  }
  inner_product_param {
    num_output: 4096
    weight_filler {
      type: "msra"
    }
    bias_filler {
      type: "constant"
      value: 0
    }
  }
}
layer {
  name: "fc7/bn"
  type: "BatchNorm"
  bottom: "fc7"
  top: "fc7/bn"
  param {
    lr_mult: 0
    decay_mult: 0
  }
  param {
    lr_mult: 0
    decay_mult: 0
  }
  param {
    lr_mult: 0
    decay_mult: 0
  }
  batch_norm_param {
    moving_average_fraction: 0.9
  }
}
layer {
  name: "relu7"
  type: "ReLU"
  bottom: "fc7/bn"
  top: "fc7/bn"
}
layer {
  name: "fc8"
  type: "InnerProduct"
  bottom: "fc7/bn"
  top: "fc8"
  param {
    lr_mult: 1
    decay_mult: 1
  }
  param {
    lr_mult: 2
    decay_mult: 0
  }
  inner_product_param {
    num_output: 1000
    weight_filler {
      type: "msra"
    }
    bias_filler {
      type: "constant"
      value: 0
    }
  }
}
layer {
  name: "accuracy"
  type: "Accuracy"
  bottom: "fc8"
  bottom: "label"
  top: "accuracy"
  include {
    phase: TEST
  }
}
layer {
  name: "loss"
  type: "SoftmaxWithLoss"
  bottom: "fc8"
  bottom: "label"
  top: "loss"
}
I0808 14:34:42.921413 23453 layer_factory.hpp:77] Creating layer data
I0808 14:34:42.998600 23453 db_lmdb.cpp:35] Opened lmdb ../imagenet/ilsvrc12_val_lmdb
I0808 14:34:43.013641 23453 net.cpp:84] Creating Layer data
I0808 14:34:43.013695 23453 net.cpp:380] data -> data
I0808 14:34:43.013726 23453 net.cpp:380] data -> label
I0808 14:34:43.023885 23453 data_layer.cpp:45] output data size: 50,3,227,227
I0808 14:34:43.077894 23453 net.cpp:122] Setting up data
I0808 14:34:43.077914 23453 net.cpp:129] Top shape: 50 3 227 227 (7729350)
I0808 14:34:43.077919 23453 net.cpp:129] Top shape: 50 (50)
I0808 14:34:43.077922 23453 net.cpp:137] Memory required for data: 30917600
I0808 14:34:43.077927 23453 layer_factory.hpp:77] Creating layer label_data_1_split
I0808 14:34:43.077941 23453 net.cpp:84] Creating Layer label_data_1_split
I0808 14:34:43.077946 23453 net.cpp:406] label_data_1_split <- label
I0808 14:34:43.077951 23453 net.cpp:380] label_data_1_split -> label_data_1_split_0
I0808 14:34:43.077958 23453 net.cpp:380] label_data_1_split -> label_data_1_split_1
I0808 14:34:43.078011 23453 net.cpp:122] Setting up label_data_1_split
I0808 14:34:43.078017 23453 net.cpp:129] Top shape: 50 (50)
I0808 14:34:43.078022 23453 net.cpp:129] Top shape: 50 (50)
I0808 14:34:43.078023 23453 net.cpp:137] Memory required for data: 30918000
I0808 14:34:43.078042 23453 layer_factory.hpp:77] Creating layer data/bn
I0808 14:34:43.078048 23453 net.cpp:84] Creating Layer data/bn
I0808 14:34:43.078058 23453 net.cpp:406] data/bn <- data
I0808 14:34:43.078063 23453 net.cpp:380] data/bn -> data/bn
I0808 14:34:43.078224 23453 net.cpp:122] Setting up data/bn
I0808 14:34:43.078230 23453 net.cpp:129] Top shape: 50 3 227 227 (7729350)
I0808 14:34:43.078233 23453 net.cpp:137] Memory required for data: 61835400
I0808 14:34:43.078243 23453 layer_factory.hpp:77] Creating layer data/scale
I0808 14:34:43.078248 23453 net.cpp:84] Creating Layer data/scale
I0808 14:34:43.078251 23453 net.cpp:406] data/scale <- data/bn
I0808 14:34:43.078255 23453 net.cpp:380] data/scale -> data/scale
I0808 14:34:43.078346 23453 layer_factory.hpp:77] Creating layer data/scale
I0808 14:34:43.080896 23453 net.cpp:122] Setting up data/scale
I0808 14:34:43.080909 23453 net.cpp:129] Top shape: 50 3 227 227 (7729350)
I0808 14:34:43.080914 23453 net.cpp:137] Memory required for data: 92752800
I0808 14:34:43.080922 23453 layer_factory.hpp:77] Creating layer conv1
I0808 14:34:43.080930 23453 net.cpp:84] Creating Layer conv1
I0808 14:34:43.080934 23453 net.cpp:406] conv1 <- data/scale
I0808 14:34:43.080937 23453 net.cpp:380] conv1 -> conv1
I0808 14:34:43.081997 23453 net.cpp:122] Setting up conv1
I0808 14:34:43.082005 23453 net.cpp:129] Top shape: 50 96 55 55 (14520000)
I0808 14:34:43.082008 23453 net.cpp:137] Memory required for data: 150832800
I0808 14:34:43.082012 23453 layer_factory.hpp:77] Creating layer conv1/bn
I0808 14:34:43.082017 23453 net.cpp:84] Creating Layer conv1/bn
I0808 14:34:43.082020 23453 net.cpp:406] conv1/bn <- conv1
I0808 14:34:43.082025 23453 net.cpp:380] conv1/bn -> conv1/bn
I0808 14:34:43.082154 23453 net.cpp:122] Setting up conv1/bn
I0808 14:34:43.082159 23453 net.cpp:129] Top shape: 50 96 55 55 (14520000)
I0808 14:34:43.082160 23453 net.cpp:137] Memory required for data: 208912800
I0808 14:34:43.082165 23453 layer_factory.hpp:77] Creating layer relu1
I0808 14:34:43.082168 23453 net.cpp:84] Creating Layer relu1
I0808 14:34:43.082170 23453 net.cpp:406] relu1 <- conv1/bn
I0808 14:34:43.082172 23453 net.cpp:380] relu1 -> norm1
I0808 14:34:43.082288 23453 net.cpp:122] Setting up relu1
I0808 14:34:43.082293 23453 net.cpp:129] Top shape: 50 96 55 55 (14520000)
I0808 14:34:43.082295 23453 net.cpp:137] Memory required for data: 266992800
I0808 14:34:43.082298 23453 layer_factory.hpp:77] Creating layer pool1
I0808 14:34:43.082303 23453 net.cpp:84] Creating Layer pool1
I0808 14:34:43.082304 23453 net.cpp:406] pool1 <- norm1
I0808 14:34:43.082307 23453 net.cpp:380] pool1 -> pool1
I0808 14:34:43.082330 23453 net.cpp:122] Setting up pool1
I0808 14:34:43.082334 23453 net.cpp:129] Top shape: 50 96 27 27 (3499200)
I0808 14:34:43.082336 23453 net.cpp:137] Memory required for data: 280989600
I0808 14:34:43.082339 23453 layer_factory.hpp:77] Creating layer conv2
I0808 14:34:43.082345 23453 net.cpp:84] Creating Layer conv2
I0808 14:34:43.082346 23453 net.cpp:406] conv2 <- pool1
I0808 14:34:43.082350 23453 net.cpp:380] conv2 -> conv2
I0808 14:34:43.085961 23453 net.cpp:122] Setting up conv2
I0808 14:34:43.085983 23453 net.cpp:129] Top shape: 50 256 27 27 (9331200)
I0808 14:34:43.085984 23453 net.cpp:137] Memory required for data: 318314400
I0808 14:34:43.085989 23453 layer_factory.hpp:77] Creating layer conv2/bn
I0808 14:34:43.085997 23453 net.cpp:84] Creating Layer conv2/bn
I0808 14:34:43.085999 23453 net.cpp:406] conv2/bn <- conv2
I0808 14:34:43.086004 23453 net.cpp:380] conv2/bn -> conv2/bn
I0808 14:34:43.086143 23453 net.cpp:122] Setting up conv2/bn
I0808 14:34:43.086148 23453 net.cpp:129] Top shape: 50 256 27 27 (9331200)
I0808 14:34:43.086151 23453 net.cpp:137] Memory required for data: 355639200
I0808 14:34:43.086155 23453 layer_factory.hpp:77] Creating layer relu2
I0808 14:34:43.086159 23453 net.cpp:84] Creating Layer relu2
I0808 14:34:43.086161 23453 net.cpp:406] relu2 <- conv2/bn
I0808 14:34:43.086165 23453 net.cpp:380] relu2 -> norm2
I0808 14:34:43.086299 23453 net.cpp:122] Setting up relu2
I0808 14:34:43.086318 23453 net.cpp:129] Top shape: 50 256 27 27 (9331200)
I0808 14:34:43.086320 23453 net.cpp:137] Memory required for data: 392964000
I0808 14:34:43.086323 23453 layer_factory.hpp:77] Creating layer pool2
I0808 14:34:43.086328 23453 net.cpp:84] Creating Layer pool2
I0808 14:34:43.086330 23453 net.cpp:406] pool2 <- norm2
I0808 14:34:43.086333 23453 net.cpp:380] pool2 -> pool2
I0808 14:34:43.086359 23453 net.cpp:122] Setting up pool2
I0808 14:34:43.086364 23453 net.cpp:129] Top shape: 50 256 13 13 (2163200)
I0808 14:34:43.086365 23453 net.cpp:137] Memory required for data: 401616800
I0808 14:34:43.086367 23453 layer_factory.hpp:77] Creating layer conv3
I0808 14:34:43.086374 23453 net.cpp:84] Creating Layer conv3
I0808 14:34:43.086377 23453 net.cpp:406] conv3 <- pool2
I0808 14:34:43.086381 23453 net.cpp:380] conv3 -> conv3
I0808 14:34:43.093245 23453 net.cpp:122] Setting up conv3
I0808 14:34:43.093262 23453 net.cpp:129] Top shape: 50 384 13 13 (3244800)
I0808 14:34:43.093264 23453 net.cpp:137] Memory required for data: 414596000
I0808 14:34:43.093273 23453 layer_factory.hpp:77] Creating layer conv3/bn
I0808 14:34:43.093279 23453 net.cpp:84] Creating Layer conv3/bn
I0808 14:34:43.093281 23453 net.cpp:406] conv3/bn <- conv3
I0808 14:34:43.093286 23453 net.cpp:380] conv3/bn -> conv3/bn
I0808 14:34:43.093428 23453 net.cpp:122] Setting up conv3/bn
I0808 14:34:43.093436 23453 net.cpp:129] Top shape: 50 384 13 13 (3244800)
I0808 14:34:43.093439 23453 net.cpp:137] Memory required for data: 427575200
I0808 14:34:43.093444 23453 layer_factory.hpp:77] Creating layer relu3
I0808 14:34:43.093448 23453 net.cpp:84] Creating Layer relu3
I0808 14:34:43.093452 23453 net.cpp:406] relu3 <- conv3/bn
I0808 14:34:43.093457 23453 net.cpp:367] relu3 -> conv3/bn (in-place)
I0808 14:34:43.093854 23453 net.cpp:122] Setting up relu3
I0808 14:34:43.093864 23453 net.cpp:129] Top shape: 50 384 13 13 (3244800)
I0808 14:34:43.093868 23453 net.cpp:137] Memory required for data: 440554400
I0808 14:34:43.093871 23453 layer_factory.hpp:77] Creating layer conv4
I0808 14:34:43.093878 23453 net.cpp:84] Creating Layer conv4
I0808 14:34:43.093883 23453 net.cpp:406] conv4 <- conv3/bn
I0808 14:34:43.093888 23453 net.cpp:380] conv4 -> conv4
I0808 14:34:43.099900 23453 net.cpp:122] Setting up conv4
I0808 14:34:43.099920 23453 net.cpp:129] Top shape: 50 384 13 13 (3244800)
I0808 14:34:43.099925 23453 net.cpp:137] Memory required for data: 453533600
I0808 14:34:43.099931 23453 layer_factory.hpp:77] Creating layer conv4/bn
I0808 14:34:43.099941 23453 net.cpp:84] Creating Layer conv4/bn
I0808 14:34:43.099946 23453 net.cpp:406] conv4/bn <- conv4
I0808 14:34:43.099951 23453 net.cpp:380] conv4/bn -> conv4/bn
I0808 14:34:43.100090 23453 net.cpp:122] Setting up conv4/bn
I0808 14:34:43.100096 23453 net.cpp:129] Top shape: 50 384 13 13 (3244800)
I0808 14:34:43.100100 23453 net.cpp:137] Memory required for data: 466512800
I0808 14:34:43.100105 23453 layer_factory.hpp:77] Creating layer relu4
I0808 14:34:43.100109 23453 net.cpp:84] Creating Layer relu4
I0808 14:34:43.100112 23453 net.cpp:406] relu4 <- conv4/bn
I0808 14:34:43.100116 23453 net.cpp:367] relu4 -> conv4/bn (in-place)
I0808 14:34:43.100239 23453 net.cpp:122] Setting up relu4
I0808 14:34:43.100246 23453 net.cpp:129] Top shape: 50 384 13 13 (3244800)
I0808 14:34:43.100250 23453 net.cpp:137] Memory required for data: 479492000
I0808 14:34:43.100253 23453 layer_factory.hpp:77] Creating layer conv5
I0808 14:34:43.100260 23453 net.cpp:84] Creating Layer conv5
I0808 14:34:43.100265 23453 net.cpp:406] conv5 <- conv4/bn
I0808 14:34:43.100270 23453 net.cpp:380] conv5 -> conv5
I0808 14:34:43.105203 23453 net.cpp:122] Setting up conv5
I0808 14:34:43.105219 23453 net.cpp:129] Top shape: 50 256 13 13 (2163200)
I0808 14:34:43.105223 23453 net.cpp:137] Memory required for data: 488144800
I0808 14:34:43.105231 23453 layer_factory.hpp:77] Creating layer conv5/bn
I0808 14:34:43.105238 23453 net.cpp:84] Creating Layer conv5/bn
I0808 14:34:43.105242 23453 net.cpp:406] conv5/bn <- conv5
I0808 14:34:43.105247 23453 net.cpp:380] conv5/bn -> conv5/bn
I0808 14:34:43.105402 23453 net.cpp:122] Setting up conv5/bn
I0808 14:34:43.105409 23453 net.cpp:129] Top shape: 50 256 13 13 (2163200)
I0808 14:34:43.105412 23453 net.cpp:137] Memory required for data: 496797600
I0808 14:34:43.105418 23453 layer_factory.hpp:77] Creating layer relu5
I0808 14:34:43.105423 23453 net.cpp:84] Creating Layer relu5
I0808 14:34:43.105427 23453 net.cpp:406] relu5 <- conv5/bn
I0808 14:34:43.105432 23453 net.cpp:367] relu5 -> conv5/bn (in-place)
I0808 14:34:43.105556 23453 net.cpp:122] Setting up relu5
I0808 14:34:43.105563 23453 net.cpp:129] Top shape: 50 256 13 13 (2163200)
I0808 14:34:43.105566 23453 net.cpp:137] Memory required for data: 505450400
I0808 14:34:43.105569 23453 layer_factory.hpp:77] Creating layer pool5
I0808 14:34:43.105574 23453 net.cpp:84] Creating Layer pool5
I0808 14:34:43.105577 23453 net.cpp:406] pool5 <- conv5/bn
I0808 14:34:43.105582 23453 net.cpp:380] pool5 -> pool5
I0808 14:34:43.105612 23453 net.cpp:122] Setting up pool5
I0808 14:34:43.105618 23453 net.cpp:129] Top shape: 50 256 6 6 (460800)
I0808 14:34:43.105620 23453 net.cpp:137] Memory required for data: 507293600
I0808 14:34:43.105623 23453 layer_factory.hpp:77] Creating layer fc6
I0808 14:34:43.105629 23453 net.cpp:84] Creating Layer fc6
I0808 14:34:43.105633 23453 net.cpp:406] fc6 <- pool5
I0808 14:34:43.105638 23453 net.cpp:380] fc6 -> fc6
I0808 14:34:43.342140 23453 net.cpp:122] Setting up fc6
I0808 14:34:43.342156 23453 net.cpp:129] Top shape: 50 4096 (204800)
I0808 14:34:43.342159 23453 net.cpp:137] Memory required for data: 508112800
I0808 14:34:43.342164 23453 layer_factory.hpp:77] Creating layer fc6/bn
I0808 14:34:43.342170 23453 net.cpp:84] Creating Layer fc6/bn
I0808 14:34:43.342173 23453 net.cpp:406] fc6/bn <- fc6
I0808 14:34:43.342177 23453 net.cpp:380] fc6/bn -> fc6/bn
I0808 14:34:43.342305 23453 net.cpp:122] Setting up fc6/bn
I0808 14:34:43.342309 23453 net.cpp:129] Top shape: 50 4096 (204800)
I0808 14:34:43.342310 23453 net.cpp:137] Memory required for data: 508932000
I0808 14:34:43.342316 23453 layer_factory.hpp:77] Creating layer relu6
I0808 14:34:43.342321 23453 net.cpp:84] Creating Layer relu6
I0808 14:34:43.342322 23453 net.cpp:406] relu6 <- fc6/bn
I0808 14:34:43.342325 23453 net.cpp:367] relu6 -> fc6/bn (in-place)
I0808 14:34:43.342823 23453 net.cpp:122] Setting up relu6
I0808 14:34:43.342830 23453 net.cpp:129] Top shape: 50 4096 (204800)
I0808 14:34:43.342833 23453 net.cpp:137] Memory required for data: 509751200
I0808 14:34:43.342834 23453 layer_factory.hpp:77] Creating layer fc7
I0808 14:34:43.342839 23453 net.cpp:84] Creating Layer fc7
I0808 14:34:43.342841 23453 net.cpp:406] fc7 <- fc6/bn
I0808 14:34:43.342844 23453 net.cpp:380] fc7 -> fc7
I0808 14:34:43.447206 23453 net.cpp:122] Setting up fc7
I0808 14:34:43.447219 23453 net.cpp:129] Top shape: 50 4096 (204800)
I0808 14:34:43.447222 23453 net.cpp:137] Memory required for data: 510570400
I0808 14:34:43.447227 23453 layer_factory.hpp:77] Creating layer fc7/bn
I0808 14:34:43.447235 23453 net.cpp:84] Creating Layer fc7/bn
I0808 14:34:43.447237 23453 net.cpp:406] fc7/bn <- fc7
I0808 14:34:43.447242 23453 net.cpp:380] fc7/bn -> fc7/bn
I0808 14:34:43.447374 23453 net.cpp:122] Setting up fc7/bn
I0808 14:34:43.447377 23453 net.cpp:129] Top shape: 50 4096 (204800)
I0808 14:34:43.447381 23453 net.cpp:137] Memory required for data: 511389600
I0808 14:34:43.447386 23453 layer_factory.hpp:77] Creating layer relu7
I0808 14:34:43.447391 23453 net.cpp:84] Creating Layer relu7
I0808 14:34:43.447392 23453 net.cpp:406] relu7 <- fc7/bn
I0808 14:34:43.447394 23453 net.cpp:367] relu7 -> fc7/bn (in-place)
I0808 14:34:43.447538 23453 net.cpp:122] Setting up relu7
I0808 14:34:43.447543 23453 net.cpp:129] Top shape: 50 4096 (204800)
I0808 14:34:43.447544 23453 net.cpp:137] Memory required for data: 512208800
I0808 14:34:43.447546 23453 layer_factory.hpp:77] Creating layer fc8
I0808 14:34:43.447551 23453 net.cpp:84] Creating Layer fc8
I0808 14:34:43.447552 23453 net.cpp:406] fc8 <- fc7/bn
I0808 14:34:43.447556 23453 net.cpp:380] fc8 -> fc8
I0808 14:34:43.473268 23453 net.cpp:122] Setting up fc8
I0808 14:34:43.473285 23453 net.cpp:129] Top shape: 50 1000 (50000)
I0808 14:34:43.473287 23453 net.cpp:137] Memory required for data: 512408800
I0808 14:34:43.473292 23453 layer_factory.hpp:77] Creating layer fc8_fc8_0_split
I0808 14:34:43.473297 23453 net.cpp:84] Creating Layer fc8_fc8_0_split
I0808 14:34:43.473299 23453 net.cpp:406] fc8_fc8_0_split <- fc8
I0808 14:34:43.473304 23453 net.cpp:380] fc8_fc8_0_split -> fc8_fc8_0_split_0
I0808 14:34:43.473309 23453 net.cpp:380] fc8_fc8_0_split -> fc8_fc8_0_split_1
I0808 14:34:43.473340 23453 net.cpp:122] Setting up fc8_fc8_0_split
I0808 14:34:43.473343 23453 net.cpp:129] Top shape: 50 1000 (50000)
I0808 14:34:43.473345 23453 net.cpp:129] Top shape: 50 1000 (50000)
I0808 14:34:43.473346 23453 net.cpp:137] Memory required for data: 512808800
I0808 14:34:43.473347 23453 layer_factory.hpp:77] Creating layer accuracy
I0808 14:34:43.473352 23453 net.cpp:84] Creating Layer accuracy
I0808 14:34:43.473353 23453 net.cpp:406] accuracy <- fc8_fc8_0_split_0
I0808 14:34:43.473356 23453 net.cpp:406] accuracy <- label_data_1_split_0
I0808 14:34:43.473359 23453 net.cpp:380] accuracy -> accuracy
…
