…
I0807 18:52:23.892676 29942 net.cpp:294] The NetState phase (0) differed from the phase (1) specified by a rule in layer data
I0807 18:52:23.892688 29942 net.cpp:294] The NetState phase (0) differed from the phase (1) specified by a rule in layer accuracy
I0807 18:52:23.892797 29942 net.cpp:51] Initializing net from parameters: 
name: "AlexNet"
state {
  phase: TRAIN
  level: 0
  stage: ""
}
layer {
  name: "data"
  type: "Data"
  top: "data"
  top: "label"
  include {
    phase: TRAIN
  }
  transform_param {
    mirror: true
    crop_size: 227
  }
  data_param {
    source: "../imagenet/ilsvrc12_train_lmdb"
    batch_size: 128
    backend: LMDB
  }
}
layer {
  name: "data/bn"
  type: "BatchNorm"
  bottom: "data"
  top: "data/bn"
  param {
    lr_mult: 0
    decay_mult: 0
  }
  param {
    lr_mult: 0
    decay_mult: 0
  }
  param {
    lr_mult: 0
    decay_mult: 0
  }
  batch_norm_param {
    moving_average_fraction: 0.9
  }
}
layer {
  name: "data/scale"
  type: "Scale"
  bottom: "data/bn"
  top: "data/scale"
  param {
    lr_mult: 1
    decay_mult: 1
  }
  param {
    lr_mult: 2
    decay_mult: 0
  }
  scale_param {
    bias_term: true
  }
}
layer {
  name: "conv1"
  type: "Convolution"
  bottom: "data/scale"
  top: "conv1"
  param {
    lr_mult: 1
    decay_mult: 1
  }
  param {
    lr_mult: 2
    decay_mult: 0
  }
  convolution_param {
    num_output: 96
    kernel_size: 11
    stride: 4
    weight_filler {
      type: "msra"
    }
    bias_filler {
      type: "constant"
      value: 0
    }
  }
}
layer {
  name: "conv1/bn"
  type: "BatchNorm"
  bottom: "conv1"
  top: "conv1/bn"
  param {
    lr_mult: 0
    decay_mult: 0
  }
  param {
    lr_mult: 0
    decay_mult: 0
  }
  param {
    lr_mult: 0
    decay_mult: 0
  }
  batch_norm_param {
    moving_average_fraction: 0.9
  }
}
layer {
  name: "relu1"
  type: "ReLU"
  bottom: "conv1/bn"
  top: "norm1"
}
layer {
  name: "pool1"
  type: "Pooling"
  bottom: "norm1"
  top: "pool1"
  pooling_param {
    pool: MAX
    kernel_size: 3
    stride: 2
  }
}
layer {
  name: "conv2"
  type: "Convolution"
  bottom: "pool1"
  top: "conv2"
  param {
    lr_mult: 1
    decay_mult: 1
  }
  param {
    lr_mult: 2
    decay_mult: 0
  }
  convolution_param {
    num_output: 256
    pad: 2
    kernel_size: 5
    group: 2
    weight_filler {
      type: "msra"
    }
    bias_filler {
      type: "constant"
      value: 0
    }
  }
}
layer {
  name: "conv2/bn"
  type: "BatchNorm"
  bottom: "conv2"
  top: "conv2/bn"
  param {
    lr_mult: 0
    decay_mult: 0
  }
  param {
    lr_mult: 0
    decay_mult: 0
  }
  param {
    lr_mult: 0
    decay_mult: 0
  }
  batch_norm_param {
    moving_average_fraction: 0.9
  }
}
layer {
  name: "relu2"
  type: "ReLU"
  bottom: "conv2/bn"
  top: "norm2"
}
layer {
  name: "pool2"
  type: "Pooling"
  bottom: "norm2"
  top: "pool2"
  pooling_param {
    pool: MAX
    kernel_size: 3
    stride: 2
  }
}
layer {
  name: "conv3"
  type: "Convolution"
  bottom: "pool2"
  top: "conv3"
  param {
    lr_mult: 1
    decay_mult: 1
  }
  param {
    lr_mult: 2
    decay_mult: 0
  }
  convolution_param {
    num_output: 384
    pad: 1
    kernel_size: 3
    weight_filler {
      type: "msra"
    }
    bias_filler {
      type: "constant"
      value: 0
    }
  }
}
layer {
  name: "conv3/bn"
  type: "BatchNorm"
  bottom: "conv3"
  top: "conv3/bn"
  param {
    lr_mult: 0
    decay_mult: 0
  }
  param {
    lr_mult: 0
    decay_mult: 0
  }
  param {
    lr_mult: 0
    decay_mult: 0
  }
  batch_norm_param {
    moving_average_fraction: 0.9
  }
}
layer {
  name: "relu3"
  type: "ReLU"
  bottom: "conv3/bn"
  top: "conv3/bn"
}
layer {
  name: "conv4"
  type: "Convolution"
  bottom: "conv3/bn"
  top: "conv4"
  param {
    lr_mult: 1
    decay_mult: 1
  }
  param {
    lr_mult: 2
    decay_mult: 0
  }
  convolution_param {
    num_output: 384
    pad: 1
    kernel_size: 3
    group: 2
    weight_filler {
      type: "msra"
    }
    bias_filler {
      type: "constant"
      value: 0
    }
  }
}
layer {
  name: "conv4/bn"
  type: "BatchNorm"
  bottom: "conv4"
  top: "conv4/bn"
  param {
    lr_mult: 0
    decay_mult: 0
  }
  param {
    lr_mult: 0
    decay_mult: 0
  }
  param {
    lr_mult: 0
    decay_mult: 0
  }
  batch_norm_param {
    moving_average_fraction: 0.9
  }
}
layer {
  name: "relu4"
  type: "ReLU"
  bottom: "conv4/bn"
  top: "conv4/bn"
}
layer {
  name: "conv5"
  type: "Convolution"
  bottom: "conv4/bn"
  top: "conv5"
  param {
    lr_mult: 1
    decay_mult: 1
  }
  param {
    lr_mult: 2
    decay_mult: 0
  }
  convolution_param {
    num_output: 256
    pad: 1
    kernel_size: 3
    group: 2
    weight_filler {
      type: "msra"
    }
    bias_filler {
      type: "constant"
      value: 0
    }
  }
}
layer {
  name: "conv5/bn"
  type: "BatchNorm"
  bottom: "conv5"
  top: "conv5/bn"
  param {
    lr_mult: 0
    decay_mult: 0
  }
  param {
    lr_mult: 0
    decay_mult: 0
  }
  param {
    lr_mult: 0
    decay_mult: 0
  }
  batch_norm_param {
    moving_average_fraction: 0.9
  }
}
layer {
  name: "relu5"
  type: "ReLU"
  bottom: "conv5/bn"
  top: "conv5/bn"
}
layer {
  name: "pool5"
  type: "Pooling"
  bottom: "conv5/bn"
  top: "pool5"
  pooling_param {
    pool: MAX
    kernel_size: 3
    stride: 2
  }
}
layer {
  name: "fc6"
  type: "InnerProduct"
  bottom: "pool5"
  top: "fc6"
  param {
    lr_mult: 1
    decay_mult: 1
  }
  param {
    lr_mult: 2
    decay_mult: 0
  }
  inner_product_param {
    num_output: 4096
    weight_filler {
      type: "msra"
    }
    bias_filler {
      type: "constant"
      value: 0
    }
  }
}
layer {
  name: "fc6/bn"
  type: "BatchNorm"
  bottom: "fc6"
  top: "fc6/bn"
  param {
    lr_mult: 0
    decay_mult: 0
  }
  param {
    lr_mult: 0
    decay_mult: 0
  }
  param {
    lr_mult: 0
    decay_mult: 0
  }
  batch_norm_param {
    moving_average_fraction: 0.9
  }
}
layer {
  name: "relu6"
  type: "ReLU"
  bottom: "fc6/bn"
  top: "fc6/bn"
}
layer {
  name: "fc7"
  type: "InnerProduct"
  bottom: "fc6/bn"
  top: "fc7"
  param {
    lr_mult: 1
    decay_mult: 1
  }
  param {
    lr_mult: 2
    decay_mult: 0
  }
  inner_product_param {
    num_output: 4096
    weight_filler {
      type: "msra"
    }
    bias_filler {
      type: "constant"
      value: 0
    }
  }
}
layer {
  name: "fc7/bn"
  type: "BatchNorm"
  bottom: "fc7"
  top: "fc7/bn"
  param {
    lr_mult: 0
    decay_mult: 0
  }
  param {
    lr_mult: 0
    decay_mult: 0
  }
  param {
    lr_mult: 0
    decay_mult: 0
  }
  batch_norm_param {
    moving_average_fraction: 0.9
  }
}
layer {
  name: "relu7"
  type: "ReLU"
  bottom: "fc7/bn"
  top: "fc7/bn"
}
layer {
  name: "fc8"
  type: "InnerProduct"
  bottom: "fc7/bn"
  top: "fc8"
  param {
    lr_mult: 1
    decay_mult: 1
  }
  param {
    lr_mult: 2
    decay_mult: 0
  }
  inner_product_param {
    num_output: 1000
    weight_filler {
      type: "msra"
    }
    bias_filler {
      type: "constant"
      value: 0
    }
  }
}
layer {
  name: "loss"
  type: "SoftmaxWithLoss"
  bottom: "fc8"
  bottom: "label"
  top: "loss"
}
I0807 18:52:23.892983 29942 layer_factory.hpp:77] Creating layer data
I0807 18:52:23.893049 29942 db_lmdb.cpp:35] Opened lmdb ../imagenet/ilsvrc12_train_lmdb
I0807 18:52:23.893067 29942 net.cpp:84] Creating Layer data
I0807 18:52:23.893071 29942 net.cpp:380] data -> data
I0807 18:52:23.893084 29942 net.cpp:380] data -> label
I0807 18:52:23.893745 29942 data_layer.cpp:45] output data size: 128,3,227,227
I0807 18:52:23.982542 29942 net.cpp:122] Setting up data
I0807 18:52:23.982556 29942 net.cpp:129] Top shape: 128 3 227 227 (19787136)
I0807 18:52:23.982559 29942 net.cpp:129] Top shape: 128 (128)
I0807 18:52:23.982561 29942 net.cpp:137] Memory required for data: 79149056
I0807 18:52:23.982568 29942 layer_factory.hpp:77] Creating layer data/bn
I0807 18:52:23.982575 29942 net.cpp:84] Creating Layer data/bn
I0807 18:52:23.982581 29942 net.cpp:406] data/bn <- data
I0807 18:52:23.982590 29942 net.cpp:380] data/bn -> data/bn
I0807 18:52:23.983183 29942 net.cpp:122] Setting up data/bn
I0807 18:52:23.983191 29942 net.cpp:129] Top shape: 128 3 227 227 (19787136)
I0807 18:52:23.983193 29942 net.cpp:137] Memory required for data: 158297600
I0807 18:52:23.983206 29942 layer_factory.hpp:77] Creating layer data/scale
I0807 18:52:23.983211 29942 net.cpp:84] Creating Layer data/scale
I0807 18:52:23.983213 29942 net.cpp:406] data/scale <- data/bn
I0807 18:52:23.983217 29942 net.cpp:380] data/scale -> data/scale
I0807 18:52:23.983243 29942 layer_factory.hpp:77] Creating layer data/scale
I0807 18:52:23.983340 29942 net.cpp:122] Setting up data/scale
I0807 18:52:23.983345 29942 net.cpp:129] Top shape: 128 3 227 227 (19787136)
I0807 18:52:23.983346 29942 net.cpp:137] Memory required for data: 237446144
I0807 18:52:23.983350 29942 layer_factory.hpp:77] Creating layer conv1
I0807 18:52:23.983357 29942 net.cpp:84] Creating Layer conv1
I0807 18:52:23.983359 29942 net.cpp:406] conv1 <- data/scale
I0807 18:52:23.983362 29942 net.cpp:380] conv1 -> conv1
I0807 18:52:24.665428 29942 net.cpp:122] Setting up conv1
I0807 18:52:24.665447 29942 net.cpp:129] Top shape: 128 96 55 55 (37171200)
I0807 18:52:24.665451 29942 net.cpp:137] Memory required for data: 386130944
I0807 18:52:24.665457 29942 layer_factory.hpp:77] Creating layer conv1/bn
I0807 18:52:24.665465 29942 net.cpp:84] Creating Layer conv1/bn
I0807 18:52:24.665468 29942 net.cpp:406] conv1/bn <- conv1
I0807 18:52:24.665472 29942 net.cpp:380] conv1/bn -> conv1/bn
I0807 18:52:24.665602 29942 net.cpp:122] Setting up conv1/bn
I0807 18:52:24.665606 29942 net.cpp:129] Top shape: 128 96 55 55 (37171200)
I0807 18:52:24.665608 29942 net.cpp:137] Memory required for data: 534815744
I0807 18:52:24.665613 29942 layer_factory.hpp:77] Creating layer relu1
I0807 18:52:24.665617 29942 net.cpp:84] Creating Layer relu1
I0807 18:52:24.665619 29942 net.cpp:406] relu1 <- conv1/bn
I0807 18:52:24.665621 29942 net.cpp:380] relu1 -> norm1
I0807 18:52:24.665983 29942 net.cpp:122] Setting up relu1
I0807 18:52:24.665992 29942 net.cpp:129] Top shape: 128 96 55 55 (37171200)
I0807 18:52:24.665993 29942 net.cpp:137] Memory required for data: 683500544
I0807 18:52:24.665994 29942 layer_factory.hpp:77] Creating layer pool1
I0807 18:52:24.665998 29942 net.cpp:84] Creating Layer pool1
I0807 18:52:24.666000 29942 net.cpp:406] pool1 <- norm1
I0807 18:52:24.666003 29942 net.cpp:380] pool1 -> pool1
I0807 18:52:24.666028 29942 net.cpp:122] Setting up pool1
I0807 18:52:24.666033 29942 net.cpp:129] Top shape: 128 96 27 27 (8957952)
I0807 18:52:24.666035 29942 net.cpp:137] Memory required for data: 719332352
I0807 18:52:24.666038 29942 layer_factory.hpp:77] Creating layer conv2
I0807 18:52:24.666043 29942 net.cpp:84] Creating Layer conv2
I0807 18:52:24.666049 29942 net.cpp:406] conv2 <- pool1
I0807 18:52:24.666052 29942 net.cpp:380] conv2 -> conv2
I0807 18:52:24.669857 29942 net.cpp:122] Setting up conv2
I0807 18:52:24.669869 29942 net.cpp:129] Top shape: 128 256 27 27 (23887872)
I0807 18:52:24.669872 29942 net.cpp:137] Memory required for data: 814883840
I0807 18:52:24.669876 29942 layer_factory.hpp:77] Creating layer conv2/bn
I0807 18:52:24.669883 29942 net.cpp:84] Creating Layer conv2/bn
I0807 18:52:24.669884 29942 net.cpp:406] conv2/bn <- conv2
I0807 18:52:24.669888 29942 net.cpp:380] conv2/bn -> conv2/bn
I0807 18:52:24.670001 29942 net.cpp:122] Setting up conv2/bn
I0807 18:52:24.670006 29942 net.cpp:129] Top shape: 128 256 27 27 (23887872)
I0807 18:52:24.670022 29942 net.cpp:137] Memory required for data: 910435328
I0807 18:52:24.670027 29942 layer_factory.hpp:77] Creating layer relu2
I0807 18:52:24.670029 29942 net.cpp:84] Creating Layer relu2
I0807 18:52:24.670032 29942 net.cpp:406] relu2 <- conv2/bn
I0807 18:52:24.670035 29942 net.cpp:380] relu2 -> norm2
I0807 18:52:24.670156 29942 net.cpp:122] Setting up relu2
I0807 18:52:24.670161 29942 net.cpp:129] Top shape: 128 256 27 27 (23887872)
I0807 18:52:24.670162 29942 net.cpp:137] Memory required for data: 1005986816
I0807 18:52:24.670163 29942 layer_factory.hpp:77] Creating layer pool2
I0807 18:52:24.670167 29942 net.cpp:84] Creating Layer pool2
I0807 18:52:24.670169 29942 net.cpp:406] pool2 <- norm2
I0807 18:52:24.670171 29942 net.cpp:380] pool2 -> pool2
I0807 18:52:24.670192 29942 net.cpp:122] Setting up pool2
I0807 18:52:24.670195 29942 net.cpp:129] Top shape: 128 256 13 13 (5537792)
I0807 18:52:24.670198 29942 net.cpp:137] Memory required for data: 1028137984
I0807 18:52:24.670200 29942 layer_factory.hpp:77] Creating layer conv3
I0807 18:52:24.670205 29942 net.cpp:84] Creating Layer conv3
I0807 18:52:24.670208 29942 net.cpp:406] conv3 <- pool2
I0807 18:52:24.670212 29942 net.cpp:380] conv3 -> conv3
I0807 18:52:24.676801 29942 net.cpp:122] Setting up conv3
I0807 18:52:24.676816 29942 net.cpp:129] Top shape: 128 384 13 13 (8306688)
I0807 18:52:24.676820 29942 net.cpp:137] Memory required for data: 1061364736
I0807 18:52:24.676828 29942 layer_factory.hpp:77] Creating layer conv3/bn
I0807 18:52:24.676836 29942 net.cpp:84] Creating Layer conv3/bn
I0807 18:52:24.676839 29942 net.cpp:406] conv3/bn <- conv3
I0807 18:52:24.676843 29942 net.cpp:380] conv3/bn -> conv3/bn
I0807 18:52:24.676965 29942 net.cpp:122] Setting up conv3/bn
I0807 18:52:24.676970 29942 net.cpp:129] Top shape: 128 384 13 13 (8306688)
I0807 18:52:24.676971 29942 net.cpp:137] Memory required for data: 1094591488
I0807 18:52:24.676976 29942 layer_factory.hpp:77] Creating layer relu3
I0807 18:52:24.676980 29942 net.cpp:84] Creating Layer relu3
I0807 18:52:24.676982 29942 net.cpp:406] relu3 <- conv3/bn
I0807 18:52:24.676985 29942 net.cpp:367] relu3 -> conv3/bn (in-place)
I0807 18:52:24.677101 29942 net.cpp:122] Setting up relu3
I0807 18:52:24.677106 29942 net.cpp:129] Top shape: 128 384 13 13 (8306688)
I0807 18:52:24.677108 29942 net.cpp:137] Memory required for data: 1127818240
I0807 18:52:24.677109 29942 layer_factory.hpp:77] Creating layer conv4
I0807 18:52:24.677114 29942 net.cpp:84] Creating Layer conv4
I0807 18:52:24.677117 29942 net.cpp:406] conv4 <- conv3/bn
I0807 18:52:24.677119 29942 net.cpp:380] conv4 -> conv4
I0807 18:52:24.682925 29942 net.cpp:122] Setting up conv4
I0807 18:52:24.682940 29942 net.cpp:129] Top shape: 128 384 13 13 (8306688)
I0807 18:52:24.682941 29942 net.cpp:137] Memory required for data: 1161044992
I0807 18:52:24.682946 29942 layer_factory.hpp:77] Creating layer conv4/bn
I0807 18:52:24.682952 29942 net.cpp:84] Creating Layer conv4/bn
I0807 18:52:24.682955 29942 net.cpp:406] conv4/bn <- conv4
I0807 18:52:24.682960 29942 net.cpp:380] conv4/bn -> conv4/bn
I0807 18:52:24.683070 29942 net.cpp:122] Setting up conv4/bn
I0807 18:52:24.683074 29942 net.cpp:129] Top shape: 128 384 13 13 (8306688)
I0807 18:52:24.683076 29942 net.cpp:137] Memory required for data: 1194271744
I0807 18:52:24.683080 29942 layer_factory.hpp:77] Creating layer relu4
I0807 18:52:24.683084 29942 net.cpp:84] Creating Layer relu4
I0807 18:52:24.683086 29942 net.cpp:406] relu4 <- conv4/bn
I0807 18:52:24.683089 29942 net.cpp:367] relu4 -> conv4/bn (in-place)
I0807 18:52:24.683444 29942 net.cpp:122] Setting up relu4
I0807 18:52:24.683450 29942 net.cpp:129] Top shape: 128 384 13 13 (8306688)
I0807 18:52:24.683454 29942 net.cpp:137] Memory required for data: 1227498496
I0807 18:52:24.683456 29942 layer_factory.hpp:77] Creating layer conv5
I0807 18:52:24.683462 29942 net.cpp:84] Creating Layer conv5
I0807 18:52:24.683466 29942 net.cpp:406] conv5 <- conv4/bn
I0807 18:52:24.683470 29942 net.cpp:380] conv5 -> conv5
I0807 18:52:24.687827 29942 net.cpp:122] Setting up conv5
I0807 18:52:24.687851 29942 net.cpp:129] Top shape: 128 256 13 13 (5537792)
I0807 18:52:24.687853 29942 net.cpp:137] Memory required for data: 1249649664
I0807 18:52:24.687857 29942 layer_factory.hpp:77] Creating layer conv5/bn
I0807 18:52:24.687862 29942 net.cpp:84] Creating Layer conv5/bn
I0807 18:52:24.687865 29942 net.cpp:406] conv5/bn <- conv5
I0807 18:52:24.687868 29942 net.cpp:380] conv5/bn -> conv5/bn
I0807 18:52:24.687978 29942 net.cpp:122] Setting up conv5/bn
I0807 18:52:24.687981 29942 net.cpp:129] Top shape: 128 256 13 13 (5537792)
I0807 18:52:24.687983 29942 net.cpp:137] Memory required for data: 1271800832
I0807 18:52:24.687988 29942 layer_factory.hpp:77] Creating layer relu5
I0807 18:52:24.687990 29942 net.cpp:84] Creating Layer relu5
I0807 18:52:24.687993 29942 net.cpp:406] relu5 <- conv5/bn
I0807 18:52:24.687995 29942 net.cpp:367] relu5 -> conv5/bn (in-place)
I0807 18:52:24.688098 29942 net.cpp:122] Setting up relu5
I0807 18:52:24.688102 29942 net.cpp:129] Top shape: 128 256 13 13 (5537792)
I0807 18:52:24.688103 29942 net.cpp:137] Memory required for data: 1293952000
I0807 18:52:24.688107 29942 layer_factory.hpp:77] Creating layer pool5
I0807 18:52:24.688108 29942 net.cpp:84] Creating Layer pool5
I0807 18:52:24.688110 29942 net.cpp:406] pool5 <- conv5/bn
I0807 18:52:24.688113 29942 net.cpp:380] pool5 -> pool5
I0807 18:52:24.688133 29942 net.cpp:122] Setting up pool5
I0807 18:52:24.688138 29942 net.cpp:129] Top shape: 128 256 6 6 (1179648)
I0807 18:52:24.688140 29942 net.cpp:137] Memory required for data: 1298670592
I0807 18:52:24.688143 29942 layer_factory.hpp:77] Creating layer fc6
I0807 18:52:24.688146 29942 net.cpp:84] Creating Layer fc6
I0807 18:52:24.688148 29942 net.cpp:406] fc6 <- pool5
I0807 18:52:24.688153 29942 net.cpp:380] fc6 -> fc6
I0807 18:52:24.921679 29942 net.cpp:122] Setting up fc6
I0807 18:52:24.921696 29942 net.cpp:129] Top shape: 128 4096 (524288)
I0807 18:52:24.921699 29942 net.cpp:137] Memory required for data: 1300767744
I0807 18:52:24.921705 29942 layer_factory.hpp:77] Creating layer fc6/bn
I0807 18:52:24.921710 29942 net.cpp:84] Creating Layer fc6/bn
I0807 18:52:24.921712 29942 net.cpp:406] fc6/bn <- fc6
I0807 18:52:24.921716 29942 net.cpp:380] fc6/bn -> fc6/bn
I0807 18:52:24.921824 29942 net.cpp:122] Setting up fc6/bn
I0807 18:52:24.921828 29942 net.cpp:129] Top shape: 128 4096 (524288)
I0807 18:52:24.921830 29942 net.cpp:137] Memory required for data: 1302864896
I0807 18:52:24.921838 29942 layer_factory.hpp:77] Creating layer relu6
I0807 18:52:24.921840 29942 net.cpp:84] Creating Layer relu6
I0807 18:52:24.921842 29942 net.cpp:406] relu6 <- fc6/bn
I0807 18:52:24.921845 29942 net.cpp:367] relu6 -> fc6/bn (in-place)
I0807 18:52:24.921984 29942 net.cpp:122] Setting up relu6
I0807 18:52:24.921988 29942 net.cpp:129] Top shape: 128 4096 (524288)
I0807 18:52:24.921990 29942 net.cpp:137] Memory required for data: 1304962048
I0807 18:52:24.921993 29942 layer_factory.hpp:77] Creating layer fc7
I0807 18:52:24.921996 29942 net.cpp:84] Creating Layer fc7
I0807 18:52:24.921998 29942 net.cpp:406] fc7 <- fc6/bn
I0807 18:52:24.922000 29942 net.cpp:380] fc7 -> fc7
I0807 18:52:25.026252 29942 net.cpp:122] Setting up fc7
I0807 18:52:25.026268 29942 net.cpp:129] Top shape: 128 4096 (524288)
I0807 18:52:25.026270 29942 net.cpp:137] Memory required for data: 1307059200
I0807 18:52:25.026276 29942 layer_factory.hpp:77] Creating layer fc7/bn
I0807 18:52:25.026283 29942 net.cpp:84] Creating Layer fc7/bn
I0807 18:52:25.026284 29942 net.cpp:406] fc7/bn <- fc7
I0807 18:52:25.026288 29942 net.cpp:380] fc7/bn -> fc7/bn
I0807 18:52:25.026397 29942 net.cpp:122] Setting up fc7/bn
I0807 18:52:25.026401 29942 net.cpp:129] Top shape: 128 4096 (524288)
I0807 18:52:25.026402 29942 net.cpp:137] Memory required for data: 1309156352
I0807 18:52:25.026407 29942 layer_factory.hpp:77] Creating layer relu7
I0807 18:52:25.026410 29942 net.cpp:84] Creating Layer relu7
I0807 18:52:25.026412 29942 net.cpp:406] relu7 <- fc7/bn
I0807 18:52:25.026414 29942 net.cpp:367] relu7 -> fc7/bn (in-place)
I0807 18:52:25.026554 29942 net.cpp:122] Setting up relu7
I0807 18:52:25.026573 29942 net.cpp:129] Top shape: 128 4096 (524288)
I0807 18:52:25.026576 29942 net.cpp:137] Memory required for data: 1311253504
I0807 18:52:25.026577 29942 layer_factory.hpp:77] Creating layer fc8
I0807 18:52:25.026582 29942 net.cpp:84] Creating Layer fc8
I0807 18:52:25.026583 29942 net.cpp:406] fc8 <- fc7/bn
I0807 18:52:25.026587 29942 net.cpp:380] fc8 -> fc8
I0807 18:52:25.052139 29942 net.cpp:122] Setting up fc8
I0807 18:52:25.052155 29942 net.cpp:129] Top shape: 128 1000 (128000)
I0807 18:52:25.052157 29942 net.cpp:137] Memory required for data: 1311765504
I0807 18:52:25.052163 29942 layer_factory.hpp:77] Creating layer loss
I0807 18:52:25.052167 29942 net.cpp:84] Creating Layer loss
I0807 18:52:25.052170 29942 net.cpp:406] loss <- fc8
I0807 18:52:25.052173 29942 net.cpp:406] loss <- label
I0807 18:52:25.052177 29942 net.cpp:380] loss -> loss
I0807 18:52:25.052187 29942 layer_factory.hpp:77] Creating layer loss
…
I0807 18:52:25.053053 29942 solver.cpp:172] Creating test net (#0) specified by net file: train_alexnet.prototxt
I0807 18:52:25.053073 29942 net.cpp:294] The NetState phase (1) differed from the phase (0) specified by a rule in layer data
I0807 18:52:25.053186 29942 net.cpp:51] Initializing net from parameters: 
name: "AlexNet"
state {
  phase: TEST
}
layer {
  name: "data"
  type: "Data"
  top: "data"
  top: "label"
  include {
    phase: TEST
  }
  transform_param {
    mirror: false
    crop_size: 227
  }
  data_param {
    source: "../imagenet/ilsvrc12_val_lmdb"
    batch_size: 50
    backend: LMDB
  }
}
layer {
  name: "data/bn"
  type: "BatchNorm"
  bottom: "data"
  top: "data/bn"
  param {
    lr_mult: 0
    decay_mult: 0
  }
  param {
    lr_mult: 0
    decay_mult: 0
  }
  param {
    lr_mult: 0
    decay_mult: 0
  }
  batch_norm_param {
    moving_average_fraction: 0.9
  }
}
layer {
  name: "data/scale"
  type: "Scale"
  bottom: "data/bn"
  top: "data/scale"
  param {
    lr_mult: 1
    decay_mult: 1
  }
  param {
    lr_mult: 2
    decay_mult: 0
  }
  scale_param {
    bias_term: true
  }
}
layer {
  name: "conv1"
  type: "Convolution"
  bottom: "data/scale"
  top: "conv1"
  param {
    lr_mult: 1
    decay_mult: 1
  }
  param {
    lr_mult: 2
    decay_mult: 0
  }
  convolution_param {
    num_output: 96
    kernel_size: 11
    stride: 4
    weight_filler {
      type: "msra"
    }
    bias_filler {
      type: "constant"
      value: 0
    }
  }
}
layer {
  name: "conv1/bn"
  type: "BatchNorm"
  bottom: "conv1"
  top: "conv1/bn"
  param {
    lr_mult: 0
    decay_mult: 0
  }
  param {
    lr_mult: 0
    decay_mult: 0
  }
  param {
    lr_mult: 0
    decay_mult: 0
  }
  batch_norm_param {
    moving_average_fraction: 0.9
  }
}
layer {
  name: "relu1"
  type: "ReLU"
  bottom: "conv1/bn"
  top: "norm1"
}
layer {
  name: "pool1"
  type: "Pooling"
  bottom: "norm1"
  top: "pool1"
  pooling_param {
    pool: MAX
    kernel_size: 3
    stride: 2
  }
}
layer {
  name: "conv2"
  type: "Convolution"
  bottom: "pool1"
  top: "conv2"
  param {
    lr_mult: 1
    decay_mult: 1
  }
  param {
    lr_mult: 2
    decay_mult: 0
  }
  convolution_param {
    num_output: 256
    pad: 2
    kernel_size: 5
    group: 2
    weight_filler {
      type: "msra"
    }
    bias_filler {
      type: "constant"
      value: 0
    }
  }
}
layer {
  name: "conv2/bn"
  type: "BatchNorm"
  bottom: "conv2"
  top: "conv2/bn"
  param {
    lr_mult: 0
    decay_mult: 0
  }
  param {
    lr_mult: 0
    decay_mult: 0
  }
  param {
    lr_mult: 0
    decay_mult: 0
  }
  batch_norm_param {
    moving_average_fraction: 0.9
  }
}
layer {
  name: "relu2"
  type: "ReLU"
  bottom: "conv2/bn"
  top: "norm2"
}
layer {
  name: "pool2"
  type: "Pooling"
  bottom: "norm2"
  top: "pool2"
  pooling_param {
    pool: MAX
    kernel_size: 3
    stride: 2
  }
}
layer {
  name: "conv3"
  type: "Convolution"
  bottom: "pool2"
  top: "conv3"
  param {
    lr_mult: 1
    decay_mult: 1
  }
  param {
    lr_mult: 2
    decay_mult: 0
  }
  convolution_param {
    num_output: 384
    pad: 1
    kernel_size: 3
    weight_filler {
      type: "msra"
    }
    bias_filler {
      type: "constant"
      value: 0
    }
  }
}
layer {
  name: "conv3/bn"
  type: "BatchNorm"
  bottom: "conv3"
  top: "conv3/bn"
  param {
    lr_mult: 0
    decay_mult: 0
  }
  param {
    lr_mult: 0
    decay_mult: 0
  }
  param {
    lr_mult: 0
    decay_mult: 0
  }
  batch_norm_param {
    moving_average_fraction: 0.9
  }
}
layer {
  name: "relu3"
  type: "ReLU"
  bottom: "conv3/bn"
  top: "conv3/bn"
}
layer {
  name: "conv4"
  type: "Convolution"
  bottom: "conv3/bn"
  top: "conv4"
  param {
    lr_mult: 1
    decay_mult: 1
  }
  param {
    lr_mult: 2
    decay_mult: 0
  }
  convolution_param {
    num_output: 384
    pad: 1
    kernel_size: 3
    group: 2
    weight_filler {
      type: "msra"
    }
    bias_filler {
      type: "constant"
      value: 0
    }
  }
}
layer {
  name: "conv4/bn"
  type: "BatchNorm"
  bottom: "conv4"
  top: "conv4/bn"
  param {
    lr_mult: 0
    decay_mult: 0
  }
  param {
    lr_mult: 0
    decay_mult: 0
  }
  param {
    lr_mult: 0
    decay_mult: 0
  }
  batch_norm_param {
    moving_average_fraction: 0.9
  }
}
layer {
  name: "relu4"
  type: "ReLU"
  bottom: "conv4/bn"
  top: "conv4/bn"
}
layer {
  name: "conv5"
  type: "Convolution"
  bottom: "conv4/bn"
  top: "conv5"
  param {
    lr_mult: 1
    decay_mult: 1
  }
  param {
    lr_mult: 2
    decay_mult: 0
  }
  convolution_param {
    num_output: 256
    pad: 1
    kernel_size: 3
    group: 2
    weight_filler {
      type: "msra"
    }
    bias_filler {
      type: "constant"
      value: 0
    }
  }
}
layer {
  name: "conv5/bn"
  type: "BatchNorm"
  bottom: "conv5"
  top: "conv5/bn"
  param {
    lr_mult: 0
    decay_mult: 0
  }
  param {
    lr_mult: 0
    decay_mult: 0
  }
  param {
    lr_mult: 0
    decay_mult: 0
  }
  batch_norm_param {
    moving_average_fraction: 0.9
  }
}
layer {
  name: "relu5"
  type: "ReLU"
  bottom: "conv5/bn"
  top: "conv5/bn"
}
layer {
  name: "pool5"
  type: "Pooling"
  bottom: "conv5/bn"
  top: "pool5"
  pooling_param {
    pool: MAX
    kernel_size: 3
    stride: 2
  }
}
layer {
  name: "fc6"
  type: "InnerProduct"
  bottom: "pool5"
  top: "fc6"
  param {
    lr_mult: 1
    decay_mult: 1
  }
  param {
    lr_mult: 2
    decay_mult: 0
  }
  inner_product_param {
    num_output: 4096
    weight_filler {
      type: "msra"
    }
    bias_filler {
      type: "constant"
      value: 0
    }
  }
}
layer {
  name: "fc6/bn"
  type: "BatchNorm"
  bottom: "fc6"
  top: "fc6/bn"
  param {
    lr_mult: 0
    decay_mult: 0
  }
  param {
    lr_mult: 0
    decay_mult: 0
  }
  param {
    lr_mult: 0
    decay_mult: 0
  }
  batch_norm_param {
    moving_average_fraction: 0.9
  }
}
layer {
  name: "relu6"
  type: "ReLU"
  bottom: "fc6/bn"
  top: "fc6/bn"
}
layer {
  name: "fc7"
  type: "InnerProduct"
  bottom: "fc6/bn"
  top: "fc7"
  param {
    lr_mult: 1
    decay_mult: 1
  }
  param {
    lr_mult: 2
    decay_mult: 0
  }
  inner_product_param {
    num_output: 4096
    weight_filler {
      type: "msra"
    }
    bias_filler {
      type: "constant"
      value: 0
    }
  }
}
layer {
  name: "fc7/bn"
  type: "BatchNorm"
  bottom: "fc7"
  top: "fc7/bn"
  param {
    lr_mult: 0
    decay_mult: 0
  }
  param {
    lr_mult: 0
    decay_mult: 0
  }
  param {
    lr_mult: 0
    decay_mult: 0
  }
  batch_norm_param {
    moving_average_fraction: 0.9
  }
}
layer {
  name: "relu7"
  type: "ReLU"
  bottom: "fc7/bn"
  top: "fc7/bn"
}
layer {
  name: "fc8"
  type: "InnerProduct"
  bottom: "fc7/bn"
  top: "fc8"
  param {
    lr_mult: 1
    decay_mult: 1
  }
  param {
    lr_mult: 2
    decay_mult: 0
  }
  inner_product_param {
    num_output: 1000
    weight_filler {
      type: "msra"
    }
    bias_filler {
      type: "constant"
      value: 0
    }
  }
}
layer {
  name: "accuracy"
  type: "Accuracy"
  bottom: "fc8"
  bottom: "label"
  top: "accuracy"
  include {
    phase: TEST
  }
}
layer {
  name: "loss"
  type: "SoftmaxWithLoss"
  bottom: "fc8"
  bottom: "label"
  top: "loss"
}
I0807 18:52:25.053373 29942 layer_factory.hpp:77] Creating layer data
I0807 18:52:25.053409 29942 db_lmdb.cpp:35] Opened lmdb ../imagenet/ilsvrc12_val_lmdb
I0807 18:52:25.053421 29942 net.cpp:84] Creating Layer data
I0807 18:52:25.053423 29942 net.cpp:380] data -> data
I0807 18:52:25.053428 29942 net.cpp:380] data -> label
I0807 18:52:25.053524 29942 data_layer.cpp:45] output data size: 50,3,227,227
I0807 18:52:25.088469 29942 net.cpp:122] Setting up data
I0807 18:52:25.088484 29942 net.cpp:129] Top shape: 50 3 227 227 (7729350)
I0807 18:52:25.088486 29942 net.cpp:129] Top shape: 50 (50)
I0807 18:52:25.088487 29942 net.cpp:137] Memory required for data: 30917600
I0807 18:52:25.088491 29942 layer_factory.hpp:77] Creating layer label_data_1_split
I0807 18:52:25.088498 29942 net.cpp:84] Creating Layer label_data_1_split
I0807 18:52:25.088501 29942 net.cpp:406] label_data_1_split <- label
I0807 18:52:25.088505 29942 net.cpp:380] label_data_1_split -> label_data_1_split_0
I0807 18:52:25.088511 29942 net.cpp:380] label_data_1_split -> label_data_1_split_1
I0807 18:52:25.088572 29942 net.cpp:122] Setting up label_data_1_split
I0807 18:52:25.088575 29942 net.cpp:129] Top shape: 50 (50)
I0807 18:52:25.088577 29942 net.cpp:129] Top shape: 50 (50)
I0807 18:52:25.088579 29942 net.cpp:137] Memory required for data: 30918000
I0807 18:52:25.088593 29942 layer_factory.hpp:77] Creating layer data/bn
I0807 18:52:25.088598 29942 net.cpp:84] Creating Layer data/bn
I0807 18:52:25.088600 29942 net.cpp:406] data/bn <- data
I0807 18:52:25.088604 29942 net.cpp:380] data/bn -> data/bn
I0807 18:52:25.088768 29942 net.cpp:122] Setting up data/bn
I0807 18:52:25.088773 29942 net.cpp:129] Top shape: 50 3 227 227 (7729350)
I0807 18:52:25.088774 29942 net.cpp:137] Memory required for data: 61835400
I0807 18:52:25.088783 29942 layer_factory.hpp:77] Creating layer data/scale
I0807 18:52:25.088786 29942 net.cpp:84] Creating Layer data/scale
I0807 18:52:25.088789 29942 net.cpp:406] data/scale <- data/bn
I0807 18:52:25.088793 29942 net.cpp:380] data/scale -> data/scale
I0807 18:52:25.088816 29942 layer_factory.hpp:77] Creating layer data/scale
I0807 18:52:25.088924 29942 net.cpp:122] Setting up data/scale
I0807 18:52:25.088928 29942 net.cpp:129] Top shape: 50 3 227 227 (7729350)
I0807 18:52:25.088930 29942 net.cpp:137] Memory required for data: 92752800
I0807 18:52:25.088935 29942 layer_factory.hpp:77] Creating layer conv1
I0807 18:52:25.088943 29942 net.cpp:84] Creating Layer conv1
I0807 18:52:25.088944 29942 net.cpp:406] conv1 <- data/scale
I0807 18:52:25.088948 29942 net.cpp:380] conv1 -> conv1
I0807 18:52:25.092262 29942 net.cpp:122] Setting up conv1
I0807 18:52:25.092270 29942 net.cpp:129] Top shape: 50 96 55 55 (14520000)
I0807 18:52:25.092272 29942 net.cpp:137] Memory required for data: 150832800
I0807 18:52:25.092275 29942 layer_factory.hpp:77] Creating layer conv1/bn
I0807 18:52:25.092279 29942 net.cpp:84] Creating Layer conv1/bn
I0807 18:52:25.092281 29942 net.cpp:406] conv1/bn <- conv1
I0807 18:52:25.092284 29942 net.cpp:380] conv1/bn -> conv1/bn
I0807 18:52:25.092411 29942 net.cpp:122] Setting up conv1/bn
I0807 18:52:25.092416 29942 net.cpp:129] Top shape: 50 96 55 55 (14520000)
I0807 18:52:25.092417 29942 net.cpp:137] Memory required for data: 208912800
I0807 18:52:25.092422 29942 layer_factory.hpp:77] Creating layer relu1
I0807 18:52:25.092427 29942 net.cpp:84] Creating Layer relu1
I0807 18:52:25.092428 29942 net.cpp:406] relu1 <- conv1/bn
I0807 18:52:25.092430 29942 net.cpp:380] relu1 -> norm1
I0807 18:52:25.092541 29942 net.cpp:122] Setting up relu1
I0807 18:52:25.092546 29942 net.cpp:129] Top shape: 50 96 55 55 (14520000)
I0807 18:52:25.092548 29942 net.cpp:137] Memory required for data: 266992800
I0807 18:52:25.092550 29942 layer_factory.hpp:77] Creating layer pool1
I0807 18:52:25.092553 29942 net.cpp:84] Creating Layer pool1
I0807 18:52:25.092555 29942 net.cpp:406] pool1 <- norm1
I0807 18:52:25.092557 29942 net.cpp:380] pool1 -> pool1
I0807 18:52:25.092578 29942 net.cpp:122] Setting up pool1
I0807 18:52:25.092582 29942 net.cpp:129] Top shape: 50 96 27 27 (3499200)
I0807 18:52:25.092584 29942 net.cpp:137] Memory required for data: 280989600
I0807 18:52:25.092586 29942 layer_factory.hpp:77] Creating layer conv2
I0807 18:52:25.092593 29942 net.cpp:84] Creating Layer conv2
I0807 18:52:25.092595 29942 net.cpp:406] conv2 <- pool1
I0807 18:52:25.092597 29942 net.cpp:380] conv2 -> conv2
I0807 18:52:25.096132 29942 net.cpp:122] Setting up conv2
I0807 18:52:25.096145 29942 net.cpp:129] Top shape: 50 256 27 27 (9331200)
I0807 18:52:25.096148 29942 net.cpp:137] Memory required for data: 318314400
I0807 18:52:25.096151 29942 layer_factory.hpp:77] Creating layer conv2/bn
I0807 18:52:25.096156 29942 net.cpp:84] Creating Layer conv2/bn
I0807 18:52:25.096158 29942 net.cpp:406] conv2/bn <- conv2
I0807 18:52:25.096163 29942 net.cpp:380] conv2/bn -> conv2/bn
I0807 18:52:25.096284 29942 net.cpp:122] Setting up conv2/bn
I0807 18:52:25.096288 29942 net.cpp:129] Top shape: 50 256 27 27 (9331200)
I0807 18:52:25.096290 29942 net.cpp:137] Memory required for data: 355639200
I0807 18:52:25.096294 29942 layer_factory.hpp:77] Creating layer relu2
I0807 18:52:25.096297 29942 net.cpp:84] Creating Layer relu2
I0807 18:52:25.096299 29942 net.cpp:406] relu2 <- conv2/bn
I0807 18:52:25.096302 29942 net.cpp:380] relu2 -> norm2
I0807 18:52:25.096417 29942 net.cpp:122] Setting up relu2
I0807 18:52:25.096437 29942 net.cpp:129] Top shape: 50 256 27 27 (9331200)
I0807 18:52:25.096439 29942 net.cpp:137] Memory required for data: 392964000
I0807 18:52:25.096441 29942 layer_factory.hpp:77] Creating layer pool2
I0807 18:52:25.096444 29942 net.cpp:84] Creating Layer pool2
I0807 18:52:25.096446 29942 net.cpp:406] pool2 <- norm2
I0807 18:52:25.096449 29942 net.cpp:380] pool2 -> pool2
I0807 18:52:25.096470 29942 net.cpp:122] Setting up pool2
I0807 18:52:25.096474 29942 net.cpp:129] Top shape: 50 256 13 13 (2163200)
I0807 18:52:25.096475 29942 net.cpp:137] Memory required for data: 401616800
I0807 18:52:25.096477 29942 layer_factory.hpp:77] Creating layer conv3
I0807 18:52:25.096482 29942 net.cpp:84] Creating Layer conv3
I0807 18:52:25.096484 29942 net.cpp:406] conv3 <- pool2
I0807 18:52:25.096487 29942 net.cpp:380] conv3 -> conv3
I0807 18:52:25.103263 29942 net.cpp:122] Setting up conv3
I0807 18:52:25.103277 29942 net.cpp:129] Top shape: 50 384 13 13 (3244800)
I0807 18:52:25.103279 29942 net.cpp:137] Memory required for data: 414596000
I0807 18:52:25.103287 29942 layer_factory.hpp:77] Creating layer conv3/bn
I0807 18:52:25.103296 29942 net.cpp:84] Creating Layer conv3/bn
I0807 18:52:25.103297 29942 net.cpp:406] conv3/bn <- conv3
I0807 18:52:25.103302 29942 net.cpp:380] conv3/bn -> conv3/bn
I0807 18:52:25.103437 29942 net.cpp:122] Setting up conv3/bn
I0807 18:52:25.103442 29942 net.cpp:129] Top shape: 50 384 13 13 (3244800)
I0807 18:52:25.103443 29942 net.cpp:137] Memory required for data: 427575200
I0807 18:52:25.103448 29942 layer_factory.hpp:77] Creating layer relu3
I0807 18:52:25.103451 29942 net.cpp:84] Creating Layer relu3
I0807 18:52:25.103453 29942 net.cpp:406] relu3 <- conv3/bn
I0807 18:52:25.103456 29942 net.cpp:367] relu3 -> conv3/bn (in-place)
I0807 18:52:25.103844 29942 net.cpp:122] Setting up relu3
I0807 18:52:25.103850 29942 net.cpp:129] Top shape: 50 384 13 13 (3244800)
I0807 18:52:25.103852 29942 net.cpp:137] Memory required for data: 440554400
I0807 18:52:25.103854 29942 layer_factory.hpp:77] Creating layer conv4
I0807 18:52:25.103860 29942 net.cpp:84] Creating Layer conv4
I0807 18:52:25.103862 29942 net.cpp:406] conv4 <- conv3/bn
I0807 18:52:25.103865 29942 net.cpp:380] conv4 -> conv4
I0807 18:52:25.111464 29942 net.cpp:122] Setting up conv4
I0807 18:52:25.111479 29942 net.cpp:129] Top shape: 50 384 13 13 (3244800)
I0807 18:52:25.111480 29942 net.cpp:137] Memory required for data: 453533600
I0807 18:52:25.111487 29942 layer_factory.hpp:77] Creating layer conv4/bn
I0807 18:52:25.111498 29942 net.cpp:84] Creating Layer conv4/bn
I0807 18:52:25.111501 29942 net.cpp:406] conv4/bn <- conv4
I0807 18:52:25.111507 29942 net.cpp:380] conv4/bn -> conv4/bn
I0807 18:52:25.111634 29942 net.cpp:122] Setting up conv4/bn
I0807 18:52:25.111639 29942 net.cpp:129] Top shape: 50 384 13 13 (3244800)
I0807 18:52:25.111639 29942 net.cpp:137] Memory required for data: 466512800
I0807 18:52:25.111644 29942 layer_factory.hpp:77] Creating layer relu4
I0807 18:52:25.111647 29942 net.cpp:84] Creating Layer relu4
I0807 18:52:25.111649 29942 net.cpp:406] relu4 <- conv4/bn
I0807 18:52:25.111651 29942 net.cpp:367] relu4 -> conv4/bn (in-place)
I0807 18:52:25.111763 29942 net.cpp:122] Setting up relu4
I0807 18:52:25.111768 29942 net.cpp:129] Top shape: 50 384 13 13 (3244800)
I0807 18:52:25.111769 29942 net.cpp:137] Memory required for data: 479492000
I0807 18:52:25.111771 29942 layer_factory.hpp:77] Creating layer conv5
I0807 18:52:25.111776 29942 net.cpp:84] Creating Layer conv5
I0807 18:52:25.111778 29942 net.cpp:406] conv5 <- conv4/bn
I0807 18:52:25.111780 29942 net.cpp:380] conv5 -> conv5
I0807 18:52:25.116613 29942 net.cpp:122] Setting up conv5
I0807 18:52:25.116631 29942 net.cpp:129] Top shape: 50 256 13 13 (2163200)
I0807 18:52:25.116632 29942 net.cpp:137] Memory required for data: 488144800
I0807 18:52:25.116638 29942 layer_factory.hpp:77] Creating layer conv5/bn
I0807 18:52:25.116645 29942 net.cpp:84] Creating Layer conv5/bn
I0807 18:52:25.116647 29942 net.cpp:406] conv5/bn <- conv5
I0807 18:52:25.116654 29942 net.cpp:380] conv5/bn -> conv5/bn
I0807 18:52:25.116818 29942 net.cpp:122] Setting up conv5/bn
I0807 18:52:25.116823 29942 net.cpp:129] Top shape: 50 256 13 13 (2163200)
I0807 18:52:25.116824 29942 net.cpp:137] Memory required for data: 496797600
I0807 18:52:25.116829 29942 layer_factory.hpp:77] Creating layer relu5
I0807 18:52:25.116832 29942 net.cpp:84] Creating Layer relu5
I0807 18:52:25.116834 29942 net.cpp:406] relu5 <- conv5/bn
I0807 18:52:25.116837 29942 net.cpp:367] relu5 -> conv5/bn (in-place)
I0807 18:52:25.116969 29942 net.cpp:122] Setting up relu5
I0807 18:52:25.116973 29942 net.cpp:129] Top shape: 50 256 13 13 (2163200)
I0807 18:52:25.116976 29942 net.cpp:137] Memory required for data: 505450400
I0807 18:52:25.116977 29942 layer_factory.hpp:77] Creating layer pool5
I0807 18:52:25.116981 29942 net.cpp:84] Creating Layer pool5
I0807 18:52:25.116982 29942 net.cpp:406] pool5 <- conv5/bn
I0807 18:52:25.116986 29942 net.cpp:380] pool5 -> pool5
I0807 18:52:25.117014 29942 net.cpp:122] Setting up pool5
I0807 18:52:25.117018 29942 net.cpp:129] Top shape: 50 256 6 6 (460800)
I0807 18:52:25.117019 29942 net.cpp:137] Memory required for data: 507293600
I0807 18:52:25.117022 29942 layer_factory.hpp:77] Creating layer fc6
I0807 18:52:25.117025 29942 net.cpp:84] Creating Layer fc6
I0807 18:52:25.117027 29942 net.cpp:406] fc6 <- pool5
I0807 18:52:25.117029 29942 net.cpp:380] fc6 -> fc6
I0807 18:52:25.356329 29942 net.cpp:122] Setting up fc6
I0807 18:52:25.356345 29942 net.cpp:129] Top shape: 50 4096 (204800)
I0807 18:52:25.356348 29942 net.cpp:137] Memory required for data: 508112800
I0807 18:52:25.356353 29942 layer_factory.hpp:77] Creating layer fc6/bn
I0807 18:52:25.356359 29942 net.cpp:84] Creating Layer fc6/bn
I0807 18:52:25.356362 29942 net.cpp:406] fc6/bn <- fc6
I0807 18:52:25.356366 29942 net.cpp:380] fc6/bn -> fc6/bn
I0807 18:52:25.356492 29942 net.cpp:122] Setting up fc6/bn
I0807 18:52:25.356495 29942 net.cpp:129] Top shape: 50 4096 (204800)
I0807 18:52:25.356497 29942 net.cpp:137] Memory required for data: 508932000
I0807 18:52:25.356504 29942 layer_factory.hpp:77] Creating layer relu6
I0807 18:52:25.356508 29942 net.cpp:84] Creating Layer relu6
I0807 18:52:25.356509 29942 net.cpp:406] relu6 <- fc6/bn
I0807 18:52:25.356513 29942 net.cpp:367] relu6 -> fc6/bn (in-place)
I0807 18:52:25.356988 29942 net.cpp:122] Setting up relu6
I0807 18:52:25.356994 29942 net.cpp:129] Top shape: 50 4096 (204800)
I0807 18:52:25.356997 29942 net.cpp:137] Memory required for data: 509751200
I0807 18:52:25.356998 29942 layer_factory.hpp:77] Creating layer fc7
I0807 18:52:25.357002 29942 net.cpp:84] Creating Layer fc7
I0807 18:52:25.357004 29942 net.cpp:406] fc7 <- fc6/bn
I0807 18:52:25.357007 29942 net.cpp:380] fc7 -> fc7
I0807 18:52:25.461161 29942 net.cpp:122] Setting up fc7
I0807 18:52:25.461179 29942 net.cpp:129] Top shape: 50 4096 (204800)
I0807 18:52:25.461180 29942 net.cpp:137] Memory required for data: 510570400
I0807 18:52:25.461186 29942 layer_factory.hpp:77] Creating layer fc7/bn
I0807 18:52:25.461194 29942 net.cpp:84] Creating Layer fc7/bn
I0807 18:52:25.461196 29942 net.cpp:406] fc7/bn <- fc7
I0807 18:52:25.461199 29942 net.cpp:380] fc7/bn -> fc7/bn
I0807 18:52:25.461324 29942 net.cpp:122] Setting up fc7/bn
I0807 18:52:25.461328 29942 net.cpp:129] Top shape: 50 4096 (204800)
I0807 18:52:25.461330 29942 net.cpp:137] Memory required for data: 511389600
I0807 18:52:25.461333 29942 layer_factory.hpp:77] Creating layer relu7
I0807 18:52:25.461336 29942 net.cpp:84] Creating Layer relu7
I0807 18:52:25.461338 29942 net.cpp:406] relu7 <- fc7/bn
I0807 18:52:25.461341 29942 net.cpp:367] relu7 -> fc7/bn (in-place)
I0807 18:52:25.461482 29942 net.cpp:122] Setting up relu7
I0807 18:52:25.461486 29942 net.cpp:129] Top shape: 50 4096 (204800)
I0807 18:52:25.461488 29942 net.cpp:137] Memory required for data: 512208800
I0807 18:52:25.461490 29942 layer_factory.hpp:77] Creating layer fc8
I0807 18:52:25.461493 29942 net.cpp:84] Creating Layer fc8
I0807 18:52:25.461495 29942 net.cpp:406] fc8 <- fc7/bn
I0807 18:52:25.461498 29942 net.cpp:380] fc8 -> fc8
I0807 18:52:25.487118 29942 net.cpp:122] Setting up fc8
I0807 18:52:25.487133 29942 net.cpp:129] Top shape: 50 1000 (50000)
I0807 18:52:25.487135 29942 net.cpp:137] Memory required for data: 512408800
I0807 18:52:25.487141 29942 layer_factory.hpp:77] Creating layer fc8_fc8_0_split
I0807 18:52:25.487146 29942 net.cpp:84] Creating Layer fc8_fc8_0_split
I0807 18:52:25.487149 29942 net.cpp:406] fc8_fc8_0_split <- fc8
I0807 18:52:25.487152 29942 net.cpp:380] fc8_fc8_0_split -> fc8_fc8_0_split_0
I0807 18:52:25.487157 29942 net.cpp:380] fc8_fc8_0_split -> fc8_fc8_0_split_1
I0807 18:52:25.487185 29942 net.cpp:122] Setting up fc8_fc8_0_split
I0807 18:52:25.487187 29942 net.cpp:129] Top shape: 50 1000 (50000)
I0807 18:52:25.487190 29942 net.cpp:129] Top shape: 50 1000 (50000)
I0807 18:52:25.487190 29942 net.cpp:137] Memory required for data: 512808800
I0807 18:52:25.487192 29942 layer_factory.hpp:77] Creating layer accuracy
I0807 18:52:25.487196 29942 net.cpp:84] Creating Layer accuracy
I0807 18:52:25.487198 29942 net.cpp:406] accuracy <- fc8_fc8_0_split_0
I0807 18:52:25.487200 29942 net.cpp:406] accuracy <- label_data_1_split_0
I0807 18:52:25.487205 29942 net.cpp:380] accuracy -> accuracy
…
