…
I0808 15:18:36.465311 24372 net.cpp:294] The NetState phase (0) differed from the phase (1) specified by a rule in layer data
I0808 15:18:36.465559 24372 net.cpp:294] The NetState phase (0) differed from the phase (1) specified by a rule in layer accuracy
I0808 15:18:36.466282 24372 net.cpp:51] Initializing net from parameters: 
name: "AlexNet"
state {
  phase: TRAIN
  level: 0
  stage: ""
}
layer {
  name: "data"
  type: "Data"
  top: "data"
  top: "label"
  include {
    phase: TRAIN
  }
  transform_param {
    mirror: true
    crop_size: 227
  }
  data_param {
    source: "../imagenet/ilsvrc12_train_lmdb"
    batch_size: 128
    backend: LMDB
  }
}
layer {
  name: "data/bn"
  type: "BatchNorm"
  bottom: "data"
  top: "data/bn"
  param {
    lr_mult: 0
    decay_mult: 0
  }
  param {
    lr_mult: 0
    decay_mult: 0
  }
  param {
    lr_mult: 0
    decay_mult: 0
  }
  batch_norm_param {
    moving_average_fraction: 0.9
  }
}
layer {
  name: "data/scale"
  type: "Scale"
  bottom: "data/bn"
  top: "data/scale"
  param {
    lr_mult: 1
    decay_mult: 1
  }
  param {
    lr_mult: 2
    decay_mult: 0
  }
  scale_param {
    bias_term: true
  }
}
layer {
  name: "conv1"
  type: "Convolution"
  bottom: "data/scale"
  top: "conv1"
  param {
    lr_mult: 1
    decay_mult: 1
  }
  param {
    lr_mult: 2
    decay_mult: 0
  }
  convolution_param {
    num_output: 96
    kernel_size: 11
    stride: 4
    weight_filler {
      type: "msra"
    }
    bias_filler {
      type: "constant"
      value: 0
    }
  }
}
layer {
  name: "conv1/bn"
  type: "BatchNorm"
  bottom: "conv1"
  top: "conv1/bn"
  param {
    lr_mult: 0
    decay_mult: 0
  }
  param {
    lr_mult: 0
    decay_mult: 0
  }
  param {
    lr_mult: 0
    decay_mult: 0
  }
  batch_norm_param {
    moving_average_fraction: 0.9
  }
}
layer {
  name: "relu1"
  type: "ReLU"
  bottom: "conv1/bn"
  top: "norm1"
}
layer {
  name: "pool1"
  type: "Pooling"
  bottom: "norm1"
  top: "pool1"
  pooling_param {
    pool: MAX
    kernel_size: 3
    stride: 2
  }
}
layer {
  name: "conv2"
  type: "Convolution"
  bottom: "pool1"
  top: "conv2"
  param {
    lr_mult: 1
    decay_mult: 1
  }
  param {
    lr_mult: 2
    decay_mult: 0
  }
  convolution_param {
    num_output: 256
    pad: 2
    kernel_size: 5
    group: 2
    weight_filler {
      type: "msra"
    }
    bias_filler {
      type: "constant"
      value: 0
    }
  }
}
layer {
  name: "conv2/bn"
  type: "BatchNorm"
  bottom: "conv2"
  top: "conv2/bn"
  param {
    lr_mult: 0
    decay_mult: 0
  }
  param {
    lr_mult: 0
    decay_mult: 0
  }
  param {
    lr_mult: 0
    decay_mult: 0
  }
  batch_norm_param {
    moving_average_fraction: 0.9
  }
}
layer {
  name: "relu2"
  type: "ReLU"
  bottom: "conv2/bn"
  top: "norm2"
}
layer {
  name: "pool2"
  type: "Pooling"
  bottom: "norm2"
  top: "pool2"
  pooling_param {
    pool: MAX
    kernel_size: 3
    stride: 2
  }
}
layer {
  name: "conv3"
  type: "Convolution"
  bottom: "pool2"
  top: "conv3"
  param {
    lr_mult: 1
    decay_mult: 1
  }
  param {
    lr_mult: 2
    decay_mult: 0
  }
  convolution_param {
    num_output: 384
    pad: 1
    kernel_size: 3
    weight_filler {
      type: "msra"
    }
    bias_filler {
      type: "constant"
      value: 0
    }
  }
}
layer {
  name: "conv3/bn"
  type: "BatchNorm"
  bottom: "conv3"
  top: "conv3/bn"
  param {
    lr_mult: 0
    decay_mult: 0
  }
  param {
    lr_mult: 0
    decay_mult: 0
  }
  param {
    lr_mult: 0
    decay_mult: 0
  }
  batch_norm_param {
    moving_average_fraction: 0.9
  }
}
layer {
  name: "relu3"
  type: "ReLU"
  bottom: "conv3/bn"
  top: "conv3/bn"
}
layer {
  name: "conv4"
  type: "Convolution"
  bottom: "conv3/bn"
  top: "conv4"
  param {
    lr_mult: 1
    decay_mult: 1
  }
  param {
    lr_mult: 2
    decay_mult: 0
  }
  convolution_param {
    num_output: 384
    pad: 1
    kernel_size: 3
    group: 2
    weight_filler {
      type: "msra"
    }
    bias_filler {
      type: "constant"
      value: 0
    }
  }
}
layer {
  name: "conv4/bn"
  type: "BatchNorm"
  bottom: "conv4"
  top: "conv4/bn"
  param {
    lr_mult: 0
    decay_mult: 0
  }
  param {
    lr_mult: 0
    decay_mult: 0
  }
  param {
    lr_mult: 0
    decay_mult: 0
  }
  batch_norm_param {
    moving_average_fraction: 0.9
  }
}
layer {
  name: "relu4"
  type: "ReLU"
  bottom: "conv4/bn"
  top: "conv4/bn"
}
layer {
  name: "conv5"
  type: "Convolution"
  bottom: "conv4/bn"
  top: "conv5"
  param {
    lr_mult: 1
    decay_mult: 1
  }
  param {
    lr_mult: 2
    decay_mult: 0
  }
  convolution_param {
    num_output: 256
    pad: 1
    kernel_size: 3
    group: 2
    weight_filler {
      type: "msra"
    }
    bias_filler {
      type: "constant"
      value: 0
    }
  }
}
layer {
  name: "conv5/bn"
  type: "BatchNorm"
  bottom: "conv5"
  top: "conv5/bn"
  param {
    lr_mult: 0
    decay_mult: 0
  }
  param {
    lr_mult: 0
    decay_mult: 0
  }
  param {
    lr_mult: 0
    decay_mult: 0
  }
  batch_norm_param {
    moving_average_fraction: 0.9
  }
}
layer {
  name: "relu5"
  type: "ReLU"
  bottom: "conv5/bn"
  top: "conv5/bn"
}
layer {
  name: "pool5"
  type: "Pooling"
  bottom: "conv5/bn"
  top: "pool5"
  pooling_param {
    pool: MAX
    kernel_size: 3
    stride: 2
  }
}
layer {
  name: "fc6"
  type: "InnerProduct"
  bottom: "pool5"
  top: "fc6"
  param {
    lr_mult: 1
    decay_mult: 1
  }
  param {
    lr_mult: 2
    decay_mult: 0
  }
  inner_product_param {
    num_output: 4096
    weight_filler {
      type: "msra"
    }
    bias_filler {
      type: "constant"
      value: 0
    }
  }
}
layer {
  name: "fc6/bn"
  type: "BatchNorm"
  bottom: "fc6"
  top: "fc6/bn"
  param {
    lr_mult: 0
    decay_mult: 0
  }
  param {
    lr_mult: 0
    decay_mult: 0
  }
  param {
    lr_mult: 0
    decay_mult: 0
  }
  batch_norm_param {
    moving_average_fraction: 0.9
  }
}
layer {
  name: "relu6"
  type: "ReLU"
  bottom: "fc6/bn"
  top: "fc6/bn"
}
layer {
  name: "fc7"
  type: "InnerProduct"
  bottom: "fc6/bn"
  top: "fc7"
  param {
    lr_mult: 1
    decay_mult: 1
  }
  param {
    lr_mult: 2
    decay_mult: 0
  }
  inner_product_param {
    num_output: 4096
    weight_filler {
      type: "msra"
    }
    bias_filler {
      type: "constant"
      value: 0
    }
  }
}
layer {
  name: "fc7/bn"
  type: "BatchNorm"
  bottom: "fc7"
  top: "fc7/bn"
  param {
    lr_mult: 0
    decay_mult: 0
  }
  param {
    lr_mult: 0
    decay_mult: 0
  }
  param {
    lr_mult: 0
    decay_mult: 0
  }
  batch_norm_param {
    moving_average_fraction: 0.9
  }
}
layer {
  name: "relu7"
  type: "ReLU"
  bottom: "fc7/bn"
  top: "fc7/bn"
}
layer {
  name: "fc8"
  type: "InnerProduct"
  bottom: "fc7/bn"
  top: "fc8"
  param {
    lr_mult: 1
    decay_mult: 1
  }
  param {
    lr_mult: 2
    decay_mult: 0
  }
  inner_product_param {
    num_output: 1000
    weight_filler {
      type: "msra"
    }
    bias_filler {
      type: "constant"
      value: 0
    }
  }
}
layer {
  name: "loss"
  type: "SoftmaxWithLoss"
  bottom: "fc8"
  bottom: "label"
  top: "loss"
}
I0808 15:18:36.467414 24372 layer_factory.hpp:77] Creating layer data
I0808 15:18:36.502423 24372 db_lmdb.cpp:35] Opened lmdb ../imagenet/ilsvrc12_train_lmdb
I0808 15:18:36.536439 24372 net.cpp:84] Creating Layer data
I0808 15:18:36.536497 24372 net.cpp:380] data -> data
I0808 15:18:36.536554 24372 net.cpp:380] data -> label
I0808 15:18:36.551702 24372 data_layer.cpp:45] output data size: 128,3,227,227
I0808 15:18:36.673334 24372 net.cpp:122] Setting up data
I0808 15:18:36.673355 24372 net.cpp:129] Top shape: 128 3 227 227 (19787136)
I0808 15:18:36.673358 24372 net.cpp:129] Top shape: 128 (128)
I0808 15:18:36.673360 24372 net.cpp:137] Memory required for data: 79149056
I0808 15:18:36.673365 24372 layer_factory.hpp:77] Creating layer data/bn
I0808 15:18:36.673373 24372 net.cpp:84] Creating Layer data/bn
I0808 15:18:36.673377 24372 net.cpp:406] data/bn <- data
I0808 15:18:36.673384 24372 net.cpp:380] data/bn -> data/bn
I0808 15:18:36.674022 24372 net.cpp:122] Setting up data/bn
I0808 15:18:36.674031 24372 net.cpp:129] Top shape: 128 3 227 227 (19787136)
I0808 15:18:36.674032 24372 net.cpp:137] Memory required for data: 158297600
I0808 15:18:36.674046 24372 layer_factory.hpp:77] Creating layer data/scale
I0808 15:18:36.674051 24372 net.cpp:84] Creating Layer data/scale
I0808 15:18:36.674052 24372 net.cpp:406] data/scale <- data/bn
I0808 15:18:36.674055 24372 net.cpp:380] data/scale -> data/scale
I0808 15:18:36.674134 24372 layer_factory.hpp:77] Creating layer data/scale
I0808 15:18:36.680299 24372 net.cpp:122] Setting up data/scale
I0808 15:18:36.680320 24372 net.cpp:129] Top shape: 128 3 227 227 (19787136)
I0808 15:18:36.680327 24372 net.cpp:137] Memory required for data: 237446144
I0808 15:18:36.680337 24372 layer_factory.hpp:77] Creating layer conv1
I0808 15:18:36.680351 24372 net.cpp:84] Creating Layer conv1
I0808 15:18:36.680359 24372 net.cpp:406] conv1 <- data/scale
I0808 15:18:36.680368 24372 net.cpp:380] conv1 -> conv1
I0808 15:18:37.365950 24372 net.cpp:122] Setting up conv1
I0808 15:18:37.365974 24372 net.cpp:129] Top shape: 128 96 55 55 (37171200)
I0808 15:18:37.365977 24372 net.cpp:137] Memory required for data: 386130944
I0808 15:18:37.365983 24372 layer_factory.hpp:77] Creating layer conv1/bn
I0808 15:18:37.365991 24372 net.cpp:84] Creating Layer conv1/bn
I0808 15:18:37.365994 24372 net.cpp:406] conv1/bn <- conv1
I0808 15:18:37.365998 24372 net.cpp:380] conv1/bn -> conv1/bn
I0808 15:18:37.366139 24372 net.cpp:122] Setting up conv1/bn
I0808 15:18:37.366142 24372 net.cpp:129] Top shape: 128 96 55 55 (37171200)
I0808 15:18:37.366144 24372 net.cpp:137] Memory required for data: 534815744
I0808 15:18:37.366149 24372 layer_factory.hpp:77] Creating layer relu1
I0808 15:18:37.366158 24372 net.cpp:84] Creating Layer relu1
I0808 15:18:37.366159 24372 net.cpp:406] relu1 <- conv1/bn
I0808 15:18:37.366161 24372 net.cpp:380] relu1 -> norm1
I0808 15:18:37.366533 24372 net.cpp:122] Setting up relu1
I0808 15:18:37.366539 24372 net.cpp:129] Top shape: 128 96 55 55 (37171200)
I0808 15:18:37.366540 24372 net.cpp:137] Memory required for data: 683500544
I0808 15:18:37.366541 24372 layer_factory.hpp:77] Creating layer pool1
I0808 15:18:37.366545 24372 net.cpp:84] Creating Layer pool1
I0808 15:18:37.366546 24372 net.cpp:406] pool1 <- norm1
I0808 15:18:37.366549 24372 net.cpp:380] pool1 -> pool1
I0808 15:18:37.366575 24372 net.cpp:122] Setting up pool1
I0808 15:18:37.366580 24372 net.cpp:129] Top shape: 128 96 27 27 (8957952)
I0808 15:18:37.366580 24372 net.cpp:137] Memory required for data: 719332352
I0808 15:18:37.366581 24372 layer_factory.hpp:77] Creating layer conv2
I0808 15:18:37.366587 24372 net.cpp:84] Creating Layer conv2
I0808 15:18:37.366588 24372 net.cpp:406] conv2 <- pool1
I0808 15:18:37.366591 24372 net.cpp:380] conv2 -> conv2
I0808 15:18:37.370527 24372 net.cpp:122] Setting up conv2
I0808 15:18:37.370539 24372 net.cpp:129] Top shape: 128 256 27 27 (23887872)
I0808 15:18:37.370542 24372 net.cpp:137] Memory required for data: 814883840
I0808 15:18:37.370545 24372 layer_factory.hpp:77] Creating layer conv2/bn
I0808 15:18:37.370551 24372 net.cpp:84] Creating Layer conv2/bn
I0808 15:18:37.370553 24372 net.cpp:406] conv2/bn <- conv2
I0808 15:18:37.370556 24372 net.cpp:380] conv2/bn -> conv2/bn
I0808 15:18:37.370671 24372 net.cpp:122] Setting up conv2/bn
I0808 15:18:37.370676 24372 net.cpp:129] Top shape: 128 256 27 27 (23887872)
I0808 15:18:37.370687 24372 net.cpp:137] Memory required for data: 910435328
I0808 15:18:37.370692 24372 layer_factory.hpp:77] Creating layer relu2
I0808 15:18:37.370694 24372 net.cpp:84] Creating Layer relu2
I0808 15:18:37.370695 24372 net.cpp:406] relu2 <- conv2/bn
I0808 15:18:37.370698 24372 net.cpp:380] relu2 -> norm2
I0808 15:18:37.370820 24372 net.cpp:122] Setting up relu2
I0808 15:18:37.370824 24372 net.cpp:129] Top shape: 128 256 27 27 (23887872)
I0808 15:18:37.370826 24372 net.cpp:137] Memory required for data: 1005986816
I0808 15:18:37.370827 24372 layer_factory.hpp:77] Creating layer pool2
I0808 15:18:37.370831 24372 net.cpp:84] Creating Layer pool2
I0808 15:18:37.370832 24372 net.cpp:406] pool2 <- norm2
I0808 15:18:37.370834 24372 net.cpp:380] pool2 -> pool2
I0808 15:18:37.370853 24372 net.cpp:122] Setting up pool2
I0808 15:18:37.370856 24372 net.cpp:129] Top shape: 128 256 13 13 (5537792)
I0808 15:18:37.370857 24372 net.cpp:137] Memory required for data: 1028137984
I0808 15:18:37.370858 24372 layer_factory.hpp:77] Creating layer conv3
I0808 15:18:37.370863 24372 net.cpp:84] Creating Layer conv3
I0808 15:18:37.370865 24372 net.cpp:406] conv3 <- pool2
I0808 15:18:37.370868 24372 net.cpp:380] conv3 -> conv3
I0808 15:18:37.377624 24372 net.cpp:122] Setting up conv3
I0808 15:18:37.377671 24372 net.cpp:129] Top shape: 128 384 13 13 (8306688)
I0808 15:18:37.377677 24372 net.cpp:137] Memory required for data: 1061364736
I0808 15:18:37.377707 24372 layer_factory.hpp:77] Creating layer conv3/bn
I0808 15:18:37.377720 24372 net.cpp:84] Creating Layer conv3/bn
I0808 15:18:37.377727 24372 net.cpp:406] conv3/bn <- conv3
I0808 15:18:37.377734 24372 net.cpp:380] conv3/bn -> conv3/bn
I0808 15:18:37.377877 24372 net.cpp:122] Setting up conv3/bn
I0808 15:18:37.377889 24372 net.cpp:129] Top shape: 128 384 13 13 (8306688)
I0808 15:18:37.377895 24372 net.cpp:137] Memory required for data: 1094591488
I0808 15:18:37.377902 24372 layer_factory.hpp:77] Creating layer relu3
I0808 15:18:37.377910 24372 net.cpp:84] Creating Layer relu3
I0808 15:18:37.377915 24372 net.cpp:406] relu3 <- conv3/bn
I0808 15:18:37.377921 24372 net.cpp:367] relu3 -> conv3/bn (in-place)
I0808 15:18:37.378063 24372 net.cpp:122] Setting up relu3
I0808 15:18:37.378074 24372 net.cpp:129] Top shape: 128 384 13 13 (8306688)
I0808 15:18:37.378079 24372 net.cpp:137] Memory required for data: 1127818240
I0808 15:18:37.378084 24372 layer_factory.hpp:77] Creating layer conv4
I0808 15:18:37.378094 24372 net.cpp:84] Creating Layer conv4
I0808 15:18:37.378106 24372 net.cpp:406] conv4 <- conv3/bn
I0808 15:18:37.378114 24372 net.cpp:380] conv4 -> conv4
I0808 15:18:37.384093 24372 net.cpp:122] Setting up conv4
I0808 15:18:37.384126 24372 net.cpp:129] Top shape: 128 384 13 13 (8306688)
I0808 15:18:37.384133 24372 net.cpp:137] Memory required for data: 1161044992
I0808 15:18:37.384142 24372 layer_factory.hpp:77] Creating layer conv4/bn
I0808 15:18:37.384166 24372 net.cpp:84] Creating Layer conv4/bn
I0808 15:18:37.384172 24372 net.cpp:406] conv4/bn <- conv4
I0808 15:18:37.384181 24372 net.cpp:380] conv4/bn -> conv4/bn
I0808 15:18:37.384315 24372 net.cpp:122] Setting up conv4/bn
I0808 15:18:37.384325 24372 net.cpp:129] Top shape: 128 384 13 13 (8306688)
I0808 15:18:37.384330 24372 net.cpp:137] Memory required for data: 1194271744
I0808 15:18:37.384336 24372 layer_factory.hpp:77] Creating layer relu4
I0808 15:18:37.384344 24372 net.cpp:84] Creating Layer relu4
I0808 15:18:37.384351 24372 net.cpp:406] relu4 <- conv4/bn
I0808 15:18:37.384357 24372 net.cpp:367] relu4 -> conv4/bn (in-place)
I0808 15:18:37.384729 24372 net.cpp:122] Setting up relu4
I0808 15:18:37.384743 24372 net.cpp:129] Top shape: 128 384 13 13 (8306688)
I0808 15:18:37.384748 24372 net.cpp:137] Memory required for data: 1227498496
I0808 15:18:37.384753 24372 layer_factory.hpp:77] Creating layer conv5
I0808 15:18:37.384763 24372 net.cpp:84] Creating Layer conv5
I0808 15:18:37.384770 24372 net.cpp:406] conv5 <- conv4/bn
I0808 15:18:37.384778 24372 net.cpp:380] conv5 -> conv5
I0808 15:18:37.389319 24372 net.cpp:122] Setting up conv5
I0808 15:18:37.389353 24372 net.cpp:129] Top shape: 128 256 13 13 (5537792)
I0808 15:18:37.389359 24372 net.cpp:137] Memory required for data: 1249649664
I0808 15:18:37.389369 24372 layer_factory.hpp:77] Creating layer conv5/bn
I0808 15:18:37.389379 24372 net.cpp:84] Creating Layer conv5/bn
I0808 15:18:37.389391 24372 net.cpp:406] conv5/bn <- conv5
I0808 15:18:37.389400 24372 net.cpp:380] conv5/bn -> conv5/bn
I0808 15:18:37.389536 24372 net.cpp:122] Setting up conv5/bn
I0808 15:18:37.389546 24372 net.cpp:129] Top shape: 128 256 13 13 (5537792)
I0808 15:18:37.389552 24372 net.cpp:137] Memory required for data: 1271800832
I0808 15:18:37.389559 24372 layer_factory.hpp:77] Creating layer relu5
I0808 15:18:37.389567 24372 net.cpp:84] Creating Layer relu5
I0808 15:18:37.389574 24372 net.cpp:406] relu5 <- conv5/bn
I0808 15:18:37.389580 24372 net.cpp:367] relu5 -> conv5/bn (in-place)
I0808 15:18:37.389703 24372 net.cpp:122] Setting up relu5
I0808 15:18:37.389714 24372 net.cpp:129] Top shape: 128 256 13 13 (5537792)
I0808 15:18:37.389719 24372 net.cpp:137] Memory required for data: 1293952000
I0808 15:18:37.389724 24372 layer_factory.hpp:77] Creating layer pool5
I0808 15:18:37.389729 24372 net.cpp:84] Creating Layer pool5
I0808 15:18:37.389735 24372 net.cpp:406] pool5 <- conv5/bn
I0808 15:18:37.389744 24372 net.cpp:380] pool5 -> pool5
I0808 15:18:37.389775 24372 net.cpp:122] Setting up pool5
I0808 15:18:37.389784 24372 net.cpp:129] Top shape: 128 256 6 6 (1179648)
I0808 15:18:37.389789 24372 net.cpp:137] Memory required for data: 1298670592
I0808 15:18:37.389794 24372 layer_factory.hpp:77] Creating layer fc6
I0808 15:18:37.389802 24372 net.cpp:84] Creating Layer fc6
I0808 15:18:37.389809 24372 net.cpp:406] fc6 <- pool5
I0808 15:18:37.389816 24372 net.cpp:380] fc6 -> fc6
I0808 15:18:37.627609 24372 net.cpp:122] Setting up fc6
I0808 15:18:37.627643 24372 net.cpp:129] Top shape: 128 4096 (524288)
I0808 15:18:37.627650 24372 net.cpp:137] Memory required for data: 1300767744
I0808 15:18:37.627660 24372 layer_factory.hpp:77] Creating layer fc6/bn
I0808 15:18:37.627674 24372 net.cpp:84] Creating Layer fc6/bn
I0808 15:18:37.627681 24372 net.cpp:406] fc6/bn <- fc6
I0808 15:18:37.627689 24372 net.cpp:380] fc6/bn -> fc6/bn
I0808 15:18:37.627816 24372 net.cpp:122] Setting up fc6/bn
I0808 15:18:37.627825 24372 net.cpp:129] Top shape: 128 4096 (524288)
I0808 15:18:37.627830 24372 net.cpp:137] Memory required for data: 1302864896
I0808 15:18:37.627841 24372 layer_factory.hpp:77] Creating layer relu6
I0808 15:18:37.627848 24372 net.cpp:84] Creating Layer relu6
I0808 15:18:37.627854 24372 net.cpp:406] relu6 <- fc6/bn
I0808 15:18:37.627861 24372 net.cpp:367] relu6 -> fc6/bn (in-place)
I0808 15:18:37.628022 24372 net.cpp:122] Setting up relu6
I0808 15:18:37.628033 24372 net.cpp:129] Top shape: 128 4096 (524288)
I0808 15:18:37.628038 24372 net.cpp:137] Memory required for data: 1304962048
I0808 15:18:37.628043 24372 layer_factory.hpp:77] Creating layer fc7
I0808 15:18:37.628051 24372 net.cpp:84] Creating Layer fc7
I0808 15:18:37.628058 24372 net.cpp:406] fc7 <- fc6/bn
I0808 15:18:37.628067 24372 net.cpp:380] fc7 -> fc7
I0808 15:18:37.734704 24372 net.cpp:122] Setting up fc7
I0808 15:18:37.734735 24372 net.cpp:129] Top shape: 128 4096 (524288)
I0808 15:18:37.734740 24372 net.cpp:137] Memory required for data: 1307059200
I0808 15:18:37.734750 24372 layer_factory.hpp:77] Creating layer fc7/bn
I0808 15:18:37.734761 24372 net.cpp:84] Creating Layer fc7/bn
I0808 15:18:37.734768 24372 net.cpp:406] fc7/bn <- fc7
I0808 15:18:37.734776 24372 net.cpp:380] fc7/bn -> fc7/bn
I0808 15:18:37.734901 24372 net.cpp:122] Setting up fc7/bn
I0808 15:18:37.734910 24372 net.cpp:129] Top shape: 128 4096 (524288)
I0808 15:18:37.734915 24372 net.cpp:137] Memory required for data: 1309156352
I0808 15:18:37.734921 24372 layer_factory.hpp:77] Creating layer relu7
I0808 15:18:37.734928 24372 net.cpp:84] Creating Layer relu7
I0808 15:18:37.734933 24372 net.cpp:406] relu7 <- fc7/bn
I0808 15:18:37.734941 24372 net.cpp:367] relu7 -> fc7/bn (in-place)
I0808 15:18:37.735100 24372 net.cpp:122] Setting up relu7
I0808 15:18:37.735116 24372 net.cpp:129] Top shape: 128 4096 (524288)
I0808 15:18:37.735121 24372 net.cpp:137] Memory required for data: 1311253504
I0808 15:18:37.735126 24372 layer_factory.hpp:77] Creating layer fc8
I0808 15:18:37.735133 24372 net.cpp:84] Creating Layer fc8
I0808 15:18:37.735139 24372 net.cpp:406] fc8 <- fc7/bn
I0808 15:18:37.735147 24372 net.cpp:380] fc8 -> fc8
I0808 15:18:37.761160 24372 net.cpp:122] Setting up fc8
I0808 15:18:37.761194 24372 net.cpp:129] Top shape: 128 1000 (128000)
I0808 15:18:37.761200 24372 net.cpp:137] Memory required for data: 1311765504
I0808 15:18:37.761209 24372 layer_factory.hpp:77] Creating layer loss
I0808 15:18:37.761220 24372 net.cpp:84] Creating Layer loss
I0808 15:18:37.761227 24372 net.cpp:406] loss <- fc8
I0808 15:18:37.761234 24372 net.cpp:406] loss <- label
I0808 15:18:37.761243 24372 net.cpp:380] loss -> loss
I0808 15:18:37.761260 24372 layer_factory.hpp:77] Creating layer loss
…
I0808 15:18:37.762257 24372 solver.cpp:172] Creating test net (#0) specified by net file: train_alexnet.prototxt
I0808 15:18:37.762281 24372 net.cpp:294] The NetState phase (1) differed from the phase (0) specified by a rule in layer data
I0808 15:18:37.762405 24372 net.cpp:51] Initializing net from parameters: 
name: "AlexNet"
state {
  phase: TEST
}
layer {
  name: "data"
  type: "Data"
  top: "data"
  top: "label"
  include {
    phase: TEST
  }
  transform_param {
    mirror: false
    crop_size: 227
  }
  data_param {
    source: "../imagenet/ilsvrc12_val_lmdb"
    batch_size: 50
    backend: LMDB
  }
}
layer {
  name: "data/bn"
  type: "BatchNorm"
  bottom: "data"
  top: "data/bn"
  param {
    lr_mult: 0
    decay_mult: 0
  }
  param {
    lr_mult: 0
    decay_mult: 0
  }
  param {
    lr_mult: 0
    decay_mult: 0
  }
  batch_norm_param {
    moving_average_fraction: 0.9
  }
}
layer {
  name: "data/scale"
  type: "Scale"
  bottom: "data/bn"
  top: "data/scale"
  param {
    lr_mult: 1
    decay_mult: 1
  }
  param {
    lr_mult: 2
    decay_mult: 0
  }
  scale_param {
    bias_term: true
  }
}
layer {
  name: "conv1"
  type: "Convolution"
  bottom: "data/scale"
  top: "conv1"
  param {
    lr_mult: 1
    decay_mult: 1
  }
  param {
    lr_mult: 2
    decay_mult: 0
  }
  convolution_param {
    num_output: 96
    kernel_size: 11
    stride: 4
    weight_filler {
      type: "msra"
    }
    bias_filler {
      type: "constant"
      value: 0
    }
  }
}
layer {
  name: "conv1/bn"
  type: "BatchNorm"
  bottom: "conv1"
  top: "conv1/bn"
  param {
    lr_mult: 0
    decay_mult: 0
  }
  param {
    lr_mult: 0
    decay_mult: 0
  }
  param {
    lr_mult: 0
    decay_mult: 0
  }
  batch_norm_param {
    moving_average_fraction: 0.9
  }
}
layer {
  name: "relu1"
  type: "ReLU"
  bottom: "conv1/bn"
  top: "norm1"
}
layer {
  name: "pool1"
  type: "Pooling"
  bottom: "norm1"
  top: "pool1"
  pooling_param {
    pool: MAX
    kernel_size: 3
    stride: 2
  }
}
layer {
  name: "conv2"
  type: "Convolution"
  bottom: "pool1"
  top: "conv2"
  param {
    lr_mult: 1
    decay_mult: 1
  }
  param {
    lr_mult: 2
    decay_mult: 0
  }
  convolution_param {
    num_output: 256
    pad: 2
    kernel_size: 5
    group: 2
    weight_filler {
      type: "msra"
    }
    bias_filler {
      type: "constant"
      value: 0
    }
  }
}
layer {
  name: "conv2/bn"
  type: "BatchNorm"
  bottom: "conv2"
  top: "conv2/bn"
  param {
    lr_mult: 0
    decay_mult: 0
  }
  param {
    lr_mult: 0
    decay_mult: 0
  }
  param {
    lr_mult: 0
    decay_mult: 0
  }
  batch_norm_param {
    moving_average_fraction: 0.9
  }
}
layer {
  name: "relu2"
  type: "ReLU"
  bottom: "conv2/bn"
  top: "norm2"
}
layer {
  name: "pool2"
  type: "Pooling"
  bottom: "norm2"
  top: "pool2"
  pooling_param {
    pool: MAX
    kernel_size: 3
    stride: 2
  }
}
layer {
  name: "conv3"
  type: "Convolution"
  bottom: "pool2"
  top: "conv3"
  param {
    lr_mult: 1
    decay_mult: 1
  }
  param {
    lr_mult: 2
    decay_mult: 0
  }
  convolution_param {
    num_output: 384
    pad: 1
    kernel_size: 3
    weight_filler {
      type: "msra"
    }
    bias_filler {
      type: "constant"
      value: 0
    }
  }
}
layer {
  name: "conv3/bn"
  type: "BatchNorm"
  bottom: "conv3"
  top: "conv3/bn"
  param {
    lr_mult: 0
    decay_mult: 0
  }
  param {
    lr_mult: 0
    decay_mult: 0
  }
  param {
    lr_mult: 0
    decay_mult: 0
  }
  batch_norm_param {
    moving_average_fraction: 0.9
  }
}
layer {
  name: "relu3"
  type: "ReLU"
  bottom: "conv3/bn"
  top: "conv3/bn"
}
layer {
  name: "conv4"
  type: "Convolution"
  bottom: "conv3/bn"
  top: "conv4"
  param {
    lr_mult: 1
    decay_mult: 1
  }
  param {
    lr_mult: 2
    decay_mult: 0
  }
  convolution_param {
    num_output: 384
    pad: 1
    kernel_size: 3
    group: 2
    weight_filler {
      type: "msra"
    }
    bias_filler {
      type: "constant"
      value: 0
    }
  }
}
layer {
  name: "conv4/bn"
  type: "BatchNorm"
  bottom: "conv4"
  top: "conv4/bn"
  param {
    lr_mult: 0
    decay_mult: 0
  }
  param {
    lr_mult: 0
    decay_mult: 0
  }
  param {
    lr_mult: 0
    decay_mult: 0
  }
  batch_norm_param {
    moving_average_fraction: 0.9
  }
}
layer {
  name: "relu4"
  type: "ReLU"
  bottom: "conv4/bn"
  top: "conv4/bn"
}
layer {
  name: "conv5"
  type: "Convolution"
  bottom: "conv4/bn"
  top: "conv5"
  param {
    lr_mult: 1
    decay_mult: 1
  }
  param {
    lr_mult: 2
    decay_mult: 0
  }
  convolution_param {
    num_output: 256
    pad: 1
    kernel_size: 3
    group: 2
    weight_filler {
      type: "msra"
    }
    bias_filler {
      type: "constant"
      value: 0
    }
  }
}
layer {
  name: "conv5/bn"
  type: "BatchNorm"
  bottom: "conv5"
  top: "conv5/bn"
  param {
    lr_mult: 0
    decay_mult: 0
  }
  param {
    lr_mult: 0
    decay_mult: 0
  }
  param {
    lr_mult: 0
    decay_mult: 0
  }
  batch_norm_param {
    moving_average_fraction: 0.9
  }
}
layer {
  name: "relu5"
  type: "ReLU"
  bottom: "conv5/bn"
  top: "conv5/bn"
}
layer {
  name: "pool5"
  type: "Pooling"
  bottom: "conv5/bn"
  top: "pool5"
  pooling_param {
    pool: MAX
    kernel_size: 3
    stride: 2
  }
}
layer {
  name: "fc6"
  type: "InnerProduct"
  bottom: "pool5"
  top: "fc6"
  param {
    lr_mult: 1
    decay_mult: 1
  }
  param {
    lr_mult: 2
    decay_mult: 0
  }
  inner_product_param {
    num_output: 4096
    weight_filler {
      type: "msra"
    }
    bias_filler {
      type: "constant"
      value: 0
    }
  }
}
layer {
  name: "fc6/bn"
  type: "BatchNorm"
  bottom: "fc6"
  top: "fc6/bn"
  param {
    lr_mult: 0
    decay_mult: 0
  }
  param {
    lr_mult: 0
    decay_mult: 0
  }
  param {
    lr_mult: 0
    decay_mult: 0
  }
  batch_norm_param {
    moving_average_fraction: 0.9
  }
}
layer {
  name: "relu6"
  type: "ReLU"
  bottom: "fc6/bn"
  top: "fc6/bn"
}
layer {
  name: "fc7"
  type: "InnerProduct"
  bottom: "fc6/bn"
  top: "fc7"
  param {
    lr_mult: 1
    decay_mult: 1
  }
  param {
    lr_mult: 2
    decay_mult: 0
  }
  inner_product_param {
    num_output: 4096
    weight_filler {
      type: "msra"
    }
    bias_filler {
      type: "constant"
      value: 0
    }
  }
}
layer {
  name: "fc7/bn"
  type: "BatchNorm"
  bottom: "fc7"
  top: "fc7/bn"
  param {
    lr_mult: 0
    decay_mult: 0
  }
  param {
    lr_mult: 0
    decay_mult: 0
  }
  param {
    lr_mult: 0
    decay_mult: 0
  }
  batch_norm_param {
    moving_average_fraction: 0.9
  }
}
layer {
  name: "relu7"
  type: "ReLU"
  bottom: "fc7/bn"
  top: "fc7/bn"
}
layer {
  name: "fc8"
  type: "InnerProduct"
  bottom: "fc7/bn"
  top: "fc8"
  param {
    lr_mult: 1
    decay_mult: 1
  }
  param {
    lr_mult: 2
    decay_mult: 0
  }
  inner_product_param {
    num_output: 1000
    weight_filler {
      type: "msra"
    }
    bias_filler {
      type: "constant"
      value: 0
    }
  }
}
layer {
  name: "accuracy"
  type: "Accuracy"
  bottom: "fc8"
  bottom: "label"
  top: "accuracy"
  include {
    phase: TEST
  }
}
layer {
  name: "loss"
  type: "SoftmaxWithLoss"
  bottom: "fc8"
  bottom: "label"
  top: "loss"
}
I0808 15:18:37.762691 24372 layer_factory.hpp:77] Creating layer data
I0808 15:18:37.781733 24372 db_lmdb.cpp:35] Opened lmdb ../imagenet/ilsvrc12_val_lmdb
I0808 15:18:37.796828 24372 net.cpp:84] Creating Layer data
I0808 15:18:37.796880 24372 net.cpp:380] data -> data
I0808 15:18:37.796908 24372 net.cpp:380] data -> label
I0808 15:18:37.807082 24372 data_layer.cpp:45] output data size: 50,3,227,227
I0808 15:18:37.875212 24372 net.cpp:122] Setting up data
I0808 15:18:37.875246 24372 net.cpp:129] Top shape: 50 3 227 227 (7729350)
I0808 15:18:37.875253 24372 net.cpp:129] Top shape: 50 (50)
I0808 15:18:37.875258 24372 net.cpp:137] Memory required for data: 30917600
I0808 15:18:37.875267 24372 layer_factory.hpp:77] Creating layer label_data_1_split
I0808 15:18:37.875286 24372 net.cpp:84] Creating Layer label_data_1_split
I0808 15:18:37.875293 24372 net.cpp:406] label_data_1_split <- label
I0808 15:18:37.875303 24372 net.cpp:380] label_data_1_split -> label_data_1_split_0
I0808 15:18:37.875313 24372 net.cpp:380] label_data_1_split -> label_data_1_split_1
I0808 15:18:37.875353 24372 net.cpp:122] Setting up label_data_1_split
I0808 15:18:37.875362 24372 net.cpp:129] Top shape: 50 (50)
I0808 15:18:37.875368 24372 net.cpp:129] Top shape: 50 (50)
I0808 15:18:37.875378 24372 net.cpp:137] Memory required for data: 30918000
I0808 15:18:37.875393 24372 layer_factory.hpp:77] Creating layer data/bn
I0808 15:18:37.875402 24372 net.cpp:84] Creating Layer data/bn
I0808 15:18:37.875409 24372 net.cpp:406] data/bn <- data
I0808 15:18:37.875416 24372 net.cpp:380] data/bn -> data/bn
I0808 15:18:37.875602 24372 net.cpp:122] Setting up data/bn
I0808 15:18:37.875612 24372 net.cpp:129] Top shape: 50 3 227 227 (7729350)
I0808 15:18:37.875617 24372 net.cpp:137] Memory required for data: 61835400
I0808 15:18:37.875628 24372 layer_factory.hpp:77] Creating layer data/scale
I0808 15:18:37.875636 24372 net.cpp:84] Creating Layer data/scale
I0808 15:18:37.875643 24372 net.cpp:406] data/scale <- data/bn
I0808 15:18:37.875649 24372 net.cpp:380] data/scale -> data/scale
I0808 15:18:37.875684 24372 layer_factory.hpp:77] Creating layer data/scale
I0808 15:18:37.878201 24372 net.cpp:122] Setting up data/scale
I0808 15:18:37.878219 24372 net.cpp:129] Top shape: 50 3 227 227 (7729350)
I0808 15:18:37.878226 24372 net.cpp:137] Memory required for data: 92752800
I0808 15:18:37.878234 24372 layer_factory.hpp:77] Creating layer conv1
I0808 15:18:37.878245 24372 net.cpp:84] Creating Layer conv1
I0808 15:18:37.878252 24372 net.cpp:406] conv1 <- data/scale
I0808 15:18:37.878259 24372 net.cpp:380] conv1 -> conv1
I0808 15:18:37.879307 24372 net.cpp:122] Setting up conv1
I0808 15:18:37.879323 24372 net.cpp:129] Top shape: 50 96 55 55 (14520000)
I0808 15:18:37.879328 24372 net.cpp:137] Memory required for data: 150832800
I0808 15:18:37.879335 24372 layer_factory.hpp:77] Creating layer conv1/bn
I0808 15:18:37.879343 24372 net.cpp:84] Creating Layer conv1/bn
I0808 15:18:37.879350 24372 net.cpp:406] conv1/bn <- conv1
I0808 15:18:37.879357 24372 net.cpp:380] conv1/bn -> conv1/bn
I0808 15:18:37.879739 24372 net.cpp:122] Setting up conv1/bn
I0808 15:18:37.879751 24372 net.cpp:129] Top shape: 50 96 55 55 (14520000)
I0808 15:18:37.879757 24372 net.cpp:137] Memory required for data: 208912800
I0808 15:18:37.879773 24372 layer_factory.hpp:77] Creating layer relu1
I0808 15:18:37.879781 24372 net.cpp:84] Creating Layer relu1
I0808 15:18:37.879788 24372 net.cpp:406] relu1 <- conv1/bn
I0808 15:18:37.879796 24372 net.cpp:380] relu1 -> norm1
I0808 15:18:37.879928 24372 net.cpp:122] Setting up relu1
I0808 15:18:37.879940 24372 net.cpp:129] Top shape: 50 96 55 55 (14520000)
I0808 15:18:37.879945 24372 net.cpp:137] Memory required for data: 266992800
I0808 15:18:37.879950 24372 layer_factory.hpp:77] Creating layer pool1
I0808 15:18:37.879956 24372 net.cpp:84] Creating Layer pool1
I0808 15:18:37.879961 24372 net.cpp:406] pool1 <- norm1
I0808 15:18:37.879967 24372 net.cpp:380] pool1 -> pool1
I0808 15:18:37.879997 24372 net.cpp:122] Setting up pool1
I0808 15:18:37.880005 24372 net.cpp:129] Top shape: 50 96 27 27 (3499200)
I0808 15:18:37.880010 24372 net.cpp:137] Memory required for data: 280989600
I0808 15:18:37.880015 24372 layer_factory.hpp:77] Creating layer conv2
I0808 15:18:37.880024 24372 net.cpp:84] Creating Layer conv2
I0808 15:18:37.880029 24372 net.cpp:406] conv2 <- pool1
I0808 15:18:37.880036 24372 net.cpp:380] conv2 -> conv2
I0808 15:18:37.883698 24372 net.cpp:122] Setting up conv2
I0808 15:18:37.883723 24372 net.cpp:129] Top shape: 50 256 27 27 (9331200)
I0808 15:18:37.883728 24372 net.cpp:137] Memory required for data: 318314400
I0808 15:18:37.883736 24372 layer_factory.hpp:77] Creating layer conv2/bn
I0808 15:18:37.883747 24372 net.cpp:84] Creating Layer conv2/bn
I0808 15:18:37.883754 24372 net.cpp:406] conv2/bn <- conv2
I0808 15:18:37.883761 24372 net.cpp:380] conv2/bn -> conv2/bn
I0808 15:18:37.883903 24372 net.cpp:122] Setting up conv2/bn
I0808 15:18:37.883913 24372 net.cpp:129] Top shape: 50 256 27 27 (9331200)
I0808 15:18:37.883918 24372 net.cpp:137] Memory required for data: 355639200
I0808 15:18:37.883924 24372 layer_factory.hpp:77] Creating layer relu2
I0808 15:18:37.883930 24372 net.cpp:84] Creating Layer relu2
I0808 15:18:37.883936 24372 net.cpp:406] relu2 <- conv2/bn
I0808 15:18:37.883942 24372 net.cpp:380] relu2 -> norm2
I0808 15:18:37.884081 24372 net.cpp:122] Setting up relu2
I0808 15:18:37.884099 24372 net.cpp:129] Top shape: 50 256 27 27 (9331200)
I0808 15:18:37.884104 24372 net.cpp:137] Memory required for data: 392964000
I0808 15:18:37.884109 24372 layer_factory.hpp:77] Creating layer pool2
I0808 15:18:37.884114 24372 net.cpp:84] Creating Layer pool2
I0808 15:18:37.884119 24372 net.cpp:406] pool2 <- norm2
I0808 15:18:37.884126 24372 net.cpp:380] pool2 -> pool2
I0808 15:18:37.884157 24372 net.cpp:122] Setting up pool2
I0808 15:18:37.884166 24372 net.cpp:129] Top shape: 50 256 13 13 (2163200)
I0808 15:18:37.884171 24372 net.cpp:137] Memory required for data: 401616800
I0808 15:18:37.884176 24372 layer_factory.hpp:77] Creating layer conv3
I0808 15:18:37.884186 24372 net.cpp:84] Creating Layer conv3
I0808 15:18:37.884191 24372 net.cpp:406] conv3 <- pool2
I0808 15:18:37.884197 24372 net.cpp:380] conv3 -> conv3
I0808 15:18:37.891017 24372 net.cpp:122] Setting up conv3
I0808 15:18:37.891052 24372 net.cpp:129] Top shape: 50 384 13 13 (3244800)
I0808 15:18:37.891058 24372 net.cpp:137] Memory required for data: 414596000
I0808 15:18:37.891072 24372 layer_factory.hpp:77] Creating layer conv3/bn
I0808 15:18:37.891083 24372 net.cpp:84] Creating Layer conv3/bn
I0808 15:18:37.891089 24372 net.cpp:406] conv3/bn <- conv3
I0808 15:18:37.891096 24372 net.cpp:380] conv3/bn -> conv3/bn
I0808 15:18:37.891247 24372 net.cpp:122] Setting up conv3/bn
I0808 15:18:37.891258 24372 net.cpp:129] Top shape: 50 384 13 13 (3244800)
I0808 15:18:37.891263 24372 net.cpp:137] Memory required for data: 427575200
I0808 15:18:37.891270 24372 layer_factory.hpp:77] Creating layer relu3
I0808 15:18:37.891278 24372 net.cpp:84] Creating Layer relu3
I0808 15:18:37.891284 24372 net.cpp:406] relu3 <- conv3/bn
I0808 15:18:37.891290 24372 net.cpp:367] relu3 -> conv3/bn (in-place)
I0808 15:18:37.891679 24372 net.cpp:122] Setting up relu3
I0808 15:18:37.891693 24372 net.cpp:129] Top shape: 50 384 13 13 (3244800)
I0808 15:18:37.891700 24372 net.cpp:137] Memory required for data: 440554400
I0808 15:18:37.891706 24372 layer_factory.hpp:77] Creating layer conv4
I0808 15:18:37.891716 24372 net.cpp:84] Creating Layer conv4
I0808 15:18:37.891722 24372 net.cpp:406] conv4 <- conv3/bn
I0808 15:18:37.891731 24372 net.cpp:380] conv4 -> conv4
I0808 15:18:37.897770 24372 net.cpp:122] Setting up conv4
I0808 15:18:37.897797 24372 net.cpp:129] Top shape: 50 384 13 13 (3244800)
I0808 15:18:37.897804 24372 net.cpp:137] Memory required for data: 453533600
I0808 15:18:37.897814 24372 layer_factory.hpp:77] Creating layer conv4/bn
I0808 15:18:37.897827 24372 net.cpp:84] Creating Layer conv4/bn
I0808 15:18:37.897835 24372 net.cpp:406] conv4/bn <- conv4
I0808 15:18:37.897843 24372 net.cpp:380] conv4/bn -> conv4/bn
I0808 15:18:37.898000 24372 net.cpp:122] Setting up conv4/bn
I0808 15:18:37.898010 24372 net.cpp:129] Top shape: 50 384 13 13 (3244800)
I0808 15:18:37.898015 24372 net.cpp:137] Memory required for data: 466512800
I0808 15:18:37.898022 24372 layer_factory.hpp:77] Creating layer relu4
I0808 15:18:37.898030 24372 net.cpp:84] Creating Layer relu4
I0808 15:18:37.898035 24372 net.cpp:406] relu4 <- conv4/bn
I0808 15:18:37.898041 24372 net.cpp:367] relu4 -> conv4/bn (in-place)
I0808 15:18:37.898170 24372 net.cpp:122] Setting up relu4
I0808 15:18:37.898181 24372 net.cpp:129] Top shape: 50 384 13 13 (3244800)
I0808 15:18:37.898187 24372 net.cpp:137] Memory required for data: 479492000
I0808 15:18:37.898191 24372 layer_factory.hpp:77] Creating layer conv5
I0808 15:18:37.898201 24372 net.cpp:84] Creating Layer conv5
I0808 15:18:37.898208 24372 net.cpp:406] conv5 <- conv4/bn
I0808 15:18:37.898216 24372 net.cpp:380] conv5 -> conv5
I0808 15:18:37.903110 24372 net.cpp:122] Setting up conv5
I0808 15:18:37.903142 24372 net.cpp:129] Top shape: 50 256 13 13 (2163200)
I0808 15:18:37.903151 24372 net.cpp:137] Memory required for data: 488144800
I0808 15:18:37.903159 24372 layer_factory.hpp:77] Creating layer conv5/bn
I0808 15:18:37.903169 24372 net.cpp:84] Creating Layer conv5/bn
I0808 15:18:37.903177 24372 net.cpp:406] conv5/bn <- conv5
I0808 15:18:37.903193 24372 net.cpp:380] conv5/bn -> conv5/bn
I0808 15:18:37.903365 24372 net.cpp:122] Setting up conv5/bn
I0808 15:18:37.903385 24372 net.cpp:129] Top shape: 50 256 13 13 (2163200)
I0808 15:18:37.903393 24372 net.cpp:137] Memory required for data: 496797600
I0808 15:18:37.903401 24372 layer_factory.hpp:77] Creating layer relu5
I0808 15:18:37.903409 24372 net.cpp:84] Creating Layer relu5
I0808 15:18:37.903414 24372 net.cpp:406] relu5 <- conv5/bn
I0808 15:18:37.903420 24372 net.cpp:367] relu5 -> conv5/bn (in-place)
I0808 15:18:37.903573 24372 net.cpp:122] Setting up relu5
I0808 15:18:37.903584 24372 net.cpp:129] Top shape: 50 256 13 13 (2163200)
I0808 15:18:37.903589 24372 net.cpp:137] Memory required for data: 505450400
I0808 15:18:37.903594 24372 layer_factory.hpp:77] Creating layer pool5
I0808 15:18:37.903600 24372 net.cpp:84] Creating Layer pool5
I0808 15:18:37.903606 24372 net.cpp:406] pool5 <- conv5/bn
I0808 15:18:37.903614 24372 net.cpp:380] pool5 -> pool5
I0808 15:18:37.903650 24372 net.cpp:122] Setting up pool5
I0808 15:18:37.903659 24372 net.cpp:129] Top shape: 50 256 6 6 (460800)
I0808 15:18:37.903664 24372 net.cpp:137] Memory required for data: 507293600
I0808 15:18:37.903669 24372 layer_factory.hpp:77] Creating layer fc6
I0808 15:18:37.903677 24372 net.cpp:84] Creating Layer fc6
I0808 15:18:37.903683 24372 net.cpp:406] fc6 <- pool5
I0808 15:18:37.903690 24372 net.cpp:380] fc6 -> fc6
I0808 15:18:38.141094 24372 net.cpp:122] Setting up fc6
I0808 15:18:38.141131 24372 net.cpp:129] Top shape: 50 4096 (204800)
I0808 15:18:38.141139 24372 net.cpp:137] Memory required for data: 508112800
I0808 15:18:38.141149 24372 layer_factory.hpp:77] Creating layer fc6/bn
I0808 15:18:38.141160 24372 net.cpp:84] Creating Layer fc6/bn
I0808 15:18:38.141168 24372 net.cpp:406] fc6/bn <- fc6
I0808 15:18:38.141177 24372 net.cpp:380] fc6/bn -> fc6/bn
I0808 15:18:38.141327 24372 net.cpp:122] Setting up fc6/bn
I0808 15:18:38.141336 24372 net.cpp:129] Top shape: 50 4096 (204800)
I0808 15:18:38.141342 24372 net.cpp:137] Memory required for data: 508932000
I0808 15:18:38.141352 24372 layer_factory.hpp:77] Creating layer relu6
I0808 15:18:38.141360 24372 net.cpp:84] Creating Layer relu6
I0808 15:18:38.141366 24372 net.cpp:406] relu6 <- fc6/bn
I0808 15:18:38.141374 24372 net.cpp:367] relu6 -> fc6/bn (in-place)
I0808 15:18:38.141883 24372 net.cpp:122] Setting up relu6
I0808 15:18:38.141897 24372 net.cpp:129] Top shape: 50 4096 (204800)
I0808 15:18:38.141904 24372 net.cpp:137] Memory required for data: 509751200
I0808 15:18:38.141911 24372 layer_factory.hpp:77] Creating layer fc7
I0808 15:18:38.141919 24372 net.cpp:84] Creating Layer fc7
I0808 15:18:38.141927 24372 net.cpp:406] fc7 <- fc6/bn
I0808 15:18:38.141933 24372 net.cpp:380] fc7 -> fc7
I0808 15:18:38.248497 24372 net.cpp:122] Setting up fc7
I0808 15:18:38.248529 24372 net.cpp:129] Top shape: 50 4096 (204800)
I0808 15:18:38.248535 24372 net.cpp:137] Memory required for data: 510570400
I0808 15:18:38.248545 24372 layer_factory.hpp:77] Creating layer fc7/bn
I0808 15:18:38.248555 24372 net.cpp:84] Creating Layer fc7/bn
I0808 15:18:38.248563 24372 net.cpp:406] fc7/bn <- fc7
I0808 15:18:38.248571 24372 net.cpp:380] fc7/bn -> fc7/bn
I0808 15:18:38.248720 24372 net.cpp:122] Setting up fc7/bn
I0808 15:18:38.248729 24372 net.cpp:129] Top shape: 50 4096 (204800)
I0808 15:18:38.248735 24372 net.cpp:137] Memory required for data: 511389600
I0808 15:18:38.248749 24372 layer_factory.hpp:77] Creating layer relu7
I0808 15:18:38.248757 24372 net.cpp:84] Creating Layer relu7
I0808 15:18:38.248764 24372 net.cpp:406] relu7 <- fc7/bn
I0808 15:18:38.248770 24372 net.cpp:367] relu7 -> fc7/bn (in-place)
I0808 15:18:38.248934 24372 net.cpp:122] Setting up relu7
I0808 15:18:38.248944 24372 net.cpp:129] Top shape: 50 4096 (204800)
I0808 15:18:38.248950 24372 net.cpp:137] Memory required for data: 512208800
I0808 15:18:38.248955 24372 layer_factory.hpp:77] Creating layer fc8
I0808 15:18:38.248961 24372 net.cpp:84] Creating Layer fc8
I0808 15:18:38.248966 24372 net.cpp:406] fc8 <- fc7/bn
I0808 15:18:38.248978 24372 net.cpp:380] fc8 -> fc8
I0808 15:18:38.275061 24372 net.cpp:122] Setting up fc8
I0808 15:18:38.275094 24372 net.cpp:129] Top shape: 50 1000 (50000)
I0808 15:18:38.275099 24372 net.cpp:137] Memory required for data: 512408800
I0808 15:18:38.275108 24372 layer_factory.hpp:77] Creating layer fc8_fc8_0_split
I0808 15:18:38.275120 24372 net.cpp:84] Creating Layer fc8_fc8_0_split
I0808 15:18:38.275125 24372 net.cpp:406] fc8_fc8_0_split <- fc8
I0808 15:18:38.275135 24372 net.cpp:380] fc8_fc8_0_split -> fc8_fc8_0_split_0
I0808 15:18:38.275147 24372 net.cpp:380] fc8_fc8_0_split -> fc8_fc8_0_split_1
I0808 15:18:38.275189 24372 net.cpp:122] Setting up fc8_fc8_0_split
I0808 15:18:38.275197 24372 net.cpp:129] Top shape: 50 1000 (50000)
I0808 15:18:38.275203 24372 net.cpp:129] Top shape: 50 1000 (50000)
I0808 15:18:38.275207 24372 net.cpp:137] Memory required for data: 512808800
I0808 15:18:38.275213 24372 layer_factory.hpp:77] Creating layer accuracy
I0808 15:18:38.275219 24372 net.cpp:84] Creating Layer accuracy
I0808 15:18:38.275224 24372 net.cpp:406] accuracy <- fc8_fc8_0_split_0
I0808 15:18:38.275230 24372 net.cpp:406] accuracy <- label_data_1_split_0
I0808 15:18:38.275238 24372 net.cpp:380] accuracy -> accuracy
…
