…
I0801 17:44:00.831218  2287 net.cpp:294] The NetState phase (0) differed from the phase (1) specified by a rule in layer accuracy
I0801 17:44:00.831281  2287 net.cpp:51] Initializing net from parameters: 
name: "CIFAR10_full"
state {
  phase: TRAIN
  level: 0
  stage: ""
}
layer {
  name: "cifar"
  type: "Data"
  top: "data"
  top: "label"
  include {
    phase: TRAIN
  }
  transform_param {
    mean_file: "examples/cifar10/mean.binaryproto"
  }
  data_param {
    source: "examples/cifar10/cifar10_train_lmdb"
    batch_size: 100
    backend: LMDB
  }
}
layer {
  name: "conv1"
  type: "Convolution"
  bottom: "data"
  top: "conv1"
  param {
    lr_mult: 1
  }
  param {
    lr_mult: 2
  }
  convolution_param {
    num_output: 32
    pad: 2
    kernel_size: 5
    stride: 1
    weight_filler {
      type: "gaussian"
      std: 0.0001
    }
    bias_filler {
      type: "constant"
    }
  }
}
layer {
  name: "pool1"
  type: "Pooling"
  bottom: "conv1"
  top: "pool1"
  pooling_param {
    pool: MAX
    kernel_size: 3
    stride: 2
  }
}
layer {
  name: "relu1"
  type: "ReLU"
  bottom: "pool1"
  top: "pool1"
}
layer {
  name: "norm1"
  type: "LRN"
  bottom: "pool1"
  top: "norm1"
  lrn_param {
    local_size: 3
    alpha: 5e-05
    beta: 0.75
    norm_region: WITHIN_CHANNEL
  }
}
layer {
  name: "conv2"
  type: "Convolution"
  bottom: "norm1"
  top: "conv2"
  param {
    lr_mult: 1
  }
  param {
    lr_mult: 2
  }
  convolution_param {
    num_output: 32
    pad: 2
    kernel_size: 5
    stride: 1
    weight_filler {
      type: "gaussian"
      std: 0.01
    }
    bias_filler {
      type: "constant"
    }
  }
}
layer {
  name: "relu2"
  type: "ReLU"
  bottom: "conv2"
  top: "conv2"
}
layer {
  name: "pool2"
  type: "Pooling"
  bottom: "conv2"
  top: "pool2"
  pooling_param {
    pool: AVE
    kernel_size: 3
    stride: 2
  }
}
layer {
  name: "norm2"
  type: "LRN"
  bottom: "pool2"
  top: "norm2"
  lrn_param {
    local_size: 3
    alpha: 5e-05
    beta: 0.75
    norm_region: WITHIN_CHANNEL
  }
}
layer {
  name: "conv3"
  type: "Convolution"
  bottom: "norm2"
  top: "conv3"
  convolution_param {
    num_output: 64
    pad: 2
    kernel_size: 5
    stride: 1
    weight_filler {
      type: "gaussian"
      std: 0.01
    }
    bias_filler {
      type: "constant"
    }
  }
}
layer {
  name: "relu3"
  type: "ReLU"
  bottom: "conv3"
  top: "conv3"
}
layer {
  name: "pool3"
  type: "Pooling"
  bottom: "conv3"
  top: "pool3"
  pooling_param {
    pool: AVE
    kernel_size: 3
    stride: 2
  }
}
layer {
  name: "ip1"
  type: "InnerProduct"
  bottom: "pool3"
  top: "ip1"
  param {
    lr_mult: 1
    decay_mult: 250
  }
  param {
    lr_mult: 2
    decay_mult: 0
  }
  inner_product_param {
    num_output: 10
    weight_filler {
      type: "gaussian"
      std: 0.01
    }
    bias_filler {
      type: "constant"
    }
  }
}
layer {
  name: "loss"
  type: "SoftmaxWithLoss"
  bottom: "ip1"
  bottom: "label"
  top: "loss"
}
I0801 17:44:00.831322  2287 layer_factory.hpp:77] Creating layer cifar
I0801 17:44:00.831406  2287 db_lmdb.cpp:35] Opened lmdb examples/cifar10/cifar10_train_lmdb
I0801 17:44:00.831424  2287 net.cpp:84] Creating Layer cifar
I0801 17:44:00.831429  2287 net.cpp:380] cifar -> data
I0801 17:44:00.831444  2287 net.cpp:380] cifar -> label
I0801 17:44:00.831454  2287 data_transformer.cpp:25] Loading mean file from: examples/cifar10/mean.binaryproto
I0801 17:44:00.832605  2287 data_layer.cpp:45] output data size: 100,3,32,32
I0801 17:44:00.836149  2287 net.cpp:122] Setting up cifar
I0801 17:44:00.836166  2287 net.cpp:129] Top shape: 100 3 32 32 (307200)
I0801 17:44:00.836169  2287 net.cpp:129] Top shape: 100 (100)
I0801 17:44:00.836171  2287 net.cpp:137] Memory required for data: 1229200
I0801 17:44:00.836180  2287 layer_factory.hpp:77] Creating layer conv1
I0801 17:44:00.836199  2287 net.cpp:84] Creating Layer conv1
I0801 17:44:00.836205  2287 net.cpp:406] conv1 <- data
I0801 17:44:00.836220  2287 net.cpp:380] conv1 -> conv1
I0801 17:44:01.144029  2287 net.cpp:122] Setting up conv1
I0801 17:44:01.144049  2287 net.cpp:129] Top shape: 100 32 32 32 (3276800)
I0801 17:44:01.144052  2287 net.cpp:137] Memory required for data: 14336400
I0801 17:44:01.144065  2287 layer_factory.hpp:77] Creating layer pool1
I0801 17:44:01.144074  2287 net.cpp:84] Creating Layer pool1
I0801 17:44:01.144078  2287 net.cpp:406] pool1 <- conv1
I0801 17:44:01.144081  2287 net.cpp:380] pool1 -> pool1
I0801 17:44:01.144124  2287 net.cpp:122] Setting up pool1
I0801 17:44:01.144127  2287 net.cpp:129] Top shape: 100 32 16 16 (819200)
I0801 17:44:01.144129  2287 net.cpp:137] Memory required for data: 17613200
I0801 17:44:01.144131  2287 layer_factory.hpp:77] Creating layer relu1
I0801 17:44:01.144135  2287 net.cpp:84] Creating Layer relu1
I0801 17:44:01.144137  2287 net.cpp:406] relu1 <- pool1
I0801 17:44:01.144140  2287 net.cpp:367] relu1 -> pool1 (in-place)
I0801 17:44:01.144479  2287 net.cpp:122] Setting up relu1
I0801 17:44:01.144487  2287 net.cpp:129] Top shape: 100 32 16 16 (819200)
I0801 17:44:01.144490  2287 net.cpp:137] Memory required for data: 20890000
I0801 17:44:01.144491  2287 layer_factory.hpp:77] Creating layer norm1
I0801 17:44:01.144498  2287 net.cpp:84] Creating Layer norm1
I0801 17:44:01.144501  2287 net.cpp:406] norm1 <- pool1
I0801 17:44:01.144505  2287 net.cpp:380] norm1 -> norm1
I0801 17:44:01.145037  2287 net.cpp:122] Setting up norm1
I0801 17:44:01.145045  2287 net.cpp:129] Top shape: 100 32 16 16 (819200)
I0801 17:44:01.145046  2287 net.cpp:137] Memory required for data: 24166800
I0801 17:44:01.145048  2287 layer_factory.hpp:77] Creating layer conv2
I0801 17:44:01.145054  2287 net.cpp:84] Creating Layer conv2
I0801 17:44:01.145057  2287 net.cpp:406] conv2 <- norm1
I0801 17:44:01.145061  2287 net.cpp:380] conv2 -> conv2
I0801 17:44:01.146559  2287 net.cpp:122] Setting up conv2
I0801 17:44:01.146569  2287 net.cpp:129] Top shape: 100 32 16 16 (819200)
I0801 17:44:01.146570  2287 net.cpp:137] Memory required for data: 27443600
I0801 17:44:01.146576  2287 layer_factory.hpp:77] Creating layer relu2
I0801 17:44:01.146581  2287 net.cpp:84] Creating Layer relu2
I0801 17:44:01.146584  2287 net.cpp:406] relu2 <- conv2
I0801 17:44:01.146586  2287 net.cpp:367] relu2 -> conv2 (in-place)
I0801 17:44:01.146699  2287 net.cpp:122] Setting up relu2
I0801 17:44:01.146705  2287 net.cpp:129] Top shape: 100 32 16 16 (819200)
I0801 17:44:01.146706  2287 net.cpp:137] Memory required for data: 30720400
I0801 17:44:01.146709  2287 layer_factory.hpp:77] Creating layer pool2
I0801 17:44:01.146713  2287 net.cpp:84] Creating Layer pool2
I0801 17:44:01.146715  2287 net.cpp:406] pool2 <- conv2
I0801 17:44:01.146718  2287 net.cpp:380] pool2 -> pool2
I0801 17:44:01.147035  2287 net.cpp:122] Setting up pool2
I0801 17:44:01.147042  2287 net.cpp:129] Top shape: 100 32 8 8 (204800)
I0801 17:44:01.147044  2287 net.cpp:137] Memory required for data: 31539600
I0801 17:44:01.147047  2287 layer_factory.hpp:77] Creating layer norm2
I0801 17:44:01.147052  2287 net.cpp:84] Creating Layer norm2
I0801 17:44:01.147054  2287 net.cpp:406] norm2 <- pool2
I0801 17:44:01.147058  2287 net.cpp:380] norm2 -> norm2
I0801 17:44:01.147236  2287 net.cpp:122] Setting up norm2
I0801 17:44:01.147243  2287 net.cpp:129] Top shape: 100 32 8 8 (204800)
I0801 17:44:01.147243  2287 net.cpp:137] Memory required for data: 32358800
I0801 17:44:01.147245  2287 layer_factory.hpp:77] Creating layer conv3
I0801 17:44:01.147264  2287 net.cpp:84] Creating Layer conv3
I0801 17:44:01.147267  2287 net.cpp:406] conv3 <- norm2
I0801 17:44:01.147271  2287 net.cpp:380] conv3 -> conv3
I0801 17:44:01.148268  2287 net.cpp:122] Setting up conv3
I0801 17:44:01.148275  2287 net.cpp:129] Top shape: 100 64 8 8 (409600)
I0801 17:44:01.148278  2287 net.cpp:137] Memory required for data: 33997200
I0801 17:44:01.148283  2287 layer_factory.hpp:77] Creating layer relu3
I0801 17:44:01.148289  2287 net.cpp:84] Creating Layer relu3
I0801 17:44:01.148291  2287 net.cpp:406] relu3 <- conv3
I0801 17:44:01.148294  2287 net.cpp:367] relu3 -> conv3 (in-place)
I0801 17:44:01.148404  2287 net.cpp:122] Setting up relu3
I0801 17:44:01.148411  2287 net.cpp:129] Top shape: 100 64 8 8 (409600)
I0801 17:44:01.148411  2287 net.cpp:137] Memory required for data: 35635600
I0801 17:44:01.148413  2287 layer_factory.hpp:77] Creating layer pool3
I0801 17:44:01.148416  2287 net.cpp:84] Creating Layer pool3
I0801 17:44:01.148419  2287 net.cpp:406] pool3 <- conv3
I0801 17:44:01.148422  2287 net.cpp:380] pool3 -> pool3
I0801 17:44:01.148543  2287 net.cpp:122] Setting up pool3
I0801 17:44:01.148548  2287 net.cpp:129] Top shape: 100 64 4 4 (102400)
I0801 17:44:01.148550  2287 net.cpp:137] Memory required for data: 36045200
I0801 17:44:01.148551  2287 layer_factory.hpp:77] Creating layer ip1
I0801 17:44:01.148556  2287 net.cpp:84] Creating Layer ip1
I0801 17:44:01.148560  2287 net.cpp:406] ip1 <- pool3
I0801 17:44:01.148562  2287 net.cpp:380] ip1 -> ip1
I0801 17:44:01.149170  2287 net.cpp:122] Setting up ip1
I0801 17:44:01.149178  2287 net.cpp:129] Top shape: 100 10 (1000)
I0801 17:44:01.149180  2287 net.cpp:137] Memory required for data: 36049200
I0801 17:44:01.149184  2287 layer_factory.hpp:77] Creating layer loss
I0801 17:44:01.149189  2287 net.cpp:84] Creating Layer loss
I0801 17:44:01.149193  2287 net.cpp:406] loss <- ip1
I0801 17:44:01.149196  2287 net.cpp:406] loss <- label
I0801 17:44:01.149200  2287 net.cpp:380] loss -> loss
I0801 17:44:01.149209  2287 layer_factory.hpp:77] Creating layer loss
…
I0801 17:44:01.149778  2287 solver.cpp:172] Creating test net (#0) specified by net file: examples/cifar10/cifar10_full_train_test.prototxt
I0801 17:44:01.149793  2287 net.cpp:294] The NetState phase (1) differed from the phase (0) specified by a rule in layer cifar
I0801 17:44:01.149859  2287 net.cpp:51] Initializing net from parameters: 
name: "CIFAR10_full"
state {
  phase: TEST
}
layer {
  name: "cifar"
  type: "Data"
  top: "data"
  top: "label"
  include {
    phase: TEST
  }
  transform_param {
    mean_file: "examples/cifar10/mean.binaryproto"
  }
  data_param {
    source: "examples/cifar10/cifar10_test_lmdb"
    batch_size: 100
    backend: LMDB
  }
}
layer {
  name: "conv1"
  type: "Convolution"
  bottom: "data"
  top: "conv1"
  param {
    lr_mult: 1
  }
  param {
    lr_mult: 2
  }
  convolution_param {
    num_output: 32
    pad: 2
    kernel_size: 5
    stride: 1
    weight_filler {
      type: "gaussian"
      std: 0.0001
    }
    bias_filler {
      type: "constant"
    }
  }
}
layer {
  name: "pool1"
  type: "Pooling"
  bottom: "conv1"
  top: "pool1"
  pooling_param {
    pool: MAX
    kernel_size: 3
    stride: 2
  }
}
layer {
  name: "relu1"
  type: "ReLU"
  bottom: "pool1"
  top: "pool1"
}
layer {
  name: "norm1"
  type: "LRN"
  bottom: "pool1"
  top: "norm1"
  lrn_param {
    local_size: 3
    alpha: 5e-05
    beta: 0.75
    norm_region: WITHIN_CHANNEL
  }
}
layer {
  name: "conv2"
  type: "Convolution"
  bottom: "norm1"
  top: "conv2"
  param {
    lr_mult: 1
  }
  param {
    lr_mult: 2
  }
  convolution_param {
    num_output: 32
    pad: 2
    kernel_size: 5
    stride: 1
    weight_filler {
      type: "gaussian"
      std: 0.01
    }
    bias_filler {
      type: "constant"
    }
  }
}
layer {
  name: "relu2"
  type: "ReLU"
  bottom: "conv2"
  top: "conv2"
}
layer {
  name: "pool2"
  type: "Pooling"
  bottom: "conv2"
  top: "pool2"
  pooling_param {
    pool: AVE
    kernel_size: 3
    stride: 2
  }
}
layer {
  name: "norm2"
  type: "LRN"
  bottom: "pool2"
  top: "norm2"
  lrn_param {
    local_size: 3
    alpha: 5e-05
    beta: 0.75
    norm_region: WITHIN_CHANNEL
  }
}
layer {
  name: "conv3"
  type: "Convolution"
  bottom: "norm2"
  top: "conv3"
  convolution_param {
    num_output: 64
    pad: 2
    kernel_size: 5
    stride: 1
    weight_filler {
      type: "gaussian"
      std: 0.01
    }
    bias_filler {
      type: "constant"
    }
  }
}
layer {
  name: "relu3"
  type: "ReLU"
  bottom: "conv3"
  top: "conv3"
}
layer {
  name: "pool3"
  type: "Pooling"
  bottom: "conv3"
  top: "pool3"
  pooling_param {
    pool: AVE
    kernel_size: 3
    stride: 2
  }
}
layer {
  name: "ip1"
  type: "InnerProduct"
  bottom: "pool3"
  top: "ip1"
  param {
    lr_mult: 1
    decay_mult: 250
  }
  param {
    lr_mult: 2
    decay_mult: 0
  }
  inner_product_param {
    num_output: 10
    weight_filler {
      type: "gaussian"
      std: 0.01
    }
    bias_filler {
      type: "constant"
    }
  }
}
layer {
  name: "accuracy"
  type: "Accuracy"
  bottom: "ip1"
  bottom: "label"
  top: "accuracy"
  include {
    phase: TEST
  }
}
layer {
  name: "loss"
  type: "SoftmaxWithLoss"
  bottom: "ip1"
  bottom: "label"
  top: "loss"
}
I0801 17:44:01.149914  2287 layer_factory.hpp:77] Creating layer cifar
I0801 17:44:01.149966  2287 db_lmdb.cpp:35] Opened lmdb examples/cifar10/cifar10_test_lmdb
I0801 17:44:01.149976  2287 net.cpp:84] Creating Layer cifar
I0801 17:44:01.149981  2287 net.cpp:380] cifar -> data
I0801 17:44:01.149984  2287 net.cpp:380] cifar -> label
I0801 17:44:01.149989  2287 data_transformer.cpp:25] Loading mean file from: examples/cifar10/mean.binaryproto
I0801 17:44:01.150099  2287 data_layer.cpp:45] output data size: 100,3,32,32
I0801 17:44:01.153715  2287 net.cpp:122] Setting up cifar
I0801 17:44:01.153731  2287 net.cpp:129] Top shape: 100 3 32 32 (307200)
I0801 17:44:01.153734  2287 net.cpp:129] Top shape: 100 (100)
I0801 17:44:01.153736  2287 net.cpp:137] Memory required for data: 1229200
I0801 17:44:01.153743  2287 layer_factory.hpp:77] Creating layer label_cifar_1_split
I0801 17:44:01.153753  2287 net.cpp:84] Creating Layer label_cifar_1_split
I0801 17:44:01.153775  2287 net.cpp:406] label_cifar_1_split <- label
I0801 17:44:01.153787  2287 net.cpp:380] label_cifar_1_split -> label_cifar_1_split_0
I0801 17:44:01.153800  2287 net.cpp:380] label_cifar_1_split -> label_cifar_1_split_1
I0801 17:44:01.153844  2287 net.cpp:122] Setting up label_cifar_1_split
I0801 17:44:01.153854  2287 net.cpp:129] Top shape: 100 (100)
I0801 17:44:01.153861  2287 net.cpp:129] Top shape: 100 (100)
I0801 17:44:01.153873  2287 net.cpp:137] Memory required for data: 1230000
I0801 17:44:01.153887  2287 layer_factory.hpp:77] Creating layer conv1
I0801 17:44:01.153900  2287 net.cpp:84] Creating Layer conv1
I0801 17:44:01.153908  2287 net.cpp:406] conv1 <- data
I0801 17:44:01.153918  2287 net.cpp:380] conv1 -> conv1
I0801 17:44:01.154948  2287 net.cpp:122] Setting up conv1
I0801 17:44:01.154969  2287 net.cpp:129] Top shape: 100 32 32 32 (3276800)
I0801 17:44:01.154978  2287 net.cpp:137] Memory required for data: 14337200
I0801 17:44:01.154990  2287 layer_factory.hpp:77] Creating layer pool1
I0801 17:44:01.155002  2287 net.cpp:84] Creating Layer pool1
I0801 17:44:01.155010  2287 net.cpp:406] pool1 <- conv1
I0801 17:44:01.155019  2287 net.cpp:380] pool1 -> pool1
I0801 17:44:01.155148  2287 net.cpp:122] Setting up pool1
I0801 17:44:01.155158  2287 net.cpp:129] Top shape: 100 32 16 16 (819200)
I0801 17:44:01.155164  2287 net.cpp:137] Memory required for data: 17614000
I0801 17:44:01.155171  2287 layer_factory.hpp:77] Creating layer relu1
I0801 17:44:01.155179  2287 net.cpp:84] Creating Layer relu1
I0801 17:44:01.155186  2287 net.cpp:406] relu1 <- pool1
I0801 17:44:01.155195  2287 net.cpp:367] relu1 -> pool1 (in-place)
I0801 17:44:01.155328  2287 net.cpp:122] Setting up relu1
I0801 17:44:01.155339  2287 net.cpp:129] Top shape: 100 32 16 16 (819200)
I0801 17:44:01.155345  2287 net.cpp:137] Memory required for data: 20890800
I0801 17:44:01.155352  2287 layer_factory.hpp:77] Creating layer norm1
I0801 17:44:01.155362  2287 net.cpp:84] Creating Layer norm1
I0801 17:44:01.155370  2287 net.cpp:406] norm1 <- pool1
I0801 17:44:01.155378  2287 net.cpp:380] norm1 -> norm1
I0801 17:44:01.155973  2287 net.cpp:122] Setting up norm1
I0801 17:44:01.155989  2287 net.cpp:129] Top shape: 100 32 16 16 (819200)
I0801 17:44:01.155997  2287 net.cpp:137] Memory required for data: 24167600
I0801 17:44:01.156003  2287 layer_factory.hpp:77] Creating layer conv2
I0801 17:44:01.156014  2287 net.cpp:84] Creating Layer conv2
I0801 17:44:01.156023  2287 net.cpp:406] conv2 <- norm1
I0801 17:44:01.156031  2287 net.cpp:380] conv2 -> conv2
I0801 17:44:01.157142  2287 net.cpp:122] Setting up conv2
I0801 17:44:01.157160  2287 net.cpp:129] Top shape: 100 32 16 16 (819200)
I0801 17:44:01.157167  2287 net.cpp:137] Memory required for data: 27444400
I0801 17:44:01.157178  2287 layer_factory.hpp:77] Creating layer relu2
I0801 17:44:01.157186  2287 net.cpp:84] Creating Layer relu2
I0801 17:44:01.157194  2287 net.cpp:406] relu2 <- conv2
I0801 17:44:01.157205  2287 net.cpp:367] relu2 -> conv2 (in-place)
I0801 17:44:01.157560  2287 net.cpp:122] Setting up relu2
I0801 17:44:01.157575  2287 net.cpp:129] Top shape: 100 32 16 16 (819200)
I0801 17:44:01.157583  2287 net.cpp:137] Memory required for data: 30721200
I0801 17:44:01.157590  2287 layer_factory.hpp:77] Creating layer pool2
I0801 17:44:01.157603  2287 net.cpp:84] Creating Layer pool2
I0801 17:44:01.157609  2287 net.cpp:406] pool2 <- conv2
I0801 17:44:01.157618  2287 net.cpp:380] pool2 -> pool2
I0801 17:44:01.157755  2287 net.cpp:122] Setting up pool2
I0801 17:44:01.157768  2287 net.cpp:129] Top shape: 100 32 8 8 (204800)
I0801 17:44:01.157775  2287 net.cpp:137] Memory required for data: 31540400
I0801 17:44:01.157781  2287 layer_factory.hpp:77] Creating layer norm2
I0801 17:44:01.157791  2287 net.cpp:84] Creating Layer norm2
I0801 17:44:01.157802  2287 net.cpp:406] norm2 <- pool2
I0801 17:44:01.157810  2287 net.cpp:380] norm2 -> norm2
I0801 17:44:01.158002  2287 net.cpp:122] Setting up norm2
I0801 17:44:01.158016  2287 net.cpp:129] Top shape: 100 32 8 8 (204800)
I0801 17:44:01.158022  2287 net.cpp:137] Memory required for data: 32359600
I0801 17:44:01.158030  2287 layer_factory.hpp:77] Creating layer conv3
I0801 17:44:01.158041  2287 net.cpp:84] Creating Layer conv3
I0801 17:44:01.158047  2287 net.cpp:406] conv3 <- norm2
I0801 17:44:01.158056  2287 net.cpp:380] conv3 -> conv3
I0801 17:44:01.159087  2287 net.cpp:122] Setting up conv3
I0801 17:44:01.159103  2287 net.cpp:129] Top shape: 100 64 8 8 (409600)
I0801 17:44:01.159111  2287 net.cpp:137] Memory required for data: 33998000
I0801 17:44:01.159132  2287 layer_factory.hpp:77] Creating layer relu3
I0801 17:44:01.159142  2287 net.cpp:84] Creating Layer relu3
I0801 17:44:01.159148  2287 net.cpp:406] relu3 <- conv3
I0801 17:44:01.159157  2287 net.cpp:367] relu3 -> conv3 (in-place)
I0801 17:44:01.159478  2287 net.cpp:122] Setting up relu3
I0801 17:44:01.159493  2287 net.cpp:129] Top shape: 100 64 8 8 (409600)
I0801 17:44:01.159500  2287 net.cpp:137] Memory required for data: 35636400
I0801 17:44:01.159507  2287 layer_factory.hpp:77] Creating layer pool3
I0801 17:44:01.159517  2287 net.cpp:84] Creating Layer pool3
I0801 17:44:01.159523  2287 net.cpp:406] pool3 <- conv3
I0801 17:44:01.159531  2287 net.cpp:380] pool3 -> pool3
I0801 17:44:01.159667  2287 net.cpp:122] Setting up pool3
I0801 17:44:01.159679  2287 net.cpp:129] Top shape: 100 64 4 4 (102400)
I0801 17:44:01.159687  2287 net.cpp:137] Memory required for data: 36046000
I0801 17:44:01.159693  2287 layer_factory.hpp:77] Creating layer ip1
I0801 17:44:01.159703  2287 net.cpp:84] Creating Layer ip1
I0801 17:44:01.159709  2287 net.cpp:406] ip1 <- pool3
I0801 17:44:01.159718  2287 net.cpp:380] ip1 -> ip1
I0801 17:44:01.159858  2287 net.cpp:122] Setting up ip1
I0801 17:44:01.159868  2287 net.cpp:129] Top shape: 100 10 (1000)
I0801 17:44:01.159875  2287 net.cpp:137] Memory required for data: 36050000
I0801 17:44:01.159883  2287 layer_factory.hpp:77] Creating layer ip1_ip1_0_split
I0801 17:44:01.159893  2287 net.cpp:84] Creating Layer ip1_ip1_0_split
I0801 17:44:01.159901  2287 net.cpp:406] ip1_ip1_0_split <- ip1
I0801 17:44:01.159909  2287 net.cpp:380] ip1_ip1_0_split -> ip1_ip1_0_split_0
I0801 17:44:01.159919  2287 net.cpp:380] ip1_ip1_0_split -> ip1_ip1_0_split_1
I0801 17:44:01.159953  2287 net.cpp:122] Setting up ip1_ip1_0_split
I0801 17:44:01.159962  2287 net.cpp:129] Top shape: 100 10 (1000)
I0801 17:44:01.159970  2287 net.cpp:129] Top shape: 100 10 (1000)
I0801 17:44:01.159976  2287 net.cpp:137] Memory required for data: 36058000
I0801 17:44:01.159982  2287 layer_factory.hpp:77] Creating layer accuracy
I0801 17:44:01.159991  2287 net.cpp:84] Creating Layer accuracy
I0801 17:44:01.159998  2287 net.cpp:406] accuracy <- ip1_ip1_0_split_0
I0801 17:44:01.160006  2287 net.cpp:406] accuracy <- label_cifar_1_split_0
I0801 17:44:01.160013  2287 net.cpp:380] accuracy -> accuracy
…
