…
I0801 16:19:25.685442  2137 net.cpp:294] The NetState phase (0) differed from the phase (1) specified by a rule in layer accuracy
I0801 16:19:25.685545  2137 net.cpp:51] Initializing net from parameters: 
name: "CIFAR10_full"
state {
  phase: TRAIN
  level: 0
  stage: ""
}
layer {
  name: "cifar"
  type: "Data"
  top: "data"
  top: "label"
  include {
    phase: TRAIN
  }
  transform_param {
    mean_file: "/opt/caffe/examples/cifar10/mean.binaryproto"
  }
  data_param {
    source: "/opt/caffe/examples/cifar10/cifar10_train_lmdb"
    batch_size: 100
    backend: LMDB
  }
}
layer {
  name: "conv_s_1"
  type: "Convolution"
  bottom: "data"
  top: "conv_s_1"
  param {
    lr_mult: 1
  }
  param {
    lr_mult: 2
  }
  convolution_param {
    num_output: 32
    pad: 2
    kernel_size: 5
    stride: 1
    weight_filler {
      type: "gaussian"
      std: 0.0001
    }
    bias_filler {
      type: "constant"
    }
  }
}
layer {
  name: "pool_s_1"
  type: "Pooling"
  bottom: "conv_s_1"
  top: "pool_s_1"
  pooling_param {
    pool: MAX
    kernel_size: 3
    stride: 2
  }
}
layer {
  name: "relu_s_1"
  type: "ReLU"
  bottom: "pool_s_1"
  top: "pool_s_1"
}
layer {
  name: "norm_s_1"
  type: "LRN"
  bottom: "pool_s_1"
  top: "norm_s_1"
  lrn_param {
    local_size: 3
    alpha: 5e-05
    beta: 0.75
    norm_region: WITHIN_CHANNEL
  }
}
layer {
  name: "conv_s_2"
  type: "Convolution"
  bottom: "norm_s_1"
  top: "conv_s_2"
  param {
    lr_mult: 1
  }
  param {
    lr_mult: 2
  }
  convolution_param {
    num_output: 32
    pad: 2
    kernel_size: 5
    stride: 1
    weight_filler {
      type: "gaussian"
      std: 0.01
    }
    bias_filler {
      type: "constant"
    }
  }
}
layer {
  name: "relu_s_2"
  type: "ReLU"
  bottom: "conv_s_2"
  top: "conv_s_2"
}
layer {
  name: "pool_s_2"
  type: "Pooling"
  bottom: "conv_s_2"
  top: "pool_s_2"
  pooling_param {
    pool: AVE
    kernel_size: 3
    stride: 2
  }
}
layer {
  name: "norm_s_2"
  type: "LRN"
  bottom: "pool_s_2"
  top: "norm_s_2"
  lrn_param {
    local_size: 3
    alpha: 5e-05
    beta: 0.75
    norm_region: WITHIN_CHANNEL
  }
}
layer {
  name: "conv_s_3"
  type: "Convolution"
  bottom: "norm_s_2"
  top: "conv_s_3"
  param {
    lr_mult: 1
  }
  param {
    lr_mult: 2
  }
  convolution_param {
    num_output: 64
    pad: 2
    kernel_size: 5
    stride: 1
    weight_filler {
      type: "gaussian"
      std: 0.01
    }
    bias_filler {
      type: "constant"
    }
  }
}
layer {
  name: "relu_s_3"
  type: "ReLU"
  bottom: "conv_s_3"
  top: "conv_s_3"
}
layer {
  name: "pool_s_3"
  type: "Pooling"
  bottom: "conv_s_3"
  top: "pool_s_3"
  pooling_param {
    pool: AVE
    kernel_size: 3
    stride: 2
  }
}
layer {
  name: "ip_s_1"
  type: "InnerProduct"
  bottom: "pool_s_3"
  top: "ip_s_1"
  param {
    lr_mult: 1
    decay_mult: 250
  }
  param {
    lr_mult: 2
    decay_mult: 0
  }
  inner_product_param {
    num_output: 10
    weight_filler {
      type: "gaussian"
      std: 0.01
    }
    bias_filler {
      type: "constant"
    }
  }
}
layer {
  name: "conv_t_1"
  type: "Convolution"
  bottom: "data"
  top: "conv_t_1"
  param {
    lr_mult: 0
  }
  param {
    lr_mult: 0
  }
  convolution_param {
    num_output: 32
    pad: 2
    kernel_size: 5
    stride: 1
    weight_filler {
      type: "gaussian"
      std: 0.0001
    }
    bias_filler {
      type: "constant"
    }
  }
}
layer {
  name: "pool_t_1"
  type: "Pooling"
  bottom: "conv_t_1"
  top: "pool_t_1"
  pooling_param {
    pool: MAX
    kernel_size: 3
    stride: 2
  }
}
layer {
  name: "relu_t_1"
  type: "ReLU"
  bottom: "pool_t_1"
  top: "pool_t_1"
}
layer {
  name: "norm_t_1"
  type: "LRN"
  bottom: "pool_t_1"
  top: "norm_t_1"
  lrn_param {
    local_size: 3
    alpha: 5e-05
    beta: 0.75
    norm_region: WITHIN_CHANNEL
  }
}
layer {
  name: "conv_t_2"
  type: "Convolution"
  bottom: "norm_t_1"
  top: "conv_t_2"
  param {
    lr_mult: 0
  }
  param {
    lr_mult: 0
  }
  convolution_param {
    num_output: 32
    pad: 2
    kernel_size: 5
    stride: 1
    weight_filler {
      type: "gaussian"
      std: 0.01
    }
    bias_filler {
      type: "constant"
    }
  }
}
layer {
  name: "relu_t_2"
  type: "ReLU"
  bottom: "conv_t_2"
  top: "conv_t_2"
}
layer {
  name: "pool_t_2"
  type: "Pooling"
  bottom: "conv_t_2"
  top: "pool_t_2"
  pooling_param {
    pool: AVE
    kernel_size: 3
    stride: 2
  }
}
layer {
  name: "norm_t_2"
  type: "LRN"
  bottom: "pool_t_2"
  top: "norm_t_2"
  lrn_param {
    local_size: 3
    alpha: 5e-05
    beta: 0.75
    norm_region: WITHIN_CHANNEL
  }
}
layer {
  name: "conv_t_3"
  type: "Convolution"
  bottom: "norm_t_2"
  top: "conv_t_3"
  param {
    lr_mult: 0
  }
  param {
    lr_mult: 0
  }
  convolution_param {
    num_output: 64
    pad: 2
    kernel_size: 5
    stride: 1
    weight_filler {
      type: "gaussian"
      std: 0.01
    }
    bias_filler {
      type: "constant"
    }
  }
}
layer {
  name: "relu_t_3"
  type: "ReLU"
  bottom: "conv_t_3"
  top: "conv_t_3"
}
layer {
  name: "pool_t_3"
  type: "Pooling"
  bottom: "conv_t_3"
  top: "pool_t_3"
  pooling_param {
    pool: AVE
    kernel_size: 3
    stride: 2
  }
}
layer {
  name: "ip_t_1"
  type: "InnerProduct"
  bottom: "pool_t_3"
  top: "ip_t_1"
  param {
    lr_mult: 0
  }
  param {
    lr_mult: 0
  }
  inner_product_param {
    num_output: 10
    weight_filler {
      type: "gaussian"
      std: 0.01
    }
    bias_filler {
      type: "constant"
    }
  }
}
layer {
  name: "sm_s_1"
  type: "Softmax"
  bottom: "ip_s_1"
  top: "sm_s_1"
}
layer {
  name: "sm_t_1"
  type: "Softmax"
  bottom: "ip_t_1"
  top: "sm_t_1"
}
layer {
  name: "ts_loss"
  type: "SigmoidCrossEntropyLoss"
  bottom: "sm_s_1"
  bottom: "sm_t_1"
  top: "ts_loss"
  loss_weight: 0.7
}
layer {
  name: "loss"
  type: "SoftmaxWithLoss"
  bottom: "ip_s_1"
  bottom: "label"
  top: "loss"
  loss_weight: 0.3
}
I0801 16:19:25.685638  2137 layer_factory.hpp:77] Creating layer cifar
I0801 16:19:25.685722  2137 db_lmdb.cpp:35] Opened lmdb /opt/caffe/examples/cifar10/cifar10_train_lmdb
I0801 16:19:25.685740  2137 net.cpp:84] Creating Layer cifar
I0801 16:19:25.685746  2137 net.cpp:380] cifar -> data
I0801 16:19:25.685758  2137 net.cpp:380] cifar -> label
I0801 16:19:25.685766  2137 data_transformer.cpp:25] Loading mean file from: /opt/caffe/examples/cifar10/mean.binaryproto
I0801 16:19:25.686928  2137 data_layer.cpp:45] output data size: 100,3,32,32
I0801 16:19:25.690521  2137 net.cpp:122] Setting up cifar
I0801 16:19:25.690536  2137 net.cpp:129] Top shape: 100 3 32 32 (307200)
I0801 16:19:25.690539  2137 net.cpp:129] Top shape: 100 (100)
I0801 16:19:25.690541  2137 net.cpp:137] Memory required for data: 1229200
I0801 16:19:25.690549  2137 layer_factory.hpp:77] Creating layer data_cifar_0_split
I0801 16:19:25.690567  2137 net.cpp:84] Creating Layer data_cifar_0_split
I0801 16:19:25.690570  2137 net.cpp:406] data_cifar_0_split <- data
I0801 16:19:25.690578  2137 net.cpp:380] data_cifar_0_split -> data_cifar_0_split_0
I0801 16:19:25.690585  2137 net.cpp:380] data_cifar_0_split -> data_cifar_0_split_1
I0801 16:19:25.690629  2137 net.cpp:122] Setting up data_cifar_0_split
I0801 16:19:25.690631  2137 net.cpp:129] Top shape: 100 3 32 32 (307200)
I0801 16:19:25.690634  2137 net.cpp:129] Top shape: 100 3 32 32 (307200)
I0801 16:19:25.690635  2137 net.cpp:137] Memory required for data: 3686800
I0801 16:19:25.690637  2137 layer_factory.hpp:77] Creating layer conv_s_1
I0801 16:19:25.690649  2137 net.cpp:84] Creating Layer conv_s_1
I0801 16:19:25.690665  2137 net.cpp:406] conv_s_1 <- data_cifar_0_split_0
I0801 16:19:25.690670  2137 net.cpp:380] conv_s_1 -> conv_s_1
I0801 16:19:25.997757  2137 net.cpp:122] Setting up conv_s_1
I0801 16:19:25.997776  2137 net.cpp:129] Top shape: 100 32 32 32 (3276800)
I0801 16:19:25.997779  2137 net.cpp:137] Memory required for data: 16794000
I0801 16:19:25.997793  2137 layer_factory.hpp:77] Creating layer pool_s_1
I0801 16:19:25.997802  2137 net.cpp:84] Creating Layer pool_s_1
I0801 16:19:25.997803  2137 net.cpp:406] pool_s_1 <- conv_s_1
I0801 16:19:25.997807  2137 net.cpp:380] pool_s_1 -> pool_s_1
I0801 16:19:25.997844  2137 net.cpp:122] Setting up pool_s_1
I0801 16:19:25.997848  2137 net.cpp:129] Top shape: 100 32 16 16 (819200)
I0801 16:19:25.997849  2137 net.cpp:137] Memory required for data: 20070800
I0801 16:19:25.997850  2137 layer_factory.hpp:77] Creating layer relu_s_1
I0801 16:19:25.997855  2137 net.cpp:84] Creating Layer relu_s_1
I0801 16:19:25.997858  2137 net.cpp:406] relu_s_1 <- pool_s_1
I0801 16:19:25.997859  2137 net.cpp:367] relu_s_1 -> pool_s_1 (in-place)
I0801 16:19:25.998185  2137 net.cpp:122] Setting up relu_s_1
I0801 16:19:25.998193  2137 net.cpp:129] Top shape: 100 32 16 16 (819200)
I0801 16:19:25.998193  2137 net.cpp:137] Memory required for data: 23347600
I0801 16:19:25.998195  2137 layer_factory.hpp:77] Creating layer norm_s_1
I0801 16:19:25.998203  2137 net.cpp:84] Creating Layer norm_s_1
I0801 16:19:25.998204  2137 net.cpp:406] norm_s_1 <- pool_s_1
I0801 16:19:25.998208  2137 net.cpp:380] norm_s_1 -> norm_s_1
I0801 16:19:25.998730  2137 net.cpp:122] Setting up norm_s_1
I0801 16:19:25.998738  2137 net.cpp:129] Top shape: 100 32 16 16 (819200)
I0801 16:19:25.998739  2137 net.cpp:137] Memory required for data: 26624400
I0801 16:19:25.998741  2137 layer_factory.hpp:77] Creating layer conv_s_2
I0801 16:19:25.998749  2137 net.cpp:84] Creating Layer conv_s_2
I0801 16:19:25.998749  2137 net.cpp:406] conv_s_2 <- norm_s_1
I0801 16:19:25.998754  2137 net.cpp:380] conv_s_2 -> conv_s_2
I0801 16:19:26.000365  2137 net.cpp:122] Setting up conv_s_2
I0801 16:19:26.000373  2137 net.cpp:129] Top shape: 100 32 16 16 (819200)
I0801 16:19:26.000375  2137 net.cpp:137] Memory required for data: 29901200
I0801 16:19:26.000382  2137 layer_factory.hpp:77] Creating layer relu_s_2
I0801 16:19:26.000386  2137 net.cpp:84] Creating Layer relu_s_2
I0801 16:19:26.000387  2137 net.cpp:406] relu_s_2 <- conv_s_2
I0801 16:19:26.000391  2137 net.cpp:367] relu_s_2 -> conv_s_2 (in-place)
I0801 16:19:26.000500  2137 net.cpp:122] Setting up relu_s_2
I0801 16:19:26.000507  2137 net.cpp:129] Top shape: 100 32 16 16 (819200)
I0801 16:19:26.000509  2137 net.cpp:137] Memory required for data: 33178000
I0801 16:19:26.000510  2137 layer_factory.hpp:77] Creating layer pool_s_2
I0801 16:19:26.000515  2137 net.cpp:84] Creating Layer pool_s_2
I0801 16:19:26.000517  2137 net.cpp:406] pool_s_2 <- conv_s_2
I0801 16:19:26.000519  2137 net.cpp:380] pool_s_2 -> pool_s_2
I0801 16:19:26.000819  2137 net.cpp:122] Setting up pool_s_2
I0801 16:19:26.000825  2137 net.cpp:129] Top shape: 100 32 8 8 (204800)
I0801 16:19:26.000828  2137 net.cpp:137] Memory required for data: 33997200
I0801 16:19:26.000828  2137 layer_factory.hpp:77] Creating layer norm_s_2
I0801 16:19:26.000833  2137 net.cpp:84] Creating Layer norm_s_2
I0801 16:19:26.000835  2137 net.cpp:406] norm_s_2 <- pool_s_2
I0801 16:19:26.000838  2137 net.cpp:380] norm_s_2 -> norm_s_2
I0801 16:19:26.000998  2137 net.cpp:122] Setting up norm_s_2
I0801 16:19:26.001003  2137 net.cpp:129] Top shape: 100 32 8 8 (204800)
I0801 16:19:26.001004  2137 net.cpp:137] Memory required for data: 34816400
I0801 16:19:26.001006  2137 layer_factory.hpp:77] Creating layer conv_s_3
I0801 16:19:26.001011  2137 net.cpp:84] Creating Layer conv_s_3
I0801 16:19:26.001013  2137 net.cpp:406] conv_s_3 <- norm_s_2
I0801 16:19:26.001016  2137 net.cpp:380] conv_s_3 -> conv_s_3
I0801 16:19:26.002024  2137 net.cpp:122] Setting up conv_s_3
I0801 16:19:26.002032  2137 net.cpp:129] Top shape: 100 64 8 8 (409600)
I0801 16:19:26.002033  2137 net.cpp:137] Memory required for data: 36454800
I0801 16:19:26.002051  2137 layer_factory.hpp:77] Creating layer relu_s_3
I0801 16:19:26.002055  2137 net.cpp:84] Creating Layer relu_s_3
I0801 16:19:26.002058  2137 net.cpp:406] relu_s_3 <- conv_s_3
I0801 16:19:26.002060  2137 net.cpp:367] relu_s_3 -> conv_s_3 (in-place)
I0801 16:19:26.002167  2137 net.cpp:122] Setting up relu_s_3
I0801 16:19:26.002171  2137 net.cpp:129] Top shape: 100 64 8 8 (409600)
I0801 16:19:26.002172  2137 net.cpp:137] Memory required for data: 38093200
I0801 16:19:26.002174  2137 layer_factory.hpp:77] Creating layer pool_s_3
I0801 16:19:26.002177  2137 net.cpp:84] Creating Layer pool_s_3
I0801 16:19:26.002179  2137 net.cpp:406] pool_s_3 <- conv_s_3
I0801 16:19:26.002182  2137 net.cpp:380] pool_s_3 -> pool_s_3
I0801 16:19:26.002293  2137 net.cpp:122] Setting up pool_s_3
I0801 16:19:26.002297  2137 net.cpp:129] Top shape: 100 64 4 4 (102400)
I0801 16:19:26.002298  2137 net.cpp:137] Memory required for data: 38502800
I0801 16:19:26.002300  2137 layer_factory.hpp:77] Creating layer ip_s_1
I0801 16:19:26.002305  2137 net.cpp:84] Creating Layer ip_s_1
I0801 16:19:26.002306  2137 net.cpp:406] ip_s_1 <- pool_s_3
I0801 16:19:26.002310  2137 net.cpp:380] ip_s_1 -> ip_s_1
I0801 16:19:26.002900  2137 net.cpp:122] Setting up ip_s_1
I0801 16:19:26.002905  2137 net.cpp:129] Top shape: 100 10 (1000)
I0801 16:19:26.002907  2137 net.cpp:137] Memory required for data: 38506800
I0801 16:19:26.002912  2137 layer_factory.hpp:77] Creating layer ip_s_1_ip_s_1_0_split
I0801 16:19:26.002915  2137 net.cpp:84] Creating Layer ip_s_1_ip_s_1_0_split
I0801 16:19:26.002916  2137 net.cpp:406] ip_s_1_ip_s_1_0_split <- ip_s_1
I0801 16:19:26.002919  2137 net.cpp:380] ip_s_1_ip_s_1_0_split -> ip_s_1_ip_s_1_0_split_0
I0801 16:19:26.002923  2137 net.cpp:380] ip_s_1_ip_s_1_0_split -> ip_s_1_ip_s_1_0_split_1
I0801 16:19:26.002945  2137 net.cpp:122] Setting up ip_s_1_ip_s_1_0_split
I0801 16:19:26.002948  2137 net.cpp:129] Top shape: 100 10 (1000)
I0801 16:19:26.002950  2137 net.cpp:129] Top shape: 100 10 (1000)
I0801 16:19:26.002951  2137 net.cpp:137] Memory required for data: 38514800
I0801 16:19:26.002954  2137 layer_factory.hpp:77] Creating layer conv_t_1
I0801 16:19:26.002959  2137 net.cpp:84] Creating Layer conv_t_1
I0801 16:19:26.002960  2137 net.cpp:406] conv_t_1 <- data_cifar_0_split_1
I0801 16:19:26.002964  2137 net.cpp:380] conv_t_1 -> conv_t_1
I0801 16:19:26.003648  2137 net.cpp:122] Setting up conv_t_1
I0801 16:19:26.003654  2137 net.cpp:129] Top shape: 100 32 32 32 (3276800)
I0801 16:19:26.003656  2137 net.cpp:137] Memory required for data: 51622000
I0801 16:19:26.003662  2137 layer_factory.hpp:77] Creating layer pool_t_1
I0801 16:19:26.003667  2137 net.cpp:84] Creating Layer pool_t_1
I0801 16:19:26.003669  2137 net.cpp:406] pool_t_1 <- conv_t_1
I0801 16:19:26.003674  2137 net.cpp:380] pool_t_1 -> pool_t_1
I0801 16:19:26.003697  2137 net.cpp:122] Setting up pool_t_1
I0801 16:19:26.003700  2137 net.cpp:129] Top shape: 100 32 16 16 (819200)
I0801 16:19:26.003702  2137 net.cpp:137] Memory required for data: 54898800
I0801 16:19:26.003705  2137 layer_factory.hpp:77] Creating layer relu_t_1
I0801 16:19:26.003706  2137 net.cpp:84] Creating Layer relu_t_1
I0801 16:19:26.003708  2137 net.cpp:406] relu_t_1 <- pool_t_1
I0801 16:19:26.003711  2137 net.cpp:367] relu_t_1 -> pool_t_1 (in-place)
I0801 16:19:26.004005  2137 net.cpp:122] Setting up relu_t_1
I0801 16:19:26.004010  2137 net.cpp:129] Top shape: 100 32 16 16 (819200)
I0801 16:19:26.004012  2137 net.cpp:137] Memory required for data: 58175600
I0801 16:19:26.004014  2137 layer_factory.hpp:77] Creating layer norm_t_1
I0801 16:19:26.004019  2137 net.cpp:84] Creating Layer norm_t_1
I0801 16:19:26.004020  2137 net.cpp:406] norm_t_1 <- pool_t_1
I0801 16:19:26.004022  2137 net.cpp:380] norm_t_1 -> norm_t_1
I0801 16:19:26.004535  2137 net.cpp:122] Setting up norm_t_1
I0801 16:19:26.004541  2137 net.cpp:129] Top shape: 100 32 16 16 (819200)
I0801 16:19:26.004544  2137 net.cpp:137] Memory required for data: 61452400
I0801 16:19:26.004545  2137 layer_factory.hpp:77] Creating layer conv_t_2
I0801 16:19:26.004561  2137 net.cpp:84] Creating Layer conv_t_2
I0801 16:19:26.004565  2137 net.cpp:406] conv_t_2 <- norm_t_1
I0801 16:19:26.004567  2137 net.cpp:380] conv_t_2 -> conv_t_2
I0801 16:19:26.005399  2137 net.cpp:122] Setting up conv_t_2
I0801 16:19:26.005406  2137 net.cpp:129] Top shape: 100 32 16 16 (819200)
I0801 16:19:26.005408  2137 net.cpp:137] Memory required for data: 64729200
I0801 16:19:26.005411  2137 layer_factory.hpp:77] Creating layer relu_t_2
I0801 16:19:26.005414  2137 net.cpp:84] Creating Layer relu_t_2
I0801 16:19:26.005417  2137 net.cpp:406] relu_t_2 <- conv_t_2
I0801 16:19:26.005419  2137 net.cpp:367] relu_t_2 -> conv_t_2 (in-place)
I0801 16:19:26.005525  2137 net.cpp:122] Setting up relu_t_2
I0801 16:19:26.005529  2137 net.cpp:129] Top shape: 100 32 16 16 (819200)
I0801 16:19:26.005532  2137 net.cpp:137] Memory required for data: 68006000
I0801 16:19:26.005533  2137 layer_factory.hpp:77] Creating layer pool_t_2
I0801 16:19:26.005537  2137 net.cpp:84] Creating Layer pool_t_2
I0801 16:19:26.005537  2137 net.cpp:406] pool_t_2 <- conv_t_2
I0801 16:19:26.005540  2137 net.cpp:380] pool_t_2 -> pool_t_2
I0801 16:19:26.005841  2137 net.cpp:122] Setting up pool_t_2
I0801 16:19:26.005846  2137 net.cpp:129] Top shape: 100 32 8 8 (204800)
I0801 16:19:26.005848  2137 net.cpp:137] Memory required for data: 68825200
I0801 16:19:26.005851  2137 layer_factory.hpp:77] Creating layer norm_t_2
I0801 16:19:26.005854  2137 net.cpp:84] Creating Layer norm_t_2
I0801 16:19:26.005856  2137 net.cpp:406] norm_t_2 <- pool_t_2
I0801 16:19:26.005859  2137 net.cpp:380] norm_t_2 -> norm_t_2
I0801 16:19:26.006029  2137 net.cpp:122] Setting up norm_t_2
I0801 16:19:26.006034  2137 net.cpp:129] Top shape: 100 32 8 8 (204800)
I0801 16:19:26.006036  2137 net.cpp:137] Memory required for data: 69644400
I0801 16:19:26.006037  2137 layer_factory.hpp:77] Creating layer conv_t_3
I0801 16:19:26.006042  2137 net.cpp:84] Creating Layer conv_t_3
I0801 16:19:26.006044  2137 net.cpp:406] conv_t_3 <- norm_t_2
I0801 16:19:26.006047  2137 net.cpp:380] conv_t_3 -> conv_t_3
I0801 16:19:26.007009  2137 net.cpp:122] Setting up conv_t_3
I0801 16:19:26.007016  2137 net.cpp:129] Top shape: 100 64 8 8 (409600)
I0801 16:19:26.007019  2137 net.cpp:137] Memory required for data: 71282800
I0801 16:19:26.007022  2137 layer_factory.hpp:77] Creating layer relu_t_3
I0801 16:19:26.007025  2137 net.cpp:84] Creating Layer relu_t_3
I0801 16:19:26.007027  2137 net.cpp:406] relu_t_3 <- conv_t_3
I0801 16:19:26.007030  2137 net.cpp:367] relu_t_3 -> conv_t_3 (in-place)
I0801 16:19:26.007138  2137 net.cpp:122] Setting up relu_t_3
I0801 16:19:26.007143  2137 net.cpp:129] Top shape: 100 64 8 8 (409600)
I0801 16:19:26.007145  2137 net.cpp:137] Memory required for data: 72921200
I0801 16:19:26.007146  2137 layer_factory.hpp:77] Creating layer pool_t_3
I0801 16:19:26.007149  2137 net.cpp:84] Creating Layer pool_t_3
I0801 16:19:26.007151  2137 net.cpp:406] pool_t_3 <- conv_t_3
I0801 16:19:26.007154  2137 net.cpp:380] pool_t_3 -> pool_t_3
I0801 16:19:26.007457  2137 net.cpp:122] Setting up pool_t_3
I0801 16:19:26.007462  2137 net.cpp:129] Top shape: 100 64 4 4 (102400)
I0801 16:19:26.007464  2137 net.cpp:137] Memory required for data: 73330800
I0801 16:19:26.007467  2137 layer_factory.hpp:77] Creating layer ip_t_1
I0801 16:19:26.007470  2137 net.cpp:84] Creating Layer ip_t_1
I0801 16:19:26.007472  2137 net.cpp:406] ip_t_1 <- pool_t_3
I0801 16:19:26.007475  2137 net.cpp:380] ip_t_1 -> ip_t_1
I0801 16:19:26.007598  2137 net.cpp:122] Setting up ip_t_1
I0801 16:19:26.007601  2137 net.cpp:129] Top shape: 100 10 (1000)
I0801 16:19:26.007602  2137 net.cpp:137] Memory required for data: 73334800
I0801 16:19:26.007606  2137 layer_factory.hpp:77] Creating layer sm_s_1
I0801 16:19:26.007609  2137 net.cpp:84] Creating Layer sm_s_1
I0801 16:19:26.007611  2137 net.cpp:406] sm_s_1 <- ip_s_1_ip_s_1_0_split_0
I0801 16:19:26.007613  2137 net.cpp:380] sm_s_1 -> sm_s_1
I0801 16:19:26.007761  2137 net.cpp:122] Setting up sm_s_1
I0801 16:19:26.007766  2137 net.cpp:129] Top shape: 100 10 (1000)
I0801 16:19:26.007776  2137 net.cpp:137] Memory required for data: 73338800
I0801 16:19:26.007778  2137 layer_factory.hpp:77] Creating layer sm_t_1
I0801 16:19:26.007781  2137 net.cpp:84] Creating Layer sm_t_1
I0801 16:19:26.007783  2137 net.cpp:406] sm_t_1 <- ip_t_1
I0801 16:19:26.007786  2137 net.cpp:380] sm_t_1 -> sm_t_1
I0801 16:19:26.007925  2137 net.cpp:122] Setting up sm_t_1
I0801 16:19:26.007928  2137 net.cpp:129] Top shape: 100 10 (1000)
I0801 16:19:26.007930  2137 net.cpp:137] Memory required for data: 73342800
I0801 16:19:26.007932  2137 layer_factory.hpp:77] Creating layer ts_loss
I0801 16:19:26.007936  2137 net.cpp:84] Creating Layer ts_loss
I0801 16:19:26.007937  2137 net.cpp:406] ts_loss <- sm_s_1
I0801 16:19:26.007941  2137 net.cpp:406] ts_loss <- sm_t_1
I0801 16:19:26.007942  2137 net.cpp:380] ts_loss -> ts_loss
…
I0801 16:19:26.008482  2137 net.cpp:294] The NetState phase (1) differed from the phase (0) specified by a rule in layer cifar
I0801 16:19:26.008586  2137 net.cpp:51] Initializing net from parameters: 
name: "CIFAR10_full"
state {
  phase: TEST
}
layer {
  name: "cifar"
  type: "Data"
  top: "data"
  top: "label"
  include {
    phase: TEST
  }
  transform_param {
    mean_file: "/opt/caffe/examples/cifar10/mean.binaryproto"
  }
  data_param {
    source: "/opt/caffe/examples/cifar10/cifar10_test_lmdb"
    batch_size: 100
    backend: LMDB
  }
}
layer {
  name: "conv_s_1"
  type: "Convolution"
  bottom: "data"
  top: "conv_s_1"
  param {
    lr_mult: 1
  }
  param {
    lr_mult: 2
  }
  convolution_param {
    num_output: 32
    pad: 2
    kernel_size: 5
    stride: 1
    weight_filler {
      type: "gaussian"
      std: 0.0001
    }
    bias_filler {
      type: "constant"
    }
  }
}
layer {
  name: "pool_s_1"
  type: "Pooling"
  bottom: "conv_s_1"
  top: "pool_s_1"
  pooling_param {
    pool: MAX
    kernel_size: 3
    stride: 2
  }
}
layer {
  name: "relu_s_1"
  type: "ReLU"
  bottom: "pool_s_1"
  top: "pool_s_1"
}
layer {
  name: "norm_s_1"
  type: "LRN"
  bottom: "pool_s_1"
  top: "norm_s_1"
  lrn_param {
    local_size: 3
    alpha: 5e-05
    beta: 0.75
    norm_region: WITHIN_CHANNEL
  }
}
layer {
  name: "conv_s_2"
  type: "Convolution"
  bottom: "norm_s_1"
  top: "conv_s_2"
  param {
    lr_mult: 1
  }
  param {
    lr_mult: 2
  }
  convolution_param {
    num_output: 32
    pad: 2
    kernel_size: 5
    stride: 1
    weight_filler {
      type: "gaussian"
      std: 0.01
    }
    bias_filler {
      type: "constant"
    }
  }
}
layer {
  name: "relu_s_2"
  type: "ReLU"
  bottom: "conv_s_2"
  top: "conv_s_2"
}
layer {
  name: "pool_s_2"
  type: "Pooling"
  bottom: "conv_s_2"
  top: "pool_s_2"
  pooling_param {
    pool: AVE
    kernel_size: 3
    stride: 2
  }
}
layer {
  name: "norm_s_2"
  type: "LRN"
  bottom: "pool_s_2"
  top: "norm_s_2"
  lrn_param {
    local_size: 3
    alpha: 5e-05
    beta: 0.75
    norm_region: WITHIN_CHANNEL
  }
}
layer {
  name: "conv_s_3"
  type: "Convolution"
  bottom: "norm_s_2"
  top: "conv_s_3"
  param {
    lr_mult: 1
  }
  param {
    lr_mult: 2
  }
  convolution_param {
    num_output: 64
    pad: 2
    kernel_size: 5
    stride: 1
    weight_filler {
      type: "gaussian"
      std: 0.01
    }
    bias_filler {
      type: "constant"
    }
  }
}
layer {
  name: "relu_s_3"
  type: "ReLU"
  bottom: "conv_s_3"
  top: "conv_s_3"
}
layer {
  name: "pool_s_3"
  type: "Pooling"
  bottom: "conv_s_3"
  top: "pool_s_3"
  pooling_param {
    pool: AVE
    kernel_size: 3
    stride: 2
  }
}
layer {
  name: "ip_s_1"
  type: "InnerProduct"
  bottom: "pool_s_3"
  top: "ip_s_1"
  param {
    lr_mult: 1
    decay_mult: 250
  }
  param {
    lr_mult: 2
    decay_mult: 0
  }
  inner_product_param {
    num_output: 10
    weight_filler {
      type: "gaussian"
      std: 0.01
    }
    bias_filler {
      type: "constant"
    }
  }
}
layer {
  name: "conv_t_1"
  type: "Convolution"
  bottom: "data"
  top: "conv_t_1"
  param {
    lr_mult: 0
  }
  param {
    lr_mult: 0
  }
  convolution_param {
    num_output: 32
    pad: 2
    kernel_size: 5
    stride: 1
    weight_filler {
      type: "gaussian"
      std: 0.0001
    }
    bias_filler {
      type: "constant"
    }
  }
}
layer {
  name: "pool_t_1"
  type: "Pooling"
  bottom: "conv_t_1"
  top: "pool_t_1"
  pooling_param {
    pool: MAX
    kernel_size: 3
    stride: 2
  }
}
layer {
  name: "relu_t_1"
  type: "ReLU"
  bottom: "pool_t_1"
  top: "pool_t_1"
}
layer {
  name: "norm_t_1"
  type: "LRN"
  bottom: "pool_t_1"
  top: "norm_t_1"
  lrn_param {
    local_size: 3
    alpha: 5e-05
    beta: 0.75
    norm_region: WITHIN_CHANNEL
  }
}
layer {
  name: "conv_t_2"
  type: "Convolution"
  bottom: "norm_t_1"
  top: "conv_t_2"
  param {
    lr_mult: 0
  }
  param {
    lr_mult: 0
  }
  convolution_param {
    num_output: 32
    pad: 2
    kernel_size: 5
    stride: 1
    weight_filler {
      type: "gaussian"
      std: 0.01
    }
    bias_filler {
      type: "constant"
    }
  }
}
layer {
  name: "relu_t_2"
  type: "ReLU"
  bottom: "conv_t_2"
  top: "conv_t_2"
}
layer {
  name: "pool_t_2"
  type: "Pooling"
  bottom: "conv_t_2"
  top: "pool_t_2"
  pooling_param {
    pool: AVE
    kernel_size: 3
    stride: 2
  }
}
layer {
  name: "norm_t_2"
  type: "LRN"
  bottom: "pool_t_2"
  top: "norm_t_2"
  lrn_param {
    local_size: 3
    alpha: 5e-05
    beta: 0.75
    norm_region: WITHIN_CHANNEL
  }
}
layer {
  name: "conv_t_3"
  type: "Convolution"
  bottom: "norm_t_2"
  top: "conv_t_3"
  param {
    lr_mult: 0
  }
  param {
    lr_mult: 0
  }
  convolution_param {
    num_output: 64
    pad: 2
    kernel_size: 5
    stride: 1
    weight_filler {
      type: "gaussian"
      std: 0.01
    }
    bias_filler {
      type: "constant"
    }
  }
}
layer {
  name: "relu_t_3"
  type: "ReLU"
  bottom: "conv_t_3"
  top: "conv_t_3"
}
layer {
  name: "pool_t_3"
  type: "Pooling"
  bottom: "conv_t_3"
  top: "pool_t_3"
  pooling_param {
    pool: AVE
    kernel_size: 3
    stride: 2
  }
}
layer {
  name: "ip_t_1"
  type: "InnerProduct"
  bottom: "pool_t_3"
  top: "ip_t_1"
  param {
    lr_mult: 0
  }
  param {
    lr_mult: 0
  }
  inner_product_param {
    num_output: 10
    weight_filler {
      type: "gaussian"
      std: 0.01
    }
    bias_filler {
      type: "constant"
    }
  }
}
layer {
  name: "sm_s_1"
  type: "Softmax"
  bottom: "ip_s_1"
  top: "sm_s_1"
}
layer {
  name: "sm_t_1"
  type: "Softmax"
  bottom: "ip_t_1"
  top: "sm_t_1"
}
layer {
  name: "accuracy"
  type: "Accuracy"
  bottom: "ip_s_1"
  bottom: "label"
  top: "accuracy"
  include {
    phase: TEST
  }
}
layer {
  name: "ts_loss"
  type: "SigmoidCrossEntropyLoss"
  bottom: "sm_s_1"
  bottom: "sm_t_1"
  top: "ts_loss"
  loss_weight: 0.7
}
layer {
  name: "loss"
  type: "SoftmaxWithLoss"
  bottom: "ip_s_1"
  bottom: "label"
  top: "loss"
  loss_weight: 0.3
}
I0801 16:19:26.008656  2137 layer_factory.hpp:77] Creating layer cifar
I0801 16:19:26.008713  2137 db_lmdb.cpp:35] Opened lmdb /opt/caffe/examples/cifar10/cifar10_test_lmdb
I0801 16:19:26.008723  2137 net.cpp:84] Creating Layer cifar
I0801 16:19:26.008725  2137 net.cpp:380] cifar -> data
I0801 16:19:26.008730  2137 net.cpp:380] cifar -> label
I0801 16:19:26.008734  2137 data_transformer.cpp:25] Loading mean file from: /opt/caffe/examples/cifar10/mean.binaryproto
I0801 16:19:26.008837  2137 data_layer.cpp:45] output data size: 100,3,32,32
I0801 16:19:26.013341  2137 net.cpp:122] Setting up cifar
I0801 16:19:26.013382  2137 net.cpp:129] Top shape: 100 3 32 32 (307200)
I0801 16:19:26.013392  2137 net.cpp:129] Top shape: 100 (100)
I0801 16:19:26.013399  2137 net.cpp:137] Memory required for data: 1229200
I0801 16:19:26.013409  2137 layer_factory.hpp:77] Creating layer data_cifar_0_split
I0801 16:19:26.013425  2137 net.cpp:84] Creating Layer data_cifar_0_split
I0801 16:19:26.013434  2137 net.cpp:406] data_cifar_0_split <- data
I0801 16:19:26.013443  2137 net.cpp:380] data_cifar_0_split -> data_cifar_0_split_0
I0801 16:19:26.013455  2137 net.cpp:380] data_cifar_0_split -> data_cifar_0_split_1
I0801 16:19:26.013501  2137 net.cpp:122] Setting up data_cifar_0_split
I0801 16:19:26.013512  2137 net.cpp:129] Top shape: 100 3 32 32 (307200)
I0801 16:19:26.013520  2137 net.cpp:129] Top shape: 100 3 32 32 (307200)
I0801 16:19:26.013526  2137 net.cpp:137] Memory required for data: 3686800
I0801 16:19:26.013533  2137 layer_factory.hpp:77] Creating layer label_cifar_1_split
I0801 16:19:26.013547  2137 net.cpp:84] Creating Layer label_cifar_1_split
I0801 16:19:26.013562  2137 net.cpp:406] label_cifar_1_split <- label
I0801 16:19:26.013571  2137 net.cpp:380] label_cifar_1_split -> label_cifar_1_split_0
I0801 16:19:26.013581  2137 net.cpp:380] label_cifar_1_split -> label_cifar_1_split_1
I0801 16:19:26.013615  2137 net.cpp:122] Setting up label_cifar_1_split
I0801 16:19:26.013625  2137 net.cpp:129] Top shape: 100 (100)
I0801 16:19:26.013633  2137 net.cpp:129] Top shape: 100 (100)
I0801 16:19:26.013639  2137 net.cpp:137] Memory required for data: 3687600
I0801 16:19:26.013646  2137 layer_factory.hpp:77] Creating layer conv_s_1
I0801 16:19:26.013659  2137 net.cpp:84] Creating Layer conv_s_1
I0801 16:19:26.013666  2137 net.cpp:406] conv_s_1 <- data_cifar_0_split_0
I0801 16:19:26.013674  2137 net.cpp:380] conv_s_1 -> conv_s_1
I0801 16:19:26.014845  2137 net.cpp:122] Setting up conv_s_1
I0801 16:19:26.014864  2137 net.cpp:129] Top shape: 100 32 32 32 (3276800)
I0801 16:19:26.014873  2137 net.cpp:137] Memory required for data: 16794800
I0801 16:19:26.014886  2137 layer_factory.hpp:77] Creating layer pool_s_1
I0801 16:19:26.014897  2137 net.cpp:84] Creating Layer pool_s_1
I0801 16:19:26.014904  2137 net.cpp:406] pool_s_1 <- conv_s_1
I0801 16:19:26.014914  2137 net.cpp:380] pool_s_1 -> pool_s_1
I0801 16:19:26.014984  2137 net.cpp:122] Setting up pool_s_1
I0801 16:19:26.014994  2137 net.cpp:129] Top shape: 100 32 16 16 (819200)
I0801 16:19:26.015002  2137 net.cpp:137] Memory required for data: 20071600
I0801 16:19:26.015008  2137 layer_factory.hpp:77] Creating layer relu_s_1
I0801 16:19:26.015017  2137 net.cpp:84] Creating Layer relu_s_1
I0801 16:19:26.015023  2137 net.cpp:406] relu_s_1 <- pool_s_1
I0801 16:19:26.015033  2137 net.cpp:367] relu_s_1 -> pool_s_1 (in-place)
I0801 16:19:26.015161  2137 net.cpp:122] Setting up relu_s_1
I0801 16:19:26.015172  2137 net.cpp:129] Top shape: 100 32 16 16 (819200)
I0801 16:19:26.015179  2137 net.cpp:137] Memory required for data: 23348400
I0801 16:19:26.015185  2137 layer_factory.hpp:77] Creating layer norm_s_1
I0801 16:19:26.015195  2137 net.cpp:84] Creating Layer norm_s_1
I0801 16:19:26.015202  2137 net.cpp:406] norm_s_1 <- pool_s_1
I0801 16:19:26.015210  2137 net.cpp:380] norm_s_1 -> norm_s_1
I0801 16:19:26.015805  2137 net.cpp:122] Setting up norm_s_1
I0801 16:19:26.015822  2137 net.cpp:129] Top shape: 100 32 16 16 (819200)
I0801 16:19:26.015830  2137 net.cpp:137] Memory required for data: 26625200
I0801 16:19:26.015836  2137 layer_factory.hpp:77] Creating layer conv_s_2
I0801 16:19:26.015847  2137 net.cpp:84] Creating Layer conv_s_2
I0801 16:19:26.015856  2137 net.cpp:406] conv_s_2 <- norm_s_1
I0801 16:19:26.015864  2137 net.cpp:380] conv_s_2 -> conv_s_2
I0801 16:19:26.016926  2137 net.cpp:122] Setting up conv_s_2
I0801 16:19:26.016942  2137 net.cpp:129] Top shape: 100 32 16 16 (819200)
I0801 16:19:26.016950  2137 net.cpp:137] Memory required for data: 29902000
I0801 16:19:26.016960  2137 layer_factory.hpp:77] Creating layer relu_s_2
I0801 16:19:26.016970  2137 net.cpp:84] Creating Layer relu_s_2
I0801 16:19:26.016978  2137 net.cpp:406] relu_s_2 <- conv_s_2
I0801 16:19:26.016986  2137 net.cpp:367] relu_s_2 -> conv_s_2 (in-place)
I0801 16:19:26.017144  2137 net.cpp:122] Setting up relu_s_2
I0801 16:19:26.017158  2137 net.cpp:129] Top shape: 100 32 16 16 (819200)
I0801 16:19:26.017165  2137 net.cpp:137] Memory required for data: 33178800
I0801 16:19:26.017172  2137 layer_factory.hpp:77] Creating layer pool_s_2
I0801 16:19:26.017181  2137 net.cpp:84] Creating Layer pool_s_2
I0801 16:19:26.017187  2137 net.cpp:406] pool_s_2 <- conv_s_2
I0801 16:19:26.017195  2137 net.cpp:380] pool_s_2 -> pool_s_2
I0801 16:19:26.017526  2137 net.cpp:122] Setting up pool_s_2
I0801 16:19:26.017542  2137 net.cpp:129] Top shape: 100 32 8 8 (204800)
I0801 16:19:26.017549  2137 net.cpp:137] Memory required for data: 33998000
I0801 16:19:26.017556  2137 layer_factory.hpp:77] Creating layer norm_s_2
I0801 16:19:26.017565  2137 net.cpp:84] Creating Layer norm_s_2
I0801 16:19:26.017572  2137 net.cpp:406] norm_s_2 <- pool_s_2
I0801 16:19:26.017591  2137 net.cpp:380] norm_s_2 -> norm_s_2
I0801 16:19:26.017777  2137 net.cpp:122] Setting up norm_s_2
I0801 16:19:26.017789  2137 net.cpp:129] Top shape: 100 32 8 8 (204800)
I0801 16:19:26.017796  2137 net.cpp:137] Memory required for data: 34817200
I0801 16:19:26.017803  2137 layer_factory.hpp:77] Creating layer conv_s_3
I0801 16:19:26.017813  2137 net.cpp:84] Creating Layer conv_s_3
I0801 16:19:26.017822  2137 net.cpp:406] conv_s_3 <- norm_s_2
I0801 16:19:26.017829  2137 net.cpp:380] conv_s_3 -> conv_s_3
I0801 16:19:26.018832  2137 net.cpp:122] Setting up conv_s_3
I0801 16:19:26.018849  2137 net.cpp:129] Top shape: 100 64 8 8 (409600)
I0801 16:19:26.018857  2137 net.cpp:137] Memory required for data: 36455600
I0801 16:19:26.018868  2137 layer_factory.hpp:77] Creating layer relu_s_3
I0801 16:19:26.018877  2137 net.cpp:84] Creating Layer relu_s_3
I0801 16:19:26.018884  2137 net.cpp:406] relu_s_3 <- conv_s_3
I0801 16:19:26.018893  2137 net.cpp:367] relu_s_3 -> conv_s_3 (in-place)
I0801 16:19:26.019013  2137 net.cpp:122] Setting up relu_s_3
I0801 16:19:26.019024  2137 net.cpp:129] Top shape: 100 64 8 8 (409600)
I0801 16:19:26.019032  2137 net.cpp:137] Memory required for data: 38094000
I0801 16:19:26.019038  2137 layer_factory.hpp:77] Creating layer pool_s_3
I0801 16:19:26.019047  2137 net.cpp:84] Creating Layer pool_s_3
I0801 16:19:26.019053  2137 net.cpp:406] pool_s_3 <- conv_s_3
I0801 16:19:26.019062  2137 net.cpp:380] pool_s_3 -> pool_s_3
I0801 16:19:26.019384  2137 net.cpp:122] Setting up pool_s_3
I0801 16:19:26.019399  2137 net.cpp:129] Top shape: 100 64 4 4 (102400)
I0801 16:19:26.019407  2137 net.cpp:137] Memory required for data: 38503600
I0801 16:19:26.019413  2137 layer_factory.hpp:77] Creating layer ip_s_1
I0801 16:19:26.019423  2137 net.cpp:84] Creating Layer ip_s_1
I0801 16:19:26.019430  2137 net.cpp:406] ip_s_1 <- pool_s_3
I0801 16:19:26.019438  2137 net.cpp:380] ip_s_1 -> ip_s_1
I0801 16:19:26.019577  2137 net.cpp:122] Setting up ip_s_1
I0801 16:19:26.019587  2137 net.cpp:129] Top shape: 100 10 (1000)
I0801 16:19:26.019594  2137 net.cpp:137] Memory required for data: 38507600
I0801 16:19:26.019603  2137 layer_factory.hpp:77] Creating layer ip_s_1_ip_s_1_0_split
I0801 16:19:26.019611  2137 net.cpp:84] Creating Layer ip_s_1_ip_s_1_0_split
I0801 16:19:26.019618  2137 net.cpp:406] ip_s_1_ip_s_1_0_split <- ip_s_1
I0801 16:19:26.019626  2137 net.cpp:380] ip_s_1_ip_s_1_0_split -> ip_s_1_ip_s_1_0_split_0
I0801 16:19:26.019635  2137 net.cpp:380] ip_s_1_ip_s_1_0_split -> ip_s_1_ip_s_1_0_split_1
I0801 16:19:26.019646  2137 net.cpp:380] ip_s_1_ip_s_1_0_split -> ip_s_1_ip_s_1_0_split_2
I0801 16:19:26.019687  2137 net.cpp:122] Setting up ip_s_1_ip_s_1_0_split
I0801 16:19:26.019696  2137 net.cpp:129] Top shape: 100 10 (1000)
I0801 16:19:26.019703  2137 net.cpp:129] Top shape: 100 10 (1000)
I0801 16:19:26.019711  2137 net.cpp:129] Top shape: 100 10 (1000)
I0801 16:19:26.019716  2137 net.cpp:137] Memory required for data: 38519600
I0801 16:19:26.019723  2137 layer_factory.hpp:77] Creating layer conv_t_1
I0801 16:19:26.019735  2137 net.cpp:84] Creating Layer conv_t_1
I0801 16:19:26.019742  2137 net.cpp:406] conv_t_1 <- data_cifar_0_split_1
I0801 16:19:26.019752  2137 net.cpp:380] conv_t_1 -> conv_t_1
I0801 16:19:26.020483  2137 net.cpp:122] Setting up conv_t_1
I0801 16:19:26.020498  2137 net.cpp:129] Top shape: 100 32 32 32 (3276800)
I0801 16:19:26.020506  2137 net.cpp:137] Memory required for data: 51626800
I0801 16:19:26.020517  2137 layer_factory.hpp:77] Creating layer pool_t_1
I0801 16:19:26.020526  2137 net.cpp:84] Creating Layer pool_t_1
I0801 16:19:26.020534  2137 net.cpp:406] pool_t_1 <- conv_t_1
I0801 16:19:26.020541  2137 net.cpp:380] pool_t_1 -> pool_t_1
I0801 16:19:26.020576  2137 net.cpp:122] Setting up pool_t_1
I0801 16:19:26.020584  2137 net.cpp:129] Top shape: 100 32 16 16 (819200)
I0801 16:19:26.020591  2137 net.cpp:137] Memory required for data: 54903600
I0801 16:19:26.020597  2137 layer_factory.hpp:77] Creating layer relu_t_1
I0801 16:19:26.020606  2137 net.cpp:84] Creating Layer relu_t_1
I0801 16:19:26.020622  2137 net.cpp:406] relu_t_1 <- pool_t_1
I0801 16:19:26.020629  2137 net.cpp:367] relu_t_1 -> pool_t_1 (in-place)
I0801 16:19:26.020753  2137 net.cpp:122] Setting up relu_t_1
I0801 16:19:26.020766  2137 net.cpp:129] Top shape: 100 32 16 16 (819200)
I0801 16:19:26.020772  2137 net.cpp:137] Memory required for data: 58180400
I0801 16:19:26.020779  2137 layer_factory.hpp:77] Creating layer norm_t_1
I0801 16:19:26.020787  2137 net.cpp:84] Creating Layer norm_t_1
I0801 16:19:26.020795  2137 net.cpp:406] norm_t_1 <- pool_t_1
I0801 16:19:26.020803  2137 net.cpp:380] norm_t_1 -> norm_t_1
I0801 16:19:26.021368  2137 net.cpp:122] Setting up norm_t_1
I0801 16:19:26.021384  2137 net.cpp:129] Top shape: 100 32 16 16 (819200)
I0801 16:19:26.021392  2137 net.cpp:137] Memory required for data: 61457200
I0801 16:19:26.021399  2137 layer_factory.hpp:77] Creating layer conv_t_2
I0801 16:19:26.021409  2137 net.cpp:84] Creating Layer conv_t_2
I0801 16:19:26.021416  2137 net.cpp:406] conv_t_2 <- norm_t_1
I0801 16:19:26.021425  2137 net.cpp:380] conv_t_2 -> conv_t_2
I0801 16:19:26.022466  2137 net.cpp:122] Setting up conv_t_2
I0801 16:19:26.022483  2137 net.cpp:129] Top shape: 100 32 16 16 (819200)
I0801 16:19:26.022490  2137 net.cpp:137] Memory required for data: 64734000
I0801 16:19:26.022500  2137 layer_factory.hpp:77] Creating layer relu_t_2
I0801 16:19:26.022509  2137 net.cpp:84] Creating Layer relu_t_2
I0801 16:19:26.022516  2137 net.cpp:406] relu_t_2 <- conv_t_2
I0801 16:19:26.022524  2137 net.cpp:367] relu_t_2 -> conv_t_2 (in-place)
I0801 16:19:26.022843  2137 net.cpp:122] Setting up relu_t_2
I0801 16:19:26.022858  2137 net.cpp:129] Top shape: 100 32 16 16 (819200)
I0801 16:19:26.022866  2137 net.cpp:137] Memory required for data: 68010800
I0801 16:19:26.022872  2137 layer_factory.hpp:77] Creating layer pool_t_2
I0801 16:19:26.022881  2137 net.cpp:84] Creating Layer pool_t_2
I0801 16:19:26.022888  2137 net.cpp:406] pool_t_2 <- conv_t_2
I0801 16:19:26.022897  2137 net.cpp:380] pool_t_2 -> pool_t_2
I0801 16:19:26.023031  2137 net.cpp:122] Setting up pool_t_2
I0801 16:19:26.023043  2137 net.cpp:129] Top shape: 100 32 8 8 (204800)
I0801 16:19:26.023051  2137 net.cpp:137] Memory required for data: 68830000
I0801 16:19:26.023056  2137 layer_factory.hpp:77] Creating layer norm_t_2
I0801 16:19:26.023066  2137 net.cpp:84] Creating Layer norm_t_2
I0801 16:19:26.023073  2137 net.cpp:406] norm_t_2 <- pool_t_2
I0801 16:19:26.023082  2137 net.cpp:380] norm_t_2 -> norm_t_2
I0801 16:19:26.023277  2137 net.cpp:122] Setting up norm_t_2
I0801 16:19:26.023290  2137 net.cpp:129] Top shape: 100 32 8 8 (204800)
I0801 16:19:26.023298  2137 net.cpp:137] Memory required for data: 69649200
I0801 16:19:26.023304  2137 layer_factory.hpp:77] Creating layer conv_t_3
I0801 16:19:26.023314  2137 net.cpp:84] Creating Layer conv_t_3
I0801 16:19:26.023321  2137 net.cpp:406] conv_t_3 <- norm_t_2
I0801 16:19:26.023332  2137 net.cpp:380] conv_t_3 -> conv_t_3
I0801 16:19:26.024370  2137 net.cpp:122] Setting up conv_t_3
I0801 16:19:26.024389  2137 net.cpp:129] Top shape: 100 64 8 8 (409600)
I0801 16:19:26.024397  2137 net.cpp:137] Memory required for data: 71287600
I0801 16:19:26.024406  2137 layer_factory.hpp:77] Creating layer relu_t_3
I0801 16:19:26.024415  2137 net.cpp:84] Creating Layer relu_t_3
I0801 16:19:26.024422  2137 net.cpp:406] relu_t_3 <- conv_t_3
I0801 16:19:26.024430  2137 net.cpp:367] relu_t_3 -> conv_t_3 (in-place)
I0801 16:19:26.024560  2137 net.cpp:122] Setting up relu_t_3
I0801 16:19:26.024572  2137 net.cpp:129] Top shape: 100 64 8 8 (409600)
I0801 16:19:26.024580  2137 net.cpp:137] Memory required for data: 72926000
I0801 16:19:26.024586  2137 layer_factory.hpp:77] Creating layer pool_t_3
I0801 16:19:26.024595  2137 net.cpp:84] Creating Layer pool_t_3
I0801 16:19:26.024601  2137 net.cpp:406] pool_t_3 <- conv_t_3
I0801 16:19:26.024610  2137 net.cpp:380] pool_t_3 -> pool_t_3
I0801 16:19:26.024945  2137 net.cpp:122] Setting up pool_t_3
I0801 16:19:26.024961  2137 net.cpp:129] Top shape: 100 64 4 4 (102400)
I0801 16:19:26.024971  2137 net.cpp:137] Memory required for data: 73335600
I0801 16:19:26.024986  2137 layer_factory.hpp:77] Creating layer ip_t_1
I0801 16:19:26.024996  2137 net.cpp:84] Creating Layer ip_t_1
I0801 16:19:26.025004  2137 net.cpp:406] ip_t_1 <- pool_t_3
I0801 16:19:26.025013  2137 net.cpp:380] ip_t_1 -> ip_t_1
I0801 16:19:26.025168  2137 net.cpp:122] Setting up ip_t_1
I0801 16:19:26.025180  2137 net.cpp:129] Top shape: 100 10 (1000)
I0801 16:19:26.025188  2137 net.cpp:137] Memory required for data: 73339600
I0801 16:19:26.025197  2137 layer_factory.hpp:77] Creating layer sm_s_1
I0801 16:19:26.025207  2137 net.cpp:84] Creating Layer sm_s_1
I0801 16:19:26.025215  2137 net.cpp:406] sm_s_1 <- ip_s_1_ip_s_1_0_split_0
I0801 16:19:26.025223  2137 net.cpp:380] sm_s_1 -> sm_s_1
I0801 16:19:26.025396  2137 net.cpp:122] Setting up sm_s_1
I0801 16:19:26.025409  2137 net.cpp:129] Top shape: 100 10 (1000)
I0801 16:19:26.025416  2137 net.cpp:137] Memory required for data: 73343600
I0801 16:19:26.025424  2137 layer_factory.hpp:77] Creating layer sm_t_1
I0801 16:19:26.025431  2137 net.cpp:84] Creating Layer sm_t_1
I0801 16:19:26.025439  2137 net.cpp:406] sm_t_1 <- ip_t_1
I0801 16:19:26.025447  2137 net.cpp:380] sm_t_1 -> sm_t_1
I0801 16:19:26.025619  2137 net.cpp:122] Setting up sm_t_1
I0801 16:19:26.025632  2137 net.cpp:129] Top shape: 100 10 (1000)
I0801 16:19:26.025640  2137 net.cpp:137] Memory required for data: 73347600
I0801 16:19:26.025646  2137 layer_factory.hpp:77] Creating layer accuracy
I0801 16:19:26.025656  2137 net.cpp:84] Creating Layer accuracy
I0801 16:19:26.025663  2137 net.cpp:406] accuracy <- ip_s_1_ip_s_1_0_split_1
I0801 16:19:26.025672  2137 net.cpp:406] accuracy <- label_cifar_1_split_0
I0801 16:19:26.025681  2137 net.cpp:380] accuracy -> accuracy
…
