…
I0801 17:13:36.604715  2259 net.cpp:294] The NetState phase (0) differed from the phase (1) specified by a rule in layer accuracy
I0801 17:13:36.604820  2259 net.cpp:51] Initializing net from parameters: 
name: "CIFAR10_full"
state {
  phase: TRAIN
  level: 0
  stage: ""
}
layer {
  name: "cifar"
  type: "Data"
  top: "data"
  top: "label"
  include {
    phase: TRAIN
  }
  transform_param {
    mean_file: "/opt/caffe/examples/cifar10/mean.binaryproto"
  }
  data_param {
    source: "/opt/caffe/examples/cifar10/cifar10_train_lmdb"
    batch_size: 100
    backend: LMDB
  }
}
layer {
  name: "conv_s_1"
  type: "Convolution"
  bottom: "data"
  top: "conv_s_1"
  param {
    lr_mult: 1
  }
  param {
    lr_mult: 2
  }
  convolution_param {
    num_output: 32
    pad: 2
    kernel_size: 5
    stride: 1
    weight_filler {
      type: "gaussian"
      std: 0.0001
    }
    bias_filler {
      type: "constant"
    }
  }
}
layer {
  name: "pool_s_1"
  type: "Pooling"
  bottom: "conv_s_1"
  top: "pool_s_1"
  pooling_param {
    pool: MAX
    kernel_size: 3
    stride: 2
  }
}
layer {
  name: "Sigmoid_s_1"
  type: "Sigmoid"
  bottom: "pool_s_1"
  top: "pool_s_1"
}
layer {
  name: "norm_s_1"
  type: "LRN"
  bottom: "pool_s_1"
  top: "norm_s_1"
  lrn_param {
    local_size: 3
    alpha: 5e-05
    beta: 0.75
    norm_region: WITHIN_CHANNEL
  }
}
layer {
  name: "conv_s_2"
  type: "Convolution"
  bottom: "norm_s_1"
  top: "conv_s_2"
  param {
    lr_mult: 1
  }
  param {
    lr_mult: 2
  }
  convolution_param {
    num_output: 32
    pad: 2
    kernel_size: 5
    stride: 1
    weight_filler {
      type: "gaussian"
      std: 0.01
    }
    bias_filler {
      type: "constant"
    }
  }
}
layer {
  name: "Sigmoid_s_2"
  type: "Sigmoid"
  bottom: "conv_s_2"
  top: "conv_s_2"
}
layer {
  name: "pool_s_2"
  type: "Pooling"
  bottom: "conv_s_2"
  top: "pool_s_2"
  pooling_param {
    pool: AVE
    kernel_size: 3
    stride: 2
  }
}
layer {
  name: "norm_s_2"
  type: "LRN"
  bottom: "pool_s_2"
  top: "norm_s_2"
  lrn_param {
    local_size: 3
    alpha: 5e-05
    beta: 0.75
    norm_region: WITHIN_CHANNEL
  }
}
layer {
  name: "conv_s_3"
  type: "Convolution"
  bottom: "norm_s_2"
  top: "conv_s_3"
  param {
    lr_mult: 1
  }
  param {
    lr_mult: 2
  }
  convolution_param {
    num_output: 64
    pad: 2
    kernel_size: 5
    stride: 1
    weight_filler {
      type: "gaussian"
      std: 0.01
    }
    bias_filler {
      type: "constant"
    }
  }
}
layer {
  name: "Sigmoid_s_3"
  type: "Sigmoid"
  bottom: "conv_s_3"
  top: "conv_s_3"
}
layer {
  name: "pool_s_3"
  type: "Pooling"
  bottom: "conv_s_3"
  top: "pool_s_3"
  pooling_param {
    pool: AVE
    kernel_size: 3
    stride: 2
  }
}
layer {
  name: "ip_s_1"
  type: "InnerProduct"
  bottom: "pool_s_3"
  top: "ip_s_1"
  param {
    lr_mult: 1
    decay_mult: 250
  }
  param {
    lr_mult: 2
    decay_mult: 0
  }
  inner_product_param {
    num_output: 10
    weight_filler {
      type: "gaussian"
      std: 0.01
    }
    bias_filler {
      type: "constant"
    }
  }
}
layer {
  name: "conv_t_1"
  type: "Convolution"
  bottom: "data"
  top: "conv_t_1"
  param {
    lr_mult: 0
  }
  param {
    lr_mult: 0
  }
  convolution_param {
    num_output: 32
    pad: 2
    kernel_size: 5
    stride: 1
    weight_filler {
      type: "gaussian"
      std: 0.0001
    }
    bias_filler {
      type: "constant"
    }
  }
}
layer {
  name: "pool_t_1"
  type: "Pooling"
  bottom: "conv_t_1"
  top: "pool_t_1"
  pooling_param {
    pool: MAX
    kernel_size: 3
    stride: 2
  }
}
layer {
  name: "relu_t_1"
  type: "ReLU"
  bottom: "pool_t_1"
  top: "pool_t_1"
}
layer {
  name: "norm_t_1"
  type: "LRN"
  bottom: "pool_t_1"
  top: "norm_t_1"
  lrn_param {
    local_size: 3
    alpha: 5e-05
    beta: 0.75
    norm_region: WITHIN_CHANNEL
  }
}
layer {
  name: "conv_t_2"
  type: "Convolution"
  bottom: "norm_t_1"
  top: "conv_t_2"
  param {
    lr_mult: 0
  }
  param {
    lr_mult: 0
  }
  convolution_param {
    num_output: 32
    pad: 2
    kernel_size: 5
    stride: 1
    weight_filler {
      type: "gaussian"
      std: 0.01
    }
    bias_filler {
      type: "constant"
    }
  }
}
layer {
  name: "relu_t_2"
  type: "ReLU"
  bottom: "conv_t_2"
  top: "conv_t_2"
}
layer {
  name: "pool_t_2"
  type: "Pooling"
  bottom: "conv_t_2"
  top: "pool_t_2"
  pooling_param {
    pool: AVE
    kernel_size: 3
    stride: 2
  }
}
layer {
  name: "norm_t_2"
  type: "LRN"
  bottom: "pool_t_2"
  top: "norm_t_2"
  lrn_param {
    local_size: 3
    alpha: 5e-05
    beta: 0.75
    norm_region: WITHIN_CHANNEL
  }
}
layer {
  name: "conv_t_3"
  type: "Convolution"
  bottom: "norm_t_2"
  top: "conv_t_3"
  param {
    lr_mult: 0
  }
  param {
    lr_mult: 0
  }
  convolution_param {
    num_output: 64
    pad: 2
    kernel_size: 5
    stride: 1
    weight_filler {
      type: "gaussian"
      std: 0.01
    }
    bias_filler {
      type: "constant"
    }
  }
}
layer {
  name: "relu_t_3"
  type: "ReLU"
  bottom: "conv_t_3"
  top: "conv_t_3"
}
layer {
  name: "pool_t_3"
  type: "Pooling"
  bottom: "conv_t_3"
  top: "pool_t_3"
  pooling_param {
    pool: AVE
    kernel_size: 3
    stride: 2
  }
}
layer {
  name: "ip_t_1"
  type: "InnerProduct"
  bottom: "pool_t_3"
  top: "ip_t_1"
  param {
    lr_mult: 0
  }
  param {
    lr_mult: 0
  }
  inner_product_param {
    num_output: 10
    weight_filler {
      type: "gaussian"
      std: 0.01
    }
    bias_filler {
      type: "constant"
    }
  }
}
layer {
  name: "sm_s_1"
  type: "Softmax"
  bottom: "ip_s_1"
  top: "sm_s_1"
}
layer {
  name: "sm_t_1"
  type: "Softmax"
  bottom: "ip_t_1"
  top: "sm_t_1"
}
layer {
  name: "ts_loss"
  type: "SigmoidCrossEntropyLoss"
  bottom: "sm_s_1"
  bottom: "sm_t_1"
  top: "ts_loss"
  loss_weight: 0.1
}
layer {
  name: "loss"
  type: "SoftmaxWithLoss"
  bottom: "ip_s_1"
  bottom: "label"
  top: "loss"
  loss_weight: 0.9
}
I0801 17:13:36.604912  2259 layer_factory.hpp:77] Creating layer cifar
I0801 17:13:36.605002  2259 db_lmdb.cpp:35] Opened lmdb /opt/caffe/examples/cifar10/cifar10_train_lmdb
I0801 17:13:36.605021  2259 net.cpp:84] Creating Layer cifar
I0801 17:13:36.605028  2259 net.cpp:380] cifar -> data
I0801 17:13:36.605041  2259 net.cpp:380] cifar -> label
I0801 17:13:36.605051  2259 data_transformer.cpp:25] Loading mean file from: /opt/caffe/examples/cifar10/mean.binaryproto
I0801 17:13:36.606215  2259 data_layer.cpp:45] output data size: 100,3,32,32
I0801 17:13:36.609870  2259 net.cpp:122] Setting up cifar
I0801 17:13:36.609892  2259 net.cpp:129] Top shape: 100 3 32 32 (307200)
I0801 17:13:36.609895  2259 net.cpp:129] Top shape: 100 (100)
I0801 17:13:36.609897  2259 net.cpp:137] Memory required for data: 1229200
I0801 17:13:36.609905  2259 layer_factory.hpp:77] Creating layer data_cifar_0_split
I0801 17:13:36.609916  2259 net.cpp:84] Creating Layer data_cifar_0_split
I0801 17:13:36.609920  2259 net.cpp:406] data_cifar_0_split <- data
I0801 17:13:36.609931  2259 net.cpp:380] data_cifar_0_split -> data_cifar_0_split_0
I0801 17:13:36.609939  2259 net.cpp:380] data_cifar_0_split -> data_cifar_0_split_1
I0801 17:13:36.609973  2259 net.cpp:122] Setting up data_cifar_0_split
I0801 17:13:36.609992  2259 net.cpp:129] Top shape: 100 3 32 32 (307200)
I0801 17:13:36.610000  2259 net.cpp:129] Top shape: 100 3 32 32 (307200)
I0801 17:13:36.610008  2259 net.cpp:137] Memory required for data: 3686800
I0801 17:13:36.610014  2259 layer_factory.hpp:77] Creating layer conv_s_1
I0801 17:13:36.610038  2259 net.cpp:84] Creating Layer conv_s_1
I0801 17:13:36.610054  2259 net.cpp:406] conv_s_1 <- data_cifar_0_split_0
I0801 17:13:36.610064  2259 net.cpp:380] conv_s_1 -> conv_s_1
I0801 17:13:36.922236  2259 net.cpp:122] Setting up conv_s_1
I0801 17:13:36.922258  2259 net.cpp:129] Top shape: 100 32 32 32 (3276800)
I0801 17:13:36.922261  2259 net.cpp:137] Memory required for data: 16794000
I0801 17:13:36.922276  2259 layer_factory.hpp:77] Creating layer pool_s_1
I0801 17:13:36.922286  2259 net.cpp:84] Creating Layer pool_s_1
I0801 17:13:36.922287  2259 net.cpp:406] pool_s_1 <- conv_s_1
I0801 17:13:36.922292  2259 net.cpp:380] pool_s_1 -> pool_s_1
I0801 17:13:36.922332  2259 net.cpp:122] Setting up pool_s_1
I0801 17:13:36.922336  2259 net.cpp:129] Top shape: 100 32 16 16 (819200)
I0801 17:13:36.922338  2259 net.cpp:137] Memory required for data: 20070800
I0801 17:13:36.922405  2259 layer_factory.hpp:77] Creating layer Sigmoid_s_1
I0801 17:13:36.922411  2259 net.cpp:84] Creating Layer Sigmoid_s_1
I0801 17:13:36.922412  2259 net.cpp:406] Sigmoid_s_1 <- pool_s_1
I0801 17:13:36.922415  2259 net.cpp:367] Sigmoid_s_1 -> pool_s_1 (in-place)
I0801 17:13:36.922801  2259 net.cpp:122] Setting up Sigmoid_s_1
I0801 17:13:36.922808  2259 net.cpp:129] Top shape: 100 32 16 16 (819200)
I0801 17:13:36.922809  2259 net.cpp:137] Memory required for data: 23347600
I0801 17:13:36.922811  2259 layer_factory.hpp:77] Creating layer norm_s_1
I0801 17:13:36.922818  2259 net.cpp:84] Creating Layer norm_s_1
I0801 17:13:36.922821  2259 net.cpp:406] norm_s_1 <- pool_s_1
I0801 17:13:36.922823  2259 net.cpp:380] norm_s_1 -> norm_s_1
I0801 17:13:36.923375  2259 net.cpp:122] Setting up norm_s_1
I0801 17:13:36.923382  2259 net.cpp:129] Top shape: 100 32 16 16 (819200)
I0801 17:13:36.923384  2259 net.cpp:137] Memory required for data: 26624400
I0801 17:13:36.923387  2259 layer_factory.hpp:77] Creating layer conv_s_2
I0801 17:13:36.923393  2259 net.cpp:84] Creating Layer conv_s_2
I0801 17:13:36.923395  2259 net.cpp:406] conv_s_2 <- norm_s_1
I0801 17:13:36.923398  2259 net.cpp:380] conv_s_2 -> conv_s_2
I0801 17:13:36.924892  2259 net.cpp:122] Setting up conv_s_2
I0801 17:13:36.924901  2259 net.cpp:129] Top shape: 100 32 16 16 (819200)
I0801 17:13:36.924902  2259 net.cpp:137] Memory required for data: 29901200
I0801 17:13:36.924909  2259 layer_factory.hpp:77] Creating layer Sigmoid_s_2
I0801 17:13:36.924913  2259 net.cpp:84] Creating Layer Sigmoid_s_2
I0801 17:13:36.924916  2259 net.cpp:406] Sigmoid_s_2 <- conv_s_2
I0801 17:13:36.924918  2259 net.cpp:367] Sigmoid_s_2 -> conv_s_2 (in-place)
I0801 17:13:36.925024  2259 net.cpp:122] Setting up Sigmoid_s_2
I0801 17:13:36.925029  2259 net.cpp:129] Top shape: 100 32 16 16 (819200)
I0801 17:13:36.925029  2259 net.cpp:137] Memory required for data: 33178000
I0801 17:13:36.925031  2259 layer_factory.hpp:77] Creating layer pool_s_2
I0801 17:13:36.925036  2259 net.cpp:84] Creating Layer pool_s_2
I0801 17:13:36.925038  2259 net.cpp:406] pool_s_2 <- conv_s_2
I0801 17:13:36.925040  2259 net.cpp:380] pool_s_2 -> pool_s_2
I0801 17:13:36.925348  2259 net.cpp:122] Setting up pool_s_2
I0801 17:13:36.925355  2259 net.cpp:129] Top shape: 100 32 8 8 (204800)
I0801 17:13:36.925357  2259 net.cpp:137] Memory required for data: 33997200
I0801 17:13:36.925359  2259 layer_factory.hpp:77] Creating layer norm_s_2
I0801 17:13:36.925364  2259 net.cpp:84] Creating Layer norm_s_2
I0801 17:13:36.925365  2259 net.cpp:406] norm_s_2 <- pool_s_2
I0801 17:13:36.925369  2259 net.cpp:380] norm_s_2 -> norm_s_2
I0801 17:13:36.925526  2259 net.cpp:122] Setting up norm_s_2
I0801 17:13:36.925531  2259 net.cpp:129] Top shape: 100 32 8 8 (204800)
I0801 17:13:36.925534  2259 net.cpp:137] Memory required for data: 34816400
I0801 17:13:36.925535  2259 layer_factory.hpp:77] Creating layer conv_s_3
I0801 17:13:36.925540  2259 net.cpp:84] Creating Layer conv_s_3
I0801 17:13:36.925542  2259 net.cpp:406] conv_s_3 <- norm_s_2
I0801 17:13:36.925546  2259 net.cpp:380] conv_s_3 -> conv_s_3
I0801 17:13:36.926491  2259 net.cpp:122] Setting up conv_s_3
I0801 17:13:36.926498  2259 net.cpp:129] Top shape: 100 64 8 8 (409600)
I0801 17:13:36.926517  2259 net.cpp:137] Memory required for data: 36454800
I0801 17:13:36.926522  2259 layer_factory.hpp:77] Creating layer Sigmoid_s_3
I0801 17:13:36.926525  2259 net.cpp:84] Creating Layer Sigmoid_s_3
I0801 17:13:36.926527  2259 net.cpp:406] Sigmoid_s_3 <- conv_s_3
I0801 17:13:36.926530  2259 net.cpp:367] Sigmoid_s_3 -> conv_s_3 (in-place)
I0801 17:13:36.926633  2259 net.cpp:122] Setting up Sigmoid_s_3
I0801 17:13:36.926638  2259 net.cpp:129] Top shape: 100 64 8 8 (409600)
I0801 17:13:36.926640  2259 net.cpp:137] Memory required for data: 38093200
I0801 17:13:36.926642  2259 layer_factory.hpp:77] Creating layer pool_s_3
I0801 17:13:36.926645  2259 net.cpp:84] Creating Layer pool_s_3
I0801 17:13:36.926647  2259 net.cpp:406] pool_s_3 <- conv_s_3
I0801 17:13:36.926650  2259 net.cpp:380] pool_s_3 -> pool_s_3
I0801 17:13:36.926759  2259 net.cpp:122] Setting up pool_s_3
I0801 17:13:36.926764  2259 net.cpp:129] Top shape: 100 64 4 4 (102400)
I0801 17:13:36.926765  2259 net.cpp:137] Memory required for data: 38502800
I0801 17:13:36.926766  2259 layer_factory.hpp:77] Creating layer ip_s_1
I0801 17:13:36.926770  2259 net.cpp:84] Creating Layer ip_s_1
I0801 17:13:36.926772  2259 net.cpp:406] ip_s_1 <- pool_s_3
I0801 17:13:36.926775  2259 net.cpp:380] ip_s_1 -> ip_s_1
I0801 17:13:36.927377  2259 net.cpp:122] Setting up ip_s_1
I0801 17:13:36.927384  2259 net.cpp:129] Top shape: 100 10 (1000)
I0801 17:13:36.927386  2259 net.cpp:137] Memory required for data: 38506800
I0801 17:13:36.927390  2259 layer_factory.hpp:77] Creating layer ip_s_1_ip_s_1_0_split
I0801 17:13:36.927394  2259 net.cpp:84] Creating Layer ip_s_1_ip_s_1_0_split
I0801 17:13:36.927395  2259 net.cpp:406] ip_s_1_ip_s_1_0_split <- ip_s_1
I0801 17:13:36.927399  2259 net.cpp:380] ip_s_1_ip_s_1_0_split -> ip_s_1_ip_s_1_0_split_0
I0801 17:13:36.927403  2259 net.cpp:380] ip_s_1_ip_s_1_0_split -> ip_s_1_ip_s_1_0_split_1
I0801 17:13:36.927424  2259 net.cpp:122] Setting up ip_s_1_ip_s_1_0_split
I0801 17:13:36.927426  2259 net.cpp:129] Top shape: 100 10 (1000)
I0801 17:13:36.927429  2259 net.cpp:129] Top shape: 100 10 (1000)
I0801 17:13:36.927430  2259 net.cpp:137] Memory required for data: 38514800
I0801 17:13:36.927433  2259 layer_factory.hpp:77] Creating layer conv_t_1
I0801 17:13:36.927438  2259 net.cpp:84] Creating Layer conv_t_1
I0801 17:13:36.927439  2259 net.cpp:406] conv_t_1 <- data_cifar_0_split_1
I0801 17:13:36.927443  2259 net.cpp:380] conv_t_1 -> conv_t_1
I0801 17:13:36.928120  2259 net.cpp:122] Setting up conv_t_1
I0801 17:13:36.928128  2259 net.cpp:129] Top shape: 100 32 32 32 (3276800)
I0801 17:13:36.928129  2259 net.cpp:137] Memory required for data: 51622000
I0801 17:13:36.928136  2259 layer_factory.hpp:77] Creating layer pool_t_1
I0801 17:13:36.928141  2259 net.cpp:84] Creating Layer pool_t_1
I0801 17:13:36.928143  2259 net.cpp:406] pool_t_1 <- conv_t_1
I0801 17:13:36.928146  2259 net.cpp:380] pool_t_1 -> pool_t_1
I0801 17:13:36.928170  2259 net.cpp:122] Setting up pool_t_1
I0801 17:13:36.928174  2259 net.cpp:129] Top shape: 100 32 16 16 (819200)
I0801 17:13:36.928175  2259 net.cpp:137] Memory required for data: 54898800
I0801 17:13:36.928177  2259 layer_factory.hpp:77] Creating layer relu_t_1
I0801 17:13:36.928180  2259 net.cpp:84] Creating Layer relu_t_1
I0801 17:13:36.928181  2259 net.cpp:406] relu_t_1 <- pool_t_1
I0801 17:13:36.928184  2259 net.cpp:367] relu_t_1 -> pool_t_1 (in-place)
I0801 17:13:36.928474  2259 net.cpp:122] Setting up relu_t_1
I0801 17:13:36.928480  2259 net.cpp:129] Top shape: 100 32 16 16 (819200)
I0801 17:13:36.928483  2259 net.cpp:137] Memory required for data: 58175600
I0801 17:13:36.928484  2259 layer_factory.hpp:77] Creating layer norm_t_1
I0801 17:13:36.928488  2259 net.cpp:84] Creating Layer norm_t_1
I0801 17:13:36.928490  2259 net.cpp:406] norm_t_1 <- pool_t_1
I0801 17:13:36.928493  2259 net.cpp:380] norm_t_1 -> norm_t_1
I0801 17:13:36.928997  2259 net.cpp:122] Setting up norm_t_1
I0801 17:13:36.929004  2259 net.cpp:129] Top shape: 100 32 16 16 (819200)
I0801 17:13:36.929006  2259 net.cpp:137] Memory required for data: 61452400
I0801 17:13:36.929018  2259 layer_factory.hpp:77] Creating layer conv_t_2
I0801 17:13:36.929023  2259 net.cpp:84] Creating Layer conv_t_2
I0801 17:13:36.929026  2259 net.cpp:406] conv_t_2 <- norm_t_1
I0801 17:13:36.929029  2259 net.cpp:380] conv_t_2 -> conv_t_2
I0801 17:13:36.929847  2259 net.cpp:122] Setting up conv_t_2
I0801 17:13:36.929853  2259 net.cpp:129] Top shape: 100 32 16 16 (819200)
I0801 17:13:36.929855  2259 net.cpp:137] Memory required for data: 64729200
I0801 17:13:36.929859  2259 layer_factory.hpp:77] Creating layer relu_t_2
I0801 17:13:36.929862  2259 net.cpp:84] Creating Layer relu_t_2
I0801 17:13:36.929864  2259 net.cpp:406] relu_t_2 <- conv_t_2
I0801 17:13:36.929867  2259 net.cpp:367] relu_t_2 -> conv_t_2 (in-place)
I0801 17:13:36.929966  2259 net.cpp:122] Setting up relu_t_2
I0801 17:13:36.929971  2259 net.cpp:129] Top shape: 100 32 16 16 (819200)
I0801 17:13:36.929972  2259 net.cpp:137] Memory required for data: 68006000
I0801 17:13:36.929975  2259 layer_factory.hpp:77] Creating layer pool_t_2
I0801 17:13:36.929977  2259 net.cpp:84] Creating Layer pool_t_2
I0801 17:13:36.929980  2259 net.cpp:406] pool_t_2 <- conv_t_2
I0801 17:13:36.929981  2259 net.cpp:380] pool_t_2 -> pool_t_2
I0801 17:13:36.930270  2259 net.cpp:122] Setting up pool_t_2
I0801 17:13:36.930276  2259 net.cpp:129] Top shape: 100 32 8 8 (204800)
I0801 17:13:36.930279  2259 net.cpp:137] Memory required for data: 68825200
I0801 17:13:36.930280  2259 layer_factory.hpp:77] Creating layer norm_t_2
I0801 17:13:36.930284  2259 net.cpp:84] Creating Layer norm_t_2
I0801 17:13:36.930286  2259 net.cpp:406] norm_t_2 <- pool_t_2
I0801 17:13:36.930289  2259 net.cpp:380] norm_t_2 -> norm_t_2
I0801 17:13:36.930449  2259 net.cpp:122] Setting up norm_t_2
I0801 17:13:36.930467  2259 net.cpp:129] Top shape: 100 32 8 8 (204800)
I0801 17:13:36.930474  2259 net.cpp:137] Memory required for data: 69644400
I0801 17:13:36.930481  2259 layer_factory.hpp:77] Creating layer conv_t_3
I0801 17:13:36.930491  2259 net.cpp:84] Creating Layer conv_t_3
I0801 17:13:36.930498  2259 net.cpp:406] conv_t_3 <- norm_t_2
I0801 17:13:36.930507  2259 net.cpp:380] conv_t_3 -> conv_t_3
I0801 17:13:36.931463  2259 net.cpp:122] Setting up conv_t_3
I0801 17:13:36.931478  2259 net.cpp:129] Top shape: 100 64 8 8 (409600)
I0801 17:13:36.931486  2259 net.cpp:137] Memory required for data: 71282800
I0801 17:13:36.931495  2259 layer_factory.hpp:77] Creating layer relu_t_3
I0801 17:13:36.931504  2259 net.cpp:84] Creating Layer relu_t_3
I0801 17:13:36.931511  2259 net.cpp:406] relu_t_3 <- conv_t_3
I0801 17:13:36.931520  2259 net.cpp:367] relu_t_3 -> conv_t_3 (in-place)
I0801 17:13:36.931632  2259 net.cpp:122] Setting up relu_t_3
I0801 17:13:36.931644  2259 net.cpp:129] Top shape: 100 64 8 8 (409600)
I0801 17:13:36.931651  2259 net.cpp:137] Memory required for data: 72921200
I0801 17:13:36.931658  2259 layer_factory.hpp:77] Creating layer pool_t_3
I0801 17:13:36.931666  2259 net.cpp:84] Creating Layer pool_t_3
I0801 17:13:36.931674  2259 net.cpp:406] pool_t_3 <- conv_t_3
I0801 17:13:36.931681  2259 net.cpp:380] pool_t_3 -> pool_t_3
I0801 17:13:36.931985  2259 net.cpp:122] Setting up pool_t_3
I0801 17:13:36.932000  2259 net.cpp:129] Top shape: 100 64 4 4 (102400)
I0801 17:13:36.932008  2259 net.cpp:137] Memory required for data: 73330800
I0801 17:13:36.932014  2259 layer_factory.hpp:77] Creating layer ip_t_1
I0801 17:13:36.932024  2259 net.cpp:84] Creating Layer ip_t_1
I0801 17:13:36.932031  2259 net.cpp:406] ip_t_1 <- pool_t_3
I0801 17:13:36.932040  2259 net.cpp:380] ip_t_1 -> ip_t_1
I0801 17:13:36.932170  2259 net.cpp:122] Setting up ip_t_1
I0801 17:13:36.932180  2259 net.cpp:129] Top shape: 100 10 (1000)
I0801 17:13:36.932188  2259 net.cpp:137] Memory required for data: 73334800
I0801 17:13:36.932196  2259 layer_factory.hpp:77] Creating layer sm_s_1
I0801 17:13:36.932204  2259 net.cpp:84] Creating Layer sm_s_1
I0801 17:13:36.932211  2259 net.cpp:406] sm_s_1 <- ip_s_1_ip_s_1_0_split_0
I0801 17:13:36.932224  2259 net.cpp:380] sm_s_1 -> sm_s_1
I0801 17:13:36.932379  2259 net.cpp:122] Setting up sm_s_1
I0801 17:13:36.932392  2259 net.cpp:129] Top shape: 100 10 (1000)
I0801 17:13:36.932399  2259 net.cpp:137] Memory required for data: 73338800
I0801 17:13:36.932406  2259 layer_factory.hpp:77] Creating layer sm_t_1
I0801 17:13:36.932415  2259 net.cpp:84] Creating Layer sm_t_1
I0801 17:13:36.932421  2259 net.cpp:406] sm_t_1 <- ip_t_1
I0801 17:13:36.932430  2259 net.cpp:380] sm_t_1 -> sm_t_1
I0801 17:13:36.932572  2259 net.cpp:122] Setting up sm_t_1
I0801 17:13:36.932585  2259 net.cpp:129] Top shape: 100 10 (1000)
I0801 17:13:36.932590  2259 net.cpp:137] Memory required for data: 73342800
I0801 17:13:36.932597  2259 layer_factory.hpp:77] Creating layer ts_loss
I0801 17:13:36.932607  2259 net.cpp:84] Creating Layer ts_loss
I0801 17:13:36.932615  2259 net.cpp:406] ts_loss <- sm_s_1
I0801 17:13:36.932621  2259 net.cpp:406] ts_loss <- sm_t_1
I0801 17:13:36.932629  2259 net.cpp:380] ts_loss -> ts_loss
…
I0801 17:13:36.933468  2259 net.cpp:294] The NetState phase (1) differed from the phase (0) specified by a rule in layer cifar
I0801 17:13:36.933581  2259 net.cpp:51] Initializing net from parameters: 
name: "CIFAR10_full"
state {
  phase: TEST
}
layer {
  name: "cifar"
  type: "Data"
  top: "data"
  top: "label"
  include {
    phase: TEST
  }
  transform_param {
    mean_file: "/opt/caffe/examples/cifar10/mean.binaryproto"
  }
  data_param {
    source: "/opt/caffe/examples/cifar10/cifar10_test_lmdb"
    batch_size: 100
    backend: LMDB
  }
}
layer {
  name: "conv_s_1"
  type: "Convolution"
  bottom: "data"
  top: "conv_s_1"
  param {
    lr_mult: 1
  }
  param {
    lr_mult: 2
  }
  convolution_param {
    num_output: 32
    pad: 2
    kernel_size: 5
    stride: 1
    weight_filler {
      type: "gaussian"
      std: 0.0001
    }
    bias_filler {
      type: "constant"
    }
  }
}
layer {
  name: "pool_s_1"
  type: "Pooling"
  bottom: "conv_s_1"
  top: "pool_s_1"
  pooling_param {
    pool: MAX
    kernel_size: 3
    stride: 2
  }
}
layer {
  name: "Sigmoid_s_1"
  type: "Sigmoid"
  bottom: "pool_s_1"
  top: "pool_s_1"
}
layer {
  name: "norm_s_1"
  type: "LRN"
  bottom: "pool_s_1"
  top: "norm_s_1"
  lrn_param {
    local_size: 3
    alpha: 5e-05
    beta: 0.75
    norm_region: WITHIN_CHANNEL
  }
}
layer {
  name: "conv_s_2"
  type: "Convolution"
  bottom: "norm_s_1"
  top: "conv_s_2"
  param {
    lr_mult: 1
  }
  param {
    lr_mult: 2
  }
  convolution_param {
    num_output: 32
    pad: 2
    kernel_size: 5
    stride: 1
    weight_filler {
      type: "gaussian"
      std: 0.01
    }
    bias_filler {
      type: "constant"
    }
  }
}
layer {
  name: "Sigmoid_s_2"
  type: "Sigmoid"
  bottom: "conv_s_2"
  top: "conv_s_2"
}
layer {
  name: "pool_s_2"
  type: "Pooling"
  bottom: "conv_s_2"
  top: "pool_s_2"
  pooling_param {
    pool: AVE
    kernel_size: 3
    stride: 2
  }
}
layer {
  name: "norm_s_2"
  type: "LRN"
  bottom: "pool_s_2"
  top: "norm_s_2"
  lrn_param {
    local_size: 3
    alpha: 5e-05
    beta: 0.75
    norm_region: WITHIN_CHANNEL
  }
}
layer {
  name: "conv_s_3"
  type: "Convolution"
  bottom: "norm_s_2"
  top: "conv_s_3"
  param {
    lr_mult: 1
  }
  param {
    lr_mult: 2
  }
  convolution_param {
    num_output: 64
    pad: 2
    kernel_size: 5
    stride: 1
    weight_filler {
      type: "gaussian"
      std: 0.01
    }
    bias_filler {
      type: "constant"
    }
  }
}
layer {
  name: "Sigmoid_s_3"
  type: "Sigmoid"
  bottom: "conv_s_3"
  top: "conv_s_3"
}
layer {
  name: "pool_s_3"
  type: "Pooling"
  bottom: "conv_s_3"
  top: "pool_s_3"
  pooling_param {
    pool: AVE
    kernel_size: 3
    stride: 2
  }
}
layer {
  name: "ip_s_1"
  type: "InnerProduct"
  bottom: "pool_s_3"
  top: "ip_s_1"
  param {
    lr_mult: 1
    decay_mult: 250
  }
  param {
    lr_mult: 2
    decay_mult: 0
  }
  inner_product_param {
    num_output: 10
    weight_filler {
      type: "gaussian"
      std: 0.01
    }
    bias_filler {
      type: "constant"
    }
  }
}
layer {
  name: "conv_t_1"
  type: "Convolution"
  bottom: "data"
  top: "conv_t_1"
  param {
    lr_mult: 0
  }
  param {
    lr_mult: 0
  }
  convolution_param {
    num_output: 32
    pad: 2
    kernel_size: 5
    stride: 1
    weight_filler {
      type: "gaussian"
      std: 0.0001
    }
    bias_filler {
      type: "constant"
    }
  }
}
layer {
  name: "pool_t_1"
  type: "Pooling"
  bottom: "conv_t_1"
  top: "pool_t_1"
  pooling_param {
    pool: MAX
    kernel_size: 3
    stride: 2
  }
}
layer {
  name: "relu_t_1"
  type: "ReLU"
  bottom: "pool_t_1"
  top: "pool_t_1"
}
layer {
  name: "norm_t_1"
  type: "LRN"
  bottom: "pool_t_1"
  top: "norm_t_1"
  lrn_param {
    local_size: 3
    alpha: 5e-05
    beta: 0.75
    norm_region: WITHIN_CHANNEL
  }
}
layer {
  name: "conv_t_2"
  type: "Convolution"
  bottom: "norm_t_1"
  top: "conv_t_2"
  param {
    lr_mult: 0
  }
  param {
    lr_mult: 0
  }
  convolution_param {
    num_output: 32
    pad: 2
    kernel_size: 5
    stride: 1
    weight_filler {
      type: "gaussian"
      std: 0.01
    }
    bias_filler {
      type: "constant"
    }
  }
}
layer {
  name: "relu_t_2"
  type: "ReLU"
  bottom: "conv_t_2"
  top: "conv_t_2"
}
layer {
  name: "pool_t_2"
  type: "Pooling"
  bottom: "conv_t_2"
  top: "pool_t_2"
  pooling_param {
    pool: AVE
    kernel_size: 3
    stride: 2
  }
}
layer {
  name: "norm_t_2"
  type: "LRN"
  bottom: "pool_t_2"
  top: "norm_t_2"
  lrn_param {
    local_size: 3
    alpha: 5e-05
    beta: 0.75
    norm_region: WITHIN_CHANNEL
  }
}
layer {
  name: "conv_t_3"
  type: "Convolution"
  bottom: "norm_t_2"
  top: "conv_t_3"
  param {
    lr_mult: 0
  }
  param {
    lr_mult: 0
  }
  convolution_param {
    num_output: 64
    pad: 2
    kernel_size: 5
    stride: 1
    weight_filler {
      type: "gaussian"
      std: 0.01
    }
    bias_filler {
      type: "constant"
    }
  }
}
layer {
  name: "relu_t_3"
  type: "ReLU"
  bottom: "conv_t_3"
  top: "conv_t_3"
}
layer {
  name: "pool_t_3"
  type: "Pooling"
  bottom: "conv_t_3"
  top: "pool_t_3"
  pooling_param {
    pool: AVE
    kernel_size: 3
    stride: 2
  }
}
layer {
  name: "ip_t_1"
  type: "InnerProduct"
  bottom: "pool_t_3"
  top: "ip_t_1"
  param {
    lr_mult: 0
  }
  param {
    lr_mult: 0
  }
  inner_product_param {
    num_output: 10
    weight_filler {
      type: "gaussian"
      std: 0.01
    }
    bias_filler {
      type: "constant"
    }
  }
}
layer {
  name: "sm_s_1"
  type: "Softmax"
  bottom: "ip_s_1"
  top: "sm_s_1"
}
layer {
  name: "sm_t_1"
  type: "Softmax"
  bottom: "ip_t_1"
  top: "sm_t_1"
}
layer {
  name: "accuracy"
  type: "Accuracy"
  bottom: "ip_s_1"
  bottom: "label"
  top: "accuracy"
  include {
    phase: TEST
  }
}
layer {
  name: "ts_loss"
  type: "SigmoidCrossEntropyLoss"
  bottom: "sm_s_1"
  bottom: "sm_t_1"
  top: "ts_loss"
  loss_weight: 0.1
}
layer {
  name: "loss"
  type: "SoftmaxWithLoss"
  bottom: "ip_s_1"
  bottom: "label"
  top: "loss"
  loss_weight: 0.9
}
I0801 17:13:36.933776  2259 layer_factory.hpp:77] Creating layer cifar
I0801 17:13:36.933852  2259 db_lmdb.cpp:35] Opened lmdb /opt/caffe/examples/cifar10/cifar10_test_lmdb
I0801 17:13:36.933871  2259 net.cpp:84] Creating Layer cifar
I0801 17:13:36.933881  2259 net.cpp:380] cifar -> data
I0801 17:13:36.933892  2259 net.cpp:380] cifar -> label
I0801 17:13:36.933903  2259 data_transformer.cpp:25] Loading mean file from: /opt/caffe/examples/cifar10/mean.binaryproto
I0801 17:13:36.934036  2259 data_layer.cpp:45] output data size: 100,3,32,32
I0801 17:13:36.937968  2259 net.cpp:122] Setting up cifar
I0801 17:13:36.938015  2259 net.cpp:129] Top shape: 100 3 32 32 (307200)
I0801 17:13:36.938026  2259 net.cpp:129] Top shape: 100 (100)
I0801 17:13:36.938032  2259 net.cpp:137] Memory required for data: 1229200
I0801 17:13:36.938043  2259 layer_factory.hpp:77] Creating layer data_cifar_0_split
I0801 17:13:36.938057  2259 net.cpp:84] Creating Layer data_cifar_0_split
I0801 17:13:36.938066  2259 net.cpp:406] data_cifar_0_split <- data
I0801 17:13:36.938074  2259 net.cpp:380] data_cifar_0_split -> data_cifar_0_split_0
I0801 17:13:36.938086  2259 net.cpp:380] data_cifar_0_split -> data_cifar_0_split_1
I0801 17:13:36.938132  2259 net.cpp:122] Setting up data_cifar_0_split
I0801 17:13:36.938141  2259 net.cpp:129] Top shape: 100 3 32 32 (307200)
I0801 17:13:36.938149  2259 net.cpp:129] Top shape: 100 3 32 32 (307200)
I0801 17:13:36.938155  2259 net.cpp:137] Memory required for data: 3686800
I0801 17:13:36.938169  2259 layer_factory.hpp:77] Creating layer label_cifar_1_split
I0801 17:13:36.938185  2259 net.cpp:84] Creating Layer label_cifar_1_split
I0801 17:13:36.938192  2259 net.cpp:406] label_cifar_1_split <- label
I0801 17:13:36.938200  2259 net.cpp:380] label_cifar_1_split -> label_cifar_1_split_0
I0801 17:13:36.938210  2259 net.cpp:380] label_cifar_1_split -> label_cifar_1_split_1
I0801 17:13:36.938246  2259 net.cpp:122] Setting up label_cifar_1_split
I0801 17:13:36.938254  2259 net.cpp:129] Top shape: 100 (100)
I0801 17:13:36.938262  2259 net.cpp:129] Top shape: 100 (100)
I0801 17:13:36.938268  2259 net.cpp:137] Memory required for data: 3687600
I0801 17:13:36.938275  2259 layer_factory.hpp:77] Creating layer conv_s_1
I0801 17:13:36.938287  2259 net.cpp:84] Creating Layer conv_s_1
I0801 17:13:36.938295  2259 net.cpp:406] conv_s_1 <- data_cifar_0_split_0
I0801 17:13:36.938304  2259 net.cpp:380] conv_s_1 -> conv_s_1
I0801 17:13:36.939437  2259 net.cpp:122] Setting up conv_s_1
I0801 17:13:36.939458  2259 net.cpp:129] Top shape: 100 32 32 32 (3276800)
I0801 17:13:36.939466  2259 net.cpp:137] Memory required for data: 16794800
I0801 17:13:36.939481  2259 layer_factory.hpp:77] Creating layer pool_s_1
I0801 17:13:36.939492  2259 net.cpp:84] Creating Layer pool_s_1
I0801 17:13:36.939501  2259 net.cpp:406] pool_s_1 <- conv_s_1
I0801 17:13:36.939509  2259 net.cpp:380] pool_s_1 -> pool_s_1
I0801 17:13:36.939617  2259 net.cpp:122] Setting up pool_s_1
I0801 17:13:36.939637  2259 net.cpp:129] Top shape: 100 32 16 16 (819200)
I0801 17:13:36.939646  2259 net.cpp:137] Memory required for data: 20071600
I0801 17:13:36.939652  2259 layer_factory.hpp:77] Creating layer Sigmoid_s_1
I0801 17:13:36.939661  2259 net.cpp:84] Creating Layer Sigmoid_s_1
I0801 17:13:36.939671  2259 net.cpp:406] Sigmoid_s_1 <- pool_s_1
I0801 17:13:36.939678  2259 net.cpp:367] Sigmoid_s_1 -> pool_s_1 (in-place)
I0801 17:13:36.939803  2259 net.cpp:122] Setting up Sigmoid_s_1
I0801 17:13:36.939816  2259 net.cpp:129] Top shape: 100 32 16 16 (819200)
I0801 17:13:36.939824  2259 net.cpp:137] Memory required for data: 23348400
I0801 17:13:36.939831  2259 layer_factory.hpp:77] Creating layer norm_s_1
I0801 17:13:36.939841  2259 net.cpp:84] Creating Layer norm_s_1
I0801 17:13:36.939847  2259 net.cpp:406] norm_s_1 <- pool_s_1
I0801 17:13:36.939857  2259 net.cpp:380] norm_s_1 -> norm_s_1
I0801 17:13:36.940459  2259 net.cpp:122] Setting up norm_s_1
I0801 17:13:36.940475  2259 net.cpp:129] Top shape: 100 32 16 16 (819200)
I0801 17:13:36.940482  2259 net.cpp:137] Memory required for data: 26625200
I0801 17:13:36.940490  2259 layer_factory.hpp:77] Creating layer conv_s_2
I0801 17:13:36.940502  2259 net.cpp:84] Creating Layer conv_s_2
I0801 17:13:36.940510  2259 net.cpp:406] conv_s_2 <- norm_s_1
I0801 17:13:36.940518  2259 net.cpp:380] conv_s_2 -> conv_s_2
I0801 17:13:36.941596  2259 net.cpp:122] Setting up conv_s_2
I0801 17:13:36.941614  2259 net.cpp:129] Top shape: 100 32 16 16 (819200)
I0801 17:13:36.941623  2259 net.cpp:137] Memory required for data: 29902000
I0801 17:13:36.941634  2259 layer_factory.hpp:77] Creating layer Sigmoid_s_2
I0801 17:13:36.941645  2259 net.cpp:84] Creating Layer Sigmoid_s_2
I0801 17:13:36.941653  2259 net.cpp:406] Sigmoid_s_2 <- conv_s_2
I0801 17:13:36.941660  2259 net.cpp:367] Sigmoid_s_2 -> conv_s_2 (in-place)
I0801 17:13:36.941800  2259 net.cpp:122] Setting up Sigmoid_s_2
I0801 17:13:36.941813  2259 net.cpp:129] Top shape: 100 32 16 16 (819200)
I0801 17:13:36.941819  2259 net.cpp:137] Memory required for data: 33178800
I0801 17:13:36.941828  2259 layer_factory.hpp:77] Creating layer pool_s_2
I0801 17:13:36.941836  2259 net.cpp:84] Creating Layer pool_s_2
I0801 17:13:36.941844  2259 net.cpp:406] pool_s_2 <- conv_s_2
I0801 17:13:36.941853  2259 net.cpp:380] pool_s_2 -> pool_s_2
I0801 17:13:36.942188  2259 net.cpp:122] Setting up pool_s_2
I0801 17:13:36.942203  2259 net.cpp:129] Top shape: 100 32 8 8 (204800)
I0801 17:13:36.942211  2259 net.cpp:137] Memory required for data: 33998000
I0801 17:13:36.942219  2259 layer_factory.hpp:77] Creating layer norm_s_2
I0801 17:13:36.942232  2259 net.cpp:84] Creating Layer norm_s_2
I0801 17:13:36.942247  2259 net.cpp:406] norm_s_2 <- pool_s_2
I0801 17:13:36.942256  2259 net.cpp:380] norm_s_2 -> norm_s_2
I0801 17:13:36.942445  2259 net.cpp:122] Setting up norm_s_2
I0801 17:13:36.942457  2259 net.cpp:129] Top shape: 100 32 8 8 (204800)
I0801 17:13:36.942464  2259 net.cpp:137] Memory required for data: 34817200
I0801 17:13:36.942471  2259 layer_factory.hpp:77] Creating layer conv_s_3
I0801 17:13:36.942482  2259 net.cpp:84] Creating Layer conv_s_3
I0801 17:13:36.942490  2259 net.cpp:406] conv_s_3 <- norm_s_2
I0801 17:13:36.942498  2259 net.cpp:380] conv_s_3 -> conv_s_3
I0801 17:13:36.943477  2259 net.cpp:122] Setting up conv_s_3
I0801 17:13:36.943493  2259 net.cpp:129] Top shape: 100 64 8 8 (409600)
I0801 17:13:36.943501  2259 net.cpp:137] Memory required for data: 36455600
I0801 17:13:36.943512  2259 layer_factory.hpp:77] Creating layer Sigmoid_s_3
I0801 17:13:36.943521  2259 net.cpp:84] Creating Layer Sigmoid_s_3
I0801 17:13:36.943528  2259 net.cpp:406] Sigmoid_s_3 <- conv_s_3
I0801 17:13:36.943536  2259 net.cpp:367] Sigmoid_s_3 -> conv_s_3 (in-place)
I0801 17:13:36.943655  2259 net.cpp:122] Setting up Sigmoid_s_3
I0801 17:13:36.943666  2259 net.cpp:129] Top shape: 100 64 8 8 (409600)
I0801 17:13:36.943673  2259 net.cpp:137] Memory required for data: 38094000
I0801 17:13:36.943681  2259 layer_factory.hpp:77] Creating layer pool_s_3
I0801 17:13:36.943688  2259 net.cpp:84] Creating Layer pool_s_3
I0801 17:13:36.943696  2259 net.cpp:406] pool_s_3 <- conv_s_3
I0801 17:13:36.943704  2259 net.cpp:380] pool_s_3 -> pool_s_3
I0801 17:13:36.944022  2259 net.cpp:122] Setting up pool_s_3
I0801 17:13:36.944037  2259 net.cpp:129] Top shape: 100 64 4 4 (102400)
I0801 17:13:36.944044  2259 net.cpp:137] Memory required for data: 38503600
I0801 17:13:36.944051  2259 layer_factory.hpp:77] Creating layer ip_s_1
I0801 17:13:36.944061  2259 net.cpp:84] Creating Layer ip_s_1
I0801 17:13:36.944068  2259 net.cpp:406] ip_s_1 <- pool_s_3
I0801 17:13:36.944077  2259 net.cpp:380] ip_s_1 -> ip_s_1
I0801 17:13:36.944218  2259 net.cpp:122] Setting up ip_s_1
I0801 17:13:36.944229  2259 net.cpp:129] Top shape: 100 10 (1000)
I0801 17:13:36.944236  2259 net.cpp:137] Memory required for data: 38507600
I0801 17:13:36.944244  2259 layer_factory.hpp:77] Creating layer ip_s_1_ip_s_1_0_split
I0801 17:13:36.944253  2259 net.cpp:84] Creating Layer ip_s_1_ip_s_1_0_split
I0801 17:13:36.944260  2259 net.cpp:406] ip_s_1_ip_s_1_0_split <- ip_s_1
I0801 17:13:36.944269  2259 net.cpp:380] ip_s_1_ip_s_1_0_split -> ip_s_1_ip_s_1_0_split_0
I0801 17:13:36.944278  2259 net.cpp:380] ip_s_1_ip_s_1_0_split -> ip_s_1_ip_s_1_0_split_1
I0801 17:13:36.944289  2259 net.cpp:380] ip_s_1_ip_s_1_0_split -> ip_s_1_ip_s_1_0_split_2
I0801 17:13:36.944334  2259 net.cpp:122] Setting up ip_s_1_ip_s_1_0_split
I0801 17:13:36.944342  2259 net.cpp:129] Top shape: 100 10 (1000)
I0801 17:13:36.944350  2259 net.cpp:129] Top shape: 100 10 (1000)
I0801 17:13:36.944357  2259 net.cpp:129] Top shape: 100 10 (1000)
I0801 17:13:36.944365  2259 net.cpp:137] Memory required for data: 38519600
I0801 17:13:36.944371  2259 layer_factory.hpp:77] Creating layer conv_t_1
I0801 17:13:36.944386  2259 net.cpp:84] Creating Layer conv_t_1
I0801 17:13:36.944393  2259 net.cpp:406] conv_t_1 <- data_cifar_0_split_1
I0801 17:13:36.944402  2259 net.cpp:380] conv_t_1 -> conv_t_1
I0801 17:13:36.945116  2259 net.cpp:122] Setting up conv_t_1
I0801 17:13:36.945132  2259 net.cpp:129] Top shape: 100 32 32 32 (3276800)
I0801 17:13:36.945140  2259 net.cpp:137] Memory required for data: 51626800
I0801 17:13:36.945150  2259 layer_factory.hpp:77] Creating layer pool_t_1
I0801 17:13:36.945159  2259 net.cpp:84] Creating Layer pool_t_1
I0801 17:13:36.945168  2259 net.cpp:406] pool_t_1 <- conv_t_1
I0801 17:13:36.945175  2259 net.cpp:380] pool_t_1 -> pool_t_1
I0801 17:13:36.945214  2259 net.cpp:122] Setting up pool_t_1
I0801 17:13:36.945224  2259 net.cpp:129] Top shape: 100 32 16 16 (819200)
I0801 17:13:36.945230  2259 net.cpp:137] Memory required for data: 54903600
I0801 17:13:36.945246  2259 layer_factory.hpp:77] Creating layer relu_t_1
I0801 17:13:36.945255  2259 net.cpp:84] Creating Layer relu_t_1
I0801 17:13:36.945262  2259 net.cpp:406] relu_t_1 <- pool_t_1
I0801 17:13:36.945271  2259 net.cpp:367] relu_t_1 -> pool_t_1 (in-place)
I0801 17:13:36.945390  2259 net.cpp:122] Setting up relu_t_1
I0801 17:13:36.945402  2259 net.cpp:129] Top shape: 100 32 16 16 (819200)
I0801 17:13:36.945410  2259 net.cpp:137] Memory required for data: 58180400
I0801 17:13:36.945415  2259 layer_factory.hpp:77] Creating layer norm_t_1
I0801 17:13:36.945425  2259 net.cpp:84] Creating Layer norm_t_1
I0801 17:13:36.945431  2259 net.cpp:406] norm_t_1 <- pool_t_1
I0801 17:13:36.945439  2259 net.cpp:380] norm_t_1 -> norm_t_1
I0801 17:13:36.945978  2259 net.cpp:122] Setting up norm_t_1
I0801 17:13:36.945992  2259 net.cpp:129] Top shape: 100 32 16 16 (819200)
I0801 17:13:36.946000  2259 net.cpp:137] Memory required for data: 61457200
I0801 17:13:36.946007  2259 layer_factory.hpp:77] Creating layer conv_t_2
I0801 17:13:36.946018  2259 net.cpp:84] Creating Layer conv_t_2
I0801 17:13:36.946025  2259 net.cpp:406] conv_t_2 <- norm_t_1
I0801 17:13:36.946034  2259 net.cpp:380] conv_t_2 -> conv_t_2
I0801 17:13:36.947073  2259 net.cpp:122] Setting up conv_t_2
I0801 17:13:36.947090  2259 net.cpp:129] Top shape: 100 32 16 16 (819200)
I0801 17:13:36.947098  2259 net.cpp:137] Memory required for data: 64734000
I0801 17:13:36.947106  2259 layer_factory.hpp:77] Creating layer relu_t_2
I0801 17:13:36.947115  2259 net.cpp:84] Creating Layer relu_t_2
I0801 17:13:36.947123  2259 net.cpp:406] relu_t_2 <- conv_t_2
I0801 17:13:36.947131  2259 net.cpp:367] relu_t_2 -> conv_t_2 (in-place)
I0801 17:13:36.947443  2259 net.cpp:122] Setting up relu_t_2
I0801 17:13:36.947458  2259 net.cpp:129] Top shape: 100 32 16 16 (819200)
I0801 17:13:36.947464  2259 net.cpp:137] Memory required for data: 68010800
I0801 17:13:36.947471  2259 layer_factory.hpp:77] Creating layer pool_t_2
I0801 17:13:36.947480  2259 net.cpp:84] Creating Layer pool_t_2
I0801 17:13:36.947487  2259 net.cpp:406] pool_t_2 <- conv_t_2
I0801 17:13:36.947495  2259 net.cpp:380] pool_t_2 -> pool_t_2
I0801 17:13:36.947623  2259 net.cpp:122] Setting up pool_t_2
I0801 17:13:36.947635  2259 net.cpp:129] Top shape: 100 32 8 8 (204800)
I0801 17:13:36.947643  2259 net.cpp:137] Memory required for data: 68830000
I0801 17:13:36.947649  2259 layer_factory.hpp:77] Creating layer norm_t_2
I0801 17:13:36.947659  2259 net.cpp:84] Creating Layer norm_t_2
I0801 17:13:36.947665  2259 net.cpp:406] norm_t_2 <- pool_t_2
I0801 17:13:36.947674  2259 net.cpp:380] norm_t_2 -> norm_t_2
I0801 17:13:36.947854  2259 net.cpp:122] Setting up norm_t_2
I0801 17:13:36.947866  2259 net.cpp:129] Top shape: 100 32 8 8 (204800)
I0801 17:13:36.947875  2259 net.cpp:137] Memory required for data: 69649200
I0801 17:13:36.947880  2259 layer_factory.hpp:77] Creating layer conv_t_3
I0801 17:13:36.947891  2259 net.cpp:84] Creating Layer conv_t_3
I0801 17:13:36.947898  2259 net.cpp:406] conv_t_3 <- norm_t_2
I0801 17:13:36.947907  2259 net.cpp:380] conv_t_3 -> conv_t_3
I0801 17:13:36.948897  2259 net.cpp:122] Setting up conv_t_3
I0801 17:13:36.948914  2259 net.cpp:129] Top shape: 100 64 8 8 (409600)
I0801 17:13:36.948921  2259 net.cpp:137] Memory required for data: 71287600
I0801 17:13:36.948930  2259 layer_factory.hpp:77] Creating layer relu_t_3
I0801 17:13:36.948940  2259 net.cpp:84] Creating Layer relu_t_3
I0801 17:13:36.948946  2259 net.cpp:406] relu_t_3 <- conv_t_3
I0801 17:13:36.948956  2259 net.cpp:367] relu_t_3 -> conv_t_3 (in-place)
I0801 17:13:36.949074  2259 net.cpp:122] Setting up relu_t_3
I0801 17:13:36.949084  2259 net.cpp:129] Top shape: 100 64 8 8 (409600)
I0801 17:13:36.949110  2259 net.cpp:137] Memory required for data: 72926000
I0801 17:13:36.949112  2259 layer_factory.hpp:77] Creating layer pool_t_3
I0801 17:13:36.949116  2259 net.cpp:84] Creating Layer pool_t_3
I0801 17:13:36.949118  2259 net.cpp:406] pool_t_3 <- conv_t_3
I0801 17:13:36.949120  2259 net.cpp:380] pool_t_3 -> pool_t_3
I0801 17:13:36.949443  2259 net.cpp:122] Setting up pool_t_3
I0801 17:13:36.949461  2259 net.cpp:129] Top shape: 100 64 4 4 (102400)
I0801 17:13:36.949463  2259 net.cpp:137] Memory required for data: 73335600
I0801 17:13:36.949465  2259 layer_factory.hpp:77] Creating layer ip_t_1
I0801 17:13:36.949470  2259 net.cpp:84] Creating Layer ip_t_1
I0801 17:13:36.949472  2259 net.cpp:406] ip_t_1 <- pool_t_3
I0801 17:13:36.949476  2259 net.cpp:380] ip_t_1 -> ip_t_1
I0801 17:13:36.949630  2259 net.cpp:122] Setting up ip_t_1
I0801 17:13:36.949635  2259 net.cpp:129] Top shape: 100 10 (1000)
I0801 17:13:36.949636  2259 net.cpp:137] Memory required for data: 73339600
I0801 17:13:36.949640  2259 layer_factory.hpp:77] Creating layer sm_s_1
I0801 17:13:36.949643  2259 net.cpp:84] Creating Layer sm_s_1
I0801 17:13:36.949645  2259 net.cpp:406] sm_s_1 <- ip_s_1_ip_s_1_0_split_0
I0801 17:13:36.949648  2259 net.cpp:380] sm_s_1 -> sm_s_1
I0801 17:13:36.949808  2259 net.cpp:122] Setting up sm_s_1
I0801 17:13:36.949813  2259 net.cpp:129] Top shape: 100 10 (1000)
I0801 17:13:36.949815  2259 net.cpp:137] Memory required for data: 73343600
I0801 17:13:36.949817  2259 layer_factory.hpp:77] Creating layer sm_t_1
I0801 17:13:36.949820  2259 net.cpp:84] Creating Layer sm_t_1
I0801 17:13:36.949821  2259 net.cpp:406] sm_t_1 <- ip_t_1
I0801 17:13:36.949826  2259 net.cpp:380] sm_t_1 -> sm_t_1
I0801 17:13:36.949970  2259 net.cpp:122] Setting up sm_t_1
I0801 17:13:36.949975  2259 net.cpp:129] Top shape: 100 10 (1000)
I0801 17:13:36.949976  2259 net.cpp:137] Memory required for data: 73347600
I0801 17:13:36.949978  2259 layer_factory.hpp:77] Creating layer accuracy
I0801 17:13:36.949983  2259 net.cpp:84] Creating Layer accuracy
I0801 17:13:36.949985  2259 net.cpp:406] accuracy <- ip_s_1_ip_s_1_0_split_1
I0801 17:13:36.949987  2259 net.cpp:406] accuracy <- label_cifar_1_split_0
I0801 17:13:36.949990  2259 net.cpp:380] accuracy -> accuracy
…
