…
I0801 16:15:41.772719  2121 net.cpp:294] The NetState phase (0) differed from the phase (1) specified by a rule in layer accuracy
I0801 16:15:41.772824  2121 net.cpp:51] Initializing net from parameters: 
name: "CIFAR10_full"
state {
  phase: TRAIN
  level: 0
  stage: ""
}
layer {
  name: "cifar"
  type: "Data"
  top: "data"
  top: "label"
  include {
    phase: TRAIN
  }
  transform_param {
    mean_file: "/opt/caffe/examples/cifar10/mean.binaryproto"
  }
  data_param {
    source: "/opt/caffe/examples/cifar10/cifar10_train_lmdb"
    batch_size: 100
    backend: LMDB
  }
}
layer {
  name: "conv_s_1"
  type: "Convolution"
  bottom: "data"
  top: "conv_s_1"
  param {
    lr_mult: 1
  }
  param {
    lr_mult: 2
  }
  convolution_param {
    num_output: 32
    pad: 2
    kernel_size: 5
    stride: 1
    weight_filler {
      type: "gaussian"
      std: 0.0001
    }
    bias_filler {
      type: "constant"
    }
  }
}
layer {
  name: "pool_s_1"
  type: "Pooling"
  bottom: "conv_s_1"
  top: "pool_s_1"
  pooling_param {
    pool: MAX
    kernel_size: 3
    stride: 2
  }
}
layer {
  name: "relu_s_1"
  type: "ReLU"
  bottom: "pool_s_1"
  top: "pool_s_1"
}
layer {
  name: "norm_s_1"
  type: "LRN"
  bottom: "pool_s_1"
  top: "norm_s_1"
  lrn_param {
    local_size: 3
    alpha: 5e-05
    beta: 0.75
    norm_region: WITHIN_CHANNEL
  }
}
layer {
  name: "conv_s_2"
  type: "Convolution"
  bottom: "norm_s_1"
  top: "conv_s_2"
  param {
    lr_mult: 1
  }
  param {
    lr_mult: 2
  }
  convolution_param {
    num_output: 32
    pad: 2
    kernel_size: 5
    stride: 1
    weight_filler {
      type: "gaussian"
      std: 0.01
    }
    bias_filler {
      type: "constant"
    }
  }
}
layer {
  name: "relu_s_2"
  type: "ReLU"
  bottom: "conv_s_2"
  top: "conv_s_2"
}
layer {
  name: "pool_s_2"
  type: "Pooling"
  bottom: "conv_s_2"
  top: "pool_s_2"
  pooling_param {
    pool: AVE
    kernel_size: 3
    stride: 2
  }
}
layer {
  name: "norm_s_2"
  type: "LRN"
  bottom: "pool_s_2"
  top: "norm_s_2"
  lrn_param {
    local_size: 3
    alpha: 5e-05
    beta: 0.75
    norm_region: WITHIN_CHANNEL
  }
}
layer {
  name: "conv_s_3"
  type: "Convolution"
  bottom: "norm_s_2"
  top: "conv_s_3"
  param {
    lr_mult: 1
  }
  param {
    lr_mult: 2
  }
  convolution_param {
    num_output: 64
    pad: 2
    kernel_size: 5
    stride: 1
    weight_filler {
      type: "gaussian"
      std: 0.01
    }
    bias_filler {
      type: "constant"
    }
  }
}
layer {
  name: "relu_s_3"
  type: "ReLU"
  bottom: "conv_s_3"
  top: "conv_s_3"
}
layer {
  name: "pool_s_3"
  type: "Pooling"
  bottom: "conv_s_3"
  top: "pool_s_3"
  pooling_param {
    pool: AVE
    kernel_size: 3
    stride: 2
  }
}
layer {
  name: "ip_s_1"
  type: "InnerProduct"
  bottom: "pool_s_3"
  top: "ip_s_1"
  param {
    lr_mult: 1
    decay_mult: 250
  }
  param {
    lr_mult: 2
    decay_mult: 0
  }
  inner_product_param {
    num_output: 10
    weight_filler {
      type: "gaussian"
      std: 0.01
    }
    bias_filler {
      type: "constant"
    }
  }
}
layer {
  name: "conv_t_1"
  type: "Convolution"
  bottom: "data"
  top: "conv_t_1"
  param {
    lr_mult: 0
  }
  param {
    lr_mult: 0
  }
  convolution_param {
    num_output: 32
    pad: 2
    kernel_size: 5
    stride: 1
    weight_filler {
      type: "gaussian"
      std: 0.0001
    }
    bias_filler {
      type: "constant"
    }
  }
}
layer {
  name: "pool_t_1"
  type: "Pooling"
  bottom: "conv_t_1"
  top: "pool_t_1"
  pooling_param {
    pool: MAX
    kernel_size: 3
    stride: 2
  }
}
layer {
  name: "relu_t_1"
  type: "ReLU"
  bottom: "pool_t_1"
  top: "pool_t_1"
}
layer {
  name: "norm_t_1"
  type: "LRN"
  bottom: "pool_t_1"
  top: "norm_t_1"
  lrn_param {
    local_size: 3
    alpha: 5e-05
    beta: 0.75
    norm_region: WITHIN_CHANNEL
  }
}
layer {
  name: "conv_t_2"
  type: "Convolution"
  bottom: "norm_t_1"
  top: "conv_t_2"
  param {
    lr_mult: 0
  }
  param {
    lr_mult: 0
  }
  convolution_param {
    num_output: 32
    pad: 2
    kernel_size: 5
    stride: 1
    weight_filler {
      type: "gaussian"
      std: 0.01
    }
    bias_filler {
      type: "constant"
    }
  }
}
layer {
  name: "relu_t_2"
  type: "ReLU"
  bottom: "conv_t_2"
  top: "conv_t_2"
}
layer {
  name: "pool_t_2"
  type: "Pooling"
  bottom: "conv_t_2"
  top: "pool_t_2"
  pooling_param {
    pool: AVE
    kernel_size: 3
    stride: 2
  }
}
layer {
  name: "norm_t_2"
  type: "LRN"
  bottom: "pool_t_2"
  top: "norm_t_2"
  lrn_param {
    local_size: 3
    alpha: 5e-05
    beta: 0.75
    norm_region: WITHIN_CHANNEL
  }
}
layer {
  name: "conv_t_3"
  type: "Convolution"
  bottom: "norm_t_2"
  top: "conv_t_3"
  param {
    lr_mult: 0
  }
  param {
    lr_mult: 0
  }
  convolution_param {
    num_output: 64
    pad: 2
    kernel_size: 5
    stride: 1
    weight_filler {
      type: "gaussian"
      std: 0.01
    }
    bias_filler {
      type: "constant"
    }
  }
}
layer {
  name: "relu_t_3"
  type: "ReLU"
  bottom: "conv_t_3"
  top: "conv_t_3"
}
layer {
  name: "pool_t_3"
  type: "Pooling"
  bottom: "conv_t_3"
  top: "pool_t_3"
  pooling_param {
    pool: AVE
    kernel_size: 3
    stride: 2
  }
}
layer {
  name: "ip_t_1"
  type: "InnerProduct"
  bottom: "pool_t_3"
  top: "ip_t_1"
  param {
    lr_mult: 0
  }
  param {
    lr_mult: 0
  }
  inner_product_param {
    num_output: 10
    weight_filler {
      type: "gaussian"
      std: 0.01
    }
    bias_filler {
      type: "constant"
    }
  }
}
layer {
  name: "sm_s_1"
  type: "Softmax"
  bottom: "ip_s_1"
  top: "sm_s_1"
}
layer {
  name: "sm_t_1"
  type: "Softmax"
  bottom: "ip_t_1"
  top: "sm_t_1"
}
layer {
  name: "ts_loss"
  type: "SigmoidCrossEntropyLoss"
  bottom: "sm_s_1"
  bottom: "sm_t_1"
  top: "ts_loss"
  loss_weight: 0.5
}
layer {
  name: "loss"
  type: "SoftmaxWithLoss"
  bottom: "ip_s_1"
  bottom: "label"
  top: "loss"
  loss_weight: 0.5
}
I0801 16:15:41.772914  2121 layer_factory.hpp:77] Creating layer cifar
I0801 16:15:41.773005  2121 db_lmdb.cpp:35] Opened lmdb /opt/caffe/examples/cifar10/cifar10_train_lmdb
I0801 16:15:41.773025  2121 net.cpp:84] Creating Layer cifar
I0801 16:15:41.773030  2121 net.cpp:380] cifar -> data
I0801 16:15:41.773044  2121 net.cpp:380] cifar -> label
I0801 16:15:41.773052  2121 data_transformer.cpp:25] Loading mean file from: /opt/caffe/examples/cifar10/mean.binaryproto
I0801 16:15:41.774195  2121 data_layer.cpp:45] output data size: 100,3,32,32
I0801 16:15:41.777734  2121 net.cpp:122] Setting up cifar
I0801 16:15:41.777751  2121 net.cpp:129] Top shape: 100 3 32 32 (307200)
I0801 16:15:41.777755  2121 net.cpp:129] Top shape: 100 (100)
I0801 16:15:41.777755  2121 net.cpp:137] Memory required for data: 1229200
I0801 16:15:41.777763  2121 layer_factory.hpp:77] Creating layer data_cifar_0_split
I0801 16:15:41.777772  2121 net.cpp:84] Creating Layer data_cifar_0_split
I0801 16:15:41.777776  2121 net.cpp:406] data_cifar_0_split <- data
I0801 16:15:41.777786  2121 net.cpp:380] data_cifar_0_split -> data_cifar_0_split_0
I0801 16:15:41.777793  2121 net.cpp:380] data_cifar_0_split -> data_cifar_0_split_1
I0801 16:15:41.777838  2121 net.cpp:122] Setting up data_cifar_0_split
I0801 16:15:41.777842  2121 net.cpp:129] Top shape: 100 3 32 32 (307200)
I0801 16:15:41.777845  2121 net.cpp:129] Top shape: 100 3 32 32 (307200)
I0801 16:15:41.777846  2121 net.cpp:137] Memory required for data: 3686800
I0801 16:15:41.777848  2121 layer_factory.hpp:77] Creating layer conv_s_1
I0801 16:15:41.777860  2121 net.cpp:84] Creating Layer conv_s_1
I0801 16:15:41.777876  2121 net.cpp:406] conv_s_1 <- data_cifar_0_split_0
I0801 16:15:41.777881  2121 net.cpp:380] conv_s_1 -> conv_s_1
I0801 16:15:42.084164  2121 net.cpp:122] Setting up conv_s_1
I0801 16:15:42.084187  2121 net.cpp:129] Top shape: 100 32 32 32 (3276800)
I0801 16:15:42.084188  2121 net.cpp:137] Memory required for data: 16794000
I0801 16:15:42.084203  2121 layer_factory.hpp:77] Creating layer pool_s_1
I0801 16:15:42.084213  2121 net.cpp:84] Creating Layer pool_s_1
I0801 16:15:42.084215  2121 net.cpp:406] pool_s_1 <- conv_s_1
I0801 16:15:42.084220  2121 net.cpp:380] pool_s_1 -> pool_s_1
I0801 16:15:42.084261  2121 net.cpp:122] Setting up pool_s_1
I0801 16:15:42.084265  2121 net.cpp:129] Top shape: 100 32 16 16 (819200)
I0801 16:15:42.084267  2121 net.cpp:137] Memory required for data: 20070800
I0801 16:15:42.084269  2121 layer_factory.hpp:77] Creating layer relu_s_1
I0801 16:15:42.084273  2121 net.cpp:84] Creating Layer relu_s_1
I0801 16:15:42.084275  2121 net.cpp:406] relu_s_1 <- pool_s_1
I0801 16:15:42.084278  2121 net.cpp:367] relu_s_1 -> pool_s_1 (in-place)
I0801 16:15:42.084607  2121 net.cpp:122] Setting up relu_s_1
I0801 16:15:42.084617  2121 net.cpp:129] Top shape: 100 32 16 16 (819200)
I0801 16:15:42.084619  2121 net.cpp:137] Memory required for data: 23347600
I0801 16:15:42.084620  2121 layer_factory.hpp:77] Creating layer norm_s_1
I0801 16:15:42.084627  2121 net.cpp:84] Creating Layer norm_s_1
I0801 16:15:42.084630  2121 net.cpp:406] norm_s_1 <- pool_s_1
I0801 16:15:42.084633  2121 net.cpp:380] norm_s_1 -> norm_s_1
I0801 16:15:42.085171  2121 net.cpp:122] Setting up norm_s_1
I0801 16:15:42.085180  2121 net.cpp:129] Top shape: 100 32 16 16 (819200)
I0801 16:15:42.085182  2121 net.cpp:137] Memory required for data: 26624400
I0801 16:15:42.085185  2121 layer_factory.hpp:77] Creating layer conv_s_2
I0801 16:15:42.085191  2121 net.cpp:84] Creating Layer conv_s_2
I0801 16:15:42.085193  2121 net.cpp:406] conv_s_2 <- norm_s_1
I0801 16:15:42.085197  2121 net.cpp:380] conv_s_2 -> conv_s_2
I0801 16:15:42.086693  2121 net.cpp:122] Setting up conv_s_2
I0801 16:15:42.086700  2121 net.cpp:129] Top shape: 100 32 16 16 (819200)
I0801 16:15:42.086702  2121 net.cpp:137] Memory required for data: 29901200
I0801 16:15:42.086709  2121 layer_factory.hpp:77] Creating layer relu_s_2
I0801 16:15:42.086712  2121 net.cpp:84] Creating Layer relu_s_2
I0801 16:15:42.086714  2121 net.cpp:406] relu_s_2 <- conv_s_2
I0801 16:15:42.086717  2121 net.cpp:367] relu_s_2 -> conv_s_2 (in-place)
I0801 16:15:42.086833  2121 net.cpp:122] Setting up relu_s_2
I0801 16:15:42.086838  2121 net.cpp:129] Top shape: 100 32 16 16 (819200)
I0801 16:15:42.086839  2121 net.cpp:137] Memory required for data: 33178000
I0801 16:15:42.086841  2121 layer_factory.hpp:77] Creating layer pool_s_2
I0801 16:15:42.086846  2121 net.cpp:84] Creating Layer pool_s_2
I0801 16:15:42.086848  2121 net.cpp:406] pool_s_2 <- conv_s_2
I0801 16:15:42.086850  2121 net.cpp:380] pool_s_2 -> pool_s_2
I0801 16:15:42.087155  2121 net.cpp:122] Setting up pool_s_2
I0801 16:15:42.087164  2121 net.cpp:129] Top shape: 100 32 8 8 (204800)
I0801 16:15:42.087167  2121 net.cpp:137] Memory required for data: 33997200
I0801 16:15:42.087168  2121 layer_factory.hpp:77] Creating layer norm_s_2
I0801 16:15:42.087172  2121 net.cpp:84] Creating Layer norm_s_2
I0801 16:15:42.087189  2121 net.cpp:406] norm_s_2 <- pool_s_2
I0801 16:15:42.087200  2121 net.cpp:380] norm_s_2 -> norm_s_2
I0801 16:15:42.087391  2121 net.cpp:122] Setting up norm_s_2
I0801 16:15:42.087404  2121 net.cpp:129] Top shape: 100 32 8 8 (204800)
I0801 16:15:42.087412  2121 net.cpp:137] Memory required for data: 34816400
I0801 16:15:42.087419  2121 layer_factory.hpp:77] Creating layer conv_s_3
I0801 16:15:42.087430  2121 net.cpp:84] Creating Layer conv_s_3
I0801 16:15:42.087438  2121 net.cpp:406] conv_s_3 <- norm_s_2
I0801 16:15:42.087448  2121 net.cpp:380] conv_s_3 -> conv_s_3
I0801 16:15:42.088445  2121 net.cpp:122] Setting up conv_s_3
I0801 16:15:42.088462  2121 net.cpp:129] Top shape: 100 64 8 8 (409600)
I0801 16:15:42.088477  2121 net.cpp:137] Memory required for data: 36454800
I0801 16:15:42.088495  2121 layer_factory.hpp:77] Creating layer relu_s_3
I0801 16:15:42.088505  2121 net.cpp:84] Creating Layer relu_s_3
I0801 16:15:42.088510  2121 net.cpp:406] relu_s_3 <- conv_s_3
I0801 16:15:42.088518  2121 net.cpp:367] relu_s_3 -> conv_s_3 (in-place)
I0801 16:15:42.088640  2121 net.cpp:122] Setting up relu_s_3
I0801 16:15:42.088652  2121 net.cpp:129] Top shape: 100 64 8 8 (409600)
I0801 16:15:42.088660  2121 net.cpp:137] Memory required for data: 38093200
I0801 16:15:42.088666  2121 layer_factory.hpp:77] Creating layer pool_s_3
I0801 16:15:42.088676  2121 net.cpp:84] Creating Layer pool_s_3
I0801 16:15:42.088683  2121 net.cpp:406] pool_s_3 <- conv_s_3
I0801 16:15:42.088691  2121 net.cpp:380] pool_s_3 -> pool_s_3
I0801 16:15:42.088820  2121 net.cpp:122] Setting up pool_s_3
I0801 16:15:42.088834  2121 net.cpp:129] Top shape: 100 64 4 4 (102400)
I0801 16:15:42.088840  2121 net.cpp:137] Memory required for data: 38502800
I0801 16:15:42.088846  2121 layer_factory.hpp:77] Creating layer ip_s_1
I0801 16:15:42.088856  2121 net.cpp:84] Creating Layer ip_s_1
I0801 16:15:42.088865  2121 net.cpp:406] ip_s_1 <- pool_s_3
I0801 16:15:42.088873  2121 net.cpp:380] ip_s_1 -> ip_s_1
I0801 16:15:42.089491  2121 net.cpp:122] Setting up ip_s_1
I0801 16:15:42.089509  2121 net.cpp:129] Top shape: 100 10 (1000)
I0801 16:15:42.089515  2121 net.cpp:137] Memory required for data: 38506800
I0801 16:15:42.089524  2121 layer_factory.hpp:77] Creating layer ip_s_1_ip_s_1_0_split
I0801 16:15:42.089534  2121 net.cpp:84] Creating Layer ip_s_1_ip_s_1_0_split
I0801 16:15:42.089540  2121 net.cpp:406] ip_s_1_ip_s_1_0_split <- ip_s_1
I0801 16:15:42.089550  2121 net.cpp:380] ip_s_1_ip_s_1_0_split -> ip_s_1_ip_s_1_0_split_0
I0801 16:15:42.089560  2121 net.cpp:380] ip_s_1_ip_s_1_0_split -> ip_s_1_ip_s_1_0_split_1
I0801 16:15:42.089594  2121 net.cpp:122] Setting up ip_s_1_ip_s_1_0_split
I0801 16:15:42.089604  2121 net.cpp:129] Top shape: 100 10 (1000)
I0801 16:15:42.089612  2121 net.cpp:129] Top shape: 100 10 (1000)
I0801 16:15:42.089617  2121 net.cpp:137] Memory required for data: 38514800
I0801 16:15:42.089624  2121 layer_factory.hpp:77] Creating layer conv_t_1
I0801 16:15:42.089637  2121 net.cpp:84] Creating Layer conv_t_1
I0801 16:15:42.089644  2121 net.cpp:406] conv_t_1 <- data_cifar_0_split_1
I0801 16:15:42.089654  2121 net.cpp:380] conv_t_1 -> conv_t_1
I0801 16:15:42.090391  2121 net.cpp:122] Setting up conv_t_1
I0801 16:15:42.090409  2121 net.cpp:129] Top shape: 100 32 32 32 (3276800)
I0801 16:15:42.090416  2121 net.cpp:137] Memory required for data: 51622000
I0801 16:15:42.090428  2121 layer_factory.hpp:77] Creating layer pool_t_1
I0801 16:15:42.090440  2121 net.cpp:84] Creating Layer pool_t_1
I0801 16:15:42.090448  2121 net.cpp:406] pool_t_1 <- conv_t_1
I0801 16:15:42.090456  2121 net.cpp:380] pool_t_1 -> pool_t_1
I0801 16:15:42.090492  2121 net.cpp:122] Setting up pool_t_1
I0801 16:15:42.090502  2121 net.cpp:129] Top shape: 100 32 16 16 (819200)
I0801 16:15:42.090508  2121 net.cpp:137] Memory required for data: 54898800
I0801 16:15:42.090514  2121 layer_factory.hpp:77] Creating layer relu_t_1
I0801 16:15:42.090523  2121 net.cpp:84] Creating Layer relu_t_1
I0801 16:15:42.090530  2121 net.cpp:406] relu_t_1 <- pool_t_1
I0801 16:15:42.090538  2121 net.cpp:367] relu_t_1 -> pool_t_1 (in-place)
I0801 16:15:42.090854  2121 net.cpp:122] Setting up relu_t_1
I0801 16:15:42.090869  2121 net.cpp:129] Top shape: 100 32 16 16 (819200)
I0801 16:15:42.090878  2121 net.cpp:137] Memory required for data: 58175600
I0801 16:15:42.090883  2121 layer_factory.hpp:77] Creating layer norm_t_1
I0801 16:15:42.090894  2121 net.cpp:84] Creating Layer norm_t_1
I0801 16:15:42.090901  2121 net.cpp:406] norm_t_1 <- pool_t_1
I0801 16:15:42.090911  2121 net.cpp:380] norm_t_1 -> norm_t_1
I0801 16:15:42.091455  2121 net.cpp:122] Setting up norm_t_1
I0801 16:15:42.091471  2121 net.cpp:129] Top shape: 100 32 16 16 (819200)
I0801 16:15:42.091480  2121 net.cpp:137] Memory required for data: 61452400
I0801 16:15:42.091491  2121 layer_factory.hpp:77] Creating layer conv_t_2
I0801 16:15:42.091509  2121 net.cpp:84] Creating Layer conv_t_2
I0801 16:15:42.091517  2121 net.cpp:406] conv_t_2 <- norm_t_1
I0801 16:15:42.091527  2121 net.cpp:380] conv_t_2 -> conv_t_2
I0801 16:15:42.092393  2121 net.cpp:122] Setting up conv_t_2
I0801 16:15:42.092409  2121 net.cpp:129] Top shape: 100 32 16 16 (819200)
I0801 16:15:42.092417  2121 net.cpp:137] Memory required for data: 64729200
I0801 16:15:42.092425  2121 layer_factory.hpp:77] Creating layer relu_t_2
I0801 16:15:42.092434  2121 net.cpp:84] Creating Layer relu_t_2
I0801 16:15:42.092442  2121 net.cpp:406] relu_t_2 <- conv_t_2
I0801 16:15:42.092452  2121 net.cpp:367] relu_t_2 -> conv_t_2 (in-place)
I0801 16:15:42.092574  2121 net.cpp:122] Setting up relu_t_2
I0801 16:15:42.092586  2121 net.cpp:129] Top shape: 100 32 16 16 (819200)
I0801 16:15:42.092592  2121 net.cpp:137] Memory required for data: 68006000
I0801 16:15:42.092599  2121 layer_factory.hpp:77] Creating layer pool_t_2
I0801 16:15:42.092608  2121 net.cpp:84] Creating Layer pool_t_2
I0801 16:15:42.092617  2121 net.cpp:406] pool_t_2 <- conv_t_2
I0801 16:15:42.092624  2121 net.cpp:380] pool_t_2 -> pool_t_2
I0801 16:15:42.092938  2121 net.cpp:122] Setting up pool_t_2
I0801 16:15:42.092953  2121 net.cpp:129] Top shape: 100 32 8 8 (204800)
I0801 16:15:42.092962  2121 net.cpp:137] Memory required for data: 68825200
I0801 16:15:42.092967  2121 layer_factory.hpp:77] Creating layer norm_t_2
I0801 16:15:42.092978  2121 net.cpp:84] Creating Layer norm_t_2
I0801 16:15:42.092984  2121 net.cpp:406] norm_t_2 <- pool_t_2
I0801 16:15:42.092994  2121 net.cpp:380] norm_t_2 -> norm_t_2
I0801 16:15:42.093191  2121 net.cpp:122] Setting up norm_t_2
I0801 16:15:42.093205  2121 net.cpp:129] Top shape: 100 32 8 8 (204800)
I0801 16:15:42.093212  2121 net.cpp:137] Memory required for data: 69644400
I0801 16:15:42.093219  2121 layer_factory.hpp:77] Creating layer conv_t_3
I0801 16:15:42.093230  2121 net.cpp:84] Creating Layer conv_t_3
I0801 16:15:42.093237  2121 net.cpp:406] conv_t_3 <- norm_t_2
I0801 16:15:42.093246  2121 net.cpp:380] conv_t_3 -> conv_t_3
I0801 16:15:42.094254  2121 net.cpp:122] Setting up conv_t_3
I0801 16:15:42.094270  2121 net.cpp:129] Top shape: 100 64 8 8 (409600)
I0801 16:15:42.094279  2121 net.cpp:137] Memory required for data: 71282800
I0801 16:15:42.094287  2121 layer_factory.hpp:77] Creating layer relu_t_3
I0801 16:15:42.094295  2121 net.cpp:84] Creating Layer relu_t_3
I0801 16:15:42.094303  2121 net.cpp:406] relu_t_3 <- conv_t_3
I0801 16:15:42.094310  2121 net.cpp:367] relu_t_3 -> conv_t_3 (in-place)
I0801 16:15:42.094434  2121 net.cpp:122] Setting up relu_t_3
I0801 16:15:42.094444  2121 net.cpp:129] Top shape: 100 64 8 8 (409600)
I0801 16:15:42.094451  2121 net.cpp:137] Memory required for data: 72921200
I0801 16:15:42.094458  2121 layer_factory.hpp:77] Creating layer pool_t_3
I0801 16:15:42.094466  2121 net.cpp:84] Creating Layer pool_t_3
I0801 16:15:42.094473  2121 net.cpp:406] pool_t_3 <- conv_t_3
I0801 16:15:42.094482  2121 net.cpp:380] pool_t_3 -> pool_t_3
I0801 16:15:42.094810  2121 net.cpp:122] Setting up pool_t_3
I0801 16:15:42.094825  2121 net.cpp:129] Top shape: 100 64 4 4 (102400)
I0801 16:15:42.094831  2121 net.cpp:137] Memory required for data: 73330800
I0801 16:15:42.094838  2121 layer_factory.hpp:77] Creating layer ip_t_1
I0801 16:15:42.094848  2121 net.cpp:84] Creating Layer ip_t_1
I0801 16:15:42.094856  2121 net.cpp:406] ip_t_1 <- pool_t_3
I0801 16:15:42.094866  2121 net.cpp:380] ip_t_1 -> ip_t_1
I0801 16:15:42.095003  2121 net.cpp:122] Setting up ip_t_1
I0801 16:15:42.095013  2121 net.cpp:129] Top shape: 100 10 (1000)
I0801 16:15:42.095019  2121 net.cpp:137] Memory required for data: 73334800
I0801 16:15:42.095028  2121 layer_factory.hpp:77] Creating layer sm_s_1
I0801 16:15:42.095037  2121 net.cpp:84] Creating Layer sm_s_1
I0801 16:15:42.095044  2121 net.cpp:406] sm_s_1 <- ip_s_1_ip_s_1_0_split_0
I0801 16:15:42.095053  2121 net.cpp:380] sm_s_1 -> sm_s_1
I0801 16:15:42.095221  2121 net.cpp:122] Setting up sm_s_1
I0801 16:15:42.095237  2121 net.cpp:129] Top shape: 100 10 (1000)
I0801 16:15:42.095250  2121 net.cpp:137] Memory required for data: 73338800
I0801 16:15:42.095257  2121 layer_factory.hpp:77] Creating layer sm_t_1
I0801 16:15:42.095264  2121 net.cpp:84] Creating Layer sm_t_1
I0801 16:15:42.095273  2121 net.cpp:406] sm_t_1 <- ip_t_1
I0801 16:15:42.095281  2121 net.cpp:380] sm_t_1 -> sm_t_1
I0801 16:15:42.095439  2121 net.cpp:122] Setting up sm_t_1
I0801 16:15:42.095451  2121 net.cpp:129] Top shape: 100 10 (1000)
I0801 16:15:42.095458  2121 net.cpp:137] Memory required for data: 73342800
I0801 16:15:42.095465  2121 layer_factory.hpp:77] Creating layer ts_loss
I0801 16:15:42.095474  2121 net.cpp:84] Creating Layer ts_loss
I0801 16:15:42.095482  2121 net.cpp:406] ts_loss <- sm_s_1
I0801 16:15:42.095489  2121 net.cpp:406] ts_loss <- sm_t_1
I0801 16:15:42.095499  2121 net.cpp:380] ts_loss -> ts_loss
…
I0801 16:15:42.096355  2121 net.cpp:294] The NetState phase (1) differed from the phase (0) specified by a rule in layer cifar
I0801 16:15:42.096468  2121 net.cpp:51] Initializing net from parameters: 
name: "CIFAR10_full"
state {
  phase: TEST
}
layer {
  name: "cifar"
  type: "Data"
  top: "data"
  top: "label"
  include {
    phase: TEST
  }
  transform_param {
    mean_file: "/opt/caffe/examples/cifar10/mean.binaryproto"
  }
  data_param {
    source: "/opt/caffe/examples/cifar10/cifar10_test_lmdb"
    batch_size: 100
    backend: LMDB
  }
}
layer {
  name: "conv_s_1"
  type: "Convolution"
  bottom: "data"
  top: "conv_s_1"
  param {
    lr_mult: 1
  }
  param {
    lr_mult: 2
  }
  convolution_param {
    num_output: 32
    pad: 2
    kernel_size: 5
    stride: 1
    weight_filler {
      type: "gaussian"
      std: 0.0001
    }
    bias_filler {
      type: "constant"
    }
  }
}
layer {
  name: "pool_s_1"
  type: "Pooling"
  bottom: "conv_s_1"
  top: "pool_s_1"
  pooling_param {
    pool: MAX
    kernel_size: 3
    stride: 2
  }
}
layer {
  name: "relu_s_1"
  type: "ReLU"
  bottom: "pool_s_1"
  top: "pool_s_1"
}
layer {
  name: "norm_s_1"
  type: "LRN"
  bottom: "pool_s_1"
  top: "norm_s_1"
  lrn_param {
    local_size: 3
    alpha: 5e-05
    beta: 0.75
    norm_region: WITHIN_CHANNEL
  }
}
layer {
  name: "conv_s_2"
  type: "Convolution"
  bottom: "norm_s_1"
  top: "conv_s_2"
  param {
    lr_mult: 1
  }
  param {
    lr_mult: 2
  }
  convolution_param {
    num_output: 32
    pad: 2
    kernel_size: 5
    stride: 1
    weight_filler {
      type: "gaussian"
      std: 0.01
    }
    bias_filler {
      type: "constant"
    }
  }
}
layer {
  name: "relu_s_2"
  type: "ReLU"
  bottom: "conv_s_2"
  top: "conv_s_2"
}
layer {
  name: "pool_s_2"
  type: "Pooling"
  bottom: "conv_s_2"
  top: "pool_s_2"
  pooling_param {
    pool: AVE
    kernel_size: 3
    stride: 2
  }
}
layer {
  name: "norm_s_2"
  type: "LRN"
  bottom: "pool_s_2"
  top: "norm_s_2"
  lrn_param {
    local_size: 3
    alpha: 5e-05
    beta: 0.75
    norm_region: WITHIN_CHANNEL
  }
}
layer {
  name: "conv_s_3"
  type: "Convolution"
  bottom: "norm_s_2"
  top: "conv_s_3"
  param {
    lr_mult: 1
  }
  param {
    lr_mult: 2
  }
  convolution_param {
    num_output: 64
    pad: 2
    kernel_size: 5
    stride: 1
    weight_filler {
      type: "gaussian"
      std: 0.01
    }
    bias_filler {
      type: "constant"
    }
  }
}
layer {
  name: "relu_s_3"
  type: "ReLU"
  bottom: "conv_s_3"
  top: "conv_s_3"
}
layer {
  name: "pool_s_3"
  type: "Pooling"
  bottom: "conv_s_3"
  top: "pool_s_3"
  pooling_param {
    pool: AVE
    kernel_size: 3
    stride: 2
  }
}
layer {
  name: "ip_s_1"
  type: "InnerProduct"
  bottom: "pool_s_3"
  top: "ip_s_1"
  param {
    lr_mult: 1
    decay_mult: 250
  }
  param {
    lr_mult: 2
    decay_mult: 0
  }
  inner_product_param {
    num_output: 10
    weight_filler {
      type: "gaussian"
      std: 0.01
    }
    bias_filler {
      type: "constant"
    }
  }
}
layer {
  name: "conv_t_1"
  type: "Convolution"
  bottom: "data"
  top: "conv_t_1"
  param {
    lr_mult: 0
  }
  param {
    lr_mult: 0
  }
  convolution_param {
    num_output: 32
    pad: 2
    kernel_size: 5
    stride: 1
    weight_filler {
      type: "gaussian"
      std: 0.0001
    }
    bias_filler {
      type: "constant"
    }
  }
}
layer {
  name: "pool_t_1"
  type: "Pooling"
  bottom: "conv_t_1"
  top: "pool_t_1"
  pooling_param {
    pool: MAX
    kernel_size: 3
    stride: 2
  }
}
layer {
  name: "relu_t_1"
  type: "ReLU"
  bottom: "pool_t_1"
  top: "pool_t_1"
}
layer {
  name: "norm_t_1"
  type: "LRN"
  bottom: "pool_t_1"
  top: "norm_t_1"
  lrn_param {
    local_size: 3
    alpha: 5e-05
    beta: 0.75
    norm_region: WITHIN_CHANNEL
  }
}
layer {
  name: "conv_t_2"
  type: "Convolution"
  bottom: "norm_t_1"
  top: "conv_t_2"
  param {
    lr_mult: 0
  }
  param {
    lr_mult: 0
  }
  convolution_param {
    num_output: 32
    pad: 2
    kernel_size: 5
    stride: 1
    weight_filler {
      type: "gaussian"
      std: 0.01
    }
    bias_filler {
      type: "constant"
    }
  }
}
layer {
  name: "relu_t_2"
  type: "ReLU"
  bottom: "conv_t_2"
  top: "conv_t_2"
}
layer {
  name: "pool_t_2"
  type: "Pooling"
  bottom: "conv_t_2"
  top: "pool_t_2"
  pooling_param {
    pool: AVE
    kernel_size: 3
    stride: 2
  }
}
layer {
  name: "norm_t_2"
  type: "LRN"
  bottom: "pool_t_2"
  top: "norm_t_2"
  lrn_param {
    local_size: 3
    alpha: 5e-05
    beta: 0.75
    norm_region: WITHIN_CHANNEL
  }
}
layer {
  name: "conv_t_3"
  type: "Convolution"
  bottom: "norm_t_2"
  top: "conv_t_3"
  param {
    lr_mult: 0
  }
  param {
    lr_mult: 0
  }
  convolution_param {
    num_output: 64
    pad: 2
    kernel_size: 5
    stride: 1
    weight_filler {
      type: "gaussian"
      std: 0.01
    }
    bias_filler {
      type: "constant"
    }
  }
}
layer {
  name: "relu_t_3"
  type: "ReLU"
  bottom: "conv_t_3"
  top: "conv_t_3"
}
layer {
  name: "pool_t_3"
  type: "Pooling"
  bottom: "conv_t_3"
  top: "pool_t_3"
  pooling_param {
    pool: AVE
    kernel_size: 3
    stride: 2
  }
}
layer {
  name: "ip_t_1"
  type: "InnerProduct"
  bottom: "pool_t_3"
  top: "ip_t_1"
  param {
    lr_mult: 0
  }
  param {
    lr_mult: 0
  }
  inner_product_param {
    num_output: 10
    weight_filler {
      type: "gaussian"
      std: 0.01
    }
    bias_filler {
      type: "constant"
    }
  }
}
layer {
  name: "sm_s_1"
  type: "Softmax"
  bottom: "ip_s_1"
  top: "sm_s_1"
}
layer {
  name: "sm_t_1"
  type: "Softmax"
  bottom: "ip_t_1"
  top: "sm_t_1"
}
layer {
  name: "accuracy"
  type: "Accuracy"
  bottom: "ip_s_1"
  bottom: "label"
  top: "accuracy"
  include {
    phase: TEST
  }
}
layer {
  name: "ts_loss"
  type: "SigmoidCrossEntropyLoss"
  bottom: "sm_s_1"
  bottom: "sm_t_1"
  top: "ts_loss"
  loss_weight: 0.5
}
layer {
  name: "loss"
  type: "SoftmaxWithLoss"
  bottom: "ip_s_1"
  bottom: "label"
  top: "loss"
  loss_weight: 0.5
}
I0801 16:15:42.096730  2121 layer_factory.hpp:77] Creating layer cifar
I0801 16:15:42.096793  2121 db_lmdb.cpp:35] Opened lmdb /opt/caffe/examples/cifar10/cifar10_test_lmdb
I0801 16:15:42.096810  2121 net.cpp:84] Creating Layer cifar
I0801 16:15:42.096822  2121 net.cpp:380] cifar -> data
I0801 16:15:42.096832  2121 net.cpp:380] cifar -> label
I0801 16:15:42.096843  2121 data_transformer.cpp:25] Loading mean file from: /opt/caffe/examples/cifar10/mean.binaryproto
I0801 16:15:42.096966  2121 data_layer.cpp:45] output data size: 100,3,32,32
I0801 16:15:42.100878  2121 net.cpp:122] Setting up cifar
I0801 16:15:42.100926  2121 net.cpp:129] Top shape: 100 3 32 32 (307200)
I0801 16:15:42.100937  2121 net.cpp:129] Top shape: 100 (100)
I0801 16:15:42.100944  2121 net.cpp:137] Memory required for data: 1229200
I0801 16:15:42.100953  2121 layer_factory.hpp:77] Creating layer data_cifar_0_split
I0801 16:15:42.100968  2121 net.cpp:84] Creating Layer data_cifar_0_split
I0801 16:15:42.100975  2121 net.cpp:406] data_cifar_0_split <- data
I0801 16:15:42.100986  2121 net.cpp:380] data_cifar_0_split -> data_cifar_0_split_0
I0801 16:15:42.100998  2121 net.cpp:380] data_cifar_0_split -> data_cifar_0_split_1
I0801 16:15:42.101043  2121 net.cpp:122] Setting up data_cifar_0_split
I0801 16:15:42.101053  2121 net.cpp:129] Top shape: 100 3 32 32 (307200)
I0801 16:15:42.101063  2121 net.cpp:129] Top shape: 100 3 32 32 (307200)
I0801 16:15:42.101069  2121 net.cpp:137] Memory required for data: 3686800
I0801 16:15:42.101075  2121 layer_factory.hpp:77] Creating layer label_cifar_1_split
I0801 16:15:42.101142  2121 net.cpp:84] Creating Layer label_cifar_1_split
I0801 16:15:42.101158  2121 net.cpp:406] label_cifar_1_split <- label
I0801 16:15:42.101168  2121 net.cpp:380] label_cifar_1_split -> label_cifar_1_split_0
I0801 16:15:42.101178  2121 net.cpp:380] label_cifar_1_split -> label_cifar_1_split_1
I0801 16:15:42.101217  2121 net.cpp:122] Setting up label_cifar_1_split
I0801 16:15:42.101227  2121 net.cpp:129] Top shape: 100 (100)
I0801 16:15:42.101235  2121 net.cpp:129] Top shape: 100 (100)
I0801 16:15:42.101241  2121 net.cpp:137] Memory required for data: 3687600
I0801 16:15:42.101248  2121 layer_factory.hpp:77] Creating layer conv_s_1
I0801 16:15:42.101263  2121 net.cpp:84] Creating Layer conv_s_1
I0801 16:15:42.101270  2121 net.cpp:406] conv_s_1 <- data_cifar_0_split_0
I0801 16:15:42.101279  2121 net.cpp:380] conv_s_1 -> conv_s_1
I0801 16:15:42.102596  2121 net.cpp:122] Setting up conv_s_1
I0801 16:15:42.102614  2121 net.cpp:129] Top shape: 100 32 32 32 (3276800)
I0801 16:15:42.102622  2121 net.cpp:137] Memory required for data: 16794800
I0801 16:15:42.102635  2121 layer_factory.hpp:77] Creating layer pool_s_1
I0801 16:15:42.102648  2121 net.cpp:84] Creating Layer pool_s_1
I0801 16:15:42.102655  2121 net.cpp:406] pool_s_1 <- conv_s_1
I0801 16:15:42.102663  2121 net.cpp:380] pool_s_1 -> pool_s_1
I0801 16:15:42.102699  2121 net.cpp:122] Setting up pool_s_1
I0801 16:15:42.102710  2121 net.cpp:129] Top shape: 100 32 16 16 (819200)
I0801 16:15:42.102715  2121 net.cpp:137] Memory required for data: 20071600
I0801 16:15:42.102722  2121 layer_factory.hpp:77] Creating layer relu_s_1
I0801 16:15:42.102732  2121 net.cpp:84] Creating Layer relu_s_1
I0801 16:15:42.102740  2121 net.cpp:406] relu_s_1 <- pool_s_1
I0801 16:15:42.102748  2121 net.cpp:367] relu_s_1 -> pool_s_1 (in-place)
I0801 16:15:42.102885  2121 net.cpp:122] Setting up relu_s_1
I0801 16:15:42.102896  2121 net.cpp:129] Top shape: 100 32 16 16 (819200)
I0801 16:15:42.102903  2121 net.cpp:137] Memory required for data: 23348400
I0801 16:15:42.102910  2121 layer_factory.hpp:77] Creating layer norm_s_1
I0801 16:15:42.102921  2121 net.cpp:84] Creating Layer norm_s_1
I0801 16:15:42.102928  2121 net.cpp:406] norm_s_1 <- pool_s_1
I0801 16:15:42.102936  2121 net.cpp:380] norm_s_1 -> norm_s_1
I0801 16:15:42.103643  2121 net.cpp:122] Setting up norm_s_1
I0801 16:15:42.103660  2121 net.cpp:129] Top shape: 100 32 16 16 (819200)
I0801 16:15:42.103668  2121 net.cpp:137] Memory required for data: 26625200
I0801 16:15:42.103675  2121 layer_factory.hpp:77] Creating layer conv_s_2
I0801 16:15:42.103688  2121 net.cpp:84] Creating Layer conv_s_2
I0801 16:15:42.103695  2121 net.cpp:406] conv_s_2 <- norm_s_1
I0801 16:15:42.103705  2121 net.cpp:380] conv_s_2 -> conv_s_2
I0801 16:15:42.104774  2121 net.cpp:122] Setting up conv_s_2
I0801 16:15:42.104791  2121 net.cpp:129] Top shape: 100 32 16 16 (819200)
I0801 16:15:42.104799  2121 net.cpp:137] Memory required for data: 29902000
I0801 16:15:42.104809  2121 layer_factory.hpp:77] Creating layer relu_s_2
I0801 16:15:42.104821  2121 net.cpp:84] Creating Layer relu_s_2
I0801 16:15:42.104828  2121 net.cpp:406] relu_s_2 <- conv_s_2
I0801 16:15:42.104837  2121 net.cpp:367] relu_s_2 -> conv_s_2 (in-place)
I0801 16:15:42.104962  2121 net.cpp:122] Setting up relu_s_2
I0801 16:15:42.104976  2121 net.cpp:129] Top shape: 100 32 16 16 (819200)
I0801 16:15:42.104984  2121 net.cpp:137] Memory required for data: 33178800
I0801 16:15:42.104990  2121 layer_factory.hpp:77] Creating layer pool_s_2
I0801 16:15:42.105000  2121 net.cpp:84] Creating Layer pool_s_2
I0801 16:15:42.105006  2121 net.cpp:406] pool_s_2 <- conv_s_2
I0801 16:15:42.105015  2121 net.cpp:380] pool_s_2 -> pool_s_2
I0801 16:15:42.105361  2121 net.cpp:122] Setting up pool_s_2
I0801 16:15:42.105376  2121 net.cpp:129] Top shape: 100 32 8 8 (204800)
I0801 16:15:42.105383  2121 net.cpp:137] Memory required for data: 33998000
I0801 16:15:42.105391  2121 layer_factory.hpp:77] Creating layer norm_s_2
I0801 16:15:42.105399  2121 net.cpp:84] Creating Layer norm_s_2
I0801 16:15:42.105406  2121 net.cpp:406] norm_s_2 <- pool_s_2
I0801 16:15:42.105425  2121 net.cpp:380] norm_s_2 -> norm_s_2
I0801 16:15:42.105619  2121 net.cpp:122] Setting up norm_s_2
I0801 16:15:42.105633  2121 net.cpp:129] Top shape: 100 32 8 8 (204800)
I0801 16:15:42.105639  2121 net.cpp:137] Memory required for data: 34817200
I0801 16:15:42.105646  2121 layer_factory.hpp:77] Creating layer conv_s_3
I0801 16:15:42.105657  2121 net.cpp:84] Creating Layer conv_s_3
I0801 16:15:42.105665  2121 net.cpp:406] conv_s_3 <- norm_s_2
I0801 16:15:42.105674  2121 net.cpp:380] conv_s_3 -> conv_s_3
I0801 16:15:42.106720  2121 net.cpp:122] Setting up conv_s_3
I0801 16:15:42.106740  2121 net.cpp:129] Top shape: 100 64 8 8 (409600)
I0801 16:15:42.106748  2121 net.cpp:137] Memory required for data: 36455600
I0801 16:15:42.106760  2121 layer_factory.hpp:77] Creating layer relu_s_3
I0801 16:15:42.106770  2121 net.cpp:84] Creating Layer relu_s_3
I0801 16:15:42.106777  2121 net.cpp:406] relu_s_3 <- conv_s_3
I0801 16:15:42.106787  2121 net.cpp:367] relu_s_3 -> conv_s_3 (in-place)
I0801 16:15:42.106917  2121 net.cpp:122] Setting up relu_s_3
I0801 16:15:42.106930  2121 net.cpp:129] Top shape: 100 64 8 8 (409600)
I0801 16:15:42.106935  2121 net.cpp:137] Memory required for data: 38094000
I0801 16:15:42.106943  2121 layer_factory.hpp:77] Creating layer pool_s_3
I0801 16:15:42.106952  2121 net.cpp:84] Creating Layer pool_s_3
I0801 16:15:42.106959  2121 net.cpp:406] pool_s_3 <- conv_s_3
I0801 16:15:42.106968  2121 net.cpp:380] pool_s_3 -> pool_s_3
I0801 16:15:42.107312  2121 net.cpp:122] Setting up pool_s_3
I0801 16:15:42.107328  2121 net.cpp:129] Top shape: 100 64 4 4 (102400)
I0801 16:15:42.107336  2121 net.cpp:137] Memory required for data: 38503600
I0801 16:15:42.107342  2121 layer_factory.hpp:77] Creating layer ip_s_1
I0801 16:15:42.107353  2121 net.cpp:84] Creating Layer ip_s_1
I0801 16:15:42.107362  2121 net.cpp:406] ip_s_1 <- pool_s_3
I0801 16:15:42.107370  2121 net.cpp:380] ip_s_1 -> ip_s_1
I0801 16:15:42.107514  2121 net.cpp:122] Setting up ip_s_1
I0801 16:15:42.107525  2121 net.cpp:129] Top shape: 100 10 (1000)
I0801 16:15:42.107532  2121 net.cpp:137] Memory required for data: 38507600
I0801 16:15:42.107540  2121 layer_factory.hpp:77] Creating layer ip_s_1_ip_s_1_0_split
I0801 16:15:42.107549  2121 net.cpp:84] Creating Layer ip_s_1_ip_s_1_0_split
I0801 16:15:42.107558  2121 net.cpp:406] ip_s_1_ip_s_1_0_split <- ip_s_1
I0801 16:15:42.107566  2121 net.cpp:380] ip_s_1_ip_s_1_0_split -> ip_s_1_ip_s_1_0_split_0
I0801 16:15:42.107575  2121 net.cpp:380] ip_s_1_ip_s_1_0_split -> ip_s_1_ip_s_1_0_split_1
I0801 16:15:42.107587  2121 net.cpp:380] ip_s_1_ip_s_1_0_split -> ip_s_1_ip_s_1_0_split_2
I0801 16:15:42.107630  2121 net.cpp:122] Setting up ip_s_1_ip_s_1_0_split
I0801 16:15:42.107640  2121 net.cpp:129] Top shape: 100 10 (1000)
I0801 16:15:42.107647  2121 net.cpp:129] Top shape: 100 10 (1000)
I0801 16:15:42.107655  2121 net.cpp:129] Top shape: 100 10 (1000)
I0801 16:15:42.107662  2121 net.cpp:137] Memory required for data: 38519600
I0801 16:15:42.107669  2121 layer_factory.hpp:77] Creating layer conv_t_1
I0801 16:15:42.107682  2121 net.cpp:84] Creating Layer conv_t_1
I0801 16:15:42.107689  2121 net.cpp:406] conv_t_1 <- data_cifar_0_split_1
I0801 16:15:42.107699  2121 net.cpp:380] conv_t_1 -> conv_t_1
I0801 16:15:42.108484  2121 net.cpp:122] Setting up conv_t_1
I0801 16:15:42.108501  2121 net.cpp:129] Top shape: 100 32 32 32 (3276800)
I0801 16:15:42.108510  2121 net.cpp:137] Memory required for data: 51626800
I0801 16:15:42.108521  2121 layer_factory.hpp:77] Creating layer pool_t_1
I0801 16:15:42.108531  2121 net.cpp:84] Creating Layer pool_t_1
I0801 16:15:42.108539  2121 net.cpp:406] pool_t_1 <- conv_t_1
I0801 16:15:42.108547  2121 net.cpp:380] pool_t_1 -> pool_t_1
I0801 16:15:42.108583  2121 net.cpp:122] Setting up pool_t_1
I0801 16:15:42.108593  2121 net.cpp:129] Top shape: 100 32 16 16 (819200)
I0801 16:15:42.108600  2121 net.cpp:137] Memory required for data: 54903600
I0801 16:15:42.108606  2121 layer_factory.hpp:77] Creating layer relu_t_1
I0801 16:15:42.108614  2121 net.cpp:84] Creating Layer relu_t_1
I0801 16:15:42.108633  2121 net.cpp:406] relu_t_1 <- pool_t_1
I0801 16:15:42.108642  2121 net.cpp:367] relu_t_1 -> pool_t_1 (in-place)
I0801 16:15:42.108772  2121 net.cpp:122] Setting up relu_t_1
I0801 16:15:42.108784  2121 net.cpp:129] Top shape: 100 32 16 16 (819200)
I0801 16:15:42.108791  2121 net.cpp:137] Memory required for data: 58180400
I0801 16:15:42.108798  2121 layer_factory.hpp:77] Creating layer norm_t_1
I0801 16:15:42.108808  2121 net.cpp:84] Creating Layer norm_t_1
I0801 16:15:42.108815  2121 net.cpp:406] norm_t_1 <- pool_t_1
I0801 16:15:42.108824  2121 net.cpp:380] norm_t_1 -> norm_t_1
I0801 16:15:42.109426  2121 net.cpp:122] Setting up norm_t_1
I0801 16:15:42.109443  2121 net.cpp:129] Top shape: 100 32 16 16 (819200)
I0801 16:15:42.109452  2121 net.cpp:137] Memory required for data: 61457200
I0801 16:15:42.109458  2121 layer_factory.hpp:77] Creating layer conv_t_2
I0801 16:15:42.109470  2121 net.cpp:84] Creating Layer conv_t_2
I0801 16:15:42.109477  2121 net.cpp:406] conv_t_2 <- norm_t_1
I0801 16:15:42.109488  2121 net.cpp:380] conv_t_2 -> conv_t_2
I0801 16:15:42.110574  2121 net.cpp:122] Setting up conv_t_2
I0801 16:15:42.110589  2121 net.cpp:129] Top shape: 100 32 16 16 (819200)
I0801 16:15:42.110597  2121 net.cpp:137] Memory required for data: 64734000
I0801 16:15:42.110606  2121 layer_factory.hpp:77] Creating layer relu_t_2
I0801 16:15:42.110615  2121 net.cpp:84] Creating Layer relu_t_2
I0801 16:15:42.110622  2121 net.cpp:406] relu_t_2 <- conv_t_2
I0801 16:15:42.110631  2121 net.cpp:367] relu_t_2 -> conv_t_2 (in-place)
I0801 16:15:42.110952  2121 net.cpp:122] Setting up relu_t_2
I0801 16:15:42.110967  2121 net.cpp:129] Top shape: 100 32 16 16 (819200)
I0801 16:15:42.110975  2121 net.cpp:137] Memory required for data: 68010800
I0801 16:15:42.110981  2121 layer_factory.hpp:77] Creating layer pool_t_2
I0801 16:15:42.110991  2121 net.cpp:84] Creating Layer pool_t_2
I0801 16:15:42.110998  2121 net.cpp:406] pool_t_2 <- conv_t_2
I0801 16:15:42.111007  2121 net.cpp:380] pool_t_2 -> pool_t_2
I0801 16:15:42.111141  2121 net.cpp:122] Setting up pool_t_2
I0801 16:15:42.111155  2121 net.cpp:129] Top shape: 100 32 8 8 (204800)
I0801 16:15:42.111161  2121 net.cpp:137] Memory required for data: 68830000
I0801 16:15:42.111167  2121 layer_factory.hpp:77] Creating layer norm_t_2
I0801 16:15:42.111176  2121 net.cpp:84] Creating Layer norm_t_2
I0801 16:15:42.111186  2121 net.cpp:406] norm_t_2 <- pool_t_2
I0801 16:15:42.111194  2121 net.cpp:380] norm_t_2 -> norm_t_2
I0801 16:15:42.111387  2121 net.cpp:122] Setting up norm_t_2
I0801 16:15:42.111400  2121 net.cpp:129] Top shape: 100 32 8 8 (204800)
I0801 16:15:42.111407  2121 net.cpp:137] Memory required for data: 69649200
I0801 16:15:42.111414  2121 layer_factory.hpp:77] Creating layer conv_t_3
I0801 16:15:42.111425  2121 net.cpp:84] Creating Layer conv_t_3
I0801 16:15:42.111433  2121 net.cpp:406] conv_t_3 <- norm_t_2
I0801 16:15:42.111443  2121 net.cpp:380] conv_t_3 -> conv_t_3
I0801 16:15:42.112496  2121 net.cpp:122] Setting up conv_t_3
I0801 16:15:42.112514  2121 net.cpp:129] Top shape: 100 64 8 8 (409600)
I0801 16:15:42.112522  2121 net.cpp:137] Memory required for data: 71287600
I0801 16:15:42.112532  2121 layer_factory.hpp:77] Creating layer relu_t_3
I0801 16:15:42.112541  2121 net.cpp:84] Creating Layer relu_t_3
I0801 16:15:42.112550  2121 net.cpp:406] relu_t_3 <- conv_t_3
I0801 16:15:42.112558  2121 net.cpp:367] relu_t_3 -> conv_t_3 (in-place)
I0801 16:15:42.112686  2121 net.cpp:122] Setting up relu_t_3
I0801 16:15:42.112697  2121 net.cpp:129] Top shape: 100 64 8 8 (409600)
I0801 16:15:42.112704  2121 net.cpp:137] Memory required for data: 72926000
I0801 16:15:42.112711  2121 layer_factory.hpp:77] Creating layer pool_t_3
I0801 16:15:42.112721  2121 net.cpp:84] Creating Layer pool_t_3
I0801 16:15:42.112728  2121 net.cpp:406] pool_t_3 <- conv_t_3
I0801 16:15:42.112736  2121 net.cpp:380] pool_t_3 -> pool_t_3
I0801 16:15:42.113101  2121 net.cpp:122] Setting up pool_t_3
I0801 16:15:42.113119  2121 net.cpp:129] Top shape: 100 64 4 4 (102400)
I0801 16:15:42.113131  2121 net.cpp:137] Memory required for data: 73335600
I0801 16:15:42.113145  2121 layer_factory.hpp:77] Creating layer ip_t_1
I0801 16:15:42.113155  2121 net.cpp:84] Creating Layer ip_t_1
I0801 16:15:42.113163  2121 net.cpp:406] ip_t_1 <- pool_t_3
I0801 16:15:42.113173  2121 net.cpp:380] ip_t_1 -> ip_t_1
I0801 16:15:42.113322  2121 net.cpp:122] Setting up ip_t_1
I0801 16:15:42.113332  2121 net.cpp:129] Top shape: 100 10 (1000)
I0801 16:15:42.113339  2121 net.cpp:137] Memory required for data: 73339600
I0801 16:15:42.113348  2121 layer_factory.hpp:77] Creating layer sm_s_1
I0801 16:15:42.113358  2121 net.cpp:84] Creating Layer sm_s_1
I0801 16:15:42.113366  2121 net.cpp:406] sm_s_1 <- ip_s_1_ip_s_1_0_split_0
I0801 16:15:42.113375  2121 net.cpp:380] sm_s_1 -> sm_s_1
I0801 16:15:42.113544  2121 net.cpp:122] Setting up sm_s_1
I0801 16:15:42.113557  2121 net.cpp:129] Top shape: 100 10 (1000)
I0801 16:15:42.113564  2121 net.cpp:137] Memory required for data: 73343600
I0801 16:15:42.113571  2121 layer_factory.hpp:77] Creating layer sm_t_1
I0801 16:15:42.113579  2121 net.cpp:84] Creating Layer sm_t_1
I0801 16:15:42.113586  2121 net.cpp:406] sm_t_1 <- ip_t_1
I0801 16:15:42.113595  2121 net.cpp:380] sm_t_1 -> sm_t_1
I0801 16:15:42.114529  2121 net.cpp:122] Setting up sm_t_1
I0801 16:15:42.114542  2121 net.cpp:129] Top shape: 100 10 (1000)
I0801 16:15:42.114548  2121 net.cpp:137] Memory required for data: 73347600
I0801 16:15:42.114554  2121 layer_factory.hpp:77] Creating layer accuracy
I0801 16:15:42.114565  2121 net.cpp:84] Creating Layer accuracy
I0801 16:15:42.114573  2121 net.cpp:406] accuracy <- ip_s_1_ip_s_1_0_split_1
I0801 16:15:42.114580  2121 net.cpp:406] accuracy <- label_cifar_1_split_0
I0801 16:15:42.114589  2121 net.cpp:380] accuracy -> accuracy
…
