…
I0801 16:42:41.905110  2230 net.cpp:294] The NetState phase (0) differed from the phase (1) specified by a rule in layer accuracy
I0801 16:42:41.905169  2230 net.cpp:51] Initializing net from parameters: 
name: "CIFAR10_full"
state {
  phase: TRAIN
  level: 0
  stage: ""
}
layer {
  name: "cifar"
  type: "Data"
  top: "data"
  top: "label"
  include {
    phase: TRAIN
  }
  transform_param {
    mean_file: "examples/cifar10/mean.binaryproto"
  }
  data_param {
    source: "examples/cifar10/cifar10_train_lmdb"
    batch_size: 100
    backend: LMDB
  }
}
layer {
  name: "conv1"
  type: "Convolution"
  bottom: "data"
  top: "conv1"
  param {
    lr_mult: 1
  }
  param {
    lr_mult: 2
  }
  convolution_param {
    num_output: 32
    pad: 2
    kernel_size: 5
    stride: 1
    weight_filler {
      type: "gaussian"
      std: 0.0001
    }
    bias_filler {
      type: "constant"
    }
  }
}
layer {
  name: "pool1"
  type: "Pooling"
  bottom: "conv1"
  top: "pool1"
  pooling_param {
    pool: MAX
    kernel_size: 3
    stride: 2
  }
}
layer {
  name: "Sigmoid1"
  type: "Sigmoid"
  bottom: "pool1"
  top: "Sigmoid1"
}
layer {
  name: "conv2"
  type: "Convolution"
  bottom: "Sigmoid1"
  top: "conv2"
  param {
    lr_mult: 1
  }
  param {
    lr_mult: 2
  }
  convolution_param {
    num_output: 32
    pad: 2
    kernel_size: 5
    stride: 1
    weight_filler {
      type: "gaussian"
      std: 0.01
    }
    bias_filler {
      type: "constant"
    }
  }
}
layer {
  name: "Sigmoid2"
  type: "Sigmoid"
  bottom: "conv2"
  top: "Sigmoid2"
}
layer {
  name: "pool2"
  type: "Pooling"
  bottom: "Sigmoid2"
  top: "pool2"
  pooling_param {
    pool: AVE
    kernel_size: 3
    stride: 2
  }
}
layer {
  name: "conv3"
  type: "Convolution"
  bottom: "pool2"
  top: "conv3"
  param {
    lr_mult: 1
  }
  param {
    lr_mult: 1
  }
  convolution_param {
    num_output: 64
    pad: 2
    kernel_size: 5
    stride: 1
    weight_filler {
      type: "gaussian"
      std: 0.01
    }
    bias_filler {
      type: "constant"
    }
  }
}
layer {
  name: "Sigmoid3"
  type: "Sigmoid"
  bottom: "conv3"
  top: "Sigmoid3"
}
layer {
  name: "pool3"
  type: "Pooling"
  bottom: "Sigmoid3"
  top: "pool3"
  pooling_param {
    pool: AVE
    kernel_size: 3
    stride: 2
  }
}
layer {
  name: "ip1"
  type: "InnerProduct"
  bottom: "pool3"
  top: "ip1"
  param {
    lr_mult: 1
    decay_mult: 0
  }
  param {
    lr_mult: 2
    decay_mult: 0
  }
  inner_product_param {
    num_output: 10
    weight_filler {
      type: "gaussian"
      std: 0.01
    }
    bias_filler {
      type: "constant"
    }
  }
}
layer {
  name: "loss"
  type: "SoftmaxWithLoss"
  bottom: "ip1"
  bottom: "label"
  top: "loss"
}
I0801 16:42:41.905206  2230 layer_factory.hpp:77] Creating layer cifar
I0801 16:42:41.905288  2230 db_lmdb.cpp:35] Opened lmdb examples/cifar10/cifar10_train_lmdb
I0801 16:42:41.905308  2230 net.cpp:84] Creating Layer cifar
I0801 16:42:41.905313  2230 net.cpp:380] cifar -> data
I0801 16:42:41.905328  2230 net.cpp:380] cifar -> label
I0801 16:42:41.905340  2230 data_transformer.cpp:25] Loading mean file from: examples/cifar10/mean.binaryproto
I0801 16:42:41.906461  2230 data_layer.cpp:45] output data size: 100,3,32,32
I0801 16:42:41.909996  2230 net.cpp:122] Setting up cifar
I0801 16:42:41.910013  2230 net.cpp:129] Top shape: 100 3 32 32 (307200)
I0801 16:42:41.910037  2230 net.cpp:129] Top shape: 100 (100)
I0801 16:42:41.910038  2230 net.cpp:137] Memory required for data: 1229200
I0801 16:42:41.910048  2230 layer_factory.hpp:77] Creating layer conv1
I0801 16:42:41.910069  2230 net.cpp:84] Creating Layer conv1
I0801 16:42:41.910081  2230 net.cpp:406] conv1 <- data
I0801 16:42:41.910092  2230 net.cpp:380] conv1 -> conv1
I0801 16:42:42.221860  2230 net.cpp:122] Setting up conv1
I0801 16:42:42.221905  2230 net.cpp:129] Top shape: 100 32 32 32 (3276800)
I0801 16:42:42.221912  2230 net.cpp:137] Memory required for data: 14336400
I0801 16:42:42.221936  2230 layer_factory.hpp:77] Creating layer pool1
I0801 16:42:42.221954  2230 net.cpp:84] Creating Layer pool1
I0801 16:42:42.221963  2230 net.cpp:406] pool1 <- conv1
I0801 16:42:42.221971  2230 net.cpp:380] pool1 -> pool1
I0801 16:42:42.222020  2230 net.cpp:122] Setting up pool1
I0801 16:42:42.222030  2230 net.cpp:129] Top shape: 100 32 16 16 (819200)
I0801 16:42:42.222038  2230 net.cpp:137] Memory required for data: 17613200
I0801 16:42:42.222044  2230 layer_factory.hpp:77] Creating layer Sigmoid1
I0801 16:42:42.222051  2230 net.cpp:84] Creating Layer Sigmoid1
I0801 16:42:42.222059  2230 net.cpp:406] Sigmoid1 <- pool1
I0801 16:42:42.222066  2230 net.cpp:380] Sigmoid1 -> Sigmoid1
I0801 16:42:42.222411  2230 net.cpp:122] Setting up Sigmoid1
I0801 16:42:42.222427  2230 net.cpp:129] Top shape: 100 32 16 16 (819200)
I0801 16:42:42.222434  2230 net.cpp:137] Memory required for data: 20890000
I0801 16:42:42.222441  2230 layer_factory.hpp:77] Creating layer conv2
I0801 16:42:42.222453  2230 net.cpp:84] Creating Layer conv2
I0801 16:42:42.222460  2230 net.cpp:406] conv2 <- Sigmoid1
I0801 16:42:42.222470  2230 net.cpp:380] conv2 -> conv2
I0801 16:42:42.223948  2230 net.cpp:122] Setting up conv2
I0801 16:42:42.223966  2230 net.cpp:129] Top shape: 100 32 16 16 (819200)
I0801 16:42:42.223973  2230 net.cpp:137] Memory required for data: 24166800
I0801 16:42:42.223985  2230 layer_factory.hpp:77] Creating layer Sigmoid2
I0801 16:42:42.223995  2230 net.cpp:84] Creating Layer Sigmoid2
I0801 16:42:42.224002  2230 net.cpp:406] Sigmoid2 <- conv2
I0801 16:42:42.224010  2230 net.cpp:380] Sigmoid2 -> Sigmoid2
I0801 16:42:42.224136  2230 net.cpp:122] Setting up Sigmoid2
I0801 16:42:42.224148  2230 net.cpp:129] Top shape: 100 32 16 16 (819200)
I0801 16:42:42.224155  2230 net.cpp:137] Memory required for data: 27443600
I0801 16:42:42.224161  2230 layer_factory.hpp:77] Creating layer pool2
I0801 16:42:42.224169  2230 net.cpp:84] Creating Layer pool2
I0801 16:42:42.224177  2230 net.cpp:406] pool2 <- Sigmoid2
I0801 16:42:42.224184  2230 net.cpp:380] pool2 -> pool2
I0801 16:42:42.224314  2230 net.cpp:122] Setting up pool2
I0801 16:42:42.224325  2230 net.cpp:129] Top shape: 100 32 8 8 (204800)
I0801 16:42:42.224333  2230 net.cpp:137] Memory required for data: 28262800
I0801 16:42:42.224339  2230 layer_factory.hpp:77] Creating layer conv3
I0801 16:42:42.224349  2230 net.cpp:84] Creating Layer conv3
I0801 16:42:42.224356  2230 net.cpp:406] conv3 <- pool2
I0801 16:42:42.224364  2230 net.cpp:380] conv3 -> conv3
I0801 16:42:42.225361  2230 net.cpp:122] Setting up conv3
I0801 16:42:42.225378  2230 net.cpp:129] Top shape: 100 64 8 8 (409600)
I0801 16:42:42.225385  2230 net.cpp:137] Memory required for data: 29901200
I0801 16:42:42.225396  2230 layer_factory.hpp:77] Creating layer Sigmoid3
I0801 16:42:42.225406  2230 net.cpp:84] Creating Layer Sigmoid3
I0801 16:42:42.225414  2230 net.cpp:406] Sigmoid3 <- conv3
I0801 16:42:42.225422  2230 net.cpp:380] Sigmoid3 -> Sigmoid3
I0801 16:42:42.225742  2230 net.cpp:122] Setting up Sigmoid3
I0801 16:42:42.225757  2230 net.cpp:129] Top shape: 100 64 8 8 (409600)
I0801 16:42:42.225764  2230 net.cpp:137] Memory required for data: 31539600
I0801 16:42:42.225770  2230 layer_factory.hpp:77] Creating layer pool3
I0801 16:42:42.225780  2230 net.cpp:84] Creating Layer pool3
I0801 16:42:42.225786  2230 net.cpp:406] pool3 <- Sigmoid3
I0801 16:42:42.225795  2230 net.cpp:380] pool3 -> pool3
I0801 16:42:42.225934  2230 net.cpp:122] Setting up pool3
I0801 16:42:42.225955  2230 net.cpp:129] Top shape: 100 64 4 4 (102400)
I0801 16:42:42.225962  2230 net.cpp:137] Memory required for data: 31949200
I0801 16:42:42.225968  2230 layer_factory.hpp:77] Creating layer ip1
I0801 16:42:42.225980  2230 net.cpp:84] Creating Layer ip1
I0801 16:42:42.225988  2230 net.cpp:406] ip1 <- pool3
I0801 16:42:42.225997  2230 net.cpp:380] ip1 -> ip1
I0801 16:42:42.226604  2230 net.cpp:122] Setting up ip1
I0801 16:42:42.226620  2230 net.cpp:129] Top shape: 100 10 (1000)
I0801 16:42:42.226627  2230 net.cpp:137] Memory required for data: 31953200
I0801 16:42:42.226636  2230 layer_factory.hpp:77] Creating layer loss
I0801 16:42:42.226646  2230 net.cpp:84] Creating Layer loss
I0801 16:42:42.226653  2230 net.cpp:406] loss <- ip1
I0801 16:42:42.226661  2230 net.cpp:406] loss <- label
I0801 16:42:42.226670  2230 net.cpp:380] loss -> loss
I0801 16:42:42.226685  2230 layer_factory.hpp:77] Creating layer loss
…
I0801 16:42:42.227150  2230 solver.cpp:172] Creating test net (#0) specified by net file: examples/cifar10/cifar10_full_sigmoid_train_test.prototxt
I0801 16:42:42.227172  2230 net.cpp:294] The NetState phase (1) differed from the phase (0) specified by a rule in layer cifar
I0801 16:42:42.227239  2230 net.cpp:51] Initializing net from parameters: 
name: "CIFAR10_full"
state {
  phase: TEST
}
layer {
  name: "cifar"
  type: "Data"
  top: "data"
  top: "label"
  include {
    phase: TEST
  }
  transform_param {
    mean_file: "examples/cifar10/mean.binaryproto"
  }
  data_param {
    source: "examples/cifar10/cifar10_test_lmdb"
    batch_size: 100
    backend: LMDB
  }
}
layer {
  name: "conv1"
  type: "Convolution"
  bottom: "data"
  top: "conv1"
  param {
    lr_mult: 1
  }
  param {
    lr_mult: 2
  }
  convolution_param {
    num_output: 32
    pad: 2
    kernel_size: 5
    stride: 1
    weight_filler {
      type: "gaussian"
      std: 0.0001
    }
    bias_filler {
      type: "constant"
    }
  }
}
layer {
  name: "pool1"
  type: "Pooling"
  bottom: "conv1"
  top: "pool1"
  pooling_param {
    pool: MAX
    kernel_size: 3
    stride: 2
  }
}
layer {
  name: "Sigmoid1"
  type: "Sigmoid"
  bottom: "pool1"
  top: "Sigmoid1"
}
layer {
  name: "conv2"
  type: "Convolution"
  bottom: "Sigmoid1"
  top: "conv2"
  param {
    lr_mult: 1
  }
  param {
    lr_mult: 2
  }
  convolution_param {
    num_output: 32
    pad: 2
    kernel_size: 5
    stride: 1
    weight_filler {
      type: "gaussian"
      std: 0.01
    }
    bias_filler {
      type: "constant"
    }
  }
}
layer {
  name: "Sigmoid2"
  type: "Sigmoid"
  bottom: "conv2"
  top: "Sigmoid2"
}
layer {
  name: "pool2"
  type: "Pooling"
  bottom: "Sigmoid2"
  top: "pool2"
  pooling_param {
    pool: AVE
    kernel_size: 3
    stride: 2
  }
}
layer {
  name: "conv3"
  type: "Convolution"
  bottom: "pool2"
  top: "conv3"
  param {
    lr_mult: 1
  }
  param {
    lr_mult: 1
  }
  convolution_param {
    num_output: 64
    pad: 2
    kernel_size: 5
    stride: 1
    weight_filler {
      type: "gaussian"
      std: 0.01
    }
    bias_filler {
      type: "constant"
    }
  }
}
layer {
  name: "Sigmoid3"
  type: "Sigmoid"
  bottom: "conv3"
  top: "Sigmoid3"
}
layer {
  name: "pool3"
  type: "Pooling"
  bottom: "Sigmoid3"
  top: "pool3"
  pooling_param {
    pool: AVE
    kernel_size: 3
    stride: 2
  }
}
layer {
  name: "ip1"
  type: "InnerProduct"
  bottom: "pool3"
  top: "ip1"
  param {
    lr_mult: 1
    decay_mult: 0
  }
  param {
    lr_mult: 2
    decay_mult: 0
  }
  inner_product_param {
    num_output: 10
    weight_filler {
      type: "gaussian"
      std: 0.01
    }
    bias_filler {
      type: "constant"
    }
  }
}
layer {
  name: "accuracy"
  type: "Accuracy"
  bottom: "ip1"
  bottom: "label"
  top: "accuracy"
  include {
    phase: TEST
  }
}
layer {
  name: "loss"
  type: "SoftmaxWithLoss"
  bottom: "ip1"
  bottom: "label"
  top: "loss"
}
I0801 16:42:42.227375  2230 layer_factory.hpp:77] Creating layer cifar
I0801 16:42:42.227428  2230 db_lmdb.cpp:35] Opened lmdb examples/cifar10/cifar10_test_lmdb
I0801 16:42:42.227447  2230 net.cpp:84] Creating Layer cifar
I0801 16:42:42.227454  2230 net.cpp:380] cifar -> data
I0801 16:42:42.227466  2230 net.cpp:380] cifar -> label
I0801 16:42:42.227476  2230 data_transformer.cpp:25] Loading mean file from: examples/cifar10/mean.binaryproto
I0801 16:42:42.227589  2230 data_layer.cpp:45] output data size: 100,3,32,32
I0801 16:42:42.231369  2230 net.cpp:122] Setting up cifar
I0801 16:42:42.231410  2230 net.cpp:129] Top shape: 100 3 32 32 (307200)
I0801 16:42:42.231418  2230 net.cpp:129] Top shape: 100 (100)
I0801 16:42:42.231426  2230 net.cpp:137] Memory required for data: 1229200
I0801 16:42:42.231434  2230 layer_factory.hpp:77] Creating layer label_cifar_1_split
I0801 16:42:42.231451  2230 net.cpp:84] Creating Layer label_cifar_1_split
I0801 16:42:42.231459  2230 net.cpp:406] label_cifar_1_split <- label
I0801 16:42:42.231468  2230 net.cpp:380] label_cifar_1_split -> label_cifar_1_split_0
I0801 16:42:42.231482  2230 net.cpp:380] label_cifar_1_split -> label_cifar_1_split_1
I0801 16:42:42.231521  2230 net.cpp:122] Setting up label_cifar_1_split
I0801 16:42:42.231531  2230 net.cpp:129] Top shape: 100 (100)
I0801 16:42:42.231539  2230 net.cpp:129] Top shape: 100 (100)
I0801 16:42:42.231545  2230 net.cpp:137] Memory required for data: 1230000
I0801 16:42:42.231552  2230 layer_factory.hpp:77] Creating layer conv1
I0801 16:42:42.231567  2230 net.cpp:84] Creating Layer conv1
I0801 16:42:42.231575  2230 net.cpp:406] conv1 <- data
I0801 16:42:42.231583  2230 net.cpp:380] conv1 -> conv1
I0801 16:42:42.232583  2230 net.cpp:122] Setting up conv1
I0801 16:42:42.232600  2230 net.cpp:129] Top shape: 100 32 32 32 (3276800)
I0801 16:42:42.232607  2230 net.cpp:137] Memory required for data: 14337200
I0801 16:42:42.232620  2230 layer_factory.hpp:77] Creating layer pool1
I0801 16:42:42.232632  2230 net.cpp:84] Creating Layer pool1
I0801 16:42:42.232640  2230 net.cpp:406] pool1 <- conv1
I0801 16:42:42.232646  2230 net.cpp:380] pool1 -> pool1
I0801 16:42:42.232686  2230 net.cpp:122] Setting up pool1
I0801 16:42:42.232697  2230 net.cpp:129] Top shape: 100 32 16 16 (819200)
I0801 16:42:42.232703  2230 net.cpp:137] Memory required for data: 17614000
I0801 16:42:42.232708  2230 layer_factory.hpp:77] Creating layer Sigmoid1
I0801 16:42:42.232718  2230 net.cpp:84] Creating Layer Sigmoid1
I0801 16:42:42.232727  2230 net.cpp:406] Sigmoid1 <- pool1
I0801 16:42:42.232736  2230 net.cpp:380] Sigmoid1 -> Sigmoid1
I0801 16:42:42.233245  2230 net.cpp:122] Setting up Sigmoid1
I0801 16:42:42.233266  2230 net.cpp:129] Top shape: 100 32 16 16 (819200)
I0801 16:42:42.233275  2230 net.cpp:137] Memory required for data: 20890800
I0801 16:42:42.233283  2230 layer_factory.hpp:77] Creating layer conv2
I0801 16:42:42.233304  2230 net.cpp:84] Creating Layer conv2
I0801 16:42:42.233324  2230 net.cpp:406] conv2 <- Sigmoid1
I0801 16:42:42.233333  2230 net.cpp:380] conv2 -> conv2
I0801 16:42:42.234743  2230 net.cpp:122] Setting up conv2
I0801 16:42:42.234777  2230 net.cpp:129] Top shape: 100 32 16 16 (819200)
I0801 16:42:42.234786  2230 net.cpp:137] Memory required for data: 24167600
I0801 16:42:42.234802  2230 layer_factory.hpp:77] Creating layer Sigmoid2
I0801 16:42:42.234817  2230 net.cpp:84] Creating Layer Sigmoid2
I0801 16:42:42.234824  2230 net.cpp:406] Sigmoid2 <- conv2
I0801 16:42:42.234833  2230 net.cpp:380] Sigmoid2 -> Sigmoid2
I0801 16:42:42.234984  2230 net.cpp:122] Setting up Sigmoid2
I0801 16:42:42.234997  2230 net.cpp:129] Top shape: 100 32 16 16 (819200)
I0801 16:42:42.235004  2230 net.cpp:137] Memory required for data: 27444400
I0801 16:42:42.235011  2230 layer_factory.hpp:77] Creating layer pool2
I0801 16:42:42.235023  2230 net.cpp:84] Creating Layer pool2
I0801 16:42:42.235030  2230 net.cpp:406] pool2 <- Sigmoid2
I0801 16:42:42.235039  2230 net.cpp:380] pool2 -> pool2
I0801 16:42:42.235186  2230 net.cpp:122] Setting up pool2
I0801 16:42:42.235199  2230 net.cpp:129] Top shape: 100 32 8 8 (204800)
I0801 16:42:42.235205  2230 net.cpp:137] Memory required for data: 28263600
I0801 16:42:42.235213  2230 layer_factory.hpp:77] Creating layer conv3
I0801 16:42:42.235225  2230 net.cpp:84] Creating Layer conv3
I0801 16:42:42.235232  2230 net.cpp:406] conv3 <- pool2
I0801 16:42:42.235241  2230 net.cpp:380] conv3 -> conv3
I0801 16:42:42.237215  2230 net.cpp:122] Setting up conv3
I0801 16:42:42.237246  2230 net.cpp:129] Top shape: 100 64 8 8 (409600)
I0801 16:42:42.237256  2230 net.cpp:137] Memory required for data: 29902000
I0801 16:42:42.237269  2230 layer_factory.hpp:77] Creating layer Sigmoid3
I0801 16:42:42.237279  2230 net.cpp:84] Creating Layer Sigmoid3
I0801 16:42:42.237287  2230 net.cpp:406] Sigmoid3 <- conv3
I0801 16:42:42.237296  2230 net.cpp:380] Sigmoid3 -> Sigmoid3
I0801 16:42:42.237438  2230 net.cpp:122] Setting up Sigmoid3
I0801 16:42:42.237452  2230 net.cpp:129] Top shape: 100 64 8 8 (409600)
I0801 16:42:42.237458  2230 net.cpp:137] Memory required for data: 31540400
I0801 16:42:42.237465  2230 layer_factory.hpp:77] Creating layer pool3
I0801 16:42:42.237473  2230 net.cpp:84] Creating Layer pool3
I0801 16:42:42.237480  2230 net.cpp:406] pool3 <- Sigmoid3
I0801 16:42:42.237488  2230 net.cpp:380] pool3 -> pool3
I0801 16:42:42.237854  2230 net.cpp:122] Setting up pool3
I0801 16:42:42.237869  2230 net.cpp:129] Top shape: 100 64 4 4 (102400)
I0801 16:42:42.237875  2230 net.cpp:137] Memory required for data: 31950000
I0801 16:42:42.237882  2230 layer_factory.hpp:77] Creating layer ip1
I0801 16:42:42.237895  2230 net.cpp:84] Creating Layer ip1
I0801 16:42:42.237901  2230 net.cpp:406] ip1 <- pool3
I0801 16:42:42.237910  2230 net.cpp:380] ip1 -> ip1
I0801 16:42:42.238051  2230 net.cpp:122] Setting up ip1
I0801 16:42:42.238061  2230 net.cpp:129] Top shape: 100 10 (1000)
I0801 16:42:42.238068  2230 net.cpp:137] Memory required for data: 31954000
I0801 16:42:42.238076  2230 layer_factory.hpp:77] Creating layer ip1_ip1_0_split
I0801 16:42:42.238085  2230 net.cpp:84] Creating Layer ip1_ip1_0_split
I0801 16:42:42.238092  2230 net.cpp:406] ip1_ip1_0_split <- ip1
I0801 16:42:42.238101  2230 net.cpp:380] ip1_ip1_0_split -> ip1_ip1_0_split_0
I0801 16:42:42.238111  2230 net.cpp:380] ip1_ip1_0_split -> ip1_ip1_0_split_1
I0801 16:42:42.238143  2230 net.cpp:122] Setting up ip1_ip1_0_split
I0801 16:42:42.238153  2230 net.cpp:129] Top shape: 100 10 (1000)
I0801 16:42:42.238160  2230 net.cpp:129] Top shape: 100 10 (1000)
I0801 16:42:42.238167  2230 net.cpp:137] Memory required for data: 31962000
I0801 16:42:42.238173  2230 layer_factory.hpp:77] Creating layer accuracy
I0801 16:42:42.238183  2230 net.cpp:84] Creating Layer accuracy
I0801 16:42:42.238189  2230 net.cpp:406] accuracy <- ip1_ip1_0_split_0
I0801 16:42:42.238196  2230 net.cpp:406] accuracy <- label_cifar_1_split_0
I0801 16:42:42.238205  2230 net.cpp:380] accuracy -> accuracy
…
