…
I0801 02:22:48.468457  2097 net.cpp:294] The NetState phase (0) differed from the phase (1) specified by a rule in layer accuracy
I0801 02:22:48.468559  2097 net.cpp:51] Initializing net from parameters: 
name: "CIFAR10_full"
state {
  phase: TRAIN
  level: 0
  stage: ""
}
layer {
  name: "cifar"
  type: "Data"
  top: "data"
  top: "label"
  include {
    phase: TRAIN
  }
  transform_param {
    mean_file: "/opt/caffe/examples/cifar10/mean.binaryproto"
  }
  data_param {
    source: "/opt/caffe/examples/cifar10/cifar10_train_lmdb"
    batch_size: 100
    backend: LMDB
  }
}
layer {
  name: "conv_s_1"
  type: "Convolution"
  bottom: "data"
  top: "conv_s_1"
  param {
    lr_mult: 1
  }
  param {
    lr_mult: 2
  }
  convolution_param {
    num_output: 32
    pad: 2
    kernel_size: 5
    stride: 1
    weight_filler {
      type: "gaussian"
      std: 0.0001
    }
    bias_filler {
      type: "constant"
    }
  }
}
layer {
  name: "pool_s_1"
  type: "Pooling"
  bottom: "conv_s_1"
  top: "pool_s_1"
  pooling_param {
    pool: MAX
    kernel_size: 3
    stride: 2
  }
}
layer {
  name: "relu_s_1"
  type: "ReLU"
  bottom: "pool_s_1"
  top: "pool_s_1"
}
layer {
  name: "norm_s_1"
  type: "LRN"
  bottom: "pool_s_1"
  top: "norm_s_1"
  lrn_param {
    local_size: 3
    alpha: 5e-05
    beta: 0.75
    norm_region: WITHIN_CHANNEL
  }
}
layer {
  name: "conv_s_2"
  type: "Convolution"
  bottom: "norm_s_1"
  top: "conv_s_2"
  param {
    lr_mult: 1
  }
  param {
    lr_mult: 2
  }
  convolution_param {
    num_output: 32
    pad: 2
    kernel_size: 5
    stride: 1
    weight_filler {
      type: "gaussian"
      std: 0.01
    }
    bias_filler {
      type: "constant"
    }
  }
}
layer {
  name: "relu_s_2"
  type: "ReLU"
  bottom: "conv_s_2"
  top: "conv_s_2"
}
layer {
  name: "pool_s_2"
  type: "Pooling"
  bottom: "conv_s_2"
  top: "pool_s_2"
  pooling_param {
    pool: AVE
    kernel_size: 3
    stride: 2
  }
}
layer {
  name: "norm_s_2"
  type: "LRN"
  bottom: "pool_s_2"
  top: "norm_s_2"
  lrn_param {
    local_size: 3
    alpha: 5e-05
    beta: 0.75
    norm_region: WITHIN_CHANNEL
  }
}
layer {
  name: "conv_s_3"
  type: "Convolution"
  bottom: "norm_s_2"
  top: "conv_s_3"
  param {
    lr_mult: 1
  }
  param {
    lr_mult: 2
  }
  convolution_param {
    num_output: 64
    pad: 2
    kernel_size: 5
    stride: 1
    weight_filler {
      type: "gaussian"
      std: 0.01
    }
    bias_filler {
      type: "constant"
    }
  }
}
layer {
  name: "relu_s_3"
  type: "ReLU"
  bottom: "conv_s_3"
  top: "conv_s_3"
}
layer {
  name: "pool_s_3"
  type: "Pooling"
  bottom: "conv_s_3"
  top: "pool_s_3"
  pooling_param {
    pool: AVE
    kernel_size: 3
    stride: 2
  }
}
layer {
  name: "ip_s_1"
  type: "InnerProduct"
  bottom: "pool_s_3"
  top: "ip_s_1"
  param {
    lr_mult: 1
    decay_mult: 250
  }
  param {
    lr_mult: 2
    decay_mult: 0
  }
  inner_product_param {
    num_output: 10
    weight_filler {
      type: "gaussian"
      std: 0.01
    }
    bias_filler {
      type: "constant"
    }
  }
}
layer {
  name: "conv_t_1"
  type: "Convolution"
  bottom: "data"
  top: "conv_t_1"
  param {
    lr_mult: 0
  }
  param {
    lr_mult: 0
  }
  convolution_param {
    num_output: 32
    pad: 2
    kernel_size: 5
    stride: 1
    weight_filler {
      type: "gaussian"
      std: 0.0001
    }
    bias_filler {
      type: "constant"
    }
  }
}
layer {
  name: "pool_t_1"
  type: "Pooling"
  bottom: "conv_t_1"
  top: "pool_t_1"
  pooling_param {
    pool: MAX
    kernel_size: 3
    stride: 2
  }
}
layer {
  name: "relu_t_1"
  type: "ReLU"
  bottom: "pool_t_1"
  top: "pool_t_1"
}
layer {
  name: "norm_t_1"
  type: "LRN"
  bottom: "pool_t_1"
  top: "norm_t_1"
  lrn_param {
    local_size: 3
    alpha: 5e-05
    beta: 0.75
    norm_region: WITHIN_CHANNEL
  }
}
layer {
  name: "conv_t_2"
  type: "Convolution"
  bottom: "norm_t_1"
  top: "conv_t_2"
  param {
    lr_mult: 0
  }
  param {
    lr_mult: 0
  }
  convolution_param {
    num_output: 32
    pad: 2
    kernel_size: 5
    stride: 1
    weight_filler {
      type: "gaussian"
      std: 0.01
    }
    bias_filler {
      type: "constant"
    }
  }
}
layer {
  name: "relu_t_2"
  type: "ReLU"
  bottom: "conv_t_2"
  top: "conv_t_2"
}
layer {
  name: "pool_t_2"
  type: "Pooling"
  bottom: "conv_t_2"
  top: "pool_t_2"
  pooling_param {
    pool: AVE
    kernel_size: 3
    stride: 2
  }
}
layer {
  name: "norm_t_2"
  type: "LRN"
  bottom: "pool_t_2"
  top: "norm_t_2"
  lrn_param {
    local_size: 3
    alpha: 5e-05
    beta: 0.75
    norm_region: WITHIN_CHANNEL
  }
}
layer {
  name: "conv_t_3"
  type: "Convolution"
  bottom: "norm_t_2"
  top: "conv_t_3"
  param {
    lr_mult: 0
  }
  param {
    lr_mult: 0
  }
  convolution_param {
    num_output: 64
    pad: 2
    kernel_size: 5
    stride: 1
    weight_filler {
      type: "gaussian"
      std: 0.01
    }
    bias_filler {
      type: "constant"
    }
  }
}
layer {
  name: "relu_t_3"
  type: "ReLU"
  bottom: "conv_t_3"
  top: "conv_t_3"
}
layer {
  name: "pool_t_3"
  type: "Pooling"
  bottom: "conv_t_3"
  top: "pool_t_3"
  pooling_param {
    pool: AVE
    kernel_size: 3
    stride: 2
  }
}
layer {
  name: "ip_t_1"
  type: "InnerProduct"
  bottom: "pool_t_3"
  top: "ip_t_1"
  param {
    lr_mult: 0
  }
  param {
    lr_mult: 0
  }
  inner_product_param {
    num_output: 10
    weight_filler {
      type: "gaussian"
      std: 0.01
    }
    bias_filler {
      type: "constant"
    }
  }
}
layer {
  name: "sm_s_1"
  type: "Softmax"
  bottom: "ip_s_1"
  top: "sm_s_1"
}
layer {
  name: "sm_t_1"
  type: "Softmax"
  bottom: "ip_t_1"
  top: "sm_t_1"
}
layer {
  name: "ts_loss"
  type: "SigmoidCrossEntropyLoss"
  bottom: "sm_s_1"
  bottom: "sm_t_1"
  top: "ts_loss"
  loss_weight: 0.3
}
layer {
  name: "loss"
  type: "SoftmaxWithLoss"
  bottom: "ip_s_1"
  bottom: "label"
  top: "loss"
  loss_weight: 0.7
}
I0801 02:22:48.468648  2097 layer_factory.hpp:77] Creating layer cifar
I0801 02:22:48.468735  2097 db_lmdb.cpp:35] Opened lmdb /opt/caffe/examples/cifar10/cifar10_train_lmdb
I0801 02:22:48.468752  2097 net.cpp:84] Creating Layer cifar
I0801 02:22:48.468757  2097 net.cpp:380] cifar -> data
I0801 02:22:48.468773  2097 net.cpp:380] cifar -> label
I0801 02:22:48.468783  2097 data_transformer.cpp:25] Loading mean file from: /opt/caffe/examples/cifar10/mean.binaryproto
I0801 02:22:48.469908  2097 data_layer.cpp:45] output data size: 100,3,32,32
I0801 02:22:48.473419  2097 net.cpp:122] Setting up cifar
I0801 02:22:48.473434  2097 net.cpp:129] Top shape: 100 3 32 32 (307200)
I0801 02:22:48.473438  2097 net.cpp:129] Top shape: 100 (100)
I0801 02:22:48.473439  2097 net.cpp:137] Memory required for data: 1229200
I0801 02:22:48.473448  2097 layer_factory.hpp:77] Creating layer data_cifar_0_split
I0801 02:22:48.473459  2097 net.cpp:84] Creating Layer data_cifar_0_split
I0801 02:22:48.473464  2097 net.cpp:406] data_cifar_0_split <- data
I0801 02:22:48.473474  2097 net.cpp:380] data_cifar_0_split -> data_cifar_0_split_0
I0801 02:22:48.473481  2097 net.cpp:380] data_cifar_0_split -> data_cifar_0_split_1
I0801 02:22:48.473518  2097 net.cpp:122] Setting up data_cifar_0_split
I0801 02:22:48.473522  2097 net.cpp:129] Top shape: 100 3 32 32 (307200)
I0801 02:22:48.473525  2097 net.cpp:129] Top shape: 100 3 32 32 (307200)
I0801 02:22:48.473526  2097 net.cpp:137] Memory required for data: 3686800
I0801 02:22:48.473528  2097 layer_factory.hpp:77] Creating layer conv_s_1
I0801 02:22:48.473542  2097 net.cpp:84] Creating Layer conv_s_1
I0801 02:22:48.473557  2097 net.cpp:406] conv_s_1 <- data_cifar_0_split_0
I0801 02:22:48.473562  2097 net.cpp:380] conv_s_1 -> conv_s_1
I0801 02:22:48.783529  2097 net.cpp:122] Setting up conv_s_1
I0801 02:22:48.783551  2097 net.cpp:129] Top shape: 100 32 32 32 (3276800)
I0801 02:22:48.783553  2097 net.cpp:137] Memory required for data: 16794000
I0801 02:22:48.783566  2097 layer_factory.hpp:77] Creating layer pool_s_1
I0801 02:22:48.783576  2097 net.cpp:84] Creating Layer pool_s_1
I0801 02:22:48.783578  2097 net.cpp:406] pool_s_1 <- conv_s_1
I0801 02:22:48.783582  2097 net.cpp:380] pool_s_1 -> pool_s_1
I0801 02:22:48.783619  2097 net.cpp:122] Setting up pool_s_1
I0801 02:22:48.783624  2097 net.cpp:129] Top shape: 100 32 16 16 (819200)
I0801 02:22:48.783627  2097 net.cpp:137] Memory required for data: 20070800
I0801 02:22:48.783628  2097 layer_factory.hpp:77] Creating layer relu_s_1
I0801 02:22:48.783632  2097 net.cpp:84] Creating Layer relu_s_1
I0801 02:22:48.783635  2097 net.cpp:406] relu_s_1 <- pool_s_1
I0801 02:22:48.783638  2097 net.cpp:367] relu_s_1 -> pool_s_1 (in-place)
I0801 02:22:48.783962  2097 net.cpp:122] Setting up relu_s_1
I0801 02:22:48.783968  2097 net.cpp:129] Top shape: 100 32 16 16 (819200)
I0801 02:22:48.783970  2097 net.cpp:137] Memory required for data: 23347600
I0801 02:22:48.783972  2097 layer_factory.hpp:77] Creating layer norm_s_1
I0801 02:22:48.783979  2097 net.cpp:84] Creating Layer norm_s_1
I0801 02:22:48.783982  2097 net.cpp:406] norm_s_1 <- pool_s_1
I0801 02:22:48.783984  2097 net.cpp:380] norm_s_1 -> norm_s_1
I0801 02:22:48.784509  2097 net.cpp:122] Setting up norm_s_1
I0801 02:22:48.784517  2097 net.cpp:129] Top shape: 100 32 16 16 (819200)
I0801 02:22:48.784518  2097 net.cpp:137] Memory required for data: 26624400
I0801 02:22:48.784520  2097 layer_factory.hpp:77] Creating layer conv_s_2
I0801 02:22:48.784528  2097 net.cpp:84] Creating Layer conv_s_2
I0801 02:22:48.784529  2097 net.cpp:406] conv_s_2 <- norm_s_1
I0801 02:22:48.784533  2097 net.cpp:380] conv_s_2 -> conv_s_2
I0801 02:22:48.786032  2097 net.cpp:122] Setting up conv_s_2
I0801 02:22:48.786041  2097 net.cpp:129] Top shape: 100 32 16 16 (819200)
I0801 02:22:48.786042  2097 net.cpp:137] Memory required for data: 29901200
I0801 02:22:48.786048  2097 layer_factory.hpp:77] Creating layer relu_s_2
I0801 02:22:48.786052  2097 net.cpp:84] Creating Layer relu_s_2
I0801 02:22:48.786054  2097 net.cpp:406] relu_s_2 <- conv_s_2
I0801 02:22:48.786057  2097 net.cpp:367] relu_s_2 -> conv_s_2 (in-place)
I0801 02:22:48.786171  2097 net.cpp:122] Setting up relu_s_2
I0801 02:22:48.786177  2097 net.cpp:129] Top shape: 100 32 16 16 (819200)
I0801 02:22:48.786180  2097 net.cpp:137] Memory required for data: 33178000
I0801 02:22:48.786181  2097 layer_factory.hpp:77] Creating layer pool_s_2
I0801 02:22:48.786186  2097 net.cpp:84] Creating Layer pool_s_2
I0801 02:22:48.786188  2097 net.cpp:406] pool_s_2 <- conv_s_2
I0801 02:22:48.786191  2097 net.cpp:380] pool_s_2 -> pool_s_2
I0801 02:22:48.786501  2097 net.cpp:122] Setting up pool_s_2
I0801 02:22:48.786509  2097 net.cpp:129] Top shape: 100 32 8 8 (204800)
I0801 02:22:48.786511  2097 net.cpp:137] Memory required for data: 33997200
I0801 02:22:48.786514  2097 layer_factory.hpp:77] Creating layer norm_s_2
I0801 02:22:48.786516  2097 net.cpp:84] Creating Layer norm_s_2
I0801 02:22:48.786519  2097 net.cpp:406] norm_s_2 <- pool_s_2
I0801 02:22:48.786522  2097 net.cpp:380] norm_s_2 -> norm_s_2
I0801 02:22:48.786700  2097 net.cpp:122] Setting up norm_s_2
I0801 02:22:48.786705  2097 net.cpp:129] Top shape: 100 32 8 8 (204800)
I0801 02:22:48.786706  2097 net.cpp:137] Memory required for data: 34816400
I0801 02:22:48.786708  2097 layer_factory.hpp:77] Creating layer conv_s_3
I0801 02:22:48.786715  2097 net.cpp:84] Creating Layer conv_s_3
I0801 02:22:48.786717  2097 net.cpp:406] conv_s_3 <- norm_s_2
I0801 02:22:48.786721  2097 net.cpp:380] conv_s_3 -> conv_s_3
I0801 02:22:48.787716  2097 net.cpp:122] Setting up conv_s_3
I0801 02:22:48.787724  2097 net.cpp:129] Top shape: 100 64 8 8 (409600)
I0801 02:22:48.787725  2097 net.cpp:137] Memory required for data: 36454800
I0801 02:22:48.787744  2097 layer_factory.hpp:77] Creating layer relu_s_3
I0801 02:22:48.787748  2097 net.cpp:84] Creating Layer relu_s_3
I0801 02:22:48.787750  2097 net.cpp:406] relu_s_3 <- conv_s_3
I0801 02:22:48.787753  2097 net.cpp:367] relu_s_3 -> conv_s_3 (in-place)
I0801 02:22:48.787866  2097 net.cpp:122] Setting up relu_s_3
I0801 02:22:48.787873  2097 net.cpp:129] Top shape: 100 64 8 8 (409600)
I0801 02:22:48.787874  2097 net.cpp:137] Memory required for data: 38093200
I0801 02:22:48.787876  2097 layer_factory.hpp:77] Creating layer pool_s_3
I0801 02:22:48.787879  2097 net.cpp:84] Creating Layer pool_s_3
I0801 02:22:48.787883  2097 net.cpp:406] pool_s_3 <- conv_s_3
I0801 02:22:48.787885  2097 net.cpp:380] pool_s_3 -> pool_s_3
I0801 02:22:48.787997  2097 net.cpp:122] Setting up pool_s_3
I0801 02:22:48.788002  2097 net.cpp:129] Top shape: 100 64 4 4 (102400)
I0801 02:22:48.788004  2097 net.cpp:137] Memory required for data: 38502800
I0801 02:22:48.788005  2097 layer_factory.hpp:77] Creating layer ip_s_1
I0801 02:22:48.788009  2097 net.cpp:84] Creating Layer ip_s_1
I0801 02:22:48.788012  2097 net.cpp:406] ip_s_1 <- pool_s_3
I0801 02:22:48.788017  2097 net.cpp:380] ip_s_1 -> ip_s_1
I0801 02:22:48.788616  2097 net.cpp:122] Setting up ip_s_1
I0801 02:22:48.788625  2097 net.cpp:129] Top shape: 100 10 (1000)
I0801 02:22:48.788626  2097 net.cpp:137] Memory required for data: 38506800
I0801 02:22:48.788631  2097 layer_factory.hpp:77] Creating layer ip_s_1_ip_s_1_0_split
I0801 02:22:48.788636  2097 net.cpp:84] Creating Layer ip_s_1_ip_s_1_0_split
I0801 02:22:48.788638  2097 net.cpp:406] ip_s_1_ip_s_1_0_split <- ip_s_1
I0801 02:22:48.788641  2097 net.cpp:380] ip_s_1_ip_s_1_0_split -> ip_s_1_ip_s_1_0_split_0
I0801 02:22:48.788646  2097 net.cpp:380] ip_s_1_ip_s_1_0_split -> ip_s_1_ip_s_1_0_split_1
I0801 02:22:48.788671  2097 net.cpp:122] Setting up ip_s_1_ip_s_1_0_split
I0801 02:22:48.788673  2097 net.cpp:129] Top shape: 100 10 (1000)
I0801 02:22:48.788676  2097 net.cpp:129] Top shape: 100 10 (1000)
I0801 02:22:48.788677  2097 net.cpp:137] Memory required for data: 38514800
I0801 02:22:48.788679  2097 layer_factory.hpp:77] Creating layer conv_t_1
I0801 02:22:48.788684  2097 net.cpp:84] Creating Layer conv_t_1
I0801 02:22:48.788687  2097 net.cpp:406] conv_t_1 <- data_cifar_0_split_1
I0801 02:22:48.788691  2097 net.cpp:380] conv_t_1 -> conv_t_1
I0801 02:22:48.789397  2097 net.cpp:122] Setting up conv_t_1
I0801 02:22:48.789404  2097 net.cpp:129] Top shape: 100 32 32 32 (3276800)
I0801 02:22:48.789407  2097 net.cpp:137] Memory required for data: 51622000
I0801 02:22:48.789413  2097 layer_factory.hpp:77] Creating layer pool_t_1
I0801 02:22:48.789419  2097 net.cpp:84] Creating Layer pool_t_1
I0801 02:22:48.789422  2097 net.cpp:406] pool_t_1 <- conv_t_1
I0801 02:22:48.789425  2097 net.cpp:380] pool_t_1 -> pool_t_1
I0801 02:22:48.789451  2097 net.cpp:122] Setting up pool_t_1
I0801 02:22:48.789455  2097 net.cpp:129] Top shape: 100 32 16 16 (819200)
I0801 02:22:48.789458  2097 net.cpp:137] Memory required for data: 54898800
I0801 02:22:48.789458  2097 layer_factory.hpp:77] Creating layer relu_t_1
I0801 02:22:48.789461  2097 net.cpp:84] Creating Layer relu_t_1
I0801 02:22:48.789464  2097 net.cpp:406] relu_t_1 <- pool_t_1
I0801 02:22:48.789468  2097 net.cpp:367] relu_t_1 -> pool_t_1 (in-place)
I0801 02:22:48.789765  2097 net.cpp:122] Setting up relu_t_1
I0801 02:22:48.789772  2097 net.cpp:129] Top shape: 100 32 16 16 (819200)
I0801 02:22:48.789774  2097 net.cpp:137] Memory required for data: 58175600
I0801 02:22:48.789777  2097 layer_factory.hpp:77] Creating layer norm_t_1
I0801 02:22:48.789780  2097 net.cpp:84] Creating Layer norm_t_1
I0801 02:22:48.789783  2097 net.cpp:406] norm_t_1 <- pool_t_1
I0801 02:22:48.789786  2097 net.cpp:380] norm_t_1 -> norm_t_1
I0801 02:22:48.790300  2097 net.cpp:122] Setting up norm_t_1
I0801 02:22:48.790307  2097 net.cpp:129] Top shape: 100 32 16 16 (819200)
I0801 02:22:48.790309  2097 net.cpp:137] Memory required for data: 61452400
I0801 02:22:48.790310  2097 layer_factory.hpp:77] Creating layer conv_t_2
I0801 02:22:48.790328  2097 net.cpp:84] Creating Layer conv_t_2
I0801 02:22:48.790330  2097 net.cpp:406] conv_t_2 <- norm_t_1
I0801 02:22:48.790335  2097 net.cpp:380] conv_t_2 -> conv_t_2
I0801 02:22:48.791169  2097 net.cpp:122] Setting up conv_t_2
I0801 02:22:48.791177  2097 net.cpp:129] Top shape: 100 32 16 16 (819200)
I0801 02:22:48.791178  2097 net.cpp:137] Memory required for data: 64729200
I0801 02:22:48.791182  2097 layer_factory.hpp:77] Creating layer relu_t_2
I0801 02:22:48.791185  2097 net.cpp:84] Creating Layer relu_t_2
I0801 02:22:48.791188  2097 net.cpp:406] relu_t_2 <- conv_t_2
I0801 02:22:48.791190  2097 net.cpp:367] relu_t_2 -> conv_t_2 (in-place)
I0801 02:22:48.791299  2097 net.cpp:122] Setting up relu_t_2
I0801 02:22:48.791304  2097 net.cpp:129] Top shape: 100 32 16 16 (819200)
I0801 02:22:48.791306  2097 net.cpp:137] Memory required for data: 68006000
I0801 02:22:48.791307  2097 layer_factory.hpp:77] Creating layer pool_t_2
I0801 02:22:48.791311  2097 net.cpp:84] Creating Layer pool_t_2
I0801 02:22:48.791312  2097 net.cpp:406] pool_t_2 <- conv_t_2
I0801 02:22:48.791316  2097 net.cpp:380] pool_t_2 -> pool_t_2
I0801 02:22:48.791613  2097 net.cpp:122] Setting up pool_t_2
I0801 02:22:48.791621  2097 net.cpp:129] Top shape: 100 32 8 8 (204800)
I0801 02:22:48.791622  2097 net.cpp:137] Memory required for data: 68825200
I0801 02:22:48.791625  2097 layer_factory.hpp:77] Creating layer norm_t_2
I0801 02:22:48.791628  2097 net.cpp:84] Creating Layer norm_t_2
I0801 02:22:48.791631  2097 net.cpp:406] norm_t_2 <- pool_t_2
I0801 02:22:48.791635  2097 net.cpp:380] norm_t_2 -> norm_t_2
I0801 02:22:48.791808  2097 net.cpp:122] Setting up norm_t_2
I0801 02:22:48.791813  2097 net.cpp:129] Top shape: 100 32 8 8 (204800)
I0801 02:22:48.791815  2097 net.cpp:137] Memory required for data: 69644400
I0801 02:22:48.791817  2097 layer_factory.hpp:77] Creating layer conv_t_3
I0801 02:22:48.791823  2097 net.cpp:84] Creating Layer conv_t_3
I0801 02:22:48.791826  2097 net.cpp:406] conv_t_3 <- norm_t_2
I0801 02:22:48.791829  2097 net.cpp:380] conv_t_3 -> conv_t_3
I0801 02:22:48.792798  2097 net.cpp:122] Setting up conv_t_3
I0801 02:22:48.792805  2097 net.cpp:129] Top shape: 100 64 8 8 (409600)
I0801 02:22:48.792807  2097 net.cpp:137] Memory required for data: 71282800
I0801 02:22:48.792811  2097 layer_factory.hpp:77] Creating layer relu_t_3
I0801 02:22:48.792829  2097 net.cpp:84] Creating Layer relu_t_3
I0801 02:22:48.792839  2097 net.cpp:406] relu_t_3 <- conv_t_3
I0801 02:22:48.792847  2097 net.cpp:367] relu_t_3 -> conv_t_3 (in-place)
I0801 02:22:48.792970  2097 net.cpp:122] Setting up relu_t_3
I0801 02:22:48.792982  2097 net.cpp:129] Top shape: 100 64 8 8 (409600)
I0801 02:22:48.792989  2097 net.cpp:137] Memory required for data: 72921200
I0801 02:22:48.792995  2097 layer_factory.hpp:77] Creating layer pool_t_3
I0801 02:22:48.793004  2097 net.cpp:84] Creating Layer pool_t_3
I0801 02:22:48.793011  2097 net.cpp:406] pool_t_3 <- conv_t_3
I0801 02:22:48.793020  2097 net.cpp:380] pool_t_3 -> pool_t_3
I0801 02:22:48.793339  2097 net.cpp:122] Setting up pool_t_3
I0801 02:22:48.793355  2097 net.cpp:129] Top shape: 100 64 4 4 (102400)
I0801 02:22:48.793362  2097 net.cpp:137] Memory required for data: 73330800
I0801 02:22:48.793370  2097 layer_factory.hpp:77] Creating layer ip_t_1
I0801 02:22:48.793380  2097 net.cpp:84] Creating Layer ip_t_1
I0801 02:22:48.793387  2097 net.cpp:406] ip_t_1 <- pool_t_3
I0801 02:22:48.793395  2097 net.cpp:380] ip_t_1 -> ip_t_1
I0801 02:22:48.793530  2097 net.cpp:122] Setting up ip_t_1
I0801 02:22:48.793541  2097 net.cpp:129] Top shape: 100 10 (1000)
I0801 02:22:48.793548  2097 net.cpp:137] Memory required for data: 73334800
I0801 02:22:48.793557  2097 layer_factory.hpp:77] Creating layer sm_s_1
I0801 02:22:48.793565  2097 net.cpp:84] Creating Layer sm_s_1
I0801 02:22:48.793572  2097 net.cpp:406] sm_s_1 <- ip_s_1_ip_s_1_0_split_0
I0801 02:22:48.793581  2097 net.cpp:380] sm_s_1 -> sm_s_1
I0801 02:22:48.793743  2097 net.cpp:122] Setting up sm_s_1
I0801 02:22:48.793761  2097 net.cpp:129] Top shape: 100 10 (1000)
I0801 02:22:48.793772  2097 net.cpp:137] Memory required for data: 73338800
I0801 02:22:48.793781  2097 layer_factory.hpp:77] Creating layer sm_t_1
I0801 02:22:48.793788  2097 net.cpp:84] Creating Layer sm_t_1
I0801 02:22:48.793795  2097 net.cpp:406] sm_t_1 <- ip_t_1
I0801 02:22:48.793803  2097 net.cpp:380] sm_t_1 -> sm_t_1
I0801 02:22:48.793954  2097 net.cpp:122] Setting up sm_t_1
I0801 02:22:48.793967  2097 net.cpp:129] Top shape: 100 10 (1000)
I0801 02:22:48.793972  2097 net.cpp:137] Memory required for data: 73342800
I0801 02:22:48.793979  2097 layer_factory.hpp:77] Creating layer ts_loss
I0801 02:22:48.793988  2097 net.cpp:84] Creating Layer ts_loss
I0801 02:22:48.793995  2097 net.cpp:406] ts_loss <- sm_s_1
I0801 02:22:48.794003  2097 net.cpp:406] ts_loss <- sm_t_1
I0801 02:22:48.794010  2097 net.cpp:380] ts_loss -> ts_loss
…
I0801 02:22:48.794836  2097 net.cpp:294] The NetState phase (1) differed from the phase (0) specified by a rule in layer cifar
I0801 02:22:48.794948  2097 net.cpp:51] Initializing net from parameters: 
name: "CIFAR10_full"
state {
  phase: TEST
}
layer {
  name: "cifar"
  type: "Data"
  top: "data"
  top: "label"
  include {
    phase: TEST
  }
  transform_param {
    mean_file: "/opt/caffe/examples/cifar10/mean.binaryproto"
  }
  data_param {
    source: "/opt/caffe/examples/cifar10/cifar10_test_lmdb"
    batch_size: 100
    backend: LMDB
  }
}
layer {
  name: "conv_s_1"
  type: "Convolution"
  bottom: "data"
  top: "conv_s_1"
  param {
    lr_mult: 1
  }
  param {
    lr_mult: 2
  }
  convolution_param {
    num_output: 32
    pad: 2
    kernel_size: 5
    stride: 1
    weight_filler {
      type: "gaussian"
      std: 0.0001
    }
    bias_filler {
      type: "constant"
    }
  }
}
layer {
  name: "pool_s_1"
  type: "Pooling"
  bottom: "conv_s_1"
  top: "pool_s_1"
  pooling_param {
    pool: MAX
    kernel_size: 3
    stride: 2
  }
}
layer {
  name: "relu_s_1"
  type: "ReLU"
  bottom: "pool_s_1"
  top: "pool_s_1"
}
layer {
  name: "norm_s_1"
  type: "LRN"
  bottom: "pool_s_1"
  top: "norm_s_1"
  lrn_param {
    local_size: 3
    alpha: 5e-05
    beta: 0.75
    norm_region: WITHIN_CHANNEL
  }
}
layer {
  name: "conv_s_2"
  type: "Convolution"
  bottom: "norm_s_1"
  top: "conv_s_2"
  param {
    lr_mult: 1
  }
  param {
    lr_mult: 2
  }
  convolution_param {
    num_output: 32
    pad: 2
    kernel_size: 5
    stride: 1
    weight_filler {
      type: "gaussian"
      std: 0.01
    }
    bias_filler {
      type: "constant"
    }
  }
}
layer {
  name: "relu_s_2"
  type: "ReLU"
  bottom: "conv_s_2"
  top: "conv_s_2"
}
layer {
  name: "pool_s_2"
  type: "Pooling"
  bottom: "conv_s_2"
  top: "pool_s_2"
  pooling_param {
    pool: AVE
    kernel_size: 3
    stride: 2
  }
}
layer {
  name: "norm_s_2"
  type: "LRN"
  bottom: "pool_s_2"
  top: "norm_s_2"
  lrn_param {
    local_size: 3
    alpha: 5e-05
    beta: 0.75
    norm_region: WITHIN_CHANNEL
  }
}
layer {
  name: "conv_s_3"
  type: "Convolution"
  bottom: "norm_s_2"
  top: "conv_s_3"
  param {
    lr_mult: 1
  }
  param {
    lr_mult: 2
  }
  convolution_param {
    num_output: 64
    pad: 2
    kernel_size: 5
    stride: 1
    weight_filler {
      type: "gaussian"
      std: 0.01
    }
    bias_filler {
      type: "constant"
    }
  }
}
layer {
  name: "relu_s_3"
  type: "ReLU"
  bottom: "conv_s_3"
  top: "conv_s_3"
}
layer {
  name: "pool_s_3"
  type: "Pooling"
  bottom: "conv_s_3"
  top: "pool_s_3"
  pooling_param {
    pool: AVE
    kernel_size: 3
    stride: 2
  }
}
layer {
  name: "ip_s_1"
  type: "InnerProduct"
  bottom: "pool_s_3"
  top: "ip_s_1"
  param {
    lr_mult: 1
    decay_mult: 250
  }
  param {
    lr_mult: 2
    decay_mult: 0
  }
  inner_product_param {
    num_output: 10
    weight_filler {
      type: "gaussian"
      std: 0.01
    }
    bias_filler {
      type: "constant"
    }
  }
}
layer {
  name: "conv_t_1"
  type: "Convolution"
  bottom: "data"
  top: "conv_t_1"
  param {
    lr_mult: 0
  }
  param {
    lr_mult: 0
  }
  convolution_param {
    num_output: 32
    pad: 2
    kernel_size: 5
    stride: 1
    weight_filler {
      type: "gaussian"
      std: 0.0001
    }
    bias_filler {
      type: "constant"
    }
  }
}
layer {
  name: "pool_t_1"
  type: "Pooling"
  bottom: "conv_t_1"
  top: "pool_t_1"
  pooling_param {
    pool: MAX
    kernel_size: 3
    stride: 2
  }
}
layer {
  name: "relu_t_1"
  type: "ReLU"
  bottom: "pool_t_1"
  top: "pool_t_1"
}
layer {
  name: "norm_t_1"
  type: "LRN"
  bottom: "pool_t_1"
  top: "norm_t_1"
  lrn_param {
    local_size: 3
    alpha: 5e-05
    beta: 0.75
    norm_region: WITHIN_CHANNEL
  }
}
layer {
  name: "conv_t_2"
  type: "Convolution"
  bottom: "norm_t_1"
  top: "conv_t_2"
  param {
    lr_mult: 0
  }
  param {
    lr_mult: 0
  }
  convolution_param {
    num_output: 32
    pad: 2
    kernel_size: 5
    stride: 1
    weight_filler {
      type: "gaussian"
      std: 0.01
    }
    bias_filler {
      type: "constant"
    }
  }
}
layer {
  name: "relu_t_2"
  type: "ReLU"
  bottom: "conv_t_2"
  top: "conv_t_2"
}
layer {
  name: "pool_t_2"
  type: "Pooling"
  bottom: "conv_t_2"
  top: "pool_t_2"
  pooling_param {
    pool: AVE
    kernel_size: 3
    stride: 2
  }
}
layer {
  name: "norm_t_2"
  type: "LRN"
  bottom: "pool_t_2"
  top: "norm_t_2"
  lrn_param {
    local_size: 3
    alpha: 5e-05
    beta: 0.75
    norm_region: WITHIN_CHANNEL
  }
}
layer {
  name: "conv_t_3"
  type: "Convolution"
  bottom: "norm_t_2"
  top: "conv_t_3"
  param {
    lr_mult: 0
  }
  param {
    lr_mult: 0
  }
  convolution_param {
    num_output: 64
    pad: 2
    kernel_size: 5
    stride: 1
    weight_filler {
      type: "gaussian"
      std: 0.01
    }
    bias_filler {
      type: "constant"
    }
  }
}
layer {
  name: "relu_t_3"
  type: "ReLU"
  bottom: "conv_t_3"
  top: "conv_t_3"
}
layer {
  name: "pool_t_3"
  type: "Pooling"
  bottom: "conv_t_3"
  top: "pool_t_3"
  pooling_param {
    pool: AVE
    kernel_size: 3
    stride: 2
  }
}
layer {
  name: "ip_t_1"
  type: "InnerProduct"
  bottom: "pool_t_3"
  top: "ip_t_1"
  param {
    lr_mult: 0
  }
  param {
    lr_mult: 0
  }
  inner_product_param {
    num_output: 10
    weight_filler {
      type: "gaussian"
      std: 0.01
    }
    bias_filler {
      type: "constant"
    }
  }
}
layer {
  name: "sm_s_1"
  type: "Softmax"
  bottom: "ip_s_1"
  top: "sm_s_1"
}
layer {
  name: "sm_t_1"
  type: "Softmax"
  bottom: "ip_t_1"
  top: "sm_t_1"
}
layer {
  name: "accuracy"
  type: "Accuracy"
  bottom: "ip_s_1"
  bottom: "label"
  top: "accuracy"
  include {
    phase: TEST
  }
}
layer {
  name: "ts_loss"
  type: "SigmoidCrossEntropyLoss"
  bottom: "sm_s_1"
  bottom: "sm_t_1"
  top: "ts_loss"
  loss_weight: 0.3
}
layer {
  name: "loss"
  type: "SoftmaxWithLoss"
  bottom: "ip_s_1"
  bottom: "label"
  top: "loss"
  loss_weight: 0.7
}
I0801 02:22:48.795205  2097 layer_factory.hpp:77] Creating layer cifar
I0801 02:22:48.795265  2097 db_lmdb.cpp:35] Opened lmdb /opt/caffe/examples/cifar10/cifar10_test_lmdb
I0801 02:22:48.795282  2097 net.cpp:84] Creating Layer cifar
I0801 02:22:48.795291  2097 net.cpp:380] cifar -> data
I0801 02:22:48.795303  2097 net.cpp:380] cifar -> label
I0801 02:22:48.795315  2097 data_transformer.cpp:25] Loading mean file from: /opt/caffe/examples/cifar10/mean.binaryproto
I0801 02:22:48.795433  2097 data_layer.cpp:45] output data size: 100,3,32,32
I0801 02:22:48.799468  2097 net.cpp:122] Setting up cifar
I0801 02:22:48.799510  2097 net.cpp:129] Top shape: 100 3 32 32 (307200)
I0801 02:22:48.799518  2097 net.cpp:129] Top shape: 100 (100)
I0801 02:22:48.799526  2097 net.cpp:137] Memory required for data: 1229200
I0801 02:22:48.799536  2097 layer_factory.hpp:77] Creating layer data_cifar_0_split
I0801 02:22:48.799551  2097 net.cpp:84] Creating Layer data_cifar_0_split
I0801 02:22:48.799558  2097 net.cpp:406] data_cifar_0_split <- data
I0801 02:22:48.799571  2097 net.cpp:380] data_cifar_0_split -> data_cifar_0_split_0
I0801 02:22:48.799582  2097 net.cpp:380] data_cifar_0_split -> data_cifar_0_split_1
I0801 02:22:48.799630  2097 net.cpp:122] Setting up data_cifar_0_split
I0801 02:22:48.799641  2097 net.cpp:129] Top shape: 100 3 32 32 (307200)
I0801 02:22:48.799649  2097 net.cpp:129] Top shape: 100 3 32 32 (307200)
I0801 02:22:48.799655  2097 net.cpp:137] Memory required for data: 3686800
I0801 02:22:48.799662  2097 layer_factory.hpp:77] Creating layer label_cifar_1_split
I0801 02:22:48.799679  2097 net.cpp:84] Creating Layer label_cifar_1_split
I0801 02:22:48.799693  2097 net.cpp:406] label_cifar_1_split <- label
I0801 02:22:48.799702  2097 net.cpp:380] label_cifar_1_split -> label_cifar_1_split_0
I0801 02:22:48.799712  2097 net.cpp:380] label_cifar_1_split -> label_cifar_1_split_1
I0801 02:22:48.799748  2097 net.cpp:122] Setting up label_cifar_1_split
I0801 02:22:48.799758  2097 net.cpp:129] Top shape: 100 (100)
I0801 02:22:48.799767  2097 net.cpp:129] Top shape: 100 (100)
I0801 02:22:48.799772  2097 net.cpp:137] Memory required for data: 3687600
I0801 02:22:48.799779  2097 layer_factory.hpp:77] Creating layer conv_s_1
I0801 02:22:48.799793  2097 net.cpp:84] Creating Layer conv_s_1
I0801 02:22:48.799800  2097 net.cpp:406] conv_s_1 <- data_cifar_0_split_0
I0801 02:22:48.799809  2097 net.cpp:380] conv_s_1 -> conv_s_1
I0801 02:22:48.801106  2097 net.cpp:122] Setting up conv_s_1
I0801 02:22:48.801129  2097 net.cpp:129] Top shape: 100 32 32 32 (3276800)
I0801 02:22:48.801138  2097 net.cpp:137] Memory required for data: 16794800
I0801 02:22:48.801151  2097 layer_factory.hpp:77] Creating layer pool_s_1
I0801 02:22:48.801162  2097 net.cpp:84] Creating Layer pool_s_1
I0801 02:22:48.801169  2097 net.cpp:406] pool_s_1 <- conv_s_1
I0801 02:22:48.801178  2097 net.cpp:380] pool_s_1 -> pool_s_1
I0801 02:22:48.801214  2097 net.cpp:122] Setting up pool_s_1
I0801 02:22:48.801224  2097 net.cpp:129] Top shape: 100 32 16 16 (819200)
I0801 02:22:48.801231  2097 net.cpp:137] Memory required for data: 20071600
I0801 02:22:48.801239  2097 layer_factory.hpp:77] Creating layer relu_s_1
I0801 02:22:48.801246  2097 net.cpp:84] Creating Layer relu_s_1
I0801 02:22:48.801254  2097 net.cpp:406] relu_s_1 <- pool_s_1
I0801 02:22:48.801262  2097 net.cpp:367] relu_s_1 -> pool_s_1 (in-place)
I0801 02:22:48.801398  2097 net.cpp:122] Setting up relu_s_1
I0801 02:22:48.801409  2097 net.cpp:129] Top shape: 100 32 16 16 (819200)
I0801 02:22:48.801416  2097 net.cpp:137] Memory required for data: 23348400
I0801 02:22:48.801424  2097 layer_factory.hpp:77] Creating layer norm_s_1
I0801 02:22:48.801434  2097 net.cpp:84] Creating Layer norm_s_1
I0801 02:22:48.801440  2097 net.cpp:406] norm_s_1 <- pool_s_1
I0801 02:22:48.801448  2097 net.cpp:380] norm_s_1 -> norm_s_1
I0801 02:22:48.802176  2097 net.cpp:122] Setting up norm_s_1
I0801 02:22:48.802196  2097 net.cpp:129] Top shape: 100 32 16 16 (819200)
I0801 02:22:48.802204  2097 net.cpp:137] Memory required for data: 26625200
I0801 02:22:48.802212  2097 layer_factory.hpp:77] Creating layer conv_s_2
I0801 02:22:48.802224  2097 net.cpp:84] Creating Layer conv_s_2
I0801 02:22:48.802232  2097 net.cpp:406] conv_s_2 <- norm_s_1
I0801 02:22:48.802242  2097 net.cpp:380] conv_s_2 -> conv_s_2
I0801 02:22:48.803167  2097 net.cpp:122] Setting up conv_s_2
I0801 02:22:48.803184  2097 net.cpp:129] Top shape: 100 32 16 16 (819200)
I0801 02:22:48.803192  2097 net.cpp:137] Memory required for data: 29902000
I0801 02:22:48.803203  2097 layer_factory.hpp:77] Creating layer relu_s_2
I0801 02:22:48.803213  2097 net.cpp:84] Creating Layer relu_s_2
I0801 02:22:48.803220  2097 net.cpp:406] relu_s_2 <- conv_s_2
I0801 02:22:48.803228  2097 net.cpp:367] relu_s_2 -> conv_s_2 (in-place)
I0801 02:22:48.803349  2097 net.cpp:122] Setting up relu_s_2
I0801 02:22:48.803360  2097 net.cpp:129] Top shape: 100 32 16 16 (819200)
I0801 02:22:48.803367  2097 net.cpp:137] Memory required for data: 33178800
I0801 02:22:48.803375  2097 layer_factory.hpp:77] Creating layer pool_s_2
I0801 02:22:48.803382  2097 net.cpp:84] Creating Layer pool_s_2
I0801 02:22:48.803390  2097 net.cpp:406] pool_s_2 <- conv_s_2
I0801 02:22:48.803398  2097 net.cpp:380] pool_s_2 -> pool_s_2
I0801 02:22:48.803719  2097 net.cpp:122] Setting up pool_s_2
I0801 02:22:48.803735  2097 net.cpp:129] Top shape: 100 32 8 8 (204800)
I0801 02:22:48.803742  2097 net.cpp:137] Memory required for data: 33998000
I0801 02:22:48.803750  2097 layer_factory.hpp:77] Creating layer norm_s_2
I0801 02:22:48.803757  2097 net.cpp:84] Creating Layer norm_s_2
I0801 02:22:48.803764  2097 net.cpp:406] norm_s_2 <- pool_s_2
I0801 02:22:48.803787  2097 net.cpp:380] norm_s_2 -> norm_s_2
I0801 02:22:48.803974  2097 net.cpp:122] Setting up norm_s_2
I0801 02:22:48.803987  2097 net.cpp:129] Top shape: 100 32 8 8 (204800)
I0801 02:22:48.803994  2097 net.cpp:137] Memory required for data: 34817200
I0801 02:22:48.804002  2097 layer_factory.hpp:77] Creating layer conv_s_3
I0801 02:22:48.804011  2097 net.cpp:84] Creating Layer conv_s_3
I0801 02:22:48.804019  2097 net.cpp:406] conv_s_3 <- norm_s_2
I0801 02:22:48.804028  2097 net.cpp:380] conv_s_3 -> conv_s_3
I0801 02:22:48.805022  2097 net.cpp:122] Setting up conv_s_3
I0801 02:22:48.805038  2097 net.cpp:129] Top shape: 100 64 8 8 (409600)
I0801 02:22:48.805047  2097 net.cpp:137] Memory required for data: 36455600
I0801 02:22:48.805057  2097 layer_factory.hpp:77] Creating layer relu_s_3
I0801 02:22:48.805066  2097 net.cpp:84] Creating Layer relu_s_3
I0801 02:22:48.805073  2097 net.cpp:406] relu_s_3 <- conv_s_3
I0801 02:22:48.805081  2097 net.cpp:367] relu_s_3 -> conv_s_3 (in-place)
I0801 02:22:48.805217  2097 net.cpp:122] Setting up relu_s_3
I0801 02:22:48.805229  2097 net.cpp:129] Top shape: 100 64 8 8 (409600)
I0801 02:22:48.805236  2097 net.cpp:137] Memory required for data: 38094000
I0801 02:22:48.805243  2097 layer_factory.hpp:77] Creating layer pool_s_3
I0801 02:22:48.805251  2097 net.cpp:84] Creating Layer pool_s_3
I0801 02:22:48.805258  2097 net.cpp:406] pool_s_3 <- conv_s_3
I0801 02:22:48.805266  2097 net.cpp:380] pool_s_3 -> pool_s_3
I0801 02:22:48.805594  2097 net.cpp:122] Setting up pool_s_3
I0801 02:22:48.805609  2097 net.cpp:129] Top shape: 100 64 4 4 (102400)
I0801 02:22:48.805616  2097 net.cpp:137] Memory required for data: 38503600
I0801 02:22:48.805624  2097 layer_factory.hpp:77] Creating layer ip_s_1
I0801 02:22:48.805634  2097 net.cpp:84] Creating Layer ip_s_1
I0801 02:22:48.805640  2097 net.cpp:406] ip_s_1 <- pool_s_3
I0801 02:22:48.805649  2097 net.cpp:380] ip_s_1 -> ip_s_1
I0801 02:22:48.805789  2097 net.cpp:122] Setting up ip_s_1
I0801 02:22:48.805799  2097 net.cpp:129] Top shape: 100 10 (1000)
I0801 02:22:48.805805  2097 net.cpp:137] Memory required for data: 38507600
I0801 02:22:48.805814  2097 layer_factory.hpp:77] Creating layer ip_s_1_ip_s_1_0_split
I0801 02:22:48.805824  2097 net.cpp:84] Creating Layer ip_s_1_ip_s_1_0_split
I0801 02:22:48.805830  2097 net.cpp:406] ip_s_1_ip_s_1_0_split <- ip_s_1
I0801 02:22:48.805838  2097 net.cpp:380] ip_s_1_ip_s_1_0_split -> ip_s_1_ip_s_1_0_split_0
I0801 02:22:48.805847  2097 net.cpp:380] ip_s_1_ip_s_1_0_split -> ip_s_1_ip_s_1_0_split_1
I0801 02:22:48.805858  2097 net.cpp:380] ip_s_1_ip_s_1_0_split -> ip_s_1_ip_s_1_0_split_2
I0801 02:22:48.805899  2097 net.cpp:122] Setting up ip_s_1_ip_s_1_0_split
I0801 02:22:48.805909  2097 net.cpp:129] Top shape: 100 10 (1000)
I0801 02:22:48.805917  2097 net.cpp:129] Top shape: 100 10 (1000)
I0801 02:22:48.805924  2097 net.cpp:129] Top shape: 100 10 (1000)
I0801 02:22:48.805932  2097 net.cpp:137] Memory required for data: 38519600
I0801 02:22:48.805938  2097 layer_factory.hpp:77] Creating layer conv_t_1
I0801 02:22:48.805950  2097 net.cpp:84] Creating Layer conv_t_1
I0801 02:22:48.805958  2097 net.cpp:406] conv_t_1 <- data_cifar_0_split_1
I0801 02:22:48.805966  2097 net.cpp:380] conv_t_1 -> conv_t_1
I0801 02:22:48.806690  2097 net.cpp:122] Setting up conv_t_1
I0801 02:22:48.806707  2097 net.cpp:129] Top shape: 100 32 32 32 (3276800)
I0801 02:22:48.806715  2097 net.cpp:137] Memory required for data: 51626800
I0801 02:22:48.806726  2097 layer_factory.hpp:77] Creating layer pool_t_1
I0801 02:22:48.806735  2097 net.cpp:84] Creating Layer pool_t_1
I0801 02:22:48.806743  2097 net.cpp:406] pool_t_1 <- conv_t_1
I0801 02:22:48.806751  2097 net.cpp:380] pool_t_1 -> pool_t_1
I0801 02:22:48.806784  2097 net.cpp:122] Setting up pool_t_1
I0801 02:22:48.806794  2097 net.cpp:129] Top shape: 100 32 16 16 (819200)
I0801 02:22:48.806802  2097 net.cpp:137] Memory required for data: 54903600
I0801 02:22:48.806808  2097 layer_factory.hpp:77] Creating layer relu_t_1
I0801 02:22:48.806815  2097 net.cpp:84] Creating Layer relu_t_1
I0801 02:22:48.806831  2097 net.cpp:406] relu_t_1 <- pool_t_1
I0801 02:22:48.806840  2097 net.cpp:367] relu_t_1 -> pool_t_1 (in-place)
I0801 02:22:48.806962  2097 net.cpp:122] Setting up relu_t_1
I0801 02:22:48.806972  2097 net.cpp:129] Top shape: 100 32 16 16 (819200)
I0801 02:22:48.806979  2097 net.cpp:137] Memory required for data: 58180400
I0801 02:22:48.806987  2097 layer_factory.hpp:77] Creating layer norm_t_1
I0801 02:22:48.806995  2097 net.cpp:84] Creating Layer norm_t_1
I0801 02:22:48.807003  2097 net.cpp:406] norm_t_1 <- pool_t_1
I0801 02:22:48.807010  2097 net.cpp:380] norm_t_1 -> norm_t_1
I0801 02:22:48.808001  2097 net.cpp:122] Setting up norm_t_1
I0801 02:22:48.808020  2097 net.cpp:129] Top shape: 100 32 16 16 (819200)
I0801 02:22:48.808027  2097 net.cpp:137] Memory required for data: 61457200
I0801 02:22:48.808034  2097 layer_factory.hpp:77] Creating layer conv_t_2
I0801 02:22:48.808045  2097 net.cpp:84] Creating Layer conv_t_2
I0801 02:22:48.808053  2097 net.cpp:406] conv_t_2 <- norm_t_1
I0801 02:22:48.808063  2097 net.cpp:380] conv_t_2 -> conv_t_2
I0801 02:22:48.809176  2097 net.cpp:122] Setting up conv_t_2
I0801 02:22:48.809197  2097 net.cpp:129] Top shape: 100 32 16 16 (819200)
I0801 02:22:48.809204  2097 net.cpp:137] Memory required for data: 64734000
I0801 02:22:48.809213  2097 layer_factory.hpp:77] Creating layer relu_t_2
I0801 02:22:48.809223  2097 net.cpp:84] Creating Layer relu_t_2
I0801 02:22:48.809231  2097 net.cpp:406] relu_t_2 <- conv_t_2
I0801 02:22:48.809239  2097 net.cpp:367] relu_t_2 -> conv_t_2 (in-place)
I0801 02:22:48.809552  2097 net.cpp:122] Setting up relu_t_2
I0801 02:22:48.809567  2097 net.cpp:129] Top shape: 100 32 16 16 (819200)
I0801 02:22:48.809574  2097 net.cpp:137] Memory required for data: 68010800
I0801 02:22:48.809581  2097 layer_factory.hpp:77] Creating layer pool_t_2
I0801 02:22:48.809589  2097 net.cpp:84] Creating Layer pool_t_2
I0801 02:22:48.809597  2097 net.cpp:406] pool_t_2 <- conv_t_2
I0801 02:22:48.809604  2097 net.cpp:380] pool_t_2 -> pool_t_2
I0801 02:22:48.809731  2097 net.cpp:122] Setting up pool_t_2
I0801 02:22:48.809743  2097 net.cpp:129] Top shape: 100 32 8 8 (204800)
I0801 02:22:48.809751  2097 net.cpp:137] Memory required for data: 68830000
I0801 02:22:48.809756  2097 layer_factory.hpp:77] Creating layer norm_t_2
I0801 02:22:48.809764  2097 net.cpp:84] Creating Layer norm_t_2
I0801 02:22:48.809772  2097 net.cpp:406] norm_t_2 <- pool_t_2
I0801 02:22:48.809780  2097 net.cpp:380] norm_t_2 -> norm_t_2
I0801 02:22:48.809962  2097 net.cpp:122] Setting up norm_t_2
I0801 02:22:48.809975  2097 net.cpp:129] Top shape: 100 32 8 8 (204800)
I0801 02:22:48.809983  2097 net.cpp:137] Memory required for data: 69649200
I0801 02:22:48.809989  2097 layer_factory.hpp:77] Creating layer conv_t_3
I0801 02:22:48.810000  2097 net.cpp:84] Creating Layer conv_t_3
I0801 02:22:48.810008  2097 net.cpp:406] conv_t_3 <- norm_t_2
I0801 02:22:48.810016  2097 net.cpp:380] conv_t_3 -> conv_t_3
I0801 02:22:48.811046  2097 net.cpp:122] Setting up conv_t_3
I0801 02:22:48.811069  2097 net.cpp:129] Top shape: 100 64 8 8 (409600)
I0801 02:22:48.811077  2097 net.cpp:137] Memory required for data: 71287600
I0801 02:22:48.811086  2097 layer_factory.hpp:77] Creating layer relu_t_3
I0801 02:22:48.811095  2097 net.cpp:84] Creating Layer relu_t_3
I0801 02:22:48.811103  2097 net.cpp:406] relu_t_3 <- conv_t_3
I0801 02:22:48.811111  2097 net.cpp:367] relu_t_3 -> conv_t_3 (in-place)
I0801 02:22:48.811230  2097 net.cpp:122] Setting up relu_t_3
I0801 02:22:48.811242  2097 net.cpp:129] Top shape: 100 64 8 8 (409600)
I0801 02:22:48.811249  2097 net.cpp:137] Memory required for data: 72926000
I0801 02:22:48.811256  2097 layer_factory.hpp:77] Creating layer pool_t_3
I0801 02:22:48.811264  2097 net.cpp:84] Creating Layer pool_t_3
I0801 02:22:48.811272  2097 net.cpp:406] pool_t_3 <- conv_t_3
I0801 02:22:48.811280  2097 net.cpp:380] pool_t_3 -> pool_t_3
I0801 02:22:48.811619  2097 net.cpp:122] Setting up pool_t_3
I0801 02:22:48.811635  2097 net.cpp:129] Top shape: 100 64 4 4 (102400)
I0801 02:22:48.811648  2097 net.cpp:137] Memory required for data: 73335600
I0801 02:22:48.811662  2097 layer_factory.hpp:77] Creating layer ip_t_1
I0801 02:22:48.811672  2097 net.cpp:84] Creating Layer ip_t_1
I0801 02:22:48.811679  2097 net.cpp:406] ip_t_1 <- pool_t_3
I0801 02:22:48.811688  2097 net.cpp:380] ip_t_1 -> ip_t_1
I0801 02:22:48.811836  2097 net.cpp:122] Setting up ip_t_1
I0801 02:22:48.811846  2097 net.cpp:129] Top shape: 100 10 (1000)
I0801 02:22:48.811852  2097 net.cpp:137] Memory required for data: 73339600
I0801 02:22:48.811861  2097 layer_factory.hpp:77] Creating layer sm_s_1
I0801 02:22:48.811870  2097 net.cpp:84] Creating Layer sm_s_1
I0801 02:22:48.811877  2097 net.cpp:406] sm_s_1 <- ip_s_1_ip_s_1_0_split_0
I0801 02:22:48.811885  2097 net.cpp:380] sm_s_1 -> sm_s_1
I0801 02:22:48.812388  2097 net.cpp:122] Setting up sm_s_1
I0801 02:22:48.812402  2097 net.cpp:129] Top shape: 100 10 (1000)
I0801 02:22:48.812409  2097 net.cpp:137] Memory required for data: 73343600
I0801 02:22:48.812417  2097 layer_factory.hpp:77] Creating layer sm_t_1
I0801 02:22:48.812425  2097 net.cpp:84] Creating Layer sm_t_1
I0801 02:22:48.812433  2097 net.cpp:406] sm_t_1 <- ip_t_1
I0801 02:22:48.812441  2097 net.cpp:380] sm_t_1 -> sm_t_1
I0801 02:22:48.812597  2097 net.cpp:122] Setting up sm_t_1
I0801 02:22:48.812609  2097 net.cpp:129] Top shape: 100 10 (1000)
I0801 02:22:48.812616  2097 net.cpp:137] Memory required for data: 73347600
I0801 02:22:48.812623  2097 layer_factory.hpp:77] Creating layer accuracy
I0801 02:22:48.812633  2097 net.cpp:84] Creating Layer accuracy
I0801 02:22:48.812639  2097 net.cpp:406] accuracy <- ip_s_1_ip_s_1_0_split_1
I0801 02:22:48.812647  2097 net.cpp:406] accuracy <- label_cifar_1_split_0
I0801 02:22:48.812656  2097 net.cpp:380] accuracy -> accuracy
…
