…
I0801 22:25:07.085407  2551 net.cpp:294] The NetState phase (0) differed from the phase (1) specified by a rule in layer accuracy
I0801 22:25:07.085507  2551 net.cpp:51] Initializing net from parameters: 
name: "CIFAR10_full"
state {
  phase: TRAIN
  level: 0
  stage: ""
}
layer {
  name: "cifar"
  type: "Data"
  top: "data"
  top: "label"
  include {
    phase: TRAIN
  }
  transform_param {
    mean_file: "/opt/caffe/examples/cifar10/mean.binaryproto"
  }
  data_param {
    source: "/opt/caffe/examples/cifar10/cifar10_train_lmdb"
    batch_size: 100
    backend: LMDB
  }
}
layer {
  name: "conv_s_1"
  type: "Convolution"
  bottom: "data"
  top: "conv_s_1"
  param {
    lr_mult: 1
  }
  param {
    lr_mult: 2
  }
  convolution_param {
    num_output: 32
    pad: 2
    kernel_size: 5
    stride: 1
    weight_filler {
      type: "gaussian"
      std: 0.0001
    }
    bias_filler {
      type: "constant"
    }
  }
}
layer {
  name: "pool_s_1"
  type: "Pooling"
  bottom: "conv_s_1"
  top: "pool_s_1"
  pooling_param {
    pool: MAX
    kernel_size: 3
    stride: 2
  }
}
layer {
  name: "relu_s_1"
  type: "ReLU"
  bottom: "pool_s_1"
  top: "pool_s_1"
}
layer {
  name: "norm_s_1"
  type: "LRN"
  bottom: "pool_s_1"
  top: "norm_s_1"
  lrn_param {
    local_size: 3
    alpha: 5e-05
    beta: 0.75
    norm_region: WITHIN_CHANNEL
  }
}
layer {
  name: "conv_s_2"
  type: "Convolution"
  bottom: "norm_s_1"
  top: "conv_s_2"
  param {
    lr_mult: 1
  }
  param {
    lr_mult: 2
  }
  convolution_param {
    num_output: 32
    pad: 2
    kernel_size: 5
    stride: 1
    weight_filler {
      type: "gaussian"
      std: 0.01
    }
    bias_filler {
      type: "constant"
    }
  }
}
layer {
  name: "relu_s_2"
  type: "ReLU"
  bottom: "conv_s_2"
  top: "conv_s_2"
}
layer {
  name: "pool_s_2"
  type: "Pooling"
  bottom: "conv_s_2"
  top: "pool_s_2"
  pooling_param {
    pool: AVE
    kernel_size: 3
    stride: 2
  }
}
layer {
  name: "ip_s_1"
  type: "InnerProduct"
  bottom: "pool_s_2"
  top: "ip_s_1"
  param {
    lr_mult: 1
    decay_mult: 250
  }
  param {
    lr_mult: 2
    decay_mult: 0
  }
  inner_product_param {
    num_output: 10
    weight_filler {
      type: "gaussian"
      std: 0.01
    }
    bias_filler {
      type: "constant"
    }
  }
}
layer {
  name: "conv_t_1"
  type: "Convolution"
  bottom: "data"
  top: "conv_t_1"
  param {
    lr_mult: 0
  }
  param {
    lr_mult: 0
  }
  convolution_param {
    num_output: 32
    pad: 2
    kernel_size: 5
    stride: 1
    weight_filler {
      type: "gaussian"
      std: 0.0001
    }
    bias_filler {
      type: "constant"
    }
  }
}
layer {
  name: "pool_t_1"
  type: "Pooling"
  bottom: "conv_t_1"
  top: "pool_t_1"
  pooling_param {
    pool: MAX
    kernel_size: 3
    stride: 2
  }
}
layer {
  name: "relu_t_1"
  type: "ReLU"
  bottom: "pool_t_1"
  top: "pool_t_1"
}
layer {
  name: "norm_t_1"
  type: "LRN"
  bottom: "pool_t_1"
  top: "norm_t_1"
  lrn_param {
    local_size: 3
    alpha: 5e-05
    beta: 0.75
    norm_region: WITHIN_CHANNEL
  }
}
layer {
  name: "conv_t_2"
  type: "Convolution"
  bottom: "norm_t_1"
  top: "conv_t_2"
  param {
    lr_mult: 0
  }
  param {
    lr_mult: 0
  }
  convolution_param {
    num_output: 32
    pad: 2
    kernel_size: 5
    stride: 1
    weight_filler {
      type: "gaussian"
      std: 0.01
    }
    bias_filler {
      type: "constant"
    }
  }
}
layer {
  name: "relu_t_2"
  type: "ReLU"
  bottom: "conv_t_2"
  top: "conv_t_2"
}
layer {
  name: "pool_t_2"
  type: "Pooling"
  bottom: "conv_t_2"
  top: "pool_t_2"
  pooling_param {
    pool: AVE
    kernel_size: 3
    stride: 2
  }
}
layer {
  name: "norm_t_2"
  type: "LRN"
  bottom: "pool_t_2"
  top: "norm_t_2"
  lrn_param {
    local_size: 3
    alpha: 5e-05
    beta: 0.75
    norm_region: WITHIN_CHANNEL
  }
}
layer {
  name: "conv_t_3"
  type: "Convolution"
  bottom: "norm_t_2"
  top: "conv_t_3"
  param {
    lr_mult: 0
  }
  param {
    lr_mult: 0
  }
  convolution_param {
    num_output: 64
    pad: 2
    kernel_size: 5
    stride: 1
    weight_filler {
      type: "gaussian"
      std: 0.01
    }
    bias_filler {
      type: "constant"
    }
  }
}
layer {
  name: "relu_t_3"
  type: "ReLU"
  bottom: "conv_t_3"
  top: "conv_t_3"
}
layer {
  name: "pool_t_3"
  type: "Pooling"
  bottom: "conv_t_3"
  top: "pool_t_3"
  pooling_param {
    pool: AVE
    kernel_size: 3
    stride: 2
  }
}
layer {
  name: "ip_t_1"
  type: "InnerProduct"
  bottom: "pool_t_3"
  top: "ip_t_1"
  param {
    lr_mult: 0
  }
  param {
    lr_mult: 0
  }
  inner_product_param {
    num_output: 10
    weight_filler {
      type: "gaussian"
      std: 0.01
    }
    bias_filler {
      type: "constant"
    }
  }
}
layer {
  name: "sm_s_1"
  type: "Softmax"
  bottom: "ip_s_1"
  top: "sm_s_1"
}
layer {
  name: "sm_t_1"
  type: "Softmax"
  bottom: "ip_t_1"
  top: "sm_t_1"
}
layer {
  name: "ts_loss"
  type: "SigmoidCrossEntropyLoss"
  bottom: "sm_s_1"
  bottom: "sm_t_1"
  top: "ts_loss"
  loss_weight: 0
}
layer {
  name: "loss"
  type: "SoftmaxWithLoss"
  bottom: "ip_s_1"
  bottom: "label"
  top: "loss"
  loss_weight: 1
}
I0801 22:25:07.085754  2551 layer_factory.hpp:77] Creating layer cifar
I0801 22:25:07.085849  2551 db_lmdb.cpp:35] Opened lmdb /opt/caffe/examples/cifar10/cifar10_train_lmdb
I0801 22:25:07.085873  2551 net.cpp:84] Creating Layer cifar
I0801 22:25:07.085886  2551 net.cpp:380] cifar -> data
I0801 22:25:07.085907  2551 net.cpp:380] cifar -> label
I0801 22:25:07.085922  2551 data_transformer.cpp:25] Loading mean file from: /opt/caffe/examples/cifar10/mean.binaryproto
I0801 22:25:07.087046  2551 data_layer.cpp:45] output data size: 100,3,32,32
I0801 22:25:07.090659  2551 net.cpp:122] Setting up cifar
I0801 22:25:07.090706  2551 net.cpp:129] Top shape: 100 3 32 32 (307200)
I0801 22:25:07.090718  2551 net.cpp:129] Top shape: 100 (100)
I0801 22:25:07.090726  2551 net.cpp:137] Memory required for data: 1229200
I0801 22:25:07.090740  2551 layer_factory.hpp:77] Creating layer data_cifar_0_split
I0801 22:25:07.090762  2551 net.cpp:84] Creating Layer data_cifar_0_split
I0801 22:25:07.090772  2551 net.cpp:406] data_cifar_0_split <- data
I0801 22:25:07.090788  2551 net.cpp:380] data_cifar_0_split -> data_cifar_0_split_0
I0801 22:25:07.090801  2551 net.cpp:380] data_cifar_0_split -> data_cifar_0_split_1
I0801 22:25:07.090838  2551 net.cpp:122] Setting up data_cifar_0_split
I0801 22:25:07.090848  2551 net.cpp:129] Top shape: 100 3 32 32 (307200)
I0801 22:25:07.090855  2551 net.cpp:129] Top shape: 100 3 32 32 (307200)
I0801 22:25:07.090862  2551 net.cpp:137] Memory required for data: 3686800
I0801 22:25:07.090868  2551 layer_factory.hpp:77] Creating layer conv_s_1
I0801 22:25:07.090886  2551 net.cpp:84] Creating Layer conv_s_1
I0801 22:25:07.090894  2551 net.cpp:406] conv_s_1 <- data_cifar_0_split_0
I0801 22:25:07.090903  2551 net.cpp:380] conv_s_1 -> conv_s_1
I0801 22:25:07.402736  2551 net.cpp:122] Setting up conv_s_1
I0801 22:25:07.402773  2551 net.cpp:129] Top shape: 100 32 32 32 (3276800)
I0801 22:25:07.402781  2551 net.cpp:137] Memory required for data: 16794000
I0801 22:25:07.402801  2551 layer_factory.hpp:77] Creating layer pool_s_1
I0801 22:25:07.402817  2551 net.cpp:84] Creating Layer pool_s_1
I0801 22:25:07.402824  2551 net.cpp:406] pool_s_1 <- conv_s_1
I0801 22:25:07.402833  2551 net.cpp:380] pool_s_1 -> pool_s_1
I0801 22:25:07.402889  2551 net.cpp:122] Setting up pool_s_1
I0801 22:25:07.402899  2551 net.cpp:129] Top shape: 100 32 16 16 (819200)
I0801 22:25:07.402917  2551 net.cpp:137] Memory required for data: 20070800
I0801 22:25:07.402925  2551 layer_factory.hpp:77] Creating layer relu_s_1
I0801 22:25:07.402935  2551 net.cpp:84] Creating Layer relu_s_1
I0801 22:25:07.402942  2551 net.cpp:406] relu_s_1 <- pool_s_1
I0801 22:25:07.402951  2551 net.cpp:367] relu_s_1 -> pool_s_1 (in-place)
I0801 22:25:07.403282  2551 net.cpp:122] Setting up relu_s_1
I0801 22:25:07.403297  2551 net.cpp:129] Top shape: 100 32 16 16 (819200)
I0801 22:25:07.403306  2551 net.cpp:137] Memory required for data: 23347600
I0801 22:25:07.403311  2551 layer_factory.hpp:77] Creating layer norm_s_1
I0801 22:25:07.403323  2551 net.cpp:84] Creating Layer norm_s_1
I0801 22:25:07.403331  2551 net.cpp:406] norm_s_1 <- pool_s_1
I0801 22:25:07.403338  2551 net.cpp:380] norm_s_1 -> norm_s_1
I0801 22:25:07.403865  2551 net.cpp:122] Setting up norm_s_1
I0801 22:25:07.403882  2551 net.cpp:129] Top shape: 100 32 16 16 (819200)
I0801 22:25:07.403888  2551 net.cpp:137] Memory required for data: 26624400
I0801 22:25:07.403895  2551 layer_factory.hpp:77] Creating layer conv_s_2
I0801 22:25:07.403908  2551 net.cpp:84] Creating Layer conv_s_2
I0801 22:25:07.403914  2551 net.cpp:406] conv_s_2 <- norm_s_1
I0801 22:25:07.403924  2551 net.cpp:380] conv_s_2 -> conv_s_2
I0801 22:25:07.405426  2551 net.cpp:122] Setting up conv_s_2
I0801 22:25:07.405449  2551 net.cpp:129] Top shape: 100 32 16 16 (819200)
I0801 22:25:07.405457  2551 net.cpp:137] Memory required for data: 29901200
I0801 22:25:07.405469  2551 layer_factory.hpp:77] Creating layer relu_s_2
I0801 22:25:07.405478  2551 net.cpp:84] Creating Layer relu_s_2
I0801 22:25:07.405486  2551 net.cpp:406] relu_s_2 <- conv_s_2
I0801 22:25:07.405494  2551 net.cpp:367] relu_s_2 -> conv_s_2 (in-place)
I0801 22:25:07.405613  2551 net.cpp:122] Setting up relu_s_2
I0801 22:25:07.405625  2551 net.cpp:129] Top shape: 100 32 16 16 (819200)
I0801 22:25:07.405632  2551 net.cpp:137] Memory required for data: 33178000
I0801 22:25:07.405637  2551 layer_factory.hpp:77] Creating layer pool_s_2
I0801 22:25:07.405648  2551 net.cpp:84] Creating Layer pool_s_2
I0801 22:25:07.405654  2551 net.cpp:406] pool_s_2 <- conv_s_2
I0801 22:25:07.405663  2551 net.cpp:380] pool_s_2 -> pool_s_2
I0801 22:25:07.406003  2551 net.cpp:122] Setting up pool_s_2
I0801 22:25:07.406020  2551 net.cpp:129] Top shape: 100 32 8 8 (204800)
I0801 22:25:07.406026  2551 net.cpp:137] Memory required for data: 33997200
I0801 22:25:07.406033  2551 layer_factory.hpp:77] Creating layer ip_s_1
I0801 22:25:07.406044  2551 net.cpp:84] Creating Layer ip_s_1
I0801 22:25:07.406050  2551 net.cpp:406] ip_s_1 <- pool_s_2
I0801 22:25:07.406059  2551 net.cpp:380] ip_s_1 -> ip_s_1
I0801 22:25:07.406255  2551 net.cpp:122] Setting up ip_s_1
I0801 22:25:07.406265  2551 net.cpp:129] Top shape: 100 10 (1000)
I0801 22:25:07.406271  2551 net.cpp:137] Memory required for data: 34001200
I0801 22:25:07.406281  2551 layer_factory.hpp:77] Creating layer ip_s_1_ip_s_1_0_split
I0801 22:25:07.406291  2551 net.cpp:84] Creating Layer ip_s_1_ip_s_1_0_split
I0801 22:25:07.406296  2551 net.cpp:406] ip_s_1_ip_s_1_0_split <- ip_s_1
I0801 22:25:07.406304  2551 net.cpp:380] ip_s_1_ip_s_1_0_split -> ip_s_1_ip_s_1_0_split_0
I0801 22:25:07.406312  2551 net.cpp:380] ip_s_1_ip_s_1_0_split -> ip_s_1_ip_s_1_0_split_1
I0801 22:25:07.406343  2551 net.cpp:122] Setting up ip_s_1_ip_s_1_0_split
I0801 22:25:07.406352  2551 net.cpp:129] Top shape: 100 10 (1000)
I0801 22:25:07.406358  2551 net.cpp:129] Top shape: 100 10 (1000)
I0801 22:25:07.406364  2551 net.cpp:137] Memory required for data: 34009200
I0801 22:25:07.406370  2551 layer_factory.hpp:77] Creating layer conv_t_1
I0801 22:25:07.406380  2551 net.cpp:84] Creating Layer conv_t_1
I0801 22:25:07.406388  2551 net.cpp:406] conv_t_1 <- data_cifar_0_split_1
I0801 22:25:07.406395  2551 net.cpp:380] conv_t_1 -> conv_t_1
I0801 22:25:07.407580  2551 net.cpp:122] Setting up conv_t_1
I0801 22:25:07.407598  2551 net.cpp:129] Top shape: 100 32 32 32 (3276800)
I0801 22:25:07.407605  2551 net.cpp:137] Memory required for data: 47116400
I0801 22:25:07.407624  2551 layer_factory.hpp:77] Creating layer pool_t_1
I0801 22:25:07.407634  2551 net.cpp:84] Creating Layer pool_t_1
I0801 22:25:07.407641  2551 net.cpp:406] pool_t_1 <- conv_t_1
I0801 22:25:07.407649  2551 net.cpp:380] pool_t_1 -> pool_t_1
I0801 22:25:07.407681  2551 net.cpp:122] Setting up pool_t_1
I0801 22:25:07.408288  2551 net.cpp:129] Top shape: 100 32 16 16 (819200)
I0801 22:25:07.408298  2551 net.cpp:137] Memory required for data: 50393200
I0801 22:25:07.408306  2551 layer_factory.hpp:77] Creating layer relu_t_1
I0801 22:25:07.408314  2551 net.cpp:84] Creating Layer relu_t_1
I0801 22:25:07.408321  2551 net.cpp:406] relu_t_1 <- pool_t_1
I0801 22:25:07.408329  2551 net.cpp:367] relu_t_1 -> pool_t_1 (in-place)
I0801 22:25:07.408459  2551 net.cpp:122] Setting up relu_t_1
I0801 22:25:07.408473  2551 net.cpp:129] Top shape: 100 32 16 16 (819200)
I0801 22:25:07.408478  2551 net.cpp:137] Memory required for data: 53670000
I0801 22:25:07.408485  2551 layer_factory.hpp:77] Creating layer norm_t_1
I0801 22:25:07.408495  2551 net.cpp:84] Creating Layer norm_t_1
I0801 22:25:07.408504  2551 net.cpp:406] norm_t_1 <- pool_t_1
I0801 22:25:07.408511  2551 net.cpp:380] norm_t_1 -> norm_t_1
I0801 22:25:07.409104  2551 net.cpp:122] Setting up norm_t_1
I0801 22:25:07.409126  2551 net.cpp:129] Top shape: 100 32 16 16 (819200)
I0801 22:25:07.409134  2551 net.cpp:137] Memory required for data: 56946800
I0801 22:25:07.409142  2551 layer_factory.hpp:77] Creating layer conv_t_2
I0801 22:25:07.409154  2551 net.cpp:84] Creating Layer conv_t_2
I0801 22:25:07.409163  2551 net.cpp:406] conv_t_2 <- norm_t_1
I0801 22:25:07.409173  2551 net.cpp:380] conv_t_2 -> conv_t_2
I0801 22:25:07.410058  2551 net.cpp:122] Setting up conv_t_2
I0801 22:25:07.410075  2551 net.cpp:129] Top shape: 100 32 16 16 (819200)
I0801 22:25:07.410084  2551 net.cpp:137] Memory required for data: 60223600
I0801 22:25:07.410096  2551 layer_factory.hpp:77] Creating layer relu_t_2
I0801 22:25:07.410107  2551 net.cpp:84] Creating Layer relu_t_2
I0801 22:25:07.410115  2551 net.cpp:406] relu_t_2 <- conv_t_2
I0801 22:25:07.410123  2551 net.cpp:367] relu_t_2 -> conv_t_2 (in-place)
I0801 22:25:07.410238  2551 net.cpp:122] Setting up relu_t_2
I0801 22:25:07.410249  2551 net.cpp:129] Top shape: 100 32 16 16 (819200)
I0801 22:25:07.410255  2551 net.cpp:137] Memory required for data: 63500400
I0801 22:25:07.410262  2551 layer_factory.hpp:77] Creating layer pool_t_2
I0801 22:25:07.410270  2551 net.cpp:84] Creating Layer pool_t_2
I0801 22:25:07.410277  2551 net.cpp:406] pool_t_2 <- conv_t_2
I0801 22:25:07.410285  2551 net.cpp:380] pool_t_2 -> pool_t_2
I0801 22:25:07.410600  2551 net.cpp:122] Setting up pool_t_2
I0801 22:25:07.410615  2551 net.cpp:129] Top shape: 100 32 8 8 (204800)
I0801 22:25:07.410622  2551 net.cpp:137] Memory required for data: 64319600
I0801 22:25:07.410629  2551 layer_factory.hpp:77] Creating layer norm_t_2
I0801 22:25:07.410639  2551 net.cpp:84] Creating Layer norm_t_2
I0801 22:25:07.410645  2551 net.cpp:406] norm_t_2 <- pool_t_2
I0801 22:25:07.410655  2551 net.cpp:380] norm_t_2 -> norm_t_2
I0801 22:25:07.410830  2551 net.cpp:122] Setting up norm_t_2
I0801 22:25:07.410843  2551 net.cpp:129] Top shape: 100 32 8 8 (204800)
I0801 22:25:07.410851  2551 net.cpp:137] Memory required for data: 65138800
I0801 22:25:07.410856  2551 layer_factory.hpp:77] Creating layer conv_t_3
I0801 22:25:07.410867  2551 net.cpp:84] Creating Layer conv_t_3
I0801 22:25:07.410874  2551 net.cpp:406] conv_t_3 <- norm_t_2
I0801 22:25:07.410883  2551 net.cpp:380] conv_t_3 -> conv_t_3
I0801 22:25:07.411856  2551 net.cpp:122] Setting up conv_t_3
I0801 22:25:07.411872  2551 net.cpp:129] Top shape: 100 64 8 8 (409600)
I0801 22:25:07.411880  2551 net.cpp:137] Memory required for data: 66777200
I0801 22:25:07.411890  2551 layer_factory.hpp:77] Creating layer relu_t_3
I0801 22:25:07.411898  2551 net.cpp:84] Creating Layer relu_t_3
I0801 22:25:07.411906  2551 net.cpp:406] relu_t_3 <- conv_t_3
I0801 22:25:07.411913  2551 net.cpp:367] relu_t_3 -> conv_t_3 (in-place)
I0801 22:25:07.412034  2551 net.cpp:122] Setting up relu_t_3
I0801 22:25:07.412052  2551 net.cpp:129] Top shape: 100 64 8 8 (409600)
I0801 22:25:07.412060  2551 net.cpp:137] Memory required for data: 68415600
I0801 22:25:07.412066  2551 layer_factory.hpp:77] Creating layer pool_t_3
I0801 22:25:07.412075  2551 net.cpp:84] Creating Layer pool_t_3
I0801 22:25:07.412081  2551 net.cpp:406] pool_t_3 <- conv_t_3
I0801 22:25:07.412088  2551 net.cpp:380] pool_t_3 -> pool_t_3
I0801 22:25:07.412398  2551 net.cpp:122] Setting up pool_t_3
I0801 22:25:07.412412  2551 net.cpp:129] Top shape: 100 64 4 4 (102400)
I0801 22:25:07.412420  2551 net.cpp:137] Memory required for data: 68825200
I0801 22:25:07.412426  2551 layer_factory.hpp:77] Creating layer ip_t_1
I0801 22:25:07.412436  2551 net.cpp:84] Creating Layer ip_t_1
I0801 22:25:07.412443  2551 net.cpp:406] ip_t_1 <- pool_t_3
I0801 22:25:07.412452  2551 net.cpp:380] ip_t_1 -> ip_t_1
I0801 22:25:07.413053  2551 net.cpp:122] Setting up ip_t_1
I0801 22:25:07.413070  2551 net.cpp:129] Top shape: 100 10 (1000)
I0801 22:25:07.413077  2551 net.cpp:137] Memory required for data: 68829200
I0801 22:25:07.413092  2551 layer_factory.hpp:77] Creating layer sm_s_1
I0801 22:25:07.413112  2551 net.cpp:84] Creating Layer sm_s_1
I0801 22:25:07.413120  2551 net.cpp:406] sm_s_1 <- ip_s_1_ip_s_1_0_split_0
I0801 22:25:07.413130  2551 net.cpp:380] sm_s_1 -> sm_s_1
I0801 22:25:07.413311  2551 net.cpp:122] Setting up sm_s_1
I0801 22:25:07.413322  2551 net.cpp:129] Top shape: 100 10 (1000)
I0801 22:25:07.413328  2551 net.cpp:137] Memory required for data: 68833200
I0801 22:25:07.413336  2551 layer_factory.hpp:77] Creating layer sm_t_1
I0801 22:25:07.413343  2551 net.cpp:84] Creating Layer sm_t_1
I0801 22:25:07.413350  2551 net.cpp:406] sm_t_1 <- ip_t_1
I0801 22:25:07.413358  2551 net.cpp:380] sm_t_1 -> sm_t_1
I0801 22:25:07.413511  2551 net.cpp:122] Setting up sm_t_1
I0801 22:25:07.413522  2551 net.cpp:129] Top shape: 100 10 (1000)
I0801 22:25:07.413528  2551 net.cpp:137] Memory required for data: 68837200
I0801 22:25:07.413535  2551 layer_factory.hpp:77] Creating layer ts_loss
I0801 22:25:07.413544  2551 net.cpp:84] Creating Layer ts_loss
I0801 22:25:07.413552  2551 net.cpp:406] ts_loss <- sm_s_1
I0801 22:25:07.413558  2551 net.cpp:406] ts_loss <- sm_t_1
I0801 22:25:07.413568  2551 net.cpp:380] ts_loss -> ts_loss
…
I0801 22:25:07.414525  2551 net.cpp:294] The NetState phase (1) differed from the phase (0) specified by a rule in layer cifar
I0801 22:25:07.414625  2551 net.cpp:51] Initializing net from parameters: 
name: "CIFAR10_full"
state {
  phase: TEST
}
layer {
  name: "cifar"
  type: "Data"
  top: "data"
  top: "label"
  include {
    phase: TEST
  }
  transform_param {
    mean_file: "/opt/caffe/examples/cifar10/mean.binaryproto"
  }
  data_param {
    source: "/opt/caffe/examples/cifar10/cifar10_test_lmdb"
    batch_size: 100
    backend: LMDB
  }
}
layer {
  name: "conv_s_1"
  type: "Convolution"
  bottom: "data"
  top: "conv_s_1"
  param {
    lr_mult: 1
  }
  param {
    lr_mult: 2
  }
  convolution_param {
    num_output: 32
    pad: 2
    kernel_size: 5
    stride: 1
    weight_filler {
      type: "gaussian"
      std: 0.0001
    }
    bias_filler {
      type: "constant"
    }
  }
}
layer {
  name: "pool_s_1"
  type: "Pooling"
  bottom: "conv_s_1"
  top: "pool_s_1"
  pooling_param {
    pool: MAX
    kernel_size: 3
    stride: 2
  }
}
layer {
  name: "relu_s_1"
  type: "ReLU"
  bottom: "pool_s_1"
  top: "pool_s_1"
}
layer {
  name: "norm_s_1"
  type: "LRN"
  bottom: "pool_s_1"
  top: "norm_s_1"
  lrn_param {
    local_size: 3
    alpha: 5e-05
    beta: 0.75
    norm_region: WITHIN_CHANNEL
  }
}
layer {
  name: "conv_s_2"
  type: "Convolution"
  bottom: "norm_s_1"
  top: "conv_s_2"
  param {
    lr_mult: 1
  }
  param {
    lr_mult: 2
  }
  convolution_param {
    num_output: 32
    pad: 2
    kernel_size: 5
    stride: 1
    weight_filler {
      type: "gaussian"
      std: 0.01
    }
    bias_filler {
      type: "constant"
    }
  }
}
layer {
  name: "relu_s_2"
  type: "ReLU"
  bottom: "conv_s_2"
  top: "conv_s_2"
}
layer {
  name: "pool_s_2"
  type: "Pooling"
  bottom: "conv_s_2"
  top: "pool_s_2"
  pooling_param {
    pool: AVE
    kernel_size: 3
    stride: 2
  }
}
layer {
  name: "ip_s_1"
  type: "InnerProduct"
  bottom: "pool_s_2"
  top: "ip_s_1"
  param {
    lr_mult: 1
    decay_mult: 250
  }
  param {
    lr_mult: 2
    decay_mult: 0
  }
  inner_product_param {
    num_output: 10
    weight_filler {
      type: "gaussian"
      std: 0.01
    }
    bias_filler {
      type: "constant"
    }
  }
}
layer {
  name: "conv_t_1"
  type: "Convolution"
  bottom: "data"
  top: "conv_t_1"
  param {
    lr_mult: 0
  }
  param {
    lr_mult: 0
  }
  convolution_param {
    num_output: 32
    pad: 2
    kernel_size: 5
    stride: 1
    weight_filler {
      type: "gaussian"
      std: 0.0001
    }
    bias_filler {
      type: "constant"
    }
  }
}
layer {
  name: "pool_t_1"
  type: "Pooling"
  bottom: "conv_t_1"
  top: "pool_t_1"
  pooling_param {
    pool: MAX
    kernel_size: 3
    stride: 2
  }
}
layer {
  name: "relu_t_1"
  type: "ReLU"
  bottom: "pool_t_1"
  top: "pool_t_1"
}
layer {
  name: "norm_t_1"
  type: "LRN"
  bottom: "pool_t_1"
  top: "norm_t_1"
  lrn_param {
    local_size: 3
    alpha: 5e-05
    beta: 0.75
    norm_region: WITHIN_CHANNEL
  }
}
layer {
  name: "conv_t_2"
  type: "Convolution"
  bottom: "norm_t_1"
  top: "conv_t_2"
  param {
    lr_mult: 0
  }
  param {
    lr_mult: 0
  }
  convolution_param {
    num_output: 32
    pad: 2
    kernel_size: 5
    stride: 1
    weight_filler {
      type: "gaussian"
      std: 0.01
    }
    bias_filler {
      type: "constant"
    }
  }
}
layer {
  name: "relu_t_2"
  type: "ReLU"
  bottom: "conv_t_2"
  top: "conv_t_2"
}
layer {
  name: "pool_t_2"
  type: "Pooling"
  bottom: "conv_t_2"
  top: "pool_t_2"
  pooling_param {
    pool: AVE
    kernel_size: 3
    stride: 2
  }
}
layer {
  name: "norm_t_2"
  type: "LRN"
  bottom: "pool_t_2"
  top: "norm_t_2"
  lrn_param {
    local_size: 3
    alpha: 5e-05
    beta: 0.75
    norm_region: WITHIN_CHANNEL
  }
}
layer {
  name: "conv_t_3"
  type: "Convolution"
  bottom: "norm_t_2"
  top: "conv_t_3"
  param {
    lr_mult: 0
  }
  param {
    lr_mult: 0
  }
  convolution_param {
    num_output: 64
    pad: 2
    kernel_size: 5
    stride: 1
    weight_filler {
      type: "gaussian"
      std: 0.01
    }
    bias_filler {
      type: "constant"
    }
  }
}
layer {
  name: "relu_t_3"
  type: "ReLU"
  bottom: "conv_t_3"
  top: "conv_t_3"
}
layer {
  name: "pool_t_3"
  type: "Pooling"
  bottom: "conv_t_3"
  top: "pool_t_3"
  pooling_param {
    pool: AVE
    kernel_size: 3
    stride: 2
  }
}
layer {
  name: "ip_t_1"
  type: "InnerProduct"
  bottom: "pool_t_3"
  top: "ip_t_1"
  param {
    lr_mult: 0
  }
  param {
    lr_mult: 0
  }
  inner_product_param {
    num_output: 10
    weight_filler {
      type: "gaussian"
      std: 0.01
    }
    bias_filler {
      type: "constant"
    }
  }
}
layer {
  name: "sm_s_1"
  type: "Softmax"
  bottom: "ip_s_1"
  top: "sm_s_1"
}
layer {
  name: "sm_t_1"
  type: "Softmax"
  bottom: "ip_t_1"
  top: "sm_t_1"
}
layer {
  name: "accuracy"
  type: "Accuracy"
  bottom: "ip_s_1"
  bottom: "label"
  top: "accuracy"
  include {
    phase: TEST
  }
}
layer {
  name: "ts_loss"
  type: "SigmoidCrossEntropyLoss"
  bottom: "sm_s_1"
  bottom: "sm_t_1"
  top: "ts_loss"
  loss_weight: 0
}
layer {
  name: "loss"
  type: "SoftmaxWithLoss"
  bottom: "ip_s_1"
  bottom: "label"
  top: "loss"
  loss_weight: 1
}
I0801 22:25:07.414819  2551 layer_factory.hpp:77] Creating layer cifar
I0801 22:25:07.414881  2551 db_lmdb.cpp:35] Opened lmdb /opt/caffe/examples/cifar10/cifar10_test_lmdb
I0801 22:25:07.414897  2551 net.cpp:84] Creating Layer cifar
I0801 22:25:07.414906  2551 net.cpp:380] cifar -> data
I0801 22:25:07.414917  2551 net.cpp:380] cifar -> label
I0801 22:25:07.414929  2551 data_transformer.cpp:25] Loading mean file from: /opt/caffe/examples/cifar10/mean.binaryproto
I0801 22:25:07.415041  2551 data_layer.cpp:45] output data size: 100,3,32,32
I0801 22:25:07.418613  2551 net.cpp:122] Setting up cifar
I0801 22:25:07.418648  2551 net.cpp:129] Top shape: 100 3 32 32 (307200)
I0801 22:25:07.418655  2551 net.cpp:129] Top shape: 100 (100)
I0801 22:25:07.418663  2551 net.cpp:137] Memory required for data: 1229200
I0801 22:25:07.418673  2551 layer_factory.hpp:77] Creating layer data_cifar_0_split
I0801 22:25:07.418689  2551 net.cpp:84] Creating Layer data_cifar_0_split
I0801 22:25:07.418696  2551 net.cpp:406] data_cifar_0_split <- data
I0801 22:25:07.418706  2551 net.cpp:380] data_cifar_0_split -> data_cifar_0_split_0
I0801 22:25:07.418720  2551 net.cpp:380] data_cifar_0_split -> data_cifar_0_split_1
I0801 22:25:07.418764  2551 net.cpp:122] Setting up data_cifar_0_split
I0801 22:25:07.418777  2551 net.cpp:129] Top shape: 100 3 32 32 (307200)
I0801 22:25:07.418792  2551 net.cpp:129] Top shape: 100 3 32 32 (307200)
I0801 22:25:07.418797  2551 net.cpp:137] Memory required for data: 3686800
I0801 22:25:07.418803  2551 layer_factory.hpp:77] Creating layer label_cifar_1_split
I0801 22:25:07.418813  2551 net.cpp:84] Creating Layer label_cifar_1_split
I0801 22:25:07.418819  2551 net.cpp:406] label_cifar_1_split <- label
I0801 22:25:07.418828  2551 net.cpp:380] label_cifar_1_split -> label_cifar_1_split_0
I0801 22:25:07.418836  2551 net.cpp:380] label_cifar_1_split -> label_cifar_1_split_1
I0801 22:25:07.418872  2551 net.cpp:122] Setting up label_cifar_1_split
I0801 22:25:07.418881  2551 net.cpp:129] Top shape: 100 (100)
I0801 22:25:07.418889  2551 net.cpp:129] Top shape: 100 (100)
I0801 22:25:07.418895  2551 net.cpp:137] Memory required for data: 3687600
I0801 22:25:07.418901  2551 layer_factory.hpp:77] Creating layer conv_s_1
I0801 22:25:07.418915  2551 net.cpp:84] Creating Layer conv_s_1
I0801 22:25:07.418922  2551 net.cpp:406] conv_s_1 <- data_cifar_0_split_0
I0801 22:25:07.418932  2551 net.cpp:380] conv_s_1 -> conv_s_1
I0801 22:25:07.419960  2551 net.cpp:122] Setting up conv_s_1
I0801 22:25:07.419978  2551 net.cpp:129] Top shape: 100 32 32 32 (3276800)
I0801 22:25:07.419986  2551 net.cpp:137] Memory required for data: 16794800
I0801 22:25:07.419997  2551 layer_factory.hpp:77] Creating layer pool_s_1
I0801 22:25:07.420008  2551 net.cpp:84] Creating Layer pool_s_1
I0801 22:25:07.420016  2551 net.cpp:406] pool_s_1 <- conv_s_1
I0801 22:25:07.420023  2551 net.cpp:380] pool_s_1 -> pool_s_1
I0801 22:25:07.420125  2551 net.cpp:122] Setting up pool_s_1
I0801 22:25:07.420135  2551 net.cpp:129] Top shape: 100 32 16 16 (819200)
I0801 22:25:07.420141  2551 net.cpp:137] Memory required for data: 20071600
I0801 22:25:07.420147  2551 layer_factory.hpp:77] Creating layer relu_s_1
I0801 22:25:07.420156  2551 net.cpp:84] Creating Layer relu_s_1
I0801 22:25:07.420163  2551 net.cpp:406] relu_s_1 <- pool_s_1
I0801 22:25:07.420171  2551 net.cpp:367] relu_s_1 -> pool_s_1 (in-place)
I0801 22:25:07.420305  2551 net.cpp:122] Setting up relu_s_1
I0801 22:25:07.420316  2551 net.cpp:129] Top shape: 100 32 16 16 (819200)
I0801 22:25:07.420325  2551 net.cpp:137] Memory required for data: 23348400
I0801 22:25:07.420331  2551 layer_factory.hpp:77] Creating layer norm_s_1
I0801 22:25:07.420342  2551 net.cpp:84] Creating Layer norm_s_1
I0801 22:25:07.420349  2551 net.cpp:406] norm_s_1 <- pool_s_1
I0801 22:25:07.420358  2551 net.cpp:380] norm_s_1 -> norm_s_1
I0801 22:25:07.420982  2551 net.cpp:122] Setting up norm_s_1
I0801 22:25:07.421000  2551 net.cpp:129] Top shape: 100 32 16 16 (819200)
I0801 22:25:07.421006  2551 net.cpp:137] Memory required for data: 26625200
I0801 22:25:07.421015  2551 layer_factory.hpp:77] Creating layer conv_s_2
I0801 22:25:07.421026  2551 net.cpp:84] Creating Layer conv_s_2
I0801 22:25:07.421033  2551 net.cpp:406] conv_s_2 <- norm_s_1
I0801 22:25:07.421043  2551 net.cpp:380] conv_s_2 -> conv_s_2
I0801 22:25:07.422224  2551 net.cpp:122] Setting up conv_s_2
I0801 22:25:07.422243  2551 net.cpp:129] Top shape: 100 32 16 16 (819200)
I0801 22:25:07.422251  2551 net.cpp:137] Memory required for data: 29902000
I0801 22:25:07.422262  2551 layer_factory.hpp:77] Creating layer relu_s_2
I0801 22:25:07.422274  2551 net.cpp:84] Creating Layer relu_s_2
I0801 22:25:07.422282  2551 net.cpp:406] relu_s_2 <- conv_s_2
I0801 22:25:07.422291  2551 net.cpp:367] relu_s_2 -> conv_s_2 (in-place)
I0801 22:25:07.422631  2551 net.cpp:122] Setting up relu_s_2
I0801 22:25:07.422646  2551 net.cpp:129] Top shape: 100 32 16 16 (819200)
I0801 22:25:07.422653  2551 net.cpp:137] Memory required for data: 33178800
I0801 22:25:07.422660  2551 layer_factory.hpp:77] Creating layer pool_s_2
I0801 22:25:07.422670  2551 net.cpp:84] Creating Layer pool_s_2
I0801 22:25:07.422677  2551 net.cpp:406] pool_s_2 <- conv_s_2
I0801 22:25:07.422686  2551 net.cpp:380] pool_s_2 -> pool_s_2
I0801 22:25:07.422822  2551 net.cpp:122] Setting up pool_s_2
I0801 22:25:07.422838  2551 net.cpp:129] Top shape: 100 32 8 8 (204800)
I0801 22:25:07.422852  2551 net.cpp:137] Memory required for data: 33998000
I0801 22:25:07.422859  2551 layer_factory.hpp:77] Creating layer ip_s_1
I0801 22:25:07.422868  2551 net.cpp:84] Creating Layer ip_s_1
I0801 22:25:07.422875  2551 net.cpp:406] ip_s_1 <- pool_s_2
I0801 22:25:07.422885  2551 net.cpp:380] ip_s_1 -> ip_s_1
I0801 22:25:07.423081  2551 net.cpp:122] Setting up ip_s_1
I0801 22:25:07.423091  2551 net.cpp:129] Top shape: 100 10 (1000)
I0801 22:25:07.423099  2551 net.cpp:137] Memory required for data: 34002000
I0801 22:25:07.423110  2551 layer_factory.hpp:77] Creating layer ip_s_1_ip_s_1_0_split
I0801 22:25:07.423118  2551 net.cpp:84] Creating Layer ip_s_1_ip_s_1_0_split
I0801 22:25:07.423125  2551 net.cpp:406] ip_s_1_ip_s_1_0_split <- ip_s_1
I0801 22:25:07.423135  2551 net.cpp:380] ip_s_1_ip_s_1_0_split -> ip_s_1_ip_s_1_0_split_0
I0801 22:25:07.423144  2551 net.cpp:380] ip_s_1_ip_s_1_0_split -> ip_s_1_ip_s_1_0_split_1
I0801 22:25:07.423154  2551 net.cpp:380] ip_s_1_ip_s_1_0_split -> ip_s_1_ip_s_1_0_split_2
I0801 22:25:07.423195  2551 net.cpp:122] Setting up ip_s_1_ip_s_1_0_split
I0801 22:25:07.423205  2551 net.cpp:129] Top shape: 100 10 (1000)
I0801 22:25:07.423213  2551 net.cpp:129] Top shape: 100 10 (1000)
I0801 22:25:07.423219  2551 net.cpp:129] Top shape: 100 10 (1000)
I0801 22:25:07.423225  2551 net.cpp:137] Memory required for data: 34014000
I0801 22:25:07.423231  2551 layer_factory.hpp:77] Creating layer conv_t_1
I0801 22:25:07.423243  2551 net.cpp:84] Creating Layer conv_t_1
I0801 22:25:07.423250  2551 net.cpp:406] conv_t_1 <- data_cifar_0_split_1
I0801 22:25:07.423259  2551 net.cpp:380] conv_t_1 -> conv_t_1
I0801 22:25:07.424002  2551 net.cpp:122] Setting up conv_t_1
I0801 22:25:07.424018  2551 net.cpp:129] Top shape: 100 32 32 32 (3276800)
I0801 22:25:07.424026  2551 net.cpp:137] Memory required for data: 47121200
I0801 22:25:07.424034  2551 layer_factory.hpp:77] Creating layer pool_t_1
I0801 22:25:07.424043  2551 net.cpp:84] Creating Layer pool_t_1
I0801 22:25:07.424052  2551 net.cpp:406] pool_t_1 <- conv_t_1
I0801 22:25:07.424060  2551 net.cpp:380] pool_t_1 -> pool_t_1
I0801 22:25:07.424098  2551 net.cpp:122] Setting up pool_t_1
I0801 22:25:07.424108  2551 net.cpp:129] Top shape: 100 32 16 16 (819200)
I0801 22:25:07.424113  2551 net.cpp:137] Memory required for data: 50398000
I0801 22:25:07.424120  2551 layer_factory.hpp:77] Creating layer relu_t_1
I0801 22:25:07.424127  2551 net.cpp:84] Creating Layer relu_t_1
I0801 22:25:07.424134  2551 net.cpp:406] relu_t_1 <- pool_t_1
I0801 22:25:07.424144  2551 net.cpp:367] relu_t_1 -> pool_t_1 (in-place)
I0801 22:25:07.424268  2551 net.cpp:122] Setting up relu_t_1
I0801 22:25:07.424280  2551 net.cpp:129] Top shape: 100 32 16 16 (819200)
I0801 22:25:07.424286  2551 net.cpp:137] Memory required for data: 53674800
I0801 22:25:07.424293  2551 layer_factory.hpp:77] Creating layer norm_t_1
I0801 22:25:07.424302  2551 net.cpp:84] Creating Layer norm_t_1
I0801 22:25:07.424309  2551 net.cpp:406] norm_t_1 <- pool_t_1
I0801 22:25:07.424319  2551 net.cpp:380] norm_t_1 -> norm_t_1
I0801 22:25:07.424873  2551 net.cpp:122] Setting up norm_t_1
I0801 22:25:07.424888  2551 net.cpp:129] Top shape: 100 32 16 16 (819200)
I0801 22:25:07.424896  2551 net.cpp:137] Memory required for data: 56951600
I0801 22:25:07.424902  2551 layer_factory.hpp:77] Creating layer conv_t_2
I0801 22:25:07.424916  2551 net.cpp:84] Creating Layer conv_t_2
I0801 22:25:07.424924  2551 net.cpp:406] conv_t_2 <- norm_t_1
I0801 22:25:07.424934  2551 net.cpp:380] conv_t_2 -> conv_t_2
I0801 22:25:07.425837  2551 net.cpp:122] Setting up conv_t_2
I0801 22:25:07.425853  2551 net.cpp:129] Top shape: 100 32 16 16 (819200)
I0801 22:25:07.425861  2551 net.cpp:137] Memory required for data: 60228400
I0801 22:25:07.425873  2551 layer_factory.hpp:77] Creating layer relu_t_2
I0801 22:25:07.425881  2551 net.cpp:84] Creating Layer relu_t_2
I0801 22:25:07.425889  2551 net.cpp:406] relu_t_2 <- conv_t_2
I0801 22:25:07.425896  2551 net.cpp:367] relu_t_2 -> conv_t_2 (in-place)
I0801 22:25:07.426223  2551 net.cpp:122] Setting up relu_t_2
I0801 22:25:07.426244  2551 net.cpp:129] Top shape: 100 32 16 16 (819200)
I0801 22:25:07.426250  2551 net.cpp:137] Memory required for data: 63505200
I0801 22:25:07.426257  2551 layer_factory.hpp:77] Creating layer pool_t_2
I0801 22:25:07.426265  2551 net.cpp:84] Creating Layer pool_t_2
I0801 22:25:07.426272  2551 net.cpp:406] pool_t_2 <- conv_t_2
I0801 22:25:07.426281  2551 net.cpp:380] pool_t_2 -> pool_t_2
I0801 22:25:07.426416  2551 net.cpp:122] Setting up pool_t_2
I0801 22:25:07.426429  2551 net.cpp:129] Top shape: 100 32 8 8 (204800)
I0801 22:25:07.426434  2551 net.cpp:137] Memory required for data: 64324400
I0801 22:25:07.426441  2551 layer_factory.hpp:77] Creating layer norm_t_2
I0801 22:25:07.426450  2551 net.cpp:84] Creating Layer norm_t_2
I0801 22:25:07.426457  2551 net.cpp:406] norm_t_2 <- pool_t_2
I0801 22:25:07.426467  2551 net.cpp:380] norm_t_2 -> norm_t_2
I0801 22:25:07.426662  2551 net.cpp:122] Setting up norm_t_2
I0801 22:25:07.426676  2551 net.cpp:129] Top shape: 100 32 8 8 (204800)
I0801 22:25:07.426682  2551 net.cpp:137] Memory required for data: 65143600
I0801 22:25:07.426688  2551 layer_factory.hpp:77] Creating layer conv_t_3
I0801 22:25:07.426700  2551 net.cpp:84] Creating Layer conv_t_3
I0801 22:25:07.426707  2551 net.cpp:406] conv_t_3 <- norm_t_2
I0801 22:25:07.426717  2551 net.cpp:380] conv_t_3 -> conv_t_3
I0801 22:25:07.427753  2551 net.cpp:122] Setting up conv_t_3
I0801 22:25:07.427769  2551 net.cpp:129] Top shape: 100 64 8 8 (409600)
I0801 22:25:07.427776  2551 net.cpp:137] Memory required for data: 66782000
I0801 22:25:07.427785  2551 layer_factory.hpp:77] Creating layer relu_t_3
I0801 22:25:07.427795  2551 net.cpp:84] Creating Layer relu_t_3
I0801 22:25:07.427803  2551 net.cpp:406] relu_t_3 <- conv_t_3
I0801 22:25:07.427810  2551 net.cpp:367] relu_t_3 -> conv_t_3 (in-place)
I0801 22:25:07.428136  2551 net.cpp:122] Setting up relu_t_3
I0801 22:25:07.428151  2551 net.cpp:129] Top shape: 100 64 8 8 (409600)
I0801 22:25:07.428158  2551 net.cpp:137] Memory required for data: 68420400
I0801 22:25:07.428165  2551 layer_factory.hpp:77] Creating layer pool_t_3
I0801 22:25:07.428174  2551 net.cpp:84] Creating Layer pool_t_3
I0801 22:25:07.428181  2551 net.cpp:406] pool_t_3 <- conv_t_3
I0801 22:25:07.428190  2551 net.cpp:380] pool_t_3 -> pool_t_3
I0801 22:25:07.428323  2551 net.cpp:122] Setting up pool_t_3
I0801 22:25:07.428335  2551 net.cpp:129] Top shape: 100 64 4 4 (102400)
I0801 22:25:07.428342  2551 net.cpp:137] Memory required for data: 68830000
I0801 22:25:07.428349  2551 layer_factory.hpp:77] Creating layer ip_t_1
I0801 22:25:07.428359  2551 net.cpp:84] Creating Layer ip_t_1
I0801 22:25:07.428365  2551 net.cpp:406] ip_t_1 <- pool_t_3
I0801 22:25:07.428375  2551 net.cpp:380] ip_t_1 -> ip_t_1
I0801 22:25:07.428519  2551 net.cpp:122] Setting up ip_t_1
I0801 22:25:07.428529  2551 net.cpp:129] Top shape: 100 10 (1000)
I0801 22:25:07.428535  2551 net.cpp:137] Memory required for data: 68834000
I0801 22:25:07.428544  2551 layer_factory.hpp:77] Creating layer sm_s_1
I0801 22:25:07.428551  2551 net.cpp:84] Creating Layer sm_s_1
I0801 22:25:07.428558  2551 net.cpp:406] sm_s_1 <- ip_s_1_ip_s_1_0_split_0
I0801 22:25:07.428568  2551 net.cpp:380] sm_s_1 -> sm_s_1
I0801 22:25:07.428731  2551 net.cpp:122] Setting up sm_s_1
I0801 22:25:07.428743  2551 net.cpp:129] Top shape: 100 10 (1000)
I0801 22:25:07.428750  2551 net.cpp:137] Memory required for data: 68838000
I0801 22:25:07.428756  2551 layer_factory.hpp:77] Creating layer sm_t_1
I0801 22:25:07.428764  2551 net.cpp:84] Creating Layer sm_t_1
I0801 22:25:07.428772  2551 net.cpp:406] sm_t_1 <- ip_t_1
I0801 22:25:07.428781  2551 net.cpp:380] sm_t_1 -> sm_t_1
I0801 22:25:07.429150  2551 net.cpp:122] Setting up sm_t_1
I0801 22:25:07.429165  2551 net.cpp:129] Top shape: 100 10 (1000)
I0801 22:25:07.429172  2551 net.cpp:137] Memory required for data: 68842000
I0801 22:25:07.429179  2551 layer_factory.hpp:77] Creating layer accuracy
I0801 22:25:07.429189  2551 net.cpp:84] Creating Layer accuracy
I0801 22:25:07.429200  2551 net.cpp:406] accuracy <- ip_s_1_ip_s_1_0_split_1
I0801 22:25:07.429214  2551 net.cpp:406] accuracy <- label_cifar_1_split_0
I0801 22:25:07.429222  2551 net.cpp:380] accuracy -> accuracy
…
