…
I0801 17:19:28.007144  2268 net.cpp:294] The NetState phase (0) differed from the phase (1) specified by a rule in layer accuracy
I0801 17:19:28.007247  2268 net.cpp:51] Initializing net from parameters: 
name: "CIFAR10_full"
state {
  phase: TRAIN
  level: 0
  stage: ""
}
layer {
  name: "cifar"
  type: "Data"
  top: "data"
  top: "label"
  include {
    phase: TRAIN
  }
  transform_param {
    mean_file: "/opt/caffe/examples/cifar10/mean.binaryproto"
  }
  data_param {
    source: "/opt/caffe/examples/cifar10/cifar10_train_lmdb"
    batch_size: 100
    backend: LMDB
  }
}
layer {
  name: "conv_s_1"
  type: "Convolution"
  bottom: "data"
  top: "conv_s_1"
  param {
    lr_mult: 1
  }
  param {
    lr_mult: 2
  }
  convolution_param {
    num_output: 32
    pad: 2
    kernel_size: 5
    stride: 1
    weight_filler {
      type: "gaussian"
      std: 0.0001
    }
    bias_filler {
      type: "constant"
    }
  }
}
layer {
  name: "pool_s_1"
  type: "Pooling"
  bottom: "conv_s_1"
  top: "pool_s_1"
  pooling_param {
    pool: MAX
    kernel_size: 3
    stride: 2
  }
}
layer {
  name: "Sigmoid_s_1"
  type: "Sigmoid"
  bottom: "pool_s_1"
  top: "pool_s_1"
}
layer {
  name: "norm_s_1"
  type: "LRN"
  bottom: "pool_s_1"
  top: "norm_s_1"
  lrn_param {
    local_size: 3
    alpha: 5e-05
    beta: 0.75
    norm_region: WITHIN_CHANNEL
  }
}
layer {
  name: "conv_s_2"
  type: "Convolution"
  bottom: "norm_s_1"
  top: "conv_s_2"
  param {
    lr_mult: 1
  }
  param {
    lr_mult: 2
  }
  convolution_param {
    num_output: 32
    pad: 2
    kernel_size: 5
    stride: 1
    weight_filler {
      type: "gaussian"
      std: 0.01
    }
    bias_filler {
      type: "constant"
    }
  }
}
layer {
  name: "Sigmoid_s_2"
  type: "Sigmoid"
  bottom: "conv_s_2"
  top: "conv_s_2"
}
layer {
  name: "pool_s_2"
  type: "Pooling"
  bottom: "conv_s_2"
  top: "pool_s_2"
  pooling_param {
    pool: AVE
    kernel_size: 3
    stride: 2
  }
}
layer {
  name: "norm_s_2"
  type: "LRN"
  bottom: "pool_s_2"
  top: "norm_s_2"
  lrn_param {
    local_size: 3
    alpha: 5e-05
    beta: 0.75
    norm_region: WITHIN_CHANNEL
  }
}
layer {
  name: "conv_s_3"
  type: "Convolution"
  bottom: "norm_s_2"
  top: "conv_s_3"
  param {
    lr_mult: 1
  }
  param {
    lr_mult: 2
  }
  convolution_param {
    num_output: 64
    pad: 2
    kernel_size: 5
    stride: 1
    weight_filler {
      type: "gaussian"
      std: 0.01
    }
    bias_filler {
      type: "constant"
    }
  }
}
layer {
  name: "Sigmoid_s_3"
  type: "Sigmoid"
  bottom: "conv_s_3"
  top: "conv_s_3"
}
layer {
  name: "pool_s_3"
  type: "Pooling"
  bottom: "conv_s_3"
  top: "pool_s_3"
  pooling_param {
    pool: AVE
    kernel_size: 3
    stride: 2
  }
}
layer {
  name: "ip_s_1"
  type: "InnerProduct"
  bottom: "pool_s_3"
  top: "ip_s_1"
  param {
    lr_mult: 1
    decay_mult: 250
  }
  param {
    lr_mult: 2
    decay_mult: 0
  }
  inner_product_param {
    num_output: 10
    weight_filler {
      type: "gaussian"
      std: 0.01
    }
    bias_filler {
      type: "constant"
    }
  }
}
layer {
  name: "conv_t_1"
  type: "Convolution"
  bottom: "data"
  top: "conv_t_1"
  param {
    lr_mult: 0
  }
  param {
    lr_mult: 0
  }
  convolution_param {
    num_output: 32
    pad: 2
    kernel_size: 5
    stride: 1
    weight_filler {
      type: "gaussian"
      std: 0.0001
    }
    bias_filler {
      type: "constant"
    }
  }
}
layer {
  name: "pool_t_1"
  type: "Pooling"
  bottom: "conv_t_1"
  top: "pool_t_1"
  pooling_param {
    pool: MAX
    kernel_size: 3
    stride: 2
  }
}
layer {
  name: "relu_t_1"
  type: "ReLU"
  bottom: "pool_t_1"
  top: "pool_t_1"
}
layer {
  name: "norm_t_1"
  type: "LRN"
  bottom: "pool_t_1"
  top: "norm_t_1"
  lrn_param {
    local_size: 3
    alpha: 5e-05
    beta: 0.75
    norm_region: WITHIN_CHANNEL
  }
}
layer {
  name: "conv_t_2"
  type: "Convolution"
  bottom: "norm_t_1"
  top: "conv_t_2"
  param {
    lr_mult: 0
  }
  param {
    lr_mult: 0
  }
  convolution_param {
    num_output: 32
    pad: 2
    kernel_size: 5
    stride: 1
    weight_filler {
      type: "gaussian"
      std: 0.01
    }
    bias_filler {
      type: "constant"
    }
  }
}
layer {
  name: "relu_t_2"
  type: "ReLU"
  bottom: "conv_t_2"
  top: "conv_t_2"
}
layer {
  name: "pool_t_2"
  type: "Pooling"
  bottom: "conv_t_2"
  top: "pool_t_2"
  pooling_param {
    pool: AVE
    kernel_size: 3
    stride: 2
  }
}
layer {
  name: "norm_t_2"
  type: "LRN"
  bottom: "pool_t_2"
  top: "norm_t_2"
  lrn_param {
    local_size: 3
    alpha: 5e-05
    beta: 0.75
    norm_region: WITHIN_CHANNEL
  }
}
layer {
  name: "conv_t_3"
  type: "Convolution"
  bottom: "norm_t_2"
  top: "conv_t_3"
  param {
    lr_mult: 0
  }
  param {
    lr_mult: 0
  }
  convolution_param {
    num_output: 64
    pad: 2
    kernel_size: 5
    stride: 1
    weight_filler {
      type: "gaussian"
      std: 0.01
    }
    bias_filler {
      type: "constant"
    }
  }
}
layer {
  name: "relu_t_3"
  type: "ReLU"
  bottom: "conv_t_3"
  top: "conv_t_3"
}
layer {
  name: "pool_t_3"
  type: "Pooling"
  bottom: "conv_t_3"
  top: "pool_t_3"
  pooling_param {
    pool: AVE
    kernel_size: 3
    stride: 2
  }
}
layer {
  name: "ip_t_1"
  type: "InnerProduct"
  bottom: "pool_t_3"
  top: "ip_t_1"
  param {
    lr_mult: 0
  }
  param {
    lr_mult: 0
  }
  inner_product_param {
    num_output: 10
    weight_filler {
      type: "gaussian"
      std: 0.01
    }
    bias_filler {
      type: "constant"
    }
  }
}
layer {
  name: "sm_s_1"
  type: "Softmax"
  bottom: "ip_s_1"
  top: "sm_s_1"
}
layer {
  name: "sm_t_1"
  type: "Softmax"
  bottom: "ip_t_1"
  top: "sm_t_1"
}
layer {
  name: "ts_loss"
  type: "SigmoidCrossEntropyLoss"
  bottom: "sm_s_1"
  bottom: "sm_t_1"
  top: "ts_loss"
  loss_weight: 0.001
}
layer {
  name: "loss"
  type: "SoftmaxWithLoss"
  bottom: "ip_s_1"
  bottom: "label"
  top: "loss"
  loss_weight: 0.999
}
I0801 17:19:28.007340  2268 layer_factory.hpp:77] Creating layer cifar
I0801 17:19:28.007426  2268 db_lmdb.cpp:35] Opened lmdb /opt/caffe/examples/cifar10/cifar10_train_lmdb
I0801 17:19:28.007444  2268 net.cpp:84] Creating Layer cifar
I0801 17:19:28.007450  2268 net.cpp:380] cifar -> data
I0801 17:19:28.007463  2268 net.cpp:380] cifar -> label
I0801 17:19:28.007473  2268 data_transformer.cpp:25] Loading mean file from: /opt/caffe/examples/cifar10/mean.binaryproto
I0801 17:19:28.008817  2268 data_layer.cpp:45] output data size: 100,3,32,32
I0801 17:19:28.012409  2268 net.cpp:122] Setting up cifar
I0801 17:19:28.012425  2268 net.cpp:129] Top shape: 100 3 32 32 (307200)
I0801 17:19:28.012428  2268 net.cpp:129] Top shape: 100 (100)
I0801 17:19:28.012430  2268 net.cpp:137] Memory required for data: 1229200
I0801 17:19:28.012439  2268 layer_factory.hpp:77] Creating layer data_cifar_0_split
I0801 17:19:28.012451  2268 net.cpp:84] Creating Layer data_cifar_0_split
I0801 17:19:28.012455  2268 net.cpp:406] data_cifar_0_split <- data
I0801 17:19:28.012465  2268 net.cpp:380] data_cifar_0_split -> data_cifar_0_split_0
I0801 17:19:28.012472  2268 net.cpp:380] data_cifar_0_split -> data_cifar_0_split_1
I0801 17:19:28.012512  2268 net.cpp:122] Setting up data_cifar_0_split
I0801 17:19:28.012516  2268 net.cpp:129] Top shape: 100 3 32 32 (307200)
I0801 17:19:28.012519  2268 net.cpp:129] Top shape: 100 3 32 32 (307200)
I0801 17:19:28.012521  2268 net.cpp:137] Memory required for data: 3686800
I0801 17:19:28.012522  2268 layer_factory.hpp:77] Creating layer conv_s_1
I0801 17:19:28.012533  2268 net.cpp:84] Creating Layer conv_s_1
I0801 17:19:28.012549  2268 net.cpp:406] conv_s_1 <- data_cifar_0_split_0
I0801 17:19:28.012554  2268 net.cpp:380] conv_s_1 -> conv_s_1
I0801 17:19:28.335531  2268 net.cpp:122] Setting up conv_s_1
I0801 17:19:28.335554  2268 net.cpp:129] Top shape: 100 32 32 32 (3276800)
I0801 17:19:28.335556  2268 net.cpp:137] Memory required for data: 16794000
I0801 17:19:28.335572  2268 layer_factory.hpp:77] Creating layer pool_s_1
I0801 17:19:28.335582  2268 net.cpp:84] Creating Layer pool_s_1
I0801 17:19:28.335584  2268 net.cpp:406] pool_s_1 <- conv_s_1
I0801 17:19:28.335588  2268 net.cpp:380] pool_s_1 -> pool_s_1
I0801 17:19:28.335626  2268 net.cpp:122] Setting up pool_s_1
I0801 17:19:28.335645  2268 net.cpp:129] Top shape: 100 32 16 16 (819200)
I0801 17:19:28.335647  2268 net.cpp:137] Memory required for data: 20070800
I0801 17:19:28.335649  2268 layer_factory.hpp:77] Creating layer Sigmoid_s_1
I0801 17:19:28.335654  2268 net.cpp:84] Creating Layer Sigmoid_s_1
I0801 17:19:28.335657  2268 net.cpp:406] Sigmoid_s_1 <- pool_s_1
I0801 17:19:28.335660  2268 net.cpp:367] Sigmoid_s_1 -> pool_s_1 (in-place)
I0801 17:19:28.335978  2268 net.cpp:122] Setting up Sigmoid_s_1
I0801 17:19:28.335985  2268 net.cpp:129] Top shape: 100 32 16 16 (819200)
I0801 17:19:28.335988  2268 net.cpp:137] Memory required for data: 23347600
I0801 17:19:28.335989  2268 layer_factory.hpp:77] Creating layer norm_s_1
I0801 17:19:28.335995  2268 net.cpp:84] Creating Layer norm_s_1
I0801 17:19:28.335997  2268 net.cpp:406] norm_s_1 <- pool_s_1
I0801 17:19:28.336000  2268 net.cpp:380] norm_s_1 -> norm_s_1
I0801 17:19:28.336521  2268 net.cpp:122] Setting up norm_s_1
I0801 17:19:28.336529  2268 net.cpp:129] Top shape: 100 32 16 16 (819200)
I0801 17:19:28.336530  2268 net.cpp:137] Memory required for data: 26624400
I0801 17:19:28.336532  2268 layer_factory.hpp:77] Creating layer conv_s_2
I0801 17:19:28.336539  2268 net.cpp:84] Creating Layer conv_s_2
I0801 17:19:28.336541  2268 net.cpp:406] conv_s_2 <- norm_s_1
I0801 17:19:28.336544  2268 net.cpp:380] conv_s_2 -> conv_s_2
I0801 17:19:28.338032  2268 net.cpp:122] Setting up conv_s_2
I0801 17:19:28.338040  2268 net.cpp:129] Top shape: 100 32 16 16 (819200)
I0801 17:19:28.338042  2268 net.cpp:137] Memory required for data: 29901200
I0801 17:19:28.338048  2268 layer_factory.hpp:77] Creating layer Sigmoid_s_2
I0801 17:19:28.338052  2268 net.cpp:84] Creating Layer Sigmoid_s_2
I0801 17:19:28.338054  2268 net.cpp:406] Sigmoid_s_2 <- conv_s_2
I0801 17:19:28.338057  2268 net.cpp:367] Sigmoid_s_2 -> conv_s_2 (in-place)
I0801 17:19:28.338163  2268 net.cpp:122] Setting up Sigmoid_s_2
I0801 17:19:28.338168  2268 net.cpp:129] Top shape: 100 32 16 16 (819200)
I0801 17:19:28.338169  2268 net.cpp:137] Memory required for data: 33178000
I0801 17:19:28.338172  2268 layer_factory.hpp:77] Creating layer pool_s_2
I0801 17:19:28.338176  2268 net.cpp:84] Creating Layer pool_s_2
I0801 17:19:28.338178  2268 net.cpp:406] pool_s_2 <- conv_s_2
I0801 17:19:28.338181  2268 net.cpp:380] pool_s_2 -> pool_s_2
I0801 17:19:28.338476  2268 net.cpp:122] Setting up pool_s_2
I0801 17:19:28.338484  2268 net.cpp:129] Top shape: 100 32 8 8 (204800)
I0801 17:19:28.338485  2268 net.cpp:137] Memory required for data: 33997200
I0801 17:19:28.338486  2268 layer_factory.hpp:77] Creating layer norm_s_2
I0801 17:19:28.338491  2268 net.cpp:84] Creating Layer norm_s_2
I0801 17:19:28.338493  2268 net.cpp:406] norm_s_2 <- pool_s_2
I0801 17:19:28.338495  2268 net.cpp:380] norm_s_2 -> norm_s_2
I0801 17:19:28.338652  2268 net.cpp:122] Setting up norm_s_2
I0801 17:19:28.338657  2268 net.cpp:129] Top shape: 100 32 8 8 (204800)
I0801 17:19:28.338659  2268 net.cpp:137] Memory required for data: 34816400
I0801 17:19:28.338660  2268 layer_factory.hpp:77] Creating layer conv_s_3
I0801 17:19:28.338666  2268 net.cpp:84] Creating Layer conv_s_3
I0801 17:19:28.338668  2268 net.cpp:406] conv_s_3 <- norm_s_2
I0801 17:19:28.338671  2268 net.cpp:380] conv_s_3 -> conv_s_3
I0801 17:19:28.339606  2268 net.cpp:122] Setting up conv_s_3
I0801 17:19:28.339612  2268 net.cpp:129] Top shape: 100 64 8 8 (409600)
I0801 17:19:28.339651  2268 net.cpp:137] Memory required for data: 36454800
I0801 17:19:28.339658  2268 layer_factory.hpp:77] Creating layer Sigmoid_s_3
I0801 17:19:28.339663  2268 net.cpp:84] Creating Layer Sigmoid_s_3
I0801 17:19:28.339664  2268 net.cpp:406] Sigmoid_s_3 <- conv_s_3
I0801 17:19:28.339668  2268 net.cpp:367] Sigmoid_s_3 -> conv_s_3 (in-place)
I0801 17:19:28.339771  2268 net.cpp:122] Setting up Sigmoid_s_3
I0801 17:19:28.339774  2268 net.cpp:129] Top shape: 100 64 8 8 (409600)
I0801 17:19:28.339776  2268 net.cpp:137] Memory required for data: 38093200
I0801 17:19:28.339778  2268 layer_factory.hpp:77] Creating layer pool_s_3
I0801 17:19:28.339781  2268 net.cpp:84] Creating Layer pool_s_3
I0801 17:19:28.339782  2268 net.cpp:406] pool_s_3 <- conv_s_3
I0801 17:19:28.339785  2268 net.cpp:380] pool_s_3 -> pool_s_3
I0801 17:19:28.339895  2268 net.cpp:122] Setting up pool_s_3
I0801 17:19:28.339898  2268 net.cpp:129] Top shape: 100 64 4 4 (102400)
I0801 17:19:28.339900  2268 net.cpp:137] Memory required for data: 38502800
I0801 17:19:28.339901  2268 layer_factory.hpp:77] Creating layer ip_s_1
I0801 17:19:28.339906  2268 net.cpp:84] Creating Layer ip_s_1
I0801 17:19:28.339910  2268 net.cpp:406] ip_s_1 <- pool_s_3
I0801 17:19:28.339912  2268 net.cpp:380] ip_s_1 -> ip_s_1
I0801 17:19:28.340517  2268 net.cpp:122] Setting up ip_s_1
I0801 17:19:28.340523  2268 net.cpp:129] Top shape: 100 10 (1000)
I0801 17:19:28.340525  2268 net.cpp:137] Memory required for data: 38506800
I0801 17:19:28.340529  2268 layer_factory.hpp:77] Creating layer ip_s_1_ip_s_1_0_split
I0801 17:19:28.340533  2268 net.cpp:84] Creating Layer ip_s_1_ip_s_1_0_split
I0801 17:19:28.340535  2268 net.cpp:406] ip_s_1_ip_s_1_0_split <- ip_s_1
I0801 17:19:28.340538  2268 net.cpp:380] ip_s_1_ip_s_1_0_split -> ip_s_1_ip_s_1_0_split_0
I0801 17:19:28.340543  2268 net.cpp:380] ip_s_1_ip_s_1_0_split -> ip_s_1_ip_s_1_0_split_1
I0801 17:19:28.340565  2268 net.cpp:122] Setting up ip_s_1_ip_s_1_0_split
I0801 17:19:28.340569  2268 net.cpp:129] Top shape: 100 10 (1000)
I0801 17:19:28.340571  2268 net.cpp:129] Top shape: 100 10 (1000)
I0801 17:19:28.340572  2268 net.cpp:137] Memory required for data: 38514800
I0801 17:19:28.340574  2268 layer_factory.hpp:77] Creating layer conv_t_1
I0801 17:19:28.340579  2268 net.cpp:84] Creating Layer conv_t_1
I0801 17:19:28.340582  2268 net.cpp:406] conv_t_1 <- data_cifar_0_split_1
I0801 17:19:28.340585  2268 net.cpp:380] conv_t_1 -> conv_t_1
I0801 17:19:28.341276  2268 net.cpp:122] Setting up conv_t_1
I0801 17:19:28.341284  2268 net.cpp:129] Top shape: 100 32 32 32 (3276800)
I0801 17:19:28.341285  2268 net.cpp:137] Memory required for data: 51622000
I0801 17:19:28.341291  2268 layer_factory.hpp:77] Creating layer pool_t_1
I0801 17:19:28.341296  2268 net.cpp:84] Creating Layer pool_t_1
I0801 17:19:28.341298  2268 net.cpp:406] pool_t_1 <- conv_t_1
I0801 17:19:28.341301  2268 net.cpp:380] pool_t_1 -> pool_t_1
I0801 17:19:28.341326  2268 net.cpp:122] Setting up pool_t_1
I0801 17:19:28.341331  2268 net.cpp:129] Top shape: 100 32 16 16 (819200)
I0801 17:19:28.341332  2268 net.cpp:137] Memory required for data: 54898800
I0801 17:19:28.341333  2268 layer_factory.hpp:77] Creating layer relu_t_1
I0801 17:19:28.341336  2268 net.cpp:84] Creating Layer relu_t_1
I0801 17:19:28.341339  2268 net.cpp:406] relu_t_1 <- pool_t_1
I0801 17:19:28.341356  2268 net.cpp:367] relu_t_1 -> pool_t_1 (in-place)
I0801 17:19:28.341645  2268 net.cpp:122] Setting up relu_t_1
I0801 17:19:28.341651  2268 net.cpp:129] Top shape: 100 32 16 16 (819200)
I0801 17:19:28.341653  2268 net.cpp:137] Memory required for data: 58175600
I0801 17:19:28.341655  2268 layer_factory.hpp:77] Creating layer norm_t_1
I0801 17:19:28.341660  2268 net.cpp:84] Creating Layer norm_t_1
I0801 17:19:28.341661  2268 net.cpp:406] norm_t_1 <- pool_t_1
I0801 17:19:28.341665  2268 net.cpp:380] norm_t_1 -> norm_t_1
I0801 17:19:28.342177  2268 net.cpp:122] Setting up norm_t_1
I0801 17:19:28.342183  2268 net.cpp:129] Top shape: 100 32 16 16 (819200)
I0801 17:19:28.342185  2268 net.cpp:137] Memory required for data: 61452400
I0801 17:19:28.342198  2268 layer_factory.hpp:77] Creating layer conv_t_2
I0801 17:19:28.342205  2268 net.cpp:84] Creating Layer conv_t_2
I0801 17:19:28.342206  2268 net.cpp:406] conv_t_2 <- norm_t_1
I0801 17:19:28.342209  2268 net.cpp:380] conv_t_2 -> conv_t_2
I0801 17:19:28.343020  2268 net.cpp:122] Setting up conv_t_2
I0801 17:19:28.343027  2268 net.cpp:129] Top shape: 100 32 16 16 (819200)
I0801 17:19:28.343029  2268 net.cpp:137] Memory required for data: 64729200
I0801 17:19:28.343034  2268 layer_factory.hpp:77] Creating layer relu_t_2
I0801 17:19:28.343036  2268 net.cpp:84] Creating Layer relu_t_2
I0801 17:19:28.343039  2268 net.cpp:406] relu_t_2 <- conv_t_2
I0801 17:19:28.343041  2268 net.cpp:367] relu_t_2 -> conv_t_2 (in-place)
I0801 17:19:28.343143  2268 net.cpp:122] Setting up relu_t_2
I0801 17:19:28.343148  2268 net.cpp:129] Top shape: 100 32 16 16 (819200)
I0801 17:19:28.343149  2268 net.cpp:137] Memory required for data: 68006000
I0801 17:19:28.343152  2268 layer_factory.hpp:77] Creating layer pool_t_2
I0801 17:19:28.343154  2268 net.cpp:84] Creating Layer pool_t_2
I0801 17:19:28.343156  2268 net.cpp:406] pool_t_2 <- conv_t_2
I0801 17:19:28.343158  2268 net.cpp:380] pool_t_2 -> pool_t_2
I0801 17:19:28.343448  2268 net.cpp:122] Setting up pool_t_2
I0801 17:19:28.343454  2268 net.cpp:129] Top shape: 100 32 8 8 (204800)
I0801 17:19:28.343456  2268 net.cpp:137] Memory required for data: 68825200
I0801 17:19:28.343458  2268 layer_factory.hpp:77] Creating layer norm_t_2
I0801 17:19:28.343462  2268 net.cpp:84] Creating Layer norm_t_2
I0801 17:19:28.343464  2268 net.cpp:406] norm_t_2 <- pool_t_2
I0801 17:19:28.343467  2268 net.cpp:380] norm_t_2 -> norm_t_2
I0801 17:19:28.343631  2268 net.cpp:122] Setting up norm_t_2
I0801 17:19:28.343636  2268 net.cpp:129] Top shape: 100 32 8 8 (204800)
I0801 17:19:28.343638  2268 net.cpp:137] Memory required for data: 69644400
I0801 17:19:28.343641  2268 layer_factory.hpp:77] Creating layer conv_t_3
I0801 17:19:28.343644  2268 net.cpp:84] Creating Layer conv_t_3
I0801 17:19:28.343647  2268 net.cpp:406] conv_t_3 <- norm_t_2
I0801 17:19:28.343650  2268 net.cpp:380] conv_t_3 -> conv_t_3
I0801 17:19:28.344604  2268 net.cpp:122] Setting up conv_t_3
I0801 17:19:28.344610  2268 net.cpp:129] Top shape: 100 64 8 8 (409600)
I0801 17:19:28.344614  2268 net.cpp:137] Memory required for data: 71282800
I0801 17:19:28.344619  2268 layer_factory.hpp:77] Creating layer relu_t_3
I0801 17:19:28.344621  2268 net.cpp:84] Creating Layer relu_t_3
I0801 17:19:28.344624  2268 net.cpp:406] relu_t_3 <- conv_t_3
I0801 17:19:28.344627  2268 net.cpp:367] relu_t_3 -> conv_t_3 (in-place)
I0801 17:19:28.344732  2268 net.cpp:122] Setting up relu_t_3
I0801 17:19:28.344736  2268 net.cpp:129] Top shape: 100 64 8 8 (409600)
I0801 17:19:28.344738  2268 net.cpp:137] Memory required for data: 72921200
I0801 17:19:28.344740  2268 layer_factory.hpp:77] Creating layer pool_t_3
I0801 17:19:28.344743  2268 net.cpp:84] Creating Layer pool_t_3
I0801 17:19:28.344745  2268 net.cpp:406] pool_t_3 <- conv_t_3
I0801 17:19:28.344748  2268 net.cpp:380] pool_t_3 -> pool_t_3
I0801 17:19:28.345043  2268 net.cpp:122] Setting up pool_t_3
I0801 17:19:28.345049  2268 net.cpp:129] Top shape: 100 64 4 4 (102400)
I0801 17:19:28.345051  2268 net.cpp:137] Memory required for data: 73330800
I0801 17:19:28.345052  2268 layer_factory.hpp:77] Creating layer ip_t_1
I0801 17:19:28.345057  2268 net.cpp:84] Creating Layer ip_t_1
I0801 17:19:28.345059  2268 net.cpp:406] ip_t_1 <- pool_t_3
I0801 17:19:28.345063  2268 net.cpp:380] ip_t_1 -> ip_t_1
I0801 17:19:28.345192  2268 net.cpp:122] Setting up ip_t_1
I0801 17:19:28.345197  2268 net.cpp:129] Top shape: 100 10 (1000)
I0801 17:19:28.345198  2268 net.cpp:137] Memory required for data: 73334800
I0801 17:19:28.345201  2268 layer_factory.hpp:77] Creating layer sm_s_1
I0801 17:19:28.345204  2268 net.cpp:84] Creating Layer sm_s_1
I0801 17:19:28.345207  2268 net.cpp:406] sm_s_1 <- ip_s_1_ip_s_1_0_split_0
I0801 17:19:28.345209  2268 net.cpp:380] sm_s_1 -> sm_s_1
I0801 17:19:28.345361  2268 net.cpp:122] Setting up sm_s_1
I0801 17:19:28.345376  2268 net.cpp:129] Top shape: 100 10 (1000)
I0801 17:19:28.345377  2268 net.cpp:137] Memory required for data: 73338800
I0801 17:19:28.345379  2268 layer_factory.hpp:77] Creating layer sm_t_1
I0801 17:19:28.345382  2268 net.cpp:84] Creating Layer sm_t_1
I0801 17:19:28.345383  2268 net.cpp:406] sm_t_1 <- ip_t_1
I0801 17:19:28.345387  2268 net.cpp:380] sm_t_1 -> sm_t_1
I0801 17:19:28.345523  2268 net.cpp:122] Setting up sm_t_1
I0801 17:19:28.345527  2268 net.cpp:129] Top shape: 100 10 (1000)
I0801 17:19:28.345530  2268 net.cpp:137] Memory required for data: 73342800
I0801 17:19:28.345531  2268 layer_factory.hpp:77] Creating layer ts_loss
I0801 17:19:28.345535  2268 net.cpp:84] Creating Layer ts_loss
I0801 17:19:28.345536  2268 net.cpp:406] ts_loss <- sm_s_1
I0801 17:19:28.345538  2268 net.cpp:406] ts_loss <- sm_t_1
I0801 17:19:28.345541  2268 net.cpp:380] ts_loss -> ts_loss
…
I0801 17:19:28.346086  2268 net.cpp:294] The NetState phase (1) differed from the phase (0) specified by a rule in layer cifar
I0801 17:19:28.346191  2268 net.cpp:51] Initializing net from parameters: 
name: "CIFAR10_full"
state {
  phase: TEST
}
layer {
  name: "cifar"
  type: "Data"
  top: "data"
  top: "label"
  include {
    phase: TEST
  }
  transform_param {
    mean_file: "/opt/caffe/examples/cifar10/mean.binaryproto"
  }
  data_param {
    source: "/opt/caffe/examples/cifar10/cifar10_test_lmdb"
    batch_size: 100
    backend: LMDB
  }
}
layer {
  name: "conv_s_1"
  type: "Convolution"
  bottom: "data"
  top: "conv_s_1"
  param {
    lr_mult: 1
  }
  param {
    lr_mult: 2
  }
  convolution_param {
    num_output: 32
    pad: 2
    kernel_size: 5
    stride: 1
    weight_filler {
      type: "gaussian"
      std: 0.0001
    }
    bias_filler {
      type: "constant"
    }
  }
}
layer {
  name: "pool_s_1"
  type: "Pooling"
  bottom: "conv_s_1"
  top: "pool_s_1"
  pooling_param {
    pool: MAX
    kernel_size: 3
    stride: 2
  }
}
layer {
  name: "Sigmoid_s_1"
  type: "Sigmoid"
  bottom: "pool_s_1"
  top: "pool_s_1"
}
layer {
  name: "norm_s_1"
  type: "LRN"
  bottom: "pool_s_1"
  top: "norm_s_1"
  lrn_param {
    local_size: 3
    alpha: 5e-05
    beta: 0.75
    norm_region: WITHIN_CHANNEL
  }
}
layer {
  name: "conv_s_2"
  type: "Convolution"
  bottom: "norm_s_1"
  top: "conv_s_2"
  param {
    lr_mult: 1
  }
  param {
    lr_mult: 2
  }
  convolution_param {
    num_output: 32
    pad: 2
    kernel_size: 5
    stride: 1
    weight_filler {
      type: "gaussian"
      std: 0.01
    }
    bias_filler {
      type: "constant"
    }
  }
}
layer {
  name: "Sigmoid_s_2"
  type: "Sigmoid"
  bottom: "conv_s_2"
  top: "conv_s_2"
}
layer {
  name: "pool_s_2"
  type: "Pooling"
  bottom: "conv_s_2"
  top: "pool_s_2"
  pooling_param {
    pool: AVE
    kernel_size: 3
    stride: 2
  }
}
layer {
  name: "norm_s_2"
  type: "LRN"
  bottom: "pool_s_2"
  top: "norm_s_2"
  lrn_param {
    local_size: 3
    alpha: 5e-05
    beta: 0.75
    norm_region: WITHIN_CHANNEL
  }
}
layer {
  name: "conv_s_3"
  type: "Convolution"
  bottom: "norm_s_2"
  top: "conv_s_3"
  param {
    lr_mult: 1
  }
  param {
    lr_mult: 2
  }
  convolution_param {
    num_output: 64
    pad: 2
    kernel_size: 5
    stride: 1
    weight_filler {
      type: "gaussian"
      std: 0.01
    }
    bias_filler {
      type: "constant"
    }
  }
}
layer {
  name: "Sigmoid_s_3"
  type: "Sigmoid"
  bottom: "conv_s_3"
  top: "conv_s_3"
}
layer {
  name: "pool_s_3"
  type: "Pooling"
  bottom: "conv_s_3"
  top: "pool_s_3"
  pooling_param {
    pool: AVE
    kernel_size: 3
    stride: 2
  }
}
layer {
  name: "ip_s_1"
  type: "InnerProduct"
  bottom: "pool_s_3"
  top: "ip_s_1"
  param {
    lr_mult: 1
    decay_mult: 250
  }
  param {
    lr_mult: 2
    decay_mult: 0
  }
  inner_product_param {
    num_output: 10
    weight_filler {
      type: "gaussian"
      std: 0.01
    }
    bias_filler {
      type: "constant"
    }
  }
}
layer {
  name: "conv_t_1"
  type: "Convolution"
  bottom: "data"
  top: "conv_t_1"
  param {
    lr_mult: 0
  }
  param {
    lr_mult: 0
  }
  convolution_param {
    num_output: 32
    pad: 2
    kernel_size: 5
    stride: 1
    weight_filler {
      type: "gaussian"
      std: 0.0001
    }
    bias_filler {
      type: "constant"
    }
  }
}
layer {
  name: "pool_t_1"
  type: "Pooling"
  bottom: "conv_t_1"
  top: "pool_t_1"
  pooling_param {
    pool: MAX
    kernel_size: 3
    stride: 2
  }
}
layer {
  name: "relu_t_1"
  type: "ReLU"
  bottom: "pool_t_1"
  top: "pool_t_1"
}
layer {
  name: "norm_t_1"
  type: "LRN"
  bottom: "pool_t_1"
  top: "norm_t_1"
  lrn_param {
    local_size: 3
    alpha: 5e-05
    beta: 0.75
    norm_region: WITHIN_CHANNEL
  }
}
layer {
  name: "conv_t_2"
  type: "Convolution"
  bottom: "norm_t_1"
  top: "conv_t_2"
  param {
    lr_mult: 0
  }
  param {
    lr_mult: 0
  }
  convolution_param {
    num_output: 32
    pad: 2
    kernel_size: 5
    stride: 1
    weight_filler {
      type: "gaussian"
      std: 0.01
    }
    bias_filler {
      type: "constant"
    }
  }
}
layer {
  name: "relu_t_2"
  type: "ReLU"
  bottom: "conv_t_2"
  top: "conv_t_2"
}
layer {
  name: "pool_t_2"
  type: "Pooling"
  bottom: "conv_t_2"
  top: "pool_t_2"
  pooling_param {
    pool: AVE
    kernel_size: 3
    stride: 2
  }
}
layer {
  name: "norm_t_2"
  type: "LRN"
  bottom: "pool_t_2"
  top: "norm_t_2"
  lrn_param {
    local_size: 3
    alpha: 5e-05
    beta: 0.75
    norm_region: WITHIN_CHANNEL
  }
}
layer {
  name: "conv_t_3"
  type: "Convolution"
  bottom: "norm_t_2"
  top: "conv_t_3"
  param {
    lr_mult: 0
  }
  param {
    lr_mult: 0
  }
  convolution_param {
    num_output: 64
    pad: 2
    kernel_size: 5
    stride: 1
    weight_filler {
      type: "gaussian"
      std: 0.01
    }
    bias_filler {
      type: "constant"
    }
  }
}
layer {
  name: "relu_t_3"
  type: "ReLU"
  bottom: "conv_t_3"
  top: "conv_t_3"
}
layer {
  name: "pool_t_3"
  type: "Pooling"
  bottom: "conv_t_3"
  top: "pool_t_3"
  pooling_param {
    pool: AVE
    kernel_size: 3
    stride: 2
  }
}
layer {
  name: "ip_t_1"
  type: "InnerProduct"
  bottom: "pool_t_3"
  top: "ip_t_1"
  param {
    lr_mult: 0
  }
  param {
    lr_mult: 0
  }
  inner_product_param {
    num_output: 10
    weight_filler {
      type: "gaussian"
      std: 0.01
    }
    bias_filler {
      type: "constant"
    }
  }
}
layer {
  name: "sm_s_1"
  type: "Softmax"
  bottom: "ip_s_1"
  top: "sm_s_1"
}
layer {
  name: "sm_t_1"
  type: "Softmax"
  bottom: "ip_t_1"
  top: "sm_t_1"
}
layer {
  name: "accuracy"
  type: "Accuracy"
  bottom: "ip_s_1"
  bottom: "label"
  top: "accuracy"
  include {
    phase: TEST
  }
}
layer {
  name: "ts_loss"
  type: "SigmoidCrossEntropyLoss"
  bottom: "sm_s_1"
  bottom: "sm_t_1"
  top: "ts_loss"
  loss_weight: 0.001
}
layer {
  name: "loss"
  type: "SoftmaxWithLoss"
  bottom: "ip_s_1"
  bottom: "label"
  top: "loss"
  loss_weight: 0.999
}
I0801 17:19:28.346264  2268 layer_factory.hpp:77] Creating layer cifar
I0801 17:19:28.346318  2268 db_lmdb.cpp:35] Opened lmdb /opt/caffe/examples/cifar10/cifar10_test_lmdb
I0801 17:19:28.346326  2268 net.cpp:84] Creating Layer cifar
I0801 17:19:28.346329  2268 net.cpp:380] cifar -> data
I0801 17:19:28.346334  2268 net.cpp:380] cifar -> label
I0801 17:19:28.346338  2268 data_transformer.cpp:25] Loading mean file from: /opt/caffe/examples/cifar10/mean.binaryproto
I0801 17:19:28.346446  2268 data_layer.cpp:45] output data size: 100,3,32,32
I0801 17:19:28.350311  2268 net.cpp:122] Setting up cifar
I0801 17:19:28.350327  2268 net.cpp:129] Top shape: 100 3 32 32 (307200)
I0801 17:19:28.350329  2268 net.cpp:129] Top shape: 100 (100)
I0801 17:19:28.350332  2268 net.cpp:137] Memory required for data: 1229200
I0801 17:19:28.350335  2268 layer_factory.hpp:77] Creating layer data_cifar_0_split
I0801 17:19:28.350344  2268 net.cpp:84] Creating Layer data_cifar_0_split
I0801 17:19:28.350347  2268 net.cpp:406] data_cifar_0_split <- data
I0801 17:19:28.350353  2268 net.cpp:380] data_cifar_0_split -> data_cifar_0_split_0
I0801 17:19:28.350359  2268 net.cpp:380] data_cifar_0_split -> data_cifar_0_split_1
I0801 17:19:28.350428  2268 net.cpp:122] Setting up data_cifar_0_split
I0801 17:19:28.350432  2268 net.cpp:129] Top shape: 100 3 32 32 (307200)
I0801 17:19:28.350435  2268 net.cpp:129] Top shape: 100 3 32 32 (307200)
I0801 17:19:28.350436  2268 net.cpp:137] Memory required for data: 3686800
I0801 17:19:28.350438  2268 layer_factory.hpp:77] Creating layer label_cifar_1_split
I0801 17:19:28.350456  2268 net.cpp:84] Creating Layer label_cifar_1_split
I0801 17:19:28.350458  2268 net.cpp:406] label_cifar_1_split <- label
I0801 17:19:28.350461  2268 net.cpp:380] label_cifar_1_split -> label_cifar_1_split_0
I0801 17:19:28.350466  2268 net.cpp:380] label_cifar_1_split -> label_cifar_1_split_1
I0801 17:19:28.350495  2268 net.cpp:122] Setting up label_cifar_1_split
I0801 17:19:28.350498  2268 net.cpp:129] Top shape: 100 (100)
I0801 17:19:28.350500  2268 net.cpp:129] Top shape: 100 (100)
I0801 17:19:28.350502  2268 net.cpp:137] Memory required for data: 3687600
I0801 17:19:28.350503  2268 layer_factory.hpp:77] Creating layer conv_s_1
I0801 17:19:28.350512  2268 net.cpp:84] Creating Layer conv_s_1
I0801 17:19:28.350513  2268 net.cpp:406] conv_s_1 <- data_cifar_0_split_0
I0801 17:19:28.350517  2268 net.cpp:380] conv_s_1 -> conv_s_1
I0801 17:19:28.352078  2268 net.cpp:122] Setting up conv_s_1
I0801 17:19:28.352089  2268 net.cpp:129] Top shape: 100 32 32 32 (3276800)
I0801 17:19:28.352092  2268 net.cpp:137] Memory required for data: 16794800
I0801 17:19:28.352100  2268 layer_factory.hpp:77] Creating layer pool_s_1
I0801 17:19:28.352108  2268 net.cpp:84] Creating Layer pool_s_1
I0801 17:19:28.352111  2268 net.cpp:406] pool_s_1 <- conv_s_1
I0801 17:19:28.352138  2268 net.cpp:380] pool_s_1 -> pool_s_1
I0801 17:19:28.352174  2268 net.cpp:122] Setting up pool_s_1
I0801 17:19:28.352179  2268 net.cpp:129] Top shape: 100 32 16 16 (819200)
I0801 17:19:28.352180  2268 net.cpp:137] Memory required for data: 20071600
I0801 17:19:28.352181  2268 layer_factory.hpp:77] Creating layer Sigmoid_s_1
I0801 17:19:28.352185  2268 net.cpp:84] Creating Layer Sigmoid_s_1
I0801 17:19:28.352186  2268 net.cpp:406] Sigmoid_s_1 <- pool_s_1
I0801 17:19:28.352190  2268 net.cpp:367] Sigmoid_s_1 -> pool_s_1 (in-place)
I0801 17:19:28.352316  2268 net.cpp:122] Setting up Sigmoid_s_1
I0801 17:19:28.352321  2268 net.cpp:129] Top shape: 100 32 16 16 (819200)
I0801 17:19:28.352324  2268 net.cpp:137] Memory required for data: 23348400
I0801 17:19:28.352325  2268 layer_factory.hpp:77] Creating layer norm_s_1
I0801 17:19:28.352331  2268 net.cpp:84] Creating Layer norm_s_1
I0801 17:19:28.352334  2268 net.cpp:406] norm_s_1 <- pool_s_1
I0801 17:19:28.352339  2268 net.cpp:380] norm_s_1 -> norm_s_1
I0801 17:19:28.352959  2268 net.cpp:122] Setting up norm_s_1
I0801 17:19:28.352967  2268 net.cpp:129] Top shape: 100 32 16 16 (819200)
I0801 17:19:28.352970  2268 net.cpp:137] Memory required for data: 26625200
I0801 17:19:28.352972  2268 layer_factory.hpp:77] Creating layer conv_s_2
I0801 17:19:28.352980  2268 net.cpp:84] Creating Layer conv_s_2
I0801 17:19:28.352983  2268 net.cpp:406] conv_s_2 <- norm_s_1
I0801 17:19:28.352988  2268 net.cpp:380] conv_s_2 -> conv_s_2
I0801 17:19:28.354152  2268 net.cpp:122] Setting up conv_s_2
I0801 17:19:28.354161  2268 net.cpp:129] Top shape: 100 32 16 16 (819200)
I0801 17:19:28.354162  2268 net.cpp:137] Memory required for data: 29902000
I0801 17:19:28.354184  2268 layer_factory.hpp:77] Creating layer Sigmoid_s_2
I0801 17:19:28.354190  2268 net.cpp:84] Creating Layer Sigmoid_s_2
I0801 17:19:28.354193  2268 net.cpp:406] Sigmoid_s_2 <- conv_s_2
I0801 17:19:28.354197  2268 net.cpp:367] Sigmoid_s_2 -> conv_s_2 (in-place)
I0801 17:19:28.354333  2268 net.cpp:122] Setting up Sigmoid_s_2
I0801 17:19:28.354341  2268 net.cpp:129] Top shape: 100 32 16 16 (819200)
I0801 17:19:28.354343  2268 net.cpp:137] Memory required for data: 33178800
I0801 17:19:28.354346  2268 layer_factory.hpp:77] Creating layer pool_s_2
I0801 17:19:28.354351  2268 net.cpp:84] Creating Layer pool_s_2
I0801 17:19:28.354353  2268 net.cpp:406] pool_s_2 <- conv_s_2
I0801 17:19:28.354357  2268 net.cpp:380] pool_s_2 -> pool_s_2
I0801 17:19:28.354686  2268 net.cpp:122] Setting up pool_s_2
I0801 17:19:28.354691  2268 net.cpp:129] Top shape: 100 32 8 8 (204800)
I0801 17:19:28.354693  2268 net.cpp:137] Memory required for data: 33998000
I0801 17:19:28.354696  2268 layer_factory.hpp:77] Creating layer norm_s_2
I0801 17:19:28.354712  2268 net.cpp:84] Creating Layer norm_s_2
I0801 17:19:28.354715  2268 net.cpp:406] norm_s_2 <- pool_s_2
I0801 17:19:28.354718  2268 net.cpp:380] norm_s_2 -> norm_s_2
I0801 17:19:28.354902  2268 net.cpp:122] Setting up norm_s_2
I0801 17:19:28.354907  2268 net.cpp:129] Top shape: 100 32 8 8 (204800)
I0801 17:19:28.354908  2268 net.cpp:137] Memory required for data: 34817200
I0801 17:19:28.354909  2268 layer_factory.hpp:77] Creating layer conv_s_3
I0801 17:19:28.354917  2268 net.cpp:84] Creating Layer conv_s_3
I0801 17:19:28.354918  2268 net.cpp:406] conv_s_3 <- norm_s_2
I0801 17:19:28.354923  2268 net.cpp:380] conv_s_3 -> conv_s_3
I0801 17:19:28.355938  2268 net.cpp:122] Setting up conv_s_3
I0801 17:19:28.355945  2268 net.cpp:129] Top shape: 100 64 8 8 (409600)
I0801 17:19:28.355947  2268 net.cpp:137] Memory required for data: 36455600
I0801 17:19:28.355952  2268 layer_factory.hpp:77] Creating layer Sigmoid_s_3
I0801 17:19:28.355957  2268 net.cpp:84] Creating Layer Sigmoid_s_3
I0801 17:19:28.355960  2268 net.cpp:406] Sigmoid_s_3 <- conv_s_3
I0801 17:19:28.355963  2268 net.cpp:367] Sigmoid_s_3 -> conv_s_3 (in-place)
I0801 17:19:28.356079  2268 net.cpp:122] Setting up Sigmoid_s_3
I0801 17:19:28.356084  2268 net.cpp:129] Top shape: 100 64 8 8 (409600)
I0801 17:19:28.356086  2268 net.cpp:137] Memory required for data: 38094000
I0801 17:19:28.356088  2268 layer_factory.hpp:77] Creating layer pool_s_3
I0801 17:19:28.356091  2268 net.cpp:84] Creating Layer pool_s_3
I0801 17:19:28.356093  2268 net.cpp:406] pool_s_3 <- conv_s_3
I0801 17:19:28.356096  2268 net.cpp:380] pool_s_3 -> pool_s_3
I0801 17:19:28.356412  2268 net.cpp:122] Setting up pool_s_3
I0801 17:19:28.356418  2268 net.cpp:129] Top shape: 100 64 4 4 (102400)
I0801 17:19:28.356420  2268 net.cpp:137] Memory required for data: 38503600
I0801 17:19:28.356422  2268 layer_factory.hpp:77] Creating layer ip_s_1
I0801 17:19:28.356426  2268 net.cpp:84] Creating Layer ip_s_1
I0801 17:19:28.356429  2268 net.cpp:406] ip_s_1 <- pool_s_3
I0801 17:19:28.356433  2268 net.cpp:380] ip_s_1 -> ip_s_1
I0801 17:19:28.356566  2268 net.cpp:122] Setting up ip_s_1
I0801 17:19:28.356570  2268 net.cpp:129] Top shape: 100 10 (1000)
I0801 17:19:28.356572  2268 net.cpp:137] Memory required for data: 38507600
I0801 17:19:28.356575  2268 layer_factory.hpp:77] Creating layer ip_s_1_ip_s_1_0_split
I0801 17:19:28.356578  2268 net.cpp:84] Creating Layer ip_s_1_ip_s_1_0_split
I0801 17:19:28.356580  2268 net.cpp:406] ip_s_1_ip_s_1_0_split <- ip_s_1
I0801 17:19:28.356585  2268 net.cpp:380] ip_s_1_ip_s_1_0_split -> ip_s_1_ip_s_1_0_split_0
I0801 17:19:28.356588  2268 net.cpp:380] ip_s_1_ip_s_1_0_split -> ip_s_1_ip_s_1_0_split_1
I0801 17:19:28.356595  2268 net.cpp:380] ip_s_1_ip_s_1_0_split -> ip_s_1_ip_s_1_0_split_2
I0801 17:19:28.356627  2268 net.cpp:122] Setting up ip_s_1_ip_s_1_0_split
I0801 17:19:28.356631  2268 net.cpp:129] Top shape: 100 10 (1000)
I0801 17:19:28.356633  2268 net.cpp:129] Top shape: 100 10 (1000)
I0801 17:19:28.356636  2268 net.cpp:129] Top shape: 100 10 (1000)
I0801 17:19:28.356637  2268 net.cpp:137] Memory required for data: 38519600
I0801 17:19:28.356638  2268 layer_factory.hpp:77] Creating layer conv_t_1
I0801 17:19:28.356645  2268 net.cpp:84] Creating Layer conv_t_1
I0801 17:19:28.356648  2268 net.cpp:406] conv_t_1 <- data_cifar_0_split_1
I0801 17:19:28.356652  2268 net.cpp:380] conv_t_1 -> conv_t_1
I0801 17:19:28.357416  2268 net.cpp:122] Setting up conv_t_1
I0801 17:19:28.357422  2268 net.cpp:129] Top shape: 100 32 32 32 (3276800)
I0801 17:19:28.357424  2268 net.cpp:137] Memory required for data: 51626800
I0801 17:19:28.357430  2268 layer_factory.hpp:77] Creating layer pool_t_1
I0801 17:19:28.357434  2268 net.cpp:84] Creating Layer pool_t_1
I0801 17:19:28.357437  2268 net.cpp:406] pool_t_1 <- conv_t_1
I0801 17:19:28.357441  2268 net.cpp:380] pool_t_1 -> pool_t_1
I0801 17:19:28.357467  2268 net.cpp:122] Setting up pool_t_1
I0801 17:19:28.357471  2268 net.cpp:129] Top shape: 100 32 16 16 (819200)
I0801 17:19:28.357472  2268 net.cpp:137] Memory required for data: 54903600
I0801 17:19:28.357484  2268 layer_factory.hpp:77] Creating layer relu_t_1
I0801 17:19:28.357488  2268 net.cpp:84] Creating Layer relu_t_1
I0801 17:19:28.357491  2268 net.cpp:406] relu_t_1 <- pool_t_1
I0801 17:19:28.357493  2268 net.cpp:367] relu_t_1 -> pool_t_1 (in-place)
I0801 17:19:28.357612  2268 net.cpp:122] Setting up relu_t_1
I0801 17:19:28.357617  2268 net.cpp:129] Top shape: 100 32 16 16 (819200)
I0801 17:19:28.357620  2268 net.cpp:137] Memory required for data: 58180400
I0801 17:19:28.357620  2268 layer_factory.hpp:77] Creating layer norm_t_1
I0801 17:19:28.357625  2268 net.cpp:84] Creating Layer norm_t_1
I0801 17:19:28.357627  2268 net.cpp:406] norm_t_1 <- pool_t_1
I0801 17:19:28.357630  2268 net.cpp:380] norm_t_1 -> norm_t_1
I0801 17:19:28.358171  2268 net.cpp:122] Setting up norm_t_1
I0801 17:19:28.358178  2268 net.cpp:129] Top shape: 100 32 16 16 (819200)
I0801 17:19:28.358181  2268 net.cpp:137] Memory required for data: 61457200
I0801 17:19:28.358183  2268 layer_factory.hpp:77] Creating layer conv_t_2
I0801 17:19:28.358189  2268 net.cpp:84] Creating Layer conv_t_2
I0801 17:19:28.358191  2268 net.cpp:406] conv_t_2 <- norm_t_1
I0801 17:19:28.358196  2268 net.cpp:380] conv_t_2 -> conv_t_2
I0801 17:19:28.359257  2268 net.cpp:122] Setting up conv_t_2
I0801 17:19:28.359264  2268 net.cpp:129] Top shape: 100 32 16 16 (819200)
I0801 17:19:28.359266  2268 net.cpp:137] Memory required for data: 64734000
I0801 17:19:28.359269  2268 layer_factory.hpp:77] Creating layer relu_t_2
I0801 17:19:28.359275  2268 net.cpp:84] Creating Layer relu_t_2
I0801 17:19:28.359277  2268 net.cpp:406] relu_t_2 <- conv_t_2
I0801 17:19:28.359279  2268 net.cpp:367] relu_t_2 -> conv_t_2 (in-place)
I0801 17:19:28.359588  2268 net.cpp:122] Setting up relu_t_2
I0801 17:19:28.359596  2268 net.cpp:129] Top shape: 100 32 16 16 (819200)
I0801 17:19:28.359597  2268 net.cpp:137] Memory required for data: 68010800
I0801 17:19:28.359599  2268 layer_factory.hpp:77] Creating layer pool_t_2
I0801 17:19:28.359602  2268 net.cpp:84] Creating Layer pool_t_2
I0801 17:19:28.359604  2268 net.cpp:406] pool_t_2 <- conv_t_2
I0801 17:19:28.359608  2268 net.cpp:380] pool_t_2 -> pool_t_2
I0801 17:19:28.359730  2268 net.cpp:122] Setting up pool_t_2
I0801 17:19:28.359735  2268 net.cpp:129] Top shape: 100 32 8 8 (204800)
I0801 17:19:28.359736  2268 net.cpp:137] Memory required for data: 68830000
I0801 17:19:28.359738  2268 layer_factory.hpp:77] Creating layer norm_t_2
I0801 17:19:28.359742  2268 net.cpp:84] Creating Layer norm_t_2
I0801 17:19:28.359745  2268 net.cpp:406] norm_t_2 <- pool_t_2
I0801 17:19:28.359746  2268 net.cpp:380] norm_t_2 -> norm_t_2
I0801 17:19:28.359928  2268 net.cpp:122] Setting up norm_t_2
I0801 17:19:28.359932  2268 net.cpp:129] Top shape: 100 32 8 8 (204800)
I0801 17:19:28.359935  2268 net.cpp:137] Memory required for data: 69649200
I0801 17:19:28.359936  2268 layer_factory.hpp:77] Creating layer conv_t_3
I0801 17:19:28.359942  2268 net.cpp:84] Creating Layer conv_t_3
I0801 17:19:28.359946  2268 net.cpp:406] conv_t_3 <- norm_t_2
I0801 17:19:28.359948  2268 net.cpp:380] conv_t_3 -> conv_t_3
I0801 17:19:28.360968  2268 net.cpp:122] Setting up conv_t_3
I0801 17:19:28.360975  2268 net.cpp:129] Top shape: 100 64 8 8 (409600)
I0801 17:19:28.360977  2268 net.cpp:137] Memory required for data: 71287600
I0801 17:19:28.360980  2268 layer_factory.hpp:77] Creating layer relu_t_3
I0801 17:19:28.360985  2268 net.cpp:84] Creating Layer relu_t_3
I0801 17:19:28.360988  2268 net.cpp:406] relu_t_3 <- conv_t_3
I0801 17:19:28.360991  2268 net.cpp:367] relu_t_3 -> conv_t_3 (in-place)
I0801 17:19:28.361120  2268 net.cpp:122] Setting up relu_t_3
I0801 17:19:28.361125  2268 net.cpp:129] Top shape: 100 64 8 8 (409600)
I0801 17:19:28.361127  2268 net.cpp:137] Memory required for data: 72926000
I0801 17:19:28.361129  2268 layer_factory.hpp:77] Creating layer pool_t_3
I0801 17:19:28.361135  2268 net.cpp:84] Creating Layer pool_t_3
I0801 17:19:28.361136  2268 net.cpp:406] pool_t_3 <- conv_t_3
I0801 17:19:28.361140  2268 net.cpp:380] pool_t_3 -> pool_t_3
I0801 17:19:28.361460  2268 net.cpp:122] Setting up pool_t_3
I0801 17:19:28.361475  2268 net.cpp:129] Top shape: 100 64 4 4 (102400)
I0801 17:19:28.361477  2268 net.cpp:137] Memory required for data: 73335600
I0801 17:19:28.361479  2268 layer_factory.hpp:77] Creating layer ip_t_1
I0801 17:19:28.361484  2268 net.cpp:84] Creating Layer ip_t_1
I0801 17:19:28.361485  2268 net.cpp:406] ip_t_1 <- pool_t_3
I0801 17:19:28.361490  2268 net.cpp:380] ip_t_1 -> ip_t_1
I0801 17:19:28.361626  2268 net.cpp:122] Setting up ip_t_1
I0801 17:19:28.361630  2268 net.cpp:129] Top shape: 100 10 (1000)
I0801 17:19:28.361631  2268 net.cpp:137] Memory required for data: 73339600
I0801 17:19:28.361634  2268 layer_factory.hpp:77] Creating layer sm_s_1
I0801 17:19:28.361639  2268 net.cpp:84] Creating Layer sm_s_1
I0801 17:19:28.361641  2268 net.cpp:406] sm_s_1 <- ip_s_1_ip_s_1_0_split_0
I0801 17:19:28.361644  2268 net.cpp:380] sm_s_1 -> sm_s_1
I0801 17:19:28.361801  2268 net.cpp:122] Setting up sm_s_1
I0801 17:19:28.361806  2268 net.cpp:129] Top shape: 100 10 (1000)
I0801 17:19:28.361807  2268 net.cpp:137] Memory required for data: 73343600
I0801 17:19:28.361809  2268 layer_factory.hpp:77] Creating layer sm_t_1
I0801 17:19:28.361812  2268 net.cpp:84] Creating Layer sm_t_1
I0801 17:19:28.361815  2268 net.cpp:406] sm_t_1 <- ip_t_1
I0801 17:19:28.361819  2268 net.cpp:380] sm_t_1 -> sm_t_1
I0801 17:19:28.361968  2268 net.cpp:122] Setting up sm_t_1
I0801 17:19:28.361973  2268 net.cpp:129] Top shape: 100 10 (1000)
I0801 17:19:28.361974  2268 net.cpp:137] Memory required for data: 73347600
I0801 17:19:28.361975  2268 layer_factory.hpp:77] Creating layer accuracy
I0801 17:19:28.361980  2268 net.cpp:84] Creating Layer accuracy
I0801 17:19:28.361984  2268 net.cpp:406] accuracy <- ip_s_1_ip_s_1_0_split_1
I0801 17:19:28.361986  2268 net.cpp:406] accuracy <- label_cifar_1_split_0
I0801 17:19:28.361989  2268 net.cpp:380] accuracy -> accuracy
…
