…
I0801 16:29:22.120438  2203 net.cpp:294] The NetState phase (0) differed from the phase (1) specified by a rule in layer accuracy
I0801 16:29:22.120496  2203 net.cpp:51] Initializing net from parameters: 
name: "CIFAR10_full"
state {
  phase: TRAIN
  level: 0
  stage: ""
}
layer {
  name: "cifar"
  type: "Data"
  top: "data"
  top: "label"
  include {
    phase: TRAIN
  }
  transform_param {
    mean_file: "examples/cifar10/mean.binaryproto"
  }
  data_param {
    source: "examples/cifar10/cifar10_train_lmdb"
    batch_size: 100
    backend: LMDB
  }
}
layer {
  name: "conv1"
  type: "Convolution"
  bottom: "data"
  top: "conv1"
  param {
    lr_mult: 1
  }
  param {
    lr_mult: 2
  }
  convolution_param {
    num_output: 32
    pad: 2
    kernel_size: 5
    stride: 1
    weight_filler {
      type: "gaussian"
      std: 0.0001
    }
    bias_filler {
      type: "constant"
    }
  }
}
layer {
  name: "pool1"
  type: "Pooling"
  bottom: "conv1"
  top: "pool1"
  pooling_param {
    pool: MAX
    kernel_size: 3
    stride: 2
  }
}
layer {
  name: "Sigmoid1"
  type: "Sigmoid"
  bottom: "pool1"
  top: "Sigmoid1"
}
layer {
  name: "conv2"
  type: "Convolution"
  bottom: "Sigmoid1"
  top: "conv2"
  param {
    lr_mult: 1
  }
  param {
    lr_mult: 2
  }
  convolution_param {
    num_output: 32
    pad: 2
    kernel_size: 5
    stride: 1
    weight_filler {
      type: "gaussian"
      std: 0.01
    }
    bias_filler {
      type: "constant"
    }
  }
}
layer {
  name: "Sigmoid2"
  type: "Sigmoid"
  bottom: "conv2"
  top: "Sigmoid2"
}
layer {
  name: "pool2"
  type: "Pooling"
  bottom: "Sigmoid2"
  top: "pool2"
  pooling_param {
    pool: AVE
    kernel_size: 3
    stride: 2
  }
}
layer {
  name: "conv3"
  type: "Convolution"
  bottom: "pool2"
  top: "conv3"
  param {
    lr_mult: 1
  }
  param {
    lr_mult: 1
  }
  convolution_param {
    num_output: 64
    pad: 2
    kernel_size: 5
    stride: 1
    weight_filler {
      type: "gaussian"
      std: 0.01
    }
    bias_filler {
      type: "constant"
    }
  }
}
layer {
  name: "Sigmoid3"
  type: "Sigmoid"
  bottom: "conv3"
  top: "Sigmoid3"
}
layer {
  name: "pool3"
  type: "Pooling"
  bottom: "Sigmoid3"
  top: "pool3"
  pooling_param {
    pool: AVE
    kernel_size: 3
    stride: 2
  }
}
layer {
  name: "ip1"
  type: "InnerProduct"
  bottom: "pool3"
  top: "ip1"
  param {
    lr_mult: 1
    decay_mult: 0
  }
  param {
    lr_mult: 2
    decay_mult: 0
  }
  inner_product_param {
    num_output: 10
    weight_filler {
      type: "gaussian"
      std: 0.01
    }
    bias_filler {
      type: "constant"
    }
  }
}
layer {
  name: "loss"
  type: "SoftmaxWithLoss"
  bottom: "ip1"
  bottom: "label"
  top: "loss"
}
I0801 16:29:22.120535  2203 layer_factory.hpp:77] Creating layer cifar
I0801 16:29:22.120616  2203 db_lmdb.cpp:35] Opened lmdb examples/cifar10/cifar10_train_lmdb
I0801 16:29:22.120635  2203 net.cpp:84] Creating Layer cifar
I0801 16:29:22.120641  2203 net.cpp:380] cifar -> data
I0801 16:29:22.120656  2203 net.cpp:380] cifar -> label
I0801 16:29:22.120666  2203 data_transformer.cpp:25] Loading mean file from: examples/cifar10/mean.binaryproto
I0801 16:29:22.121824  2203 data_layer.cpp:45] output data size: 100,3,32,32
I0801 16:29:22.125396  2203 net.cpp:122] Setting up cifar
I0801 16:29:22.125443  2203 net.cpp:129] Top shape: 100 3 32 32 (307200)
I0801 16:29:22.125471  2203 net.cpp:129] Top shape: 100 (100)
I0801 16:29:22.125479  2203 net.cpp:137] Memory required for data: 1229200
I0801 16:29:22.125494  2203 layer_factory.hpp:77] Creating layer conv1
I0801 16:29:22.125522  2203 net.cpp:84] Creating Layer conv1
I0801 16:29:22.125531  2203 net.cpp:406] conv1 <- data
I0801 16:29:22.125547  2203 net.cpp:380] conv1 -> conv1
I0801 16:29:22.437366  2203 net.cpp:122] Setting up conv1
I0801 16:29:22.437412  2203 net.cpp:129] Top shape: 100 32 32 32 (3276800)
I0801 16:29:22.437419  2203 net.cpp:137] Memory required for data: 14336400
I0801 16:29:22.437445  2203 layer_factory.hpp:77] Creating layer pool1
I0801 16:29:22.437461  2203 net.cpp:84] Creating Layer pool1
I0801 16:29:22.437469  2203 net.cpp:406] pool1 <- conv1
I0801 16:29:22.437489  2203 net.cpp:380] pool1 -> pool1
I0801 16:29:22.437566  2203 net.cpp:122] Setting up pool1
I0801 16:29:22.437584  2203 net.cpp:129] Top shape: 100 32 16 16 (819200)
I0801 16:29:22.437590  2203 net.cpp:137] Memory required for data: 17613200
I0801 16:29:22.437597  2203 layer_factory.hpp:77] Creating layer Sigmoid1
I0801 16:29:22.437605  2203 net.cpp:84] Creating Layer Sigmoid1
I0801 16:29:22.437611  2203 net.cpp:406] Sigmoid1 <- pool1
I0801 16:29:22.437618  2203 net.cpp:380] Sigmoid1 -> Sigmoid1
I0801 16:29:22.438000  2203 net.cpp:122] Setting up Sigmoid1
I0801 16:29:22.438021  2203 net.cpp:129] Top shape: 100 32 16 16 (819200)
I0801 16:29:22.438030  2203 net.cpp:137] Memory required for data: 20890000
I0801 16:29:22.438036  2203 layer_factory.hpp:77] Creating layer conv2
I0801 16:29:22.438050  2203 net.cpp:84] Creating Layer conv2
I0801 16:29:22.438058  2203 net.cpp:406] conv2 <- Sigmoid1
I0801 16:29:22.438067  2203 net.cpp:380] conv2 -> conv2
I0801 16:29:22.439568  2203 net.cpp:122] Setting up conv2
I0801 16:29:22.439595  2203 net.cpp:129] Top shape: 100 32 16 16 (819200)
I0801 16:29:22.439604  2203 net.cpp:137] Memory required for data: 24166800
I0801 16:29:22.439616  2203 layer_factory.hpp:77] Creating layer Sigmoid2
I0801 16:29:22.439625  2203 net.cpp:84] Creating Layer Sigmoid2
I0801 16:29:22.439632  2203 net.cpp:406] Sigmoid2 <- conv2
I0801 16:29:22.439641  2203 net.cpp:380] Sigmoid2 -> Sigmoid2
I0801 16:29:22.439785  2203 net.cpp:122] Setting up Sigmoid2
I0801 16:29:22.439798  2203 net.cpp:129] Top shape: 100 32 16 16 (819200)
I0801 16:29:22.439805  2203 net.cpp:137] Memory required for data: 27443600
I0801 16:29:22.439812  2203 layer_factory.hpp:77] Creating layer pool2
I0801 16:29:22.439821  2203 net.cpp:84] Creating Layer pool2
I0801 16:29:22.439828  2203 net.cpp:406] pool2 <- Sigmoid2
I0801 16:29:22.439836  2203 net.cpp:380] pool2 -> pool2
I0801 16:29:22.439966  2203 net.cpp:122] Setting up pool2
I0801 16:29:22.439980  2203 net.cpp:129] Top shape: 100 32 8 8 (204800)
I0801 16:29:22.439985  2203 net.cpp:137] Memory required for data: 28262800
I0801 16:29:22.439990  2203 layer_factory.hpp:77] Creating layer conv3
I0801 16:29:22.440001  2203 net.cpp:84] Creating Layer conv3
I0801 16:29:22.440009  2203 net.cpp:406] conv3 <- pool2
I0801 16:29:22.440018  2203 net.cpp:380] conv3 -> conv3
I0801 16:29:22.440986  2203 net.cpp:122] Setting up conv3
I0801 16:29:22.441004  2203 net.cpp:129] Top shape: 100 64 8 8 (409600)
I0801 16:29:22.441011  2203 net.cpp:137] Memory required for data: 29901200
I0801 16:29:22.441021  2203 layer_factory.hpp:77] Creating layer Sigmoid3
I0801 16:29:22.441031  2203 net.cpp:84] Creating Layer Sigmoid3
I0801 16:29:22.441040  2203 net.cpp:406] Sigmoid3 <- conv3
I0801 16:29:22.441047  2203 net.cpp:380] Sigmoid3 -> Sigmoid3
I0801 16:29:22.441364  2203 net.cpp:122] Setting up Sigmoid3
I0801 16:29:22.441380  2203 net.cpp:129] Top shape: 100 64 8 8 (409600)
I0801 16:29:22.441386  2203 net.cpp:137] Memory required for data: 31539600
I0801 16:29:22.441393  2203 layer_factory.hpp:77] Creating layer pool3
I0801 16:29:22.441402  2203 net.cpp:84] Creating Layer pool3
I0801 16:29:22.441409  2203 net.cpp:406] pool3 <- Sigmoid3
I0801 16:29:22.441417  2203 net.cpp:380] pool3 -> pool3
I0801 16:29:22.441548  2203 net.cpp:122] Setting up pool3
I0801 16:29:22.441567  2203 net.cpp:129] Top shape: 100 64 4 4 (102400)
I0801 16:29:22.441575  2203 net.cpp:137] Memory required for data: 31949200
I0801 16:29:22.441581  2203 layer_factory.hpp:77] Creating layer ip1
I0801 16:29:22.441591  2203 net.cpp:84] Creating Layer ip1
I0801 16:29:22.441597  2203 net.cpp:406] ip1 <- pool3
I0801 16:29:22.441606  2203 net.cpp:380] ip1 -> ip1
I0801 16:29:22.442210  2203 net.cpp:122] Setting up ip1
I0801 16:29:22.442226  2203 net.cpp:129] Top shape: 100 10 (1000)
I0801 16:29:22.442232  2203 net.cpp:137] Memory required for data: 31953200
I0801 16:29:22.442241  2203 layer_factory.hpp:77] Creating layer loss
I0801 16:29:22.442250  2203 net.cpp:84] Creating Layer loss
I0801 16:29:22.442260  2203 net.cpp:406] loss <- ip1
I0801 16:29:22.442267  2203 net.cpp:406] loss <- label
I0801 16:29:22.442277  2203 net.cpp:380] loss -> loss
I0801 16:29:22.442291  2203 layer_factory.hpp:77] Creating layer loss
…
I0801 16:29:22.442750  2203 solver.cpp:172] Creating test net (#0) specified by net file: examples/cifar10/cifar10_full_sigmoid_train_test.prototxt
I0801 16:29:22.442772  2203 net.cpp:294] The NetState phase (1) differed from the phase (0) specified by a rule in layer cifar
I0801 16:29:22.442838  2203 net.cpp:51] Initializing net from parameters: 
name: "CIFAR10_full"
state {
  phase: TEST
}
layer {
  name: "cifar"
  type: "Data"
  top: "data"
  top: "label"
  include {
    phase: TEST
  }
  transform_param {
    mean_file: "examples/cifar10/mean.binaryproto"
  }
  data_param {
    source: "examples/cifar10/cifar10_test_lmdb"
    batch_size: 100
    backend: LMDB
  }
}
layer {
  name: "conv1"
  type: "Convolution"
  bottom: "data"
  top: "conv1"
  param {
    lr_mult: 1
  }
  param {
    lr_mult: 2
  }
  convolution_param {
    num_output: 32
    pad: 2
    kernel_size: 5
    stride: 1
    weight_filler {
      type: "gaussian"
      std: 0.0001
    }
    bias_filler {
      type: "constant"
    }
  }
}
layer {
  name: "pool1"
  type: "Pooling"
  bottom: "conv1"
  top: "pool1"
  pooling_param {
    pool: MAX
    kernel_size: 3
    stride: 2
  }
}
layer {
  name: "Sigmoid1"
  type: "Sigmoid"
  bottom: "pool1"
  top: "Sigmoid1"
}
layer {
  name: "conv2"
  type: "Convolution"
  bottom: "Sigmoid1"
  top: "conv2"
  param {
    lr_mult: 1
  }
  param {
    lr_mult: 2
  }
  convolution_param {
    num_output: 32
    pad: 2
    kernel_size: 5
    stride: 1
    weight_filler {
      type: "gaussian"
      std: 0.01
    }
    bias_filler {
      type: "constant"
    }
  }
}
layer {
  name: "Sigmoid2"
  type: "Sigmoid"
  bottom: "conv2"
  top: "Sigmoid2"
}
layer {
  name: "pool2"
  type: "Pooling"
  bottom: "Sigmoid2"
  top: "pool2"
  pooling_param {
    pool: AVE
    kernel_size: 3
    stride: 2
  }
}
layer {
  name: "conv3"
  type: "Convolution"
  bottom: "pool2"
  top: "conv3"
  param {
    lr_mult: 1
  }
  param {
    lr_mult: 1
  }
  convolution_param {
    num_output: 64
    pad: 2
    kernel_size: 5
    stride: 1
    weight_filler {
      type: "gaussian"
      std: 0.01
    }
    bias_filler {
      type: "constant"
    }
  }
}
layer {
  name: "Sigmoid3"
  type: "Sigmoid"
  bottom: "conv3"
  top: "Sigmoid3"
}
layer {
  name: "pool3"
  type: "Pooling"
  bottom: "Sigmoid3"
  top: "pool3"
  pooling_param {
    pool: AVE
    kernel_size: 3
    stride: 2
  }
}
layer {
  name: "ip1"
  type: "InnerProduct"
  bottom: "pool3"
  top: "ip1"
  param {
    lr_mult: 1
    decay_mult: 0
  }
  param {
    lr_mult: 2
    decay_mult: 0
  }
  inner_product_param {
    num_output: 10
    weight_filler {
      type: "gaussian"
      std: 0.01
    }
    bias_filler {
      type: "constant"
    }
  }
}
layer {
  name: "accuracy"
  type: "Accuracy"
  bottom: "ip1"
  bottom: "label"
  top: "accuracy"
  include {
    phase: TEST
  }
}
layer {
  name: "loss"
  type: "SoftmaxWithLoss"
  bottom: "ip1"
  bottom: "label"
  top: "loss"
}
I0801 16:29:22.442975  2203 layer_factory.hpp:77] Creating layer cifar
I0801 16:29:22.443029  2203 db_lmdb.cpp:35] Opened lmdb examples/cifar10/cifar10_test_lmdb
I0801 16:29:22.443047  2203 net.cpp:84] Creating Layer cifar
I0801 16:29:22.443055  2203 net.cpp:380] cifar -> data
I0801 16:29:22.443065  2203 net.cpp:380] cifar -> label
I0801 16:29:22.443075  2203 data_transformer.cpp:25] Loading mean file from: examples/cifar10/mean.binaryproto
I0801 16:29:22.443183  2203 data_layer.cpp:45] output data size: 100,3,32,32
I0801 16:29:22.446821  2203 net.cpp:122] Setting up cifar
I0801 16:29:22.446866  2203 net.cpp:129] Top shape: 100 3 32 32 (307200)
I0801 16:29:22.446876  2203 net.cpp:129] Top shape: 100 (100)
I0801 16:29:22.446883  2203 net.cpp:137] Memory required for data: 1229200
I0801 16:29:22.446892  2203 layer_factory.hpp:77] Creating layer label_cifar_1_split
I0801 16:29:22.446909  2203 net.cpp:84] Creating Layer label_cifar_1_split
I0801 16:29:22.446916  2203 net.cpp:406] label_cifar_1_split <- label
I0801 16:29:22.446928  2203 net.cpp:380] label_cifar_1_split -> label_cifar_1_split_0
I0801 16:29:22.446938  2203 net.cpp:380] label_cifar_1_split -> label_cifar_1_split_1
I0801 16:29:22.446979  2203 net.cpp:122] Setting up label_cifar_1_split
I0801 16:29:22.446988  2203 net.cpp:129] Top shape: 100 (100)
I0801 16:29:22.446995  2203 net.cpp:129] Top shape: 100 (100)
I0801 16:29:22.447002  2203 net.cpp:137] Memory required for data: 1230000
I0801 16:29:22.447010  2203 layer_factory.hpp:77] Creating layer conv1
I0801 16:29:22.447024  2203 net.cpp:84] Creating Layer conv1
I0801 16:29:22.447032  2203 net.cpp:406] conv1 <- data
I0801 16:29:22.447041  2203 net.cpp:380] conv1 -> conv1
I0801 16:29:22.448011  2203 net.cpp:122] Setting up conv1
I0801 16:29:22.448029  2203 net.cpp:129] Top shape: 100 32 32 32 (3276800)
I0801 16:29:22.448037  2203 net.cpp:137] Memory required for data: 14337200
I0801 16:29:22.448048  2203 layer_factory.hpp:77] Creating layer pool1
I0801 16:29:22.448060  2203 net.cpp:84] Creating Layer pool1
I0801 16:29:22.448067  2203 net.cpp:406] pool1 <- conv1
I0801 16:29:22.448076  2203 net.cpp:380] pool1 -> pool1
I0801 16:29:22.448112  2203 net.cpp:122] Setting up pool1
I0801 16:29:22.448122  2203 net.cpp:129] Top shape: 100 32 16 16 (819200)
I0801 16:29:22.448128  2203 net.cpp:137] Memory required for data: 17614000
I0801 16:29:22.448135  2203 layer_factory.hpp:77] Creating layer Sigmoid1
I0801 16:29:22.448144  2203 net.cpp:84] Creating Layer Sigmoid1
I0801 16:29:22.448153  2203 net.cpp:406] Sigmoid1 <- pool1
I0801 16:29:22.448163  2203 net.cpp:380] Sigmoid1 -> Sigmoid1
I0801 16:29:22.448521  2203 net.cpp:122] Setting up Sigmoid1
I0801 16:29:22.448537  2203 net.cpp:129] Top shape: 100 32 16 16 (819200)
I0801 16:29:22.448544  2203 net.cpp:137] Memory required for data: 20890800
I0801 16:29:22.448550  2203 layer_factory.hpp:77] Creating layer conv2
I0801 16:29:22.448575  2203 net.cpp:84] Creating Layer conv2
I0801 16:29:22.448596  2203 net.cpp:406] conv2 <- Sigmoid1
I0801 16:29:22.448604  2203 net.cpp:380] conv2 -> conv2
I0801 16:29:22.449755  2203 net.cpp:122] Setting up conv2
I0801 16:29:22.449795  2203 net.cpp:129] Top shape: 100 32 16 16 (819200)
I0801 16:29:22.449805  2203 net.cpp:137] Memory required for data: 24167600
I0801 16:29:22.449822  2203 layer_factory.hpp:77] Creating layer Sigmoid2
I0801 16:29:22.449838  2203 net.cpp:84] Creating Layer Sigmoid2
I0801 16:29:22.449846  2203 net.cpp:406] Sigmoid2 <- conv2
I0801 16:29:22.449856  2203 net.cpp:380] Sigmoid2 -> Sigmoid2
I0801 16:29:22.450031  2203 net.cpp:122] Setting up Sigmoid2
I0801 16:29:22.450045  2203 net.cpp:129] Top shape: 100 32 16 16 (819200)
I0801 16:29:22.450052  2203 net.cpp:137] Memory required for data: 27444400
I0801 16:29:22.450059  2203 layer_factory.hpp:77] Creating layer pool2
I0801 16:29:22.450068  2203 net.cpp:84] Creating Layer pool2
I0801 16:29:22.450075  2203 net.cpp:406] pool2 <- Sigmoid2
I0801 16:29:22.450083  2203 net.cpp:380] pool2 -> pool2
I0801 16:29:22.450222  2203 net.cpp:122] Setting up pool2
I0801 16:29:22.450233  2203 net.cpp:129] Top shape: 100 32 8 8 (204800)
I0801 16:29:22.450240  2203 net.cpp:137] Memory required for data: 28263600
I0801 16:29:22.450247  2203 layer_factory.hpp:77] Creating layer conv3
I0801 16:29:22.450261  2203 net.cpp:84] Creating Layer conv3
I0801 16:29:22.450269  2203 net.cpp:406] conv3 <- pool2
I0801 16:29:22.450278  2203 net.cpp:380] conv3 -> conv3
I0801 16:29:22.451527  2203 net.cpp:122] Setting up conv3
I0801 16:29:22.451551  2203 net.cpp:129] Top shape: 100 64 8 8 (409600)
I0801 16:29:22.451558  2203 net.cpp:137] Memory required for data: 29902000
I0801 16:29:22.451570  2203 layer_factory.hpp:77] Creating layer Sigmoid3
I0801 16:29:22.451582  2203 net.cpp:84] Creating Layer Sigmoid3
I0801 16:29:22.451591  2203 net.cpp:406] Sigmoid3 <- conv3
I0801 16:29:22.451599  2203 net.cpp:380] Sigmoid3 -> Sigmoid3
I0801 16:29:22.451750  2203 net.cpp:122] Setting up Sigmoid3
I0801 16:29:22.451766  2203 net.cpp:129] Top shape: 100 64 8 8 (409600)
I0801 16:29:22.451772  2203 net.cpp:137] Memory required for data: 31540400
I0801 16:29:22.451779  2203 layer_factory.hpp:77] Creating layer pool3
I0801 16:29:22.451787  2203 net.cpp:84] Creating Layer pool3
I0801 16:29:22.451795  2203 net.cpp:406] pool3 <- Sigmoid3
I0801 16:29:22.451804  2203 net.cpp:380] pool3 -> pool3
I0801 16:29:22.452222  2203 net.cpp:122] Setting up pool3
I0801 16:29:22.452239  2203 net.cpp:129] Top shape: 100 64 4 4 (102400)
I0801 16:29:22.452246  2203 net.cpp:137] Memory required for data: 31950000
I0801 16:29:22.452252  2203 layer_factory.hpp:77] Creating layer ip1
I0801 16:29:22.452263  2203 net.cpp:84] Creating Layer ip1
I0801 16:29:22.452271  2203 net.cpp:406] ip1 <- pool3
I0801 16:29:22.452280  2203 net.cpp:380] ip1 -> ip1
I0801 16:29:22.452425  2203 net.cpp:122] Setting up ip1
I0801 16:29:22.452435  2203 net.cpp:129] Top shape: 100 10 (1000)
I0801 16:29:22.452441  2203 net.cpp:137] Memory required for data: 31954000
I0801 16:29:22.452450  2203 layer_factory.hpp:77] Creating layer ip1_ip1_0_split
I0801 16:29:22.452458  2203 net.cpp:84] Creating Layer ip1_ip1_0_split
I0801 16:29:22.452466  2203 net.cpp:406] ip1_ip1_0_split <- ip1
I0801 16:29:22.452474  2203 net.cpp:380] ip1_ip1_0_split -> ip1_ip1_0_split_0
I0801 16:29:22.452484  2203 net.cpp:380] ip1_ip1_0_split -> ip1_ip1_0_split_1
I0801 16:29:22.452519  2203 net.cpp:122] Setting up ip1_ip1_0_split
I0801 16:29:22.452528  2203 net.cpp:129] Top shape: 100 10 (1000)
I0801 16:29:22.452535  2203 net.cpp:129] Top shape: 100 10 (1000)
I0801 16:29:22.452543  2203 net.cpp:137] Memory required for data: 31962000
I0801 16:29:22.452548  2203 layer_factory.hpp:77] Creating layer accuracy
I0801 16:29:22.452558  2203 net.cpp:84] Creating Layer accuracy
I0801 16:29:22.452564  2203 net.cpp:406] accuracy <- ip1_ip1_0_split_0
I0801 16:29:22.452571  2203 net.cpp:406] accuracy <- label_cifar_1_split_0
I0801 16:29:22.452580  2203 net.cpp:380] accuracy -> accuracy
…
