…
I0801 22:46:44.228709  2571 net.cpp:294] The NetState phase (0) differed from the phase (1) specified by a rule in layer accuracy
I0801 22:46:44.228802  2571 net.cpp:51] Initializing net from parameters: 
name: "CIFAR10_full"
state {
  phase: TRAIN
  level: 0
  stage: ""
}
layer {
  name: "cifar"
  type: "Data"
  top: "data"
  top: "label"
  include {
    phase: TRAIN
  }
  transform_param {
    mean_file: "/opt/caffe/examples/cifar10/mean.binaryproto"
  }
  data_param {
    source: "/opt/caffe/examples/cifar10/cifar10_train_lmdb"
    batch_size: 100
    backend: LMDB
  }
}
layer {
  name: "conv_s_1"
  type: "Convolution"
  bottom: "data"
  top: "conv_s_1"
  param {
    lr_mult: 1
  }
  param {
    lr_mult: 2
  }
  convolution_param {
    num_output: 32
    pad: 2
    kernel_size: 5
    stride: 1
    weight_filler {
      type: "gaussian"
      std: 0.0001
    }
    bias_filler {
      type: "constant"
    }
  }
}
layer {
  name: "pool_s_1"
  type: "Pooling"
  bottom: "conv_s_1"
  top: "pool_s_1"
  pooling_param {
    pool: MAX
    kernel_size: 3
    stride: 2
  }
}
layer {
  name: "relu_s_1"
  type: "ReLU"
  bottom: "pool_s_1"
  top: "pool_s_1"
}
layer {
  name: "norm_s_1"
  type: "LRN"
  bottom: "pool_s_1"
  top: "norm_s_1"
  lrn_param {
    local_size: 3
    alpha: 5e-05
    beta: 0.75
    norm_region: WITHIN_CHANNEL
  }
}
layer {
  name: "conv_s_2"
  type: "Convolution"
  bottom: "norm_s_1"
  top: "conv_s_2"
  param {
    lr_mult: 1
  }
  param {
    lr_mult: 2
  }
  convolution_param {
    num_output: 32
    pad: 2
    kernel_size: 5
    stride: 1
    weight_filler {
      type: "gaussian"
      std: 0.01
    }
    bias_filler {
      type: "constant"
    }
  }
}
layer {
  name: "relu_s_2"
  type: "ReLU"
  bottom: "conv_s_2"
  top: "conv_s_2"
}
layer {
  name: "pool_s_2"
  type: "Pooling"
  bottom: "conv_s_2"
  top: "pool_s_2"
  pooling_param {
    pool: AVE
    kernel_size: 3
    stride: 2
  }
}
layer {
  name: "ip_s_1"
  type: "InnerProduct"
  bottom: "pool_s_2"
  top: "ip_s_1"
  param {
    lr_mult: 1
    decay_mult: 250
  }
  param {
    lr_mult: 2
    decay_mult: 0
  }
  inner_product_param {
    num_output: 10
    weight_filler {
      type: "gaussian"
      std: 0.01
    }
    bias_filler {
      type: "constant"
    }
  }
}
layer {
  name: "conv_t_1"
  type: "Convolution"
  bottom: "data"
  top: "conv_t_1"
  param {
    lr_mult: 0
  }
  param {
    lr_mult: 0
  }
  convolution_param {
    num_output: 32
    pad: 2
    kernel_size: 5
    stride: 1
    weight_filler {
      type: "gaussian"
      std: 0.0001
    }
    bias_filler {
      type: "constant"
    }
  }
}
layer {
  name: "pool_t_1"
  type: "Pooling"
  bottom: "conv_t_1"
  top: "pool_t_1"
  pooling_param {
    pool: MAX
    kernel_size: 3
    stride: 2
  }
}
layer {
  name: "relu_t_1"
  type: "ReLU"
  bottom: "pool_t_1"
  top: "pool_t_1"
}
layer {
  name: "norm_t_1"
  type: "LRN"
  bottom: "pool_t_1"
  top: "norm_t_1"
  lrn_param {
    local_size: 3
    alpha: 5e-05
    beta: 0.75
    norm_region: WITHIN_CHANNEL
  }
}
layer {
  name: "conv_t_2"
  type: "Convolution"
  bottom: "norm_t_1"
  top: "conv_t_2"
  param {
    lr_mult: 0
  }
  param {
    lr_mult: 0
  }
  convolution_param {
    num_output: 32
    pad: 2
    kernel_size: 5
    stride: 1
    weight_filler {
      type: "gaussian"
      std: 0.01
    }
    bias_filler {
      type: "constant"
    }
  }
}
layer {
  name: "relu_t_2"
  type: "ReLU"
  bottom: "conv_t_2"
  top: "conv_t_2"
}
layer {
  name: "pool_t_2"
  type: "Pooling"
  bottom: "conv_t_2"
  top: "pool_t_2"
  pooling_param {
    pool: AVE
    kernel_size: 3
    stride: 2
  }
}
layer {
  name: "norm_t_2"
  type: "LRN"
  bottom: "pool_t_2"
  top: "norm_t_2"
  lrn_param {
    local_size: 3
    alpha: 5e-05
    beta: 0.75
    norm_region: WITHIN_CHANNEL
  }
}
layer {
  name: "conv_t_3"
  type: "Convolution"
  bottom: "norm_t_2"
  top: "conv_t_3"
  param {
    lr_mult: 0
  }
  param {
    lr_mult: 0
  }
  convolution_param {
    num_output: 64
    pad: 2
    kernel_size: 5
    stride: 1
    weight_filler {
      type: "gaussian"
      std: 0.01
    }
    bias_filler {
      type: "constant"
    }
  }
}
layer {
  name: "relu_t_3"
  type: "ReLU"
  bottom: "conv_t_3"
  top: "conv_t_3"
}
layer {
  name: "pool_t_3"
  type: "Pooling"
  bottom: "conv_t_3"
  top: "pool_t_3"
  pooling_param {
    pool: AVE
    kernel_size: 3
    stride: 2
  }
}
layer {
  name: "ip_t_1"
  type: "InnerProduct"
  bottom: "pool_t_3"
  top: "ip_t_1"
  param {
    lr_mult: 0
  }
  param {
    lr_mult: 0
  }
  inner_product_param {
    num_output: 10
    weight_filler {
      type: "gaussian"
      std: 0.01
    }
    bias_filler {
      type: "constant"
    }
  }
}
layer {
  name: "sm_s_1"
  type: "Softmax"
  bottom: "ip_s_1"
  top: "sm_s_1"
}
layer {
  name: "sm_t_1"
  type: "Softmax"
  bottom: "ip_t_1"
  top: "sm_t_1"
}
layer {
  name: "ts_loss"
  type: "SigmoidCrossEntropyLoss"
  bottom: "sm_s_1"
  bottom: "sm_t_1"
  top: "ts_loss"
  loss_weight: 0.1
}
layer {
  name: "loss"
  type: "SoftmaxWithLoss"
  bottom: "ip_s_1"
  bottom: "label"
  top: "loss"
  loss_weight: 0.9
}
I0801 22:46:44.228884  2571 layer_factory.hpp:77] Creating layer cifar
I0801 22:46:44.228973  2571 db_lmdb.cpp:35] Opened lmdb /opt/caffe/examples/cifar10/cifar10_train_lmdb
I0801 22:46:44.228992  2571 net.cpp:84] Creating Layer cifar
I0801 22:46:44.228999  2571 net.cpp:380] cifar -> data
I0801 22:46:44.229015  2571 net.cpp:380] cifar -> label
I0801 22:46:44.229025  2571 data_transformer.cpp:25] Loading mean file from: /opt/caffe/examples/cifar10/mean.binaryproto
I0801 22:46:44.230154  2571 data_layer.cpp:45] output data size: 100,3,32,32
I0801 22:46:44.233793  2571 net.cpp:122] Setting up cifar
I0801 22:46:44.233810  2571 net.cpp:129] Top shape: 100 3 32 32 (307200)
I0801 22:46:44.233814  2571 net.cpp:129] Top shape: 100 (100)
I0801 22:46:44.233815  2571 net.cpp:137] Memory required for data: 1229200
I0801 22:46:44.233824  2571 layer_factory.hpp:77] Creating layer data_cifar_0_split
I0801 22:46:44.233834  2571 net.cpp:84] Creating Layer data_cifar_0_split
I0801 22:46:44.233839  2571 net.cpp:406] data_cifar_0_split <- data
I0801 22:46:44.233851  2571 net.cpp:380] data_cifar_0_split -> data_cifar_0_split_0
I0801 22:46:44.233858  2571 net.cpp:380] data_cifar_0_split -> data_cifar_0_split_1
I0801 22:46:44.233891  2571 net.cpp:122] Setting up data_cifar_0_split
I0801 22:46:44.233896  2571 net.cpp:129] Top shape: 100 3 32 32 (307200)
I0801 22:46:44.233899  2571 net.cpp:129] Top shape: 100 3 32 32 (307200)
I0801 22:46:44.233901  2571 net.cpp:137] Memory required for data: 3686800
I0801 22:46:44.233902  2571 layer_factory.hpp:77] Creating layer conv_s_1
I0801 22:46:44.233913  2571 net.cpp:84] Creating Layer conv_s_1
I0801 22:46:44.233916  2571 net.cpp:406] conv_s_1 <- data_cifar_0_split_0
I0801 22:46:44.233922  2571 net.cpp:380] conv_s_1 -> conv_s_1
I0801 22:46:44.542394  2571 net.cpp:122] Setting up conv_s_1
I0801 22:46:44.542443  2571 net.cpp:129] Top shape: 100 32 32 32 (3276800)
I0801 22:46:44.542450  2571 net.cpp:137] Memory required for data: 16794000
I0801 22:46:44.542476  2571 layer_factory.hpp:77] Creating layer pool_s_1
I0801 22:46:44.542493  2571 net.cpp:84] Creating Layer pool_s_1
I0801 22:46:44.542521  2571 net.cpp:406] pool_s_1 <- conv_s_1
I0801 22:46:44.542531  2571 net.cpp:380] pool_s_1 -> pool_s_1
I0801 22:46:44.542582  2571 net.cpp:122] Setting up pool_s_1
I0801 22:46:44.542593  2571 net.cpp:129] Top shape: 100 32 16 16 (819200)
I0801 22:46:44.542618  2571 net.cpp:137] Memory required for data: 20070800
I0801 22:46:44.542625  2571 layer_factory.hpp:77] Creating layer relu_s_1
I0801 22:46:44.542634  2571 net.cpp:84] Creating Layer relu_s_1
I0801 22:46:44.542641  2571 net.cpp:406] relu_s_1 <- pool_s_1
I0801 22:46:44.542649  2571 net.cpp:367] relu_s_1 -> pool_s_1 (in-place)
I0801 22:46:44.542994  2571 net.cpp:122] Setting up relu_s_1
I0801 22:46:44.543009  2571 net.cpp:129] Top shape: 100 32 16 16 (819200)
I0801 22:46:44.543016  2571 net.cpp:137] Memory required for data: 23347600
I0801 22:46:44.543023  2571 layer_factory.hpp:77] Creating layer norm_s_1
I0801 22:46:44.543035  2571 net.cpp:84] Creating Layer norm_s_1
I0801 22:46:44.543042  2571 net.cpp:406] norm_s_1 <- pool_s_1
I0801 22:46:44.543051  2571 net.cpp:380] norm_s_1 -> norm_s_1
I0801 22:46:44.543593  2571 net.cpp:122] Setting up norm_s_1
I0801 22:46:44.543609  2571 net.cpp:129] Top shape: 100 32 16 16 (819200)
I0801 22:46:44.543617  2571 net.cpp:137] Memory required for data: 26624400
I0801 22:46:44.543622  2571 layer_factory.hpp:77] Creating layer conv_s_2
I0801 22:46:44.543637  2571 net.cpp:84] Creating Layer conv_s_2
I0801 22:46:44.543645  2571 net.cpp:406] conv_s_2 <- norm_s_1
I0801 22:46:44.543653  2571 net.cpp:380] conv_s_2 -> conv_s_2
I0801 22:46:44.545186  2571 net.cpp:122] Setting up conv_s_2
I0801 22:46:44.545204  2571 net.cpp:129] Top shape: 100 32 16 16 (819200)
I0801 22:46:44.545212  2571 net.cpp:137] Memory required for data: 29901200
I0801 22:46:44.545223  2571 layer_factory.hpp:77] Creating layer relu_s_2
I0801 22:46:44.545233  2571 net.cpp:84] Creating Layer relu_s_2
I0801 22:46:44.545239  2571 net.cpp:406] relu_s_2 <- conv_s_2
I0801 22:46:44.545248  2571 net.cpp:367] relu_s_2 -> conv_s_2 (in-place)
I0801 22:46:44.545375  2571 net.cpp:122] Setting up relu_s_2
I0801 22:46:44.545387  2571 net.cpp:129] Top shape: 100 32 16 16 (819200)
I0801 22:46:44.545393  2571 net.cpp:137] Memory required for data: 33178000
I0801 22:46:44.545402  2571 layer_factory.hpp:77] Creating layer pool_s_2
I0801 22:46:44.545411  2571 net.cpp:84] Creating Layer pool_s_2
I0801 22:46:44.545418  2571 net.cpp:406] pool_s_2 <- conv_s_2
I0801 22:46:44.545426  2571 net.cpp:380] pool_s_2 -> pool_s_2
I0801 22:46:44.545743  2571 net.cpp:122] Setting up pool_s_2
I0801 22:46:44.545759  2571 net.cpp:129] Top shape: 100 32 8 8 (204800)
I0801 22:46:44.545766  2571 net.cpp:137] Memory required for data: 33997200
I0801 22:46:44.545773  2571 layer_factory.hpp:77] Creating layer ip_s_1
I0801 22:46:44.545784  2571 net.cpp:84] Creating Layer ip_s_1
I0801 22:46:44.545791  2571 net.cpp:406] ip_s_1 <- pool_s_2
I0801 22:46:44.545801  2571 net.cpp:380] ip_s_1 -> ip_s_1
I0801 22:46:44.545994  2571 net.cpp:122] Setting up ip_s_1
I0801 22:46:44.546005  2571 net.cpp:129] Top shape: 100 10 (1000)
I0801 22:46:44.546010  2571 net.cpp:137] Memory required for data: 34001200
I0801 22:46:44.546021  2571 layer_factory.hpp:77] Creating layer ip_s_1_ip_s_1_0_split
I0801 22:46:44.546031  2571 net.cpp:84] Creating Layer ip_s_1_ip_s_1_0_split
I0801 22:46:44.546038  2571 net.cpp:406] ip_s_1_ip_s_1_0_split <- ip_s_1
I0801 22:46:44.546046  2571 net.cpp:380] ip_s_1_ip_s_1_0_split -> ip_s_1_ip_s_1_0_split_0
I0801 22:46:44.546056  2571 net.cpp:380] ip_s_1_ip_s_1_0_split -> ip_s_1_ip_s_1_0_split_1
I0801 22:46:44.546088  2571 net.cpp:122] Setting up ip_s_1_ip_s_1_0_split
I0801 22:46:44.546098  2571 net.cpp:129] Top shape: 100 10 (1000)
I0801 22:46:44.546105  2571 net.cpp:129] Top shape: 100 10 (1000)
I0801 22:46:44.546111  2571 net.cpp:137] Memory required for data: 34009200
I0801 22:46:44.546118  2571 layer_factory.hpp:77] Creating layer conv_t_1
I0801 22:46:44.546129  2571 net.cpp:84] Creating Layer conv_t_1
I0801 22:46:44.546136  2571 net.cpp:406] conv_t_1 <- data_cifar_0_split_1
I0801 22:46:44.546146  2571 net.cpp:380] conv_t_1 -> conv_t_1
I0801 22:46:44.546850  2571 net.cpp:122] Setting up conv_t_1
I0801 22:46:44.546866  2571 net.cpp:129] Top shape: 100 32 32 32 (3276800)
I0801 22:46:44.546874  2571 net.cpp:137] Memory required for data: 47116400
I0801 22:46:44.546896  2571 layer_factory.hpp:77] Creating layer pool_t_1
I0801 22:46:44.546906  2571 net.cpp:84] Creating Layer pool_t_1
I0801 22:46:44.546913  2571 net.cpp:406] pool_t_1 <- conv_t_1
I0801 22:46:44.546923  2571 net.cpp:380] pool_t_1 -> pool_t_1
I0801 22:46:44.546955  2571 net.cpp:122] Setting up pool_t_1
I0801 22:46:44.546964  2571 net.cpp:129] Top shape: 100 32 16 16 (819200)
I0801 22:46:44.546972  2571 net.cpp:137] Memory required for data: 50393200
I0801 22:46:44.546978  2571 layer_factory.hpp:77] Creating layer relu_t_1
I0801 22:46:44.546988  2571 net.cpp:84] Creating Layer relu_t_1
I0801 22:46:44.546994  2571 net.cpp:406] relu_t_1 <- pool_t_1
I0801 22:46:44.547003  2571 net.cpp:367] relu_t_1 -> pool_t_1 (in-place)
I0801 22:46:44.547125  2571 net.cpp:122] Setting up relu_t_1
I0801 22:46:44.547137  2571 net.cpp:129] Top shape: 100 32 16 16 (819200)
I0801 22:46:44.547143  2571 net.cpp:137] Memory required for data: 53670000
I0801 22:46:44.547150  2571 layer_factory.hpp:77] Creating layer norm_t_1
I0801 22:46:44.547159  2571 net.cpp:84] Creating Layer norm_t_1
I0801 22:46:44.547166  2571 net.cpp:406] norm_t_1 <- pool_t_1
I0801 22:46:44.547175  2571 net.cpp:380] norm_t_1 -> norm_t_1
I0801 22:46:44.547705  2571 net.cpp:122] Setting up norm_t_1
I0801 22:46:44.547721  2571 net.cpp:129] Top shape: 100 32 16 16 (819200)
I0801 22:46:44.547729  2571 net.cpp:137] Memory required for data: 56946800
I0801 22:46:44.547735  2571 layer_factory.hpp:77] Creating layer conv_t_2
I0801 22:46:44.547749  2571 net.cpp:84] Creating Layer conv_t_2
I0801 22:46:44.547755  2571 net.cpp:406] conv_t_2 <- norm_t_1
I0801 22:46:44.547765  2571 net.cpp:380] conv_t_2 -> conv_t_2
I0801 22:46:44.548620  2571 net.cpp:122] Setting up conv_t_2
I0801 22:46:44.548636  2571 net.cpp:129] Top shape: 100 32 16 16 (819200)
I0801 22:46:44.548643  2571 net.cpp:137] Memory required for data: 60223600
I0801 22:46:44.548655  2571 layer_factory.hpp:77] Creating layer relu_t_2
I0801 22:46:44.548666  2571 net.cpp:84] Creating Layer relu_t_2
I0801 22:46:44.548676  2571 net.cpp:406] relu_t_2 <- conv_t_2
I0801 22:46:44.548683  2571 net.cpp:367] relu_t_2 -> conv_t_2 (in-place)
I0801 22:46:44.548804  2571 net.cpp:122] Setting up relu_t_2
I0801 22:46:44.548815  2571 net.cpp:129] Top shape: 100 32 16 16 (819200)
I0801 22:46:44.548821  2571 net.cpp:137] Memory required for data: 63500400
I0801 22:46:44.548828  2571 layer_factory.hpp:77] Creating layer pool_t_2
I0801 22:46:44.548840  2571 net.cpp:84] Creating Layer pool_t_2
I0801 22:46:44.548847  2571 net.cpp:406] pool_t_2 <- conv_t_2
I0801 22:46:44.548856  2571 net.cpp:380] pool_t_2 -> pool_t_2
I0801 22:46:44.549170  2571 net.cpp:122] Setting up pool_t_2
I0801 22:46:44.549185  2571 net.cpp:129] Top shape: 100 32 8 8 (204800)
I0801 22:46:44.549192  2571 net.cpp:137] Memory required for data: 64319600
I0801 22:46:44.549198  2571 layer_factory.hpp:77] Creating layer norm_t_2
I0801 22:46:44.549207  2571 net.cpp:84] Creating Layer norm_t_2
I0801 22:46:44.549216  2571 net.cpp:406] norm_t_2 <- pool_t_2
I0801 22:46:44.549222  2571 net.cpp:380] norm_t_2 -> norm_t_2
I0801 22:46:44.549410  2571 net.cpp:122] Setting up norm_t_2
I0801 22:46:44.549423  2571 net.cpp:129] Top shape: 100 32 8 8 (204800)
I0801 22:46:44.549429  2571 net.cpp:137] Memory required for data: 65138800
I0801 22:46:44.549435  2571 layer_factory.hpp:77] Creating layer conv_t_3
I0801 22:46:44.549448  2571 net.cpp:84] Creating Layer conv_t_3
I0801 22:46:44.549454  2571 net.cpp:406] conv_t_3 <- norm_t_2
I0801 22:46:44.549463  2571 net.cpp:380] conv_t_3 -> conv_t_3
I0801 22:46:44.550464  2571 net.cpp:122] Setting up conv_t_3
I0801 22:46:44.550480  2571 net.cpp:129] Top shape: 100 64 8 8 (409600)
I0801 22:46:44.550488  2571 net.cpp:137] Memory required for data: 66777200
I0801 22:46:44.550496  2571 layer_factory.hpp:77] Creating layer relu_t_3
I0801 22:46:44.550504  2571 net.cpp:84] Creating Layer relu_t_3
I0801 22:46:44.550511  2571 net.cpp:406] relu_t_3 <- conv_t_3
I0801 22:46:44.550519  2571 net.cpp:367] relu_t_3 -> conv_t_3 (in-place)
I0801 22:46:44.550647  2571 net.cpp:122] Setting up relu_t_3
I0801 22:46:44.550665  2571 net.cpp:129] Top shape: 100 64 8 8 (409600)
I0801 22:46:44.550673  2571 net.cpp:137] Memory required for data: 68415600
I0801 22:46:44.550678  2571 layer_factory.hpp:77] Creating layer pool_t_3
I0801 22:46:44.550686  2571 net.cpp:84] Creating Layer pool_t_3
I0801 22:46:44.550693  2571 net.cpp:406] pool_t_3 <- conv_t_3
I0801 22:46:44.550703  2571 net.cpp:380] pool_t_3 -> pool_t_3
I0801 22:46:44.551021  2571 net.cpp:122] Setting up pool_t_3
I0801 22:46:44.551036  2571 net.cpp:129] Top shape: 100 64 4 4 (102400)
I0801 22:46:44.551043  2571 net.cpp:137] Memory required for data: 68825200
I0801 22:46:44.551050  2571 layer_factory.hpp:77] Creating layer ip_t_1
I0801 22:46:44.551060  2571 net.cpp:84] Creating Layer ip_t_1
I0801 22:46:44.551067  2571 net.cpp:406] ip_t_1 <- pool_t_3
I0801 22:46:44.551076  2571 net.cpp:380] ip_t_1 -> ip_t_1
I0801 22:46:44.551690  2571 net.cpp:122] Setting up ip_t_1
I0801 22:46:44.551707  2571 net.cpp:129] Top shape: 100 10 (1000)
I0801 22:46:44.551714  2571 net.cpp:137] Memory required for data: 68829200
I0801 22:46:44.551723  2571 layer_factory.hpp:77] Creating layer sm_s_1
I0801 22:46:44.551731  2571 net.cpp:84] Creating Layer sm_s_1
I0801 22:46:44.551739  2571 net.cpp:406] sm_s_1 <- ip_s_1_ip_s_1_0_split_0
I0801 22:46:44.551748  2571 net.cpp:380] sm_s_1 -> sm_s_1
I0801 22:46:44.551926  2571 net.cpp:122] Setting up sm_s_1
I0801 22:46:44.551939  2571 net.cpp:129] Top shape: 100 10 (1000)
I0801 22:46:44.551946  2571 net.cpp:137] Memory required for data: 68833200
I0801 22:46:44.551954  2571 layer_factory.hpp:77] Creating layer sm_t_1
I0801 22:46:44.551961  2571 net.cpp:84] Creating Layer sm_t_1
I0801 22:46:44.551968  2571 net.cpp:406] sm_t_1 <- ip_t_1
I0801 22:46:44.551977  2571 net.cpp:380] sm_t_1 -> sm_t_1
I0801 22:46:44.552136  2571 net.cpp:122] Setting up sm_t_1
I0801 22:46:44.552147  2571 net.cpp:129] Top shape: 100 10 (1000)
I0801 22:46:44.552155  2571 net.cpp:137] Memory required for data: 68837200
I0801 22:46:44.552161  2571 layer_factory.hpp:77] Creating layer ts_loss
I0801 22:46:44.552171  2571 net.cpp:84] Creating Layer ts_loss
I0801 22:46:44.552179  2571 net.cpp:406] ts_loss <- sm_s_1
I0801 22:46:44.552186  2571 net.cpp:406] ts_loss <- sm_t_1
I0801 22:46:44.552194  2571 net.cpp:380] ts_loss -> ts_loss
…
I0801 22:46:44.553217  2571 net.cpp:294] The NetState phase (1) differed from the phase (0) specified by a rule in layer cifar
I0801 22:46:44.553321  2571 net.cpp:51] Initializing net from parameters: 
name: "CIFAR10_full"
state {
  phase: TEST
}
layer {
  name: "cifar"
  type: "Data"
  top: "data"
  top: "label"
  include {
    phase: TEST
  }
  transform_param {
    mean_file: "/opt/caffe/examples/cifar10/mean.binaryproto"
  }
  data_param {
    source: "/opt/caffe/examples/cifar10/cifar10_test_lmdb"
    batch_size: 100
    backend: LMDB
  }
}
layer {
  name: "conv_s_1"
  type: "Convolution"
  bottom: "data"
  top: "conv_s_1"
  param {
    lr_mult: 1
  }
  param {
    lr_mult: 2
  }
  convolution_param {
    num_output: 32
    pad: 2
    kernel_size: 5
    stride: 1
    weight_filler {
      type: "gaussian"
      std: 0.0001
    }
    bias_filler {
      type: "constant"
    }
  }
}
layer {
  name: "pool_s_1"
  type: "Pooling"
  bottom: "conv_s_1"
  top: "pool_s_1"
  pooling_param {
    pool: MAX
    kernel_size: 3
    stride: 2
  }
}
layer {
  name: "relu_s_1"
  type: "ReLU"
  bottom: "pool_s_1"
  top: "pool_s_1"
}
layer {
  name: "norm_s_1"
  type: "LRN"
  bottom: "pool_s_1"
  top: "norm_s_1"
  lrn_param {
    local_size: 3
    alpha: 5e-05
    beta: 0.75
    norm_region: WITHIN_CHANNEL
  }
}
layer {
  name: "conv_s_2"
  type: "Convolution"
  bottom: "norm_s_1"
  top: "conv_s_2"
  param {
    lr_mult: 1
  }
  param {
    lr_mult: 2
  }
  convolution_param {
    num_output: 32
    pad: 2
    kernel_size: 5
    stride: 1
    weight_filler {
      type: "gaussian"
      std: 0.01
    }
    bias_filler {
      type: "constant"
    }
  }
}
layer {
  name: "relu_s_2"
  type: "ReLU"
  bottom: "conv_s_2"
  top: "conv_s_2"
}
layer {
  name: "pool_s_2"
  type: "Pooling"
  bottom: "conv_s_2"
  top: "pool_s_2"
  pooling_param {
    pool: AVE
    kernel_size: 3
    stride: 2
  }
}
layer {
  name: "ip_s_1"
  type: "InnerProduct"
  bottom: "pool_s_2"
  top: "ip_s_1"
  param {
    lr_mult: 1
    decay_mult: 250
  }
  param {
    lr_mult: 2
    decay_mult: 0
  }
  inner_product_param {
    num_output: 10
    weight_filler {
      type: "gaussian"
      std: 0.01
    }
    bias_filler {
      type: "constant"
    }
  }
}
layer {
  name: "conv_t_1"
  type: "Convolution"
  bottom: "data"
  top: "conv_t_1"
  param {
    lr_mult: 0
  }
  param {
    lr_mult: 0
  }
  convolution_param {
    num_output: 32
    pad: 2
    kernel_size: 5
    stride: 1
    weight_filler {
      type: "gaussian"
      std: 0.0001
    }
    bias_filler {
      type: "constant"
    }
  }
}
layer {
  name: "pool_t_1"
  type: "Pooling"
  bottom: "conv_t_1"
  top: "pool_t_1"
  pooling_param {
    pool: MAX
    kernel_size: 3
    stride: 2
  }
}
layer {
  name: "relu_t_1"
  type: "ReLU"
  bottom: "pool_t_1"
  top: "pool_t_1"
}
layer {
  name: "norm_t_1"
  type: "LRN"
  bottom: "pool_t_1"
  top: "norm_t_1"
  lrn_param {
    local_size: 3
    alpha: 5e-05
    beta: 0.75
    norm_region: WITHIN_CHANNEL
  }
}
layer {
  name: "conv_t_2"
  type: "Convolution"
  bottom: "norm_t_1"
  top: "conv_t_2"
  param {
    lr_mult: 0
  }
  param {
    lr_mult: 0
  }
  convolution_param {
    num_output: 32
    pad: 2
    kernel_size: 5
    stride: 1
    weight_filler {
      type: "gaussian"
      std: 0.01
    }
    bias_filler {
      type: "constant"
    }
  }
}
layer {
  name: "relu_t_2"
  type: "ReLU"
  bottom: "conv_t_2"
  top: "conv_t_2"
}
layer {
  name: "pool_t_2"
  type: "Pooling"
  bottom: "conv_t_2"
  top: "pool_t_2"
  pooling_param {
    pool: AVE
    kernel_size: 3
    stride: 2
  }
}
layer {
  name: "norm_t_2"
  type: "LRN"
  bottom: "pool_t_2"
  top: "norm_t_2"
  lrn_param {
    local_size: 3
    alpha: 5e-05
    beta: 0.75
    norm_region: WITHIN_CHANNEL
  }
}
layer {
  name: "conv_t_3"
  type: "Convolution"
  bottom: "norm_t_2"
  top: "conv_t_3"
  param {
    lr_mult: 0
  }
  param {
    lr_mult: 0
  }
  convolution_param {
    num_output: 64
    pad: 2
    kernel_size: 5
    stride: 1
    weight_filler {
      type: "gaussian"
      std: 0.01
    }
    bias_filler {
      type: "constant"
    }
  }
}
layer {
  name: "relu_t_3"
  type: "ReLU"
  bottom: "conv_t_3"
  top: "conv_t_3"
}
layer {
  name: "pool_t_3"
  type: "Pooling"
  bottom: "conv_t_3"
  top: "pool_t_3"
  pooling_param {
    pool: AVE
    kernel_size: 3
    stride: 2
  }
}
layer {
  name: "ip_t_1"
  type: "InnerProduct"
  bottom: "pool_t_3"
  top: "ip_t_1"
  param {
    lr_mult: 0
  }
  param {
    lr_mult: 0
  }
  inner_product_param {
    num_output: 10
    weight_filler {
      type: "gaussian"
      std: 0.01
    }
    bias_filler {
      type: "constant"
    }
  }
}
layer {
  name: "sm_s_1"
  type: "Softmax"
  bottom: "ip_s_1"
  top: "sm_s_1"
}
layer {
  name: "sm_t_1"
  type: "Softmax"
  bottom: "ip_t_1"
  top: "sm_t_1"
}
layer {
  name: "accuracy"
  type: "Accuracy"
  bottom: "ip_s_1"
  bottom: "label"
  top: "accuracy"
  include {
    phase: TEST
  }
}
layer {
  name: "ts_loss"
  type: "SigmoidCrossEntropyLoss"
  bottom: "sm_s_1"
  bottom: "sm_t_1"
  top: "ts_loss"
  loss_weight: 0.1
}
layer {
  name: "loss"
  type: "SoftmaxWithLoss"
  bottom: "ip_s_1"
  bottom: "label"
  top: "loss"
  loss_weight: 0.9
}
I0801 22:46:44.553550  2571 layer_factory.hpp:77] Creating layer cifar
I0801 22:46:44.553606  2571 db_lmdb.cpp:35] Opened lmdb /opt/caffe/examples/cifar10/cifar10_test_lmdb
I0801 22:46:44.553623  2571 net.cpp:84] Creating Layer cifar
I0801 22:46:44.553634  2571 net.cpp:380] cifar -> data
I0801 22:46:44.553645  2571 net.cpp:380] cifar -> label
I0801 22:46:44.553656  2571 data_transformer.cpp:25] Loading mean file from: /opt/caffe/examples/cifar10/mean.binaryproto
I0801 22:46:44.553778  2571 data_layer.cpp:45] output data size: 100,3,32,32
I0801 22:46:44.557991  2571 net.cpp:122] Setting up cifar
I0801 22:46:44.558034  2571 net.cpp:129] Top shape: 100 3 32 32 (307200)
I0801 22:46:44.558043  2571 net.cpp:129] Top shape: 100 (100)
I0801 22:46:44.558050  2571 net.cpp:137] Memory required for data: 1229200
I0801 22:46:44.558061  2571 layer_factory.hpp:77] Creating layer data_cifar_0_split
I0801 22:46:44.558075  2571 net.cpp:84] Creating Layer data_cifar_0_split
I0801 22:46:44.558082  2571 net.cpp:406] data_cifar_0_split <- data
I0801 22:46:44.558094  2571 net.cpp:380] data_cifar_0_split -> data_cifar_0_split_0
I0801 22:46:44.558105  2571 net.cpp:380] data_cifar_0_split -> data_cifar_0_split_1
I0801 22:46:44.558156  2571 net.cpp:122] Setting up data_cifar_0_split
I0801 22:46:44.558174  2571 net.cpp:129] Top shape: 100 3 32 32 (307200)
I0801 22:46:44.558183  2571 net.cpp:129] Top shape: 100 3 32 32 (307200)
I0801 22:46:44.558190  2571 net.cpp:137] Memory required for data: 3686800
I0801 22:46:44.558197  2571 layer_factory.hpp:77] Creating layer label_cifar_1_split
I0801 22:46:44.558205  2571 net.cpp:84] Creating Layer label_cifar_1_split
I0801 22:46:44.558212  2571 net.cpp:406] label_cifar_1_split <- label
I0801 22:46:44.558221  2571 net.cpp:380] label_cifar_1_split -> label_cifar_1_split_0
I0801 22:46:44.558231  2571 net.cpp:380] label_cifar_1_split -> label_cifar_1_split_1
I0801 22:46:44.558266  2571 net.cpp:122] Setting up label_cifar_1_split
I0801 22:46:44.558275  2571 net.cpp:129] Top shape: 100 (100)
I0801 22:46:44.558284  2571 net.cpp:129] Top shape: 100 (100)
I0801 22:46:44.558290  2571 net.cpp:137] Memory required for data: 3687600
I0801 22:46:44.558295  2571 layer_factory.hpp:77] Creating layer conv_s_1
I0801 22:46:44.558310  2571 net.cpp:84] Creating Layer conv_s_1
I0801 22:46:44.558317  2571 net.cpp:406] conv_s_1 <- data_cifar_0_split_0
I0801 22:46:44.558326  2571 net.cpp:380] conv_s_1 -> conv_s_1
I0801 22:46:44.559437  2571 net.cpp:122] Setting up conv_s_1
I0801 22:46:44.559453  2571 net.cpp:129] Top shape: 100 32 32 32 (3276800)
I0801 22:46:44.559461  2571 net.cpp:137] Memory required for data: 16794800
I0801 22:46:44.559473  2571 layer_factory.hpp:77] Creating layer pool_s_1
I0801 22:46:44.559484  2571 net.cpp:84] Creating Layer pool_s_1
I0801 22:46:44.559492  2571 net.cpp:406] pool_s_1 <- conv_s_1
I0801 22:46:44.559500  2571 net.cpp:380] pool_s_1 -> pool_s_1
I0801 22:46:44.559537  2571 net.cpp:122] Setting up pool_s_1
I0801 22:46:44.559546  2571 net.cpp:129] Top shape: 100 32 16 16 (819200)
I0801 22:46:44.559553  2571 net.cpp:137] Memory required for data: 20071600
I0801 22:46:44.559561  2571 layer_factory.hpp:77] Creating layer relu_s_1
I0801 22:46:44.559568  2571 net.cpp:84] Creating Layer relu_s_1
I0801 22:46:44.559576  2571 net.cpp:406] relu_s_1 <- pool_s_1
I0801 22:46:44.559586  2571 net.cpp:367] relu_s_1 -> pool_s_1 (in-place)
I0801 22:46:44.559720  2571 net.cpp:122] Setting up relu_s_1
I0801 22:46:44.559731  2571 net.cpp:129] Top shape: 100 32 16 16 (819200)
I0801 22:46:44.559738  2571 net.cpp:137] Memory required for data: 23348400
I0801 22:46:44.559744  2571 layer_factory.hpp:77] Creating layer norm_s_1
I0801 22:46:44.559756  2571 net.cpp:84] Creating Layer norm_s_1
I0801 22:46:44.559763  2571 net.cpp:406] norm_s_1 <- pool_s_1
I0801 22:46:44.559773  2571 net.cpp:380] norm_s_1 -> norm_s_1
I0801 22:46:44.560479  2571 net.cpp:122] Setting up norm_s_1
I0801 22:46:44.560497  2571 net.cpp:129] Top shape: 100 32 16 16 (819200)
I0801 22:46:44.560504  2571 net.cpp:137] Memory required for data: 26625200
I0801 22:46:44.560511  2571 layer_factory.hpp:77] Creating layer conv_s_2
I0801 22:46:44.560523  2571 net.cpp:84] Creating Layer conv_s_2
I0801 22:46:44.560533  2571 net.cpp:406] conv_s_2 <- norm_s_1
I0801 22:46:44.560541  2571 net.cpp:380] conv_s_2 -> conv_s_2
I0801 22:46:44.561491  2571 net.cpp:122] Setting up conv_s_2
I0801 22:46:44.561507  2571 net.cpp:129] Top shape: 100 32 16 16 (819200)
I0801 22:46:44.561516  2571 net.cpp:137] Memory required for data: 29902000
I0801 22:46:44.561527  2571 layer_factory.hpp:77] Creating layer relu_s_2
I0801 22:46:44.561537  2571 net.cpp:84] Creating Layer relu_s_2
I0801 22:46:44.561544  2571 net.cpp:406] relu_s_2 <- conv_s_2
I0801 22:46:44.561553  2571 net.cpp:367] relu_s_2 -> conv_s_2 (in-place)
I0801 22:46:44.561873  2571 net.cpp:122] Setting up relu_s_2
I0801 22:46:44.561888  2571 net.cpp:129] Top shape: 100 32 16 16 (819200)
I0801 22:46:44.561895  2571 net.cpp:137] Memory required for data: 33178800
I0801 22:46:44.561902  2571 layer_factory.hpp:77] Creating layer pool_s_2
I0801 22:46:44.561911  2571 net.cpp:84] Creating Layer pool_s_2
I0801 22:46:44.561918  2571 net.cpp:406] pool_s_2 <- conv_s_2
I0801 22:46:44.561928  2571 net.cpp:380] pool_s_2 -> pool_s_2
I0801 22:46:44.562065  2571 net.cpp:122] Setting up pool_s_2
I0801 22:46:44.562083  2571 net.cpp:129] Top shape: 100 32 8 8 (204800)
I0801 22:46:44.562090  2571 net.cpp:137] Memory required for data: 33998000
I0801 22:46:44.562098  2571 layer_factory.hpp:77] Creating layer ip_s_1
I0801 22:46:44.562108  2571 net.cpp:84] Creating Layer ip_s_1
I0801 22:46:44.562115  2571 net.cpp:406] ip_s_1 <- pool_s_2
I0801 22:46:44.562124  2571 net.cpp:380] ip_s_1 -> ip_s_1
I0801 22:46:44.562320  2571 net.cpp:122] Setting up ip_s_1
I0801 22:46:44.562331  2571 net.cpp:129] Top shape: 100 10 (1000)
I0801 22:46:44.562337  2571 net.cpp:137] Memory required for data: 34002000
I0801 22:46:44.562347  2571 layer_factory.hpp:77] Creating layer ip_s_1_ip_s_1_0_split
I0801 22:46:44.562357  2571 net.cpp:84] Creating Layer ip_s_1_ip_s_1_0_split
I0801 22:46:44.562364  2571 net.cpp:406] ip_s_1_ip_s_1_0_split <- ip_s_1
I0801 22:46:44.562372  2571 net.cpp:380] ip_s_1_ip_s_1_0_split -> ip_s_1_ip_s_1_0_split_0
I0801 22:46:44.562382  2571 net.cpp:380] ip_s_1_ip_s_1_0_split -> ip_s_1_ip_s_1_0_split_1
I0801 22:46:44.562391  2571 net.cpp:380] ip_s_1_ip_s_1_0_split -> ip_s_1_ip_s_1_0_split_2
I0801 22:46:44.562433  2571 net.cpp:122] Setting up ip_s_1_ip_s_1_0_split
I0801 22:46:44.562441  2571 net.cpp:129] Top shape: 100 10 (1000)
I0801 22:46:44.562448  2571 net.cpp:129] Top shape: 100 10 (1000)
I0801 22:46:44.562454  2571 net.cpp:129] Top shape: 100 10 (1000)
I0801 22:46:44.562461  2571 net.cpp:137] Memory required for data: 34014000
I0801 22:46:44.562469  2571 layer_factory.hpp:77] Creating layer conv_t_1
I0801 22:46:44.562479  2571 net.cpp:84] Creating Layer conv_t_1
I0801 22:46:44.562486  2571 net.cpp:406] conv_t_1 <- data_cifar_0_split_1
I0801 22:46:44.562497  2571 net.cpp:380] conv_t_1 -> conv_t_1
I0801 22:46:44.563237  2571 net.cpp:122] Setting up conv_t_1
I0801 22:46:44.563254  2571 net.cpp:129] Top shape: 100 32 32 32 (3276800)
I0801 22:46:44.563261  2571 net.cpp:137] Memory required for data: 47121200
I0801 22:46:44.563271  2571 layer_factory.hpp:77] Creating layer pool_t_1
I0801 22:46:44.563280  2571 net.cpp:84] Creating Layer pool_t_1
I0801 22:46:44.563288  2571 net.cpp:406] pool_t_1 <- conv_t_1
I0801 22:46:44.563297  2571 net.cpp:380] pool_t_1 -> pool_t_1
I0801 22:46:44.563334  2571 net.cpp:122] Setting up pool_t_1
I0801 22:46:44.563345  2571 net.cpp:129] Top shape: 100 32 16 16 (819200)
I0801 22:46:44.563352  2571 net.cpp:137] Memory required for data: 50398000
I0801 22:46:44.563359  2571 layer_factory.hpp:77] Creating layer relu_t_1
I0801 22:46:44.563367  2571 net.cpp:84] Creating Layer relu_t_1
I0801 22:46:44.563374  2571 net.cpp:406] relu_t_1 <- pool_t_1
I0801 22:46:44.563381  2571 net.cpp:367] relu_t_1 -> pool_t_1 (in-place)
I0801 22:46:44.563508  2571 net.cpp:122] Setting up relu_t_1
I0801 22:46:44.563519  2571 net.cpp:129] Top shape: 100 32 16 16 (819200)
I0801 22:46:44.563526  2571 net.cpp:137] Memory required for data: 53674800
I0801 22:46:44.563532  2571 layer_factory.hpp:77] Creating layer norm_t_1
I0801 22:46:44.563542  2571 net.cpp:84] Creating Layer norm_t_1
I0801 22:46:44.563549  2571 net.cpp:406] norm_t_1 <- pool_t_1
I0801 22:46:44.563557  2571 net.cpp:380] norm_t_1 -> norm_t_1
I0801 22:46:44.564116  2571 net.cpp:122] Setting up norm_t_1
I0801 22:46:44.564131  2571 net.cpp:129] Top shape: 100 32 16 16 (819200)
I0801 22:46:44.564138  2571 net.cpp:137] Memory required for data: 56951600
I0801 22:46:44.564146  2571 layer_factory.hpp:77] Creating layer conv_t_2
I0801 22:46:44.564158  2571 net.cpp:84] Creating Layer conv_t_2
I0801 22:46:44.564167  2571 net.cpp:406] conv_t_2 <- norm_t_1
I0801 22:46:44.564175  2571 net.cpp:380] conv_t_2 -> conv_t_2
I0801 22:46:44.565057  2571 net.cpp:122] Setting up conv_t_2
I0801 22:46:44.565073  2571 net.cpp:129] Top shape: 100 32 16 16 (819200)
I0801 22:46:44.565080  2571 net.cpp:137] Memory required for data: 60228400
I0801 22:46:44.565104  2571 layer_factory.hpp:77] Creating layer relu_t_2
I0801 22:46:44.565116  2571 net.cpp:84] Creating Layer relu_t_2
I0801 22:46:44.565124  2571 net.cpp:406] relu_t_2 <- conv_t_2
I0801 22:46:44.565136  2571 net.cpp:367] relu_t_2 -> conv_t_2 (in-place)
I0801 22:46:44.565462  2571 net.cpp:122] Setting up relu_t_2
I0801 22:46:44.565479  2571 net.cpp:129] Top shape: 100 32 16 16 (819200)
I0801 22:46:44.565486  2571 net.cpp:137] Memory required for data: 63505200
I0801 22:46:44.565493  2571 layer_factory.hpp:77] Creating layer pool_t_2
I0801 22:46:44.565502  2571 net.cpp:84] Creating Layer pool_t_2
I0801 22:46:44.565510  2571 net.cpp:406] pool_t_2 <- conv_t_2
I0801 22:46:44.565518  2571 net.cpp:380] pool_t_2 -> pool_t_2
I0801 22:46:44.565652  2571 net.cpp:122] Setting up pool_t_2
I0801 22:46:44.565665  2571 net.cpp:129] Top shape: 100 32 8 8 (204800)
I0801 22:46:44.565671  2571 net.cpp:137] Memory required for data: 64324400
I0801 22:46:44.565678  2571 layer_factory.hpp:77] Creating layer norm_t_2
I0801 22:46:44.565686  2571 net.cpp:84] Creating Layer norm_t_2
I0801 22:46:44.565695  2571 net.cpp:406] norm_t_2 <- pool_t_2
I0801 22:46:44.565702  2571 net.cpp:380] norm_t_2 -> norm_t_2
I0801 22:46:44.565896  2571 net.cpp:122] Setting up norm_t_2
I0801 22:46:44.565908  2571 net.cpp:129] Top shape: 100 32 8 8 (204800)
I0801 22:46:44.565915  2571 net.cpp:137] Memory required for data: 65143600
I0801 22:46:44.565922  2571 layer_factory.hpp:77] Creating layer conv_t_3
I0801 22:46:44.565932  2571 net.cpp:84] Creating Layer conv_t_3
I0801 22:46:44.565940  2571 net.cpp:406] conv_t_3 <- norm_t_2
I0801 22:46:44.565950  2571 net.cpp:380] conv_t_3 -> conv_t_3
I0801 22:46:44.566985  2571 net.cpp:122] Setting up conv_t_3
I0801 22:46:44.567000  2571 net.cpp:129] Top shape: 100 64 8 8 (409600)
I0801 22:46:44.567008  2571 net.cpp:137] Memory required for data: 66782000
I0801 22:46:44.567018  2571 layer_factory.hpp:77] Creating layer relu_t_3
I0801 22:46:44.567026  2571 net.cpp:84] Creating Layer relu_t_3
I0801 22:46:44.567034  2571 net.cpp:406] relu_t_3 <- conv_t_3
I0801 22:46:44.567042  2571 net.cpp:367] relu_t_3 -> conv_t_3 (in-place)
I0801 22:46:44.567363  2571 net.cpp:122] Setting up relu_t_3
I0801 22:46:44.567378  2571 net.cpp:129] Top shape: 100 64 8 8 (409600)
I0801 22:46:44.567384  2571 net.cpp:137] Memory required for data: 68420400
I0801 22:46:44.567391  2571 layer_factory.hpp:77] Creating layer pool_t_3
I0801 22:46:44.567401  2571 net.cpp:84] Creating Layer pool_t_3
I0801 22:46:44.567409  2571 net.cpp:406] pool_t_3 <- conv_t_3
I0801 22:46:44.567416  2571 net.cpp:380] pool_t_3 -> pool_t_3
I0801 22:46:44.567553  2571 net.cpp:122] Setting up pool_t_3
I0801 22:46:44.567565  2571 net.cpp:129] Top shape: 100 64 4 4 (102400)
I0801 22:46:44.567572  2571 net.cpp:137] Memory required for data: 68830000
I0801 22:46:44.567579  2571 layer_factory.hpp:77] Creating layer ip_t_1
I0801 22:46:44.567587  2571 net.cpp:84] Creating Layer ip_t_1
I0801 22:46:44.567595  2571 net.cpp:406] ip_t_1 <- pool_t_3
I0801 22:46:44.567603  2571 net.cpp:380] ip_t_1 -> ip_t_1
I0801 22:46:44.567744  2571 net.cpp:122] Setting up ip_t_1
I0801 22:46:44.567754  2571 net.cpp:129] Top shape: 100 10 (1000)
I0801 22:46:44.567761  2571 net.cpp:137] Memory required for data: 68834000
I0801 22:46:44.567770  2571 layer_factory.hpp:77] Creating layer sm_s_1
I0801 22:46:44.567777  2571 net.cpp:84] Creating Layer sm_s_1
I0801 22:46:44.567785  2571 net.cpp:406] sm_s_1 <- ip_s_1_ip_s_1_0_split_0
I0801 22:46:44.567795  2571 net.cpp:380] sm_s_1 -> sm_s_1
I0801 22:46:44.567998  2571 net.cpp:122] Setting up sm_s_1
I0801 22:46:44.568011  2571 net.cpp:129] Top shape: 100 10 (1000)
I0801 22:46:44.568018  2571 net.cpp:137] Memory required for data: 68838000
I0801 22:46:44.568025  2571 layer_factory.hpp:77] Creating layer sm_t_1
I0801 22:46:44.568033  2571 net.cpp:84] Creating Layer sm_t_1
I0801 22:46:44.568040  2571 net.cpp:406] sm_t_1 <- ip_t_1
I0801 22:46:44.568048  2571 net.cpp:380] sm_t_1 -> sm_t_1
I0801 22:46:44.568409  2571 net.cpp:122] Setting up sm_t_1
I0801 22:46:44.568424  2571 net.cpp:129] Top shape: 100 10 (1000)
I0801 22:46:44.568433  2571 net.cpp:137] Memory required for data: 68842000
I0801 22:46:44.568439  2571 layer_factory.hpp:77] Creating layer accuracy
I0801 22:46:44.568451  2571 net.cpp:84] Creating Layer accuracy
I0801 22:46:44.568466  2571 net.cpp:406] accuracy <- ip_s_1_ip_s_1_0_split_1
I0801 22:46:44.568475  2571 net.cpp:406] accuracy <- label_cifar_1_split_0
I0801 22:46:44.568485  2571 net.cpp:380] accuracy -> accuracy
…
