…
I0801 19:08:01.087608  2328 net.cpp:294] The NetState phase (0) differed from the phase (1) specified by a rule in layer accuracy
I0801 19:08:01.087663  2328 net.cpp:51] Initializing net from parameters: 
name: "CIFAR10_full"
state {
  phase: TRAIN
  level: 0
  stage: ""
}
layer {
  name: "cifar"
  type: "Data"
  top: "data"
  top: "label"
  include {
    phase: TRAIN
  }
  transform_param {
    mean_file: "/opt/caffe/examples/cifar10/mean.binaryproto"
  }
  data_param {
    source: "/opt/caffe/examples/cifar10/cifar10_train_lmdb"
    batch_size: 100
    backend: LMDB
  }
}
layer {
  name: "conv_t_1"
  type: "Convolution"
  bottom: "data"
  top: "conv_t_1"
  param {
    lr_mult: 1
  }
  param {
    lr_mult: 2
  }
  convolution_param {
    num_output: 32
    pad: 2
    kernel_size: 5
    stride: 1
    weight_filler {
      type: "gaussian"
      std: 0.0001
    }
    bias_filler {
      type: "constant"
    }
  }
}
layer {
  name: "pool_t_1"
  type: "Pooling"
  bottom: "conv_t_1"
  top: "pool_t_1"
  pooling_param {
    pool: MAX
    kernel_size: 3
    stride: 2
  }
}
layer {
  name: "relu_t_1"
  type: "ReLU"
  bottom: "pool_t_1"
  top: "pool_t_1"
}
layer {
  name: "norm_t_1"
  type: "LRN"
  bottom: "pool_t_1"
  top: "norm_t_1"
  lrn_param {
    local_size: 3
    alpha: 5e-05
    beta: 0.75
    norm_region: WITHIN_CHANNEL
  }
}
layer {
  name: "conv_t_2"
  type: "Convolution"
  bottom: "norm_t_1"
  top: "conv_t_2"
  param {
    lr_mult: 1
  }
  param {
    lr_mult: 2
  }
  convolution_param {
    num_output: 32
    pad: 2
    kernel_size: 5
    stride: 1
    weight_filler {
      type: "gaussian"
      std: 0.01
    }
    bias_filler {
      type: "constant"
    }
  }
}
layer {
  name: "relu_t_2"
  type: "ReLU"
  bottom: "conv_t_2"
  top: "conv_t_2"
}
layer {
  name: "pool_t_2"
  type: "Pooling"
  bottom: "conv_t_2"
  top: "pool_t_2"
  pooling_param {
    pool: AVE
    kernel_size: 3
    stride: 2
  }
}
layer {
  name: "ip_t_1"
  type: "InnerProduct"
  bottom: "pool_t_2"
  top: "ip_t_1"
  param {
    lr_mult: 1
    decay_mult: 250
  }
  param {
    lr_mult: 2
    decay_mult: 0
  }
  inner_product_param {
    num_output: 10
    weight_filler {
      type: "gaussian"
      std: 0.01
    }
    bias_filler {
      type: "constant"
    }
  }
}
layer {
  name: "loss"
  type: "SoftmaxWithLoss"
  bottom: "ip_t_1"
  bottom: "label"
  top: "loss"
}
I0801 19:08:01.087698  2328 layer_factory.hpp:77] Creating layer cifar
I0801 19:08:01.087786  2328 db_lmdb.cpp:35] Opened lmdb /opt/caffe/examples/cifar10/cifar10_train_lmdb
I0801 19:08:01.087803  2328 net.cpp:84] Creating Layer cifar
I0801 19:08:01.087808  2328 net.cpp:380] cifar -> data
I0801 19:08:01.087821  2328 net.cpp:380] cifar -> label
I0801 19:08:01.087829  2328 data_transformer.cpp:25] Loading mean file from: /opt/caffe/examples/cifar10/mean.binaryproto
I0801 19:08:01.088942  2328 data_layer.cpp:45] output data size: 100,3,32,32
I0801 19:08:01.092600  2328 net.cpp:122] Setting up cifar
I0801 19:08:01.092619  2328 net.cpp:129] Top shape: 100 3 32 32 (307200)
I0801 19:08:01.092622  2328 net.cpp:129] Top shape: 100 (100)
I0801 19:08:01.092624  2328 net.cpp:137] Memory required for data: 1229200
I0801 19:08:01.092638  2328 layer_factory.hpp:77] Creating layer conv_t_1
I0801 19:08:01.092663  2328 net.cpp:84] Creating Layer conv_t_1
I0801 19:08:01.092666  2328 net.cpp:406] conv_t_1 <- data
I0801 19:08:01.092676  2328 net.cpp:380] conv_t_1 -> conv_t_1
I0801 19:08:01.404173  2328 net.cpp:122] Setting up conv_t_1
I0801 19:08:01.404196  2328 net.cpp:129] Top shape: 100 32 32 32 (3276800)
I0801 19:08:01.404198  2328 net.cpp:137] Memory required for data: 14336400
I0801 19:08:01.404212  2328 layer_factory.hpp:77] Creating layer pool_t_1
I0801 19:08:01.404223  2328 net.cpp:84] Creating Layer pool_t_1
I0801 19:08:01.404225  2328 net.cpp:406] pool_t_1 <- conv_t_1
I0801 19:08:01.404229  2328 net.cpp:380] pool_t_1 -> pool_t_1
I0801 19:08:01.404268  2328 net.cpp:122] Setting up pool_t_1
I0801 19:08:01.404273  2328 net.cpp:129] Top shape: 100 32 16 16 (819200)
I0801 19:08:01.404274  2328 net.cpp:137] Memory required for data: 17613200
I0801 19:08:01.404276  2328 layer_factory.hpp:77] Creating layer relu_t_1
I0801 19:08:01.404280  2328 net.cpp:84] Creating Layer relu_t_1
I0801 19:08:01.404281  2328 net.cpp:406] relu_t_1 <- pool_t_1
I0801 19:08:01.404284  2328 net.cpp:367] relu_t_1 -> pool_t_1 (in-place)
I0801 19:08:01.404610  2328 net.cpp:122] Setting up relu_t_1
I0801 19:08:01.404618  2328 net.cpp:129] Top shape: 100 32 16 16 (819200)
I0801 19:08:01.404620  2328 net.cpp:137] Memory required for data: 20890000
I0801 19:08:01.404623  2328 layer_factory.hpp:77] Creating layer norm_t_1
I0801 19:08:01.404629  2328 net.cpp:84] Creating Layer norm_t_1
I0801 19:08:01.404631  2328 net.cpp:406] norm_t_1 <- pool_t_1
I0801 19:08:01.404634  2328 net.cpp:380] norm_t_1 -> norm_t_1
I0801 19:08:01.405172  2328 net.cpp:122] Setting up norm_t_1
I0801 19:08:01.405179  2328 net.cpp:129] Top shape: 100 32 16 16 (819200)
I0801 19:08:01.405182  2328 net.cpp:137] Memory required for data: 24166800
I0801 19:08:01.405184  2328 layer_factory.hpp:77] Creating layer conv_t_2
I0801 19:08:01.405190  2328 net.cpp:84] Creating Layer conv_t_2
I0801 19:08:01.405194  2328 net.cpp:406] conv_t_2 <- norm_t_1
I0801 19:08:01.405196  2328 net.cpp:380] conv_t_2 -> conv_t_2
I0801 19:08:01.406705  2328 net.cpp:122] Setting up conv_t_2
I0801 19:08:01.406713  2328 net.cpp:129] Top shape: 100 32 16 16 (819200)
I0801 19:08:01.406715  2328 net.cpp:137] Memory required for data: 27443600
I0801 19:08:01.406721  2328 layer_factory.hpp:77] Creating layer relu_t_2
I0801 19:08:01.406726  2328 net.cpp:84] Creating Layer relu_t_2
I0801 19:08:01.406729  2328 net.cpp:406] relu_t_2 <- conv_t_2
I0801 19:08:01.406733  2328 net.cpp:367] relu_t_2 -> conv_t_2 (in-place)
I0801 19:08:01.406839  2328 net.cpp:122] Setting up relu_t_2
I0801 19:08:01.406844  2328 net.cpp:129] Top shape: 100 32 16 16 (819200)
I0801 19:08:01.406847  2328 net.cpp:137] Memory required for data: 30720400
I0801 19:08:01.406847  2328 layer_factory.hpp:77] Creating layer pool_t_2
I0801 19:08:01.406852  2328 net.cpp:84] Creating Layer pool_t_2
I0801 19:08:01.406854  2328 net.cpp:406] pool_t_2 <- conv_t_2
I0801 19:08:01.406857  2328 net.cpp:380] pool_t_2 -> pool_t_2
I0801 19:08:01.407155  2328 net.cpp:122] Setting up pool_t_2
I0801 19:08:01.407162  2328 net.cpp:129] Top shape: 100 32 8 8 (204800)
I0801 19:08:01.407165  2328 net.cpp:137] Memory required for data: 31539600
I0801 19:08:01.407166  2328 layer_factory.hpp:77] Creating layer ip_t_1
I0801 19:08:01.407171  2328 net.cpp:84] Creating Layer ip_t_1
I0801 19:08:01.407173  2328 net.cpp:406] ip_t_1 <- pool_t_2
I0801 19:08:01.407177  2328 net.cpp:380] ip_t_1 -> ip_t_1
I0801 19:08:01.407359  2328 net.cpp:122] Setting up ip_t_1
I0801 19:08:01.407363  2328 net.cpp:129] Top shape: 100 10 (1000)
I0801 19:08:01.407366  2328 net.cpp:137] Memory required for data: 31543600
I0801 19:08:01.407371  2328 layer_factory.hpp:77] Creating layer loss
I0801 19:08:01.407373  2328 net.cpp:84] Creating Layer loss
I0801 19:08:01.407376  2328 net.cpp:406] loss <- ip_t_1
I0801 19:08:01.407378  2328 net.cpp:406] loss <- label
I0801 19:08:01.407382  2328 net.cpp:380] loss -> loss
I0801 19:08:01.407390  2328 layer_factory.hpp:77] Creating layer loss
…
I0801 19:08:01.407753  2328 net.cpp:294] The NetState phase (1) differed from the phase (0) specified by a rule in layer cifar
I0801 19:08:01.407810  2328 net.cpp:51] Initializing net from parameters: 
name: "CIFAR10_full"
state {
  phase: TEST
}
layer {
  name: "cifar"
  type: "Data"
  top: "data"
  top: "label"
  include {
    phase: TEST
  }
  transform_param {
    mean_file: "/opt/caffe/examples/cifar10/mean.binaryproto"
  }
  data_param {
    source: "/opt/caffe/examples/cifar10/cifar10_test_lmdb"
    batch_size: 100
    backend: LMDB
  }
}
layer {
  name: "conv_t_1"
  type: "Convolution"
  bottom: "data"
  top: "conv_t_1"
  param {
    lr_mult: 1
  }
  param {
    lr_mult: 2
  }
  convolution_param {
    num_output: 32
    pad: 2
    kernel_size: 5
    stride: 1
    weight_filler {
      type: "gaussian"
      std: 0.0001
    }
    bias_filler {
      type: "constant"
    }
  }
}
layer {
  name: "pool_t_1"
  type: "Pooling"
  bottom: "conv_t_1"
  top: "pool_t_1"
  pooling_param {
    pool: MAX
    kernel_size: 3
    stride: 2
  }
}
layer {
  name: "relu_t_1"
  type: "ReLU"
  bottom: "pool_t_1"
  top: "pool_t_1"
}
layer {
  name: "norm_t_1"
  type: "LRN"
  bottom: "pool_t_1"
  top: "norm_t_1"
  lrn_param {
    local_size: 3
    alpha: 5e-05
    beta: 0.75
    norm_region: WITHIN_CHANNEL
  }
}
layer {
  name: "conv_t_2"
  type: "Convolution"
  bottom: "norm_t_1"
  top: "conv_t_2"
  param {
    lr_mult: 1
  }
  param {
    lr_mult: 2
  }
  convolution_param {
    num_output: 32
    pad: 2
    kernel_size: 5
    stride: 1
    weight_filler {
      type: "gaussian"
      std: 0.01
    }
    bias_filler {
      type: "constant"
    }
  }
}
layer {
  name: "relu_t_2"
  type: "ReLU"
  bottom: "conv_t_2"
  top: "conv_t_2"
}
layer {
  name: "pool_t_2"
  type: "Pooling"
  bottom: "conv_t_2"
  top: "pool_t_2"
  pooling_param {
    pool: AVE
    kernel_size: 3
    stride: 2
  }
}
layer {
  name: "ip_t_1"
  type: "InnerProduct"
  bottom: "pool_t_2"
  top: "ip_t_1"
  param {
    lr_mult: 1
    decay_mult: 250
  }
  param {
    lr_mult: 2
    decay_mult: 0
  }
  inner_product_param {
    num_output: 10
    weight_filler {
      type: "gaussian"
      std: 0.01
    }
    bias_filler {
      type: "constant"
    }
  }
}
layer {
  name: "accuracy"
  type: "Accuracy"
  bottom: "ip_t_1"
  bottom: "label"
  top: "accuracy"
  include {
    phase: TEST
  }
}
layer {
  name: "loss"
  type: "SoftmaxWithLoss"
  bottom: "ip_t_1"
  bottom: "label"
  top: "loss"
}
I0801 19:08:01.407853  2328 layer_factory.hpp:77] Creating layer cifar
I0801 19:08:01.407905  2328 db_lmdb.cpp:35] Opened lmdb /opt/caffe/examples/cifar10/cifar10_test_lmdb
I0801 19:08:01.407914  2328 net.cpp:84] Creating Layer cifar
I0801 19:08:01.407920  2328 net.cpp:380] cifar -> data
I0801 19:08:01.407925  2328 net.cpp:380] cifar -> label
I0801 19:08:01.407929  2328 data_transformer.cpp:25] Loading mean file from: /opt/caffe/examples/cifar10/mean.binaryproto
I0801 19:08:01.408032  2328 data_layer.cpp:45] output data size: 100,3,32,32
I0801 19:08:01.411605  2328 net.cpp:122] Setting up cifar
I0801 19:08:01.411623  2328 net.cpp:129] Top shape: 100 3 32 32 (307200)
I0801 19:08:01.411626  2328 net.cpp:129] Top shape: 100 (100)
I0801 19:08:01.411628  2328 net.cpp:137] Memory required for data: 1229200
I0801 19:08:01.411633  2328 layer_factory.hpp:77] Creating layer label_cifar_1_split
I0801 19:08:01.411643  2328 net.cpp:84] Creating Layer label_cifar_1_split
I0801 19:08:01.411645  2328 net.cpp:406] label_cifar_1_split <- label
I0801 19:08:01.411653  2328 net.cpp:380] label_cifar_1_split -> label_cifar_1_split_0
I0801 19:08:01.411659  2328 net.cpp:380] label_cifar_1_split -> label_cifar_1_split_1
I0801 19:08:01.411751  2328 net.cpp:122] Setting up label_cifar_1_split
I0801 19:08:01.411759  2328 net.cpp:129] Top shape: 100 (100)
I0801 19:08:01.411762  2328 net.cpp:129] Top shape: 100 (100)
I0801 19:08:01.411763  2328 net.cpp:137] Memory required for data: 1230000
I0801 19:08:01.411765  2328 layer_factory.hpp:77] Creating layer conv_t_1
I0801 19:08:01.411774  2328 net.cpp:84] Creating Layer conv_t_1
I0801 19:08:01.411777  2328 net.cpp:406] conv_t_1 <- data
I0801 19:08:01.411782  2328 net.cpp:380] conv_t_1 -> conv_t_1
I0801 19:08:01.412739  2328 net.cpp:122] Setting up conv_t_1
I0801 19:08:01.412747  2328 net.cpp:129] Top shape: 100 32 32 32 (3276800)
I0801 19:08:01.412750  2328 net.cpp:137] Memory required for data: 14337200
I0801 19:08:01.412756  2328 layer_factory.hpp:77] Creating layer pool_t_1
I0801 19:08:01.412761  2328 net.cpp:84] Creating Layer pool_t_1
I0801 19:08:01.412762  2328 net.cpp:406] pool_t_1 <- conv_t_1
I0801 19:08:01.412766  2328 net.cpp:380] pool_t_1 -> pool_t_1
I0801 19:08:01.412791  2328 net.cpp:122] Setting up pool_t_1
I0801 19:08:01.412796  2328 net.cpp:129] Top shape: 100 32 16 16 (819200)
I0801 19:08:01.412796  2328 net.cpp:137] Memory required for data: 17614000
I0801 19:08:01.412798  2328 layer_factory.hpp:77] Creating layer relu_t_1
I0801 19:08:01.412803  2328 net.cpp:84] Creating Layer relu_t_1
I0801 19:08:01.412806  2328 net.cpp:406] relu_t_1 <- pool_t_1
I0801 19:08:01.412807  2328 net.cpp:367] relu_t_1 -> pool_t_1 (in-place)
I0801 19:08:01.412952  2328 net.cpp:122] Setting up relu_t_1
I0801 19:08:01.412958  2328 net.cpp:129] Top shape: 100 32 16 16 (819200)
I0801 19:08:01.412959  2328 net.cpp:137] Memory required for data: 20890800
I0801 19:08:01.412961  2328 layer_factory.hpp:77] Creating layer norm_t_1
I0801 19:08:01.412967  2328 net.cpp:84] Creating Layer norm_t_1
I0801 19:08:01.412969  2328 net.cpp:406] norm_t_1 <- pool_t_1
I0801 19:08:01.412973  2328 net.cpp:380] norm_t_1 -> norm_t_1
I0801 19:08:01.413878  2328 net.cpp:122] Setting up norm_t_1
I0801 19:08:01.413885  2328 net.cpp:129] Top shape: 100 32 16 16 (819200)
I0801 19:08:01.413887  2328 net.cpp:137] Memory required for data: 24167600
I0801 19:08:01.413889  2328 layer_factory.hpp:77] Creating layer conv_t_2
I0801 19:08:01.413897  2328 net.cpp:84] Creating Layer conv_t_2
I0801 19:08:01.413900  2328 net.cpp:406] conv_t_2 <- norm_t_1
I0801 19:08:01.413904  2328 net.cpp:380] conv_t_2 -> conv_t_2
I0801 19:08:01.414844  2328 net.cpp:122] Setting up conv_t_2
I0801 19:08:01.414850  2328 net.cpp:129] Top shape: 100 32 16 16 (819200)
I0801 19:08:01.414852  2328 net.cpp:137] Memory required for data: 27444400
I0801 19:08:01.414858  2328 layer_factory.hpp:77] Creating layer relu_t_2
I0801 19:08:01.414862  2328 net.cpp:84] Creating Layer relu_t_2
I0801 19:08:01.414865  2328 net.cpp:406] relu_t_2 <- conv_t_2
I0801 19:08:01.414867  2328 net.cpp:367] relu_t_2 -> conv_t_2 (in-place)
I0801 19:08:01.415077  2328 net.cpp:122] Setting up relu_t_2
I0801 19:08:01.415082  2328 net.cpp:129] Top shape: 100 32 16 16 (819200)
I0801 19:08:01.415083  2328 net.cpp:137] Memory required for data: 30721200
I0801 19:08:01.415086  2328 layer_factory.hpp:77] Creating layer pool_t_2
I0801 19:08:01.415096  2328 net.cpp:84] Creating Layer pool_t_2
I0801 19:08:01.415098  2328 net.cpp:406] pool_t_2 <- conv_t_2
I0801 19:08:01.415102  2328 net.cpp:380] pool_t_2 -> pool_t_2
I0801 19:08:01.415237  2328 net.cpp:122] Setting up pool_t_2
I0801 19:08:01.415242  2328 net.cpp:129] Top shape: 100 32 8 8 (204800)
I0801 19:08:01.415243  2328 net.cpp:137] Memory required for data: 31540400
I0801 19:08:01.415246  2328 layer_factory.hpp:77] Creating layer ip_t_1
I0801 19:08:01.415251  2328 net.cpp:84] Creating Layer ip_t_1
I0801 19:08:01.415253  2328 net.cpp:406] ip_t_1 <- pool_t_2
I0801 19:08:01.415256  2328 net.cpp:380] ip_t_1 -> ip_t_1
I0801 19:08:01.415449  2328 net.cpp:122] Setting up ip_t_1
I0801 19:08:01.415453  2328 net.cpp:129] Top shape: 100 10 (1000)
I0801 19:08:01.415454  2328 net.cpp:137] Memory required for data: 31544400
I0801 19:08:01.415459  2328 layer_factory.hpp:77] Creating layer ip_t_1_ip_t_1_0_split
I0801 19:08:01.415463  2328 net.cpp:84] Creating Layer ip_t_1_ip_t_1_0_split
I0801 19:08:01.415465  2328 net.cpp:406] ip_t_1_ip_t_1_0_split <- ip_t_1
I0801 19:08:01.415469  2328 net.cpp:380] ip_t_1_ip_t_1_0_split -> ip_t_1_ip_t_1_0_split_0
I0801 19:08:01.415472  2328 net.cpp:380] ip_t_1_ip_t_1_0_split -> ip_t_1_ip_t_1_0_split_1
I0801 19:08:01.415500  2328 net.cpp:122] Setting up ip_t_1_ip_t_1_0_split
I0801 19:08:01.415503  2328 net.cpp:129] Top shape: 100 10 (1000)
I0801 19:08:01.415505  2328 net.cpp:129] Top shape: 100 10 (1000)
I0801 19:08:01.415506  2328 net.cpp:137] Memory required for data: 31552400
I0801 19:08:01.415508  2328 layer_factory.hpp:77] Creating layer accuracy
I0801 19:08:01.415514  2328 net.cpp:84] Creating Layer accuracy
I0801 19:08:01.415516  2328 net.cpp:406] accuracy <- ip_t_1_ip_t_1_0_split_0
I0801 19:08:01.415519  2328 net.cpp:406] accuracy <- label_cifar_1_split_0
I0801 19:08:01.415522  2328 net.cpp:380] accuracy -> accuracy
…
