…
I0802 16:45:40.396390  2733 net.cpp:294] The NetState phase (0) differed from the phase (1) specified by a rule in layer cifar
I0802 16:45:40.396407  2733 net.cpp:294] The NetState phase (0) differed from the phase (1) specified by a rule in layer accuracy
I0802 16:45:40.396541  2733 net.cpp:51] Initializing net from parameters: 
name: "CIFAR10_full"
state {
  phase: TRAIN
  level: 0
  stage: ""
}
layer {
  name: "cifar"
  type: "Data"
  top: "data"
  top: "label"
  include {
    phase: TRAIN
  }
  data_param {
    source: "cifar-train-leveldb"
    batch_size: 128
  }
}
layer {
  name: "conv1"
  type: "Convolution"
  bottom: "data"
  top: "conv1"
  param {
    lr_mult: 1
    decay_mult: 1
  }
  param {
    lr_mult: 2
    decay_mult: 0
  }
  convolution_param {
    num_output: 192
    pad: 2
    kernel_size: 5
    weight_filler {
      type: "gaussian"
      std: 0.05
    }
    bias_filler {
      type: "constant"
    }
  }
}
layer {
  name: "relu1"
  type: "ReLU"
  bottom: "conv1"
  top: "conv1"
}
layer {
  name: "cccp1"
  type: "Convolution"
  bottom: "conv1"
  top: "cccp1"
  param {
    lr_mult: 1
    decay_mult: 1
  }
  param {
    lr_mult: 2
    decay_mult: 0
  }
  convolution_param {
    num_output: 160
    kernel_size: 1
    group: 1
    weight_filler {
      type: "gaussian"
      std: 0.05
    }
    bias_filler {
      type: "constant"
      value: 0
    }
  }
}
layer {
  name: "relu_cccp1"
  type: "ReLU"
  bottom: "cccp1"
  top: "cccp1"
}
layer {
  name: "cccp2"
  type: "Convolution"
  bottom: "cccp1"
  top: "cccp2"
  param {
    lr_mult: 1
    decay_mult: 1
  }
  param {
    lr_mult: 2
    decay_mult: 0
  }
  convolution_param {
    num_output: 96
    kernel_size: 1
    group: 1
    weight_filler {
      type: "gaussian"
      std: 0.05
    }
    bias_filler {
      type: "constant"
      value: 0
    }
  }
}
layer {
  name: "relu_cccp2"
  type: "ReLU"
  bottom: "cccp2"
  top: "cccp2"
}
layer {
  name: "pool1"
  type: "Pooling"
  bottom: "cccp2"
  top: "pool1"
  pooling_param {
    pool: MAX
    kernel_size: 3
    stride: 2
  }
}
layer {
  name: "drop3"
  type: "Dropout"
  bottom: "pool1"
  top: "pool1"
  dropout_param {
    dropout_ratio: 0.5
  }
}
layer {
  name: "conv2"
  type: "Convolution"
  bottom: "pool1"
  top: "conv2"
  param {
    lr_mult: 1
    decay_mult: 1
  }
  param {
    lr_mult: 2
    decay_mult: 0
  }
  convolution_param {
    num_output: 192
    pad: 2
    kernel_size: 5
    weight_filler {
      type: "gaussian"
      std: 0.05
    }
    bias_filler {
      type: "constant"
    }
  }
}
layer {
  name: "relu2"
  type: "ReLU"
  bottom: "conv2"
  top: "conv2"
}
layer {
  name: "cccp3"
  type: "Convolution"
  bottom: "conv2"
  top: "cccp3"
  param {
    lr_mult: 1
    decay_mult: 1
  }
  param {
    lr_mult: 2
    decay_mult: 0
  }
  convolution_param {
    num_output: 192
    kernel_size: 1
    group: 1
    weight_filler {
      type: "gaussian"
      std: 0.05
    }
    bias_filler {
      type: "constant"
      value: 0
    }
  }
}
layer {
  name: "relu_cccp3"
  type: "ReLU"
  bottom: "cccp3"
  top: "cccp3"
}
layer {
  name: "cccp4"
  type: "Convolution"
  bottom: "cccp3"
  top: "cccp4"
  param {
    lr_mult: 1
    decay_mult: 1
  }
  param {
    lr_mult: 2
    decay_mult: 0
  }
  convolution_param {
    num_output: 192
    kernel_size: 1
    group: 1
    weight_filler {
      type: "gaussian"
      std: 0.05
    }
    bias_filler {
      type: "constant"
      value: 0
    }
  }
}
layer {
  name: "relu_cccp4"
  type: "ReLU"
  bottom: "cccp4"
  top: "cccp4"
}
layer {
  name: "pool2"
  type: "Pooling"
  bottom: "cccp4"
  top: "pool2"
  pooling_param {
    pool: AVE
    kernel_size: 3
    stride: 2
  }
}
layer {
  name: "drop6"
  type: "Dropout"
  bottom: "pool2"
  top: "pool2"
  dropout_param {
    dropout_ratio: 0.5
  }
}
layer {
  name: "conv3"
  type: "Convolution"
  bottom: "pool2"
  top: "conv3"
  param {
    lr_mult: 1
    decay_mult: 1
  }
  param {
    lr_mult: 2
    decay_mult: 0
  }
  convolution_param {
    num_output: 192
    pad: 1
    kernel_size: 3
    weight_filler {
      type: "gaussian"
      std: 0.05
    }
    bias_filler {
      type: "constant"
    }
  }
}
layer {
  name: "relu3"
  type: "ReLU"
  bottom: "conv3"
  top: "conv3"
}
layer {
  name: "cccp5"
  type: "Convolution"
  bottom: "conv3"
  top: "cccp5"
  param {
    lr_mult: 1
    decay_mult: 1
  }
  param {
    lr_mult: 2
    decay_mult: 0
  }
  convolution_param {
    num_output: 192
    kernel_size: 1
    group: 1
    weight_filler {
      type: "gaussian"
      std: 0.05
    }
    bias_filler {
      type: "constant"
      value: 0
    }
  }
}
layer {
  name: "relu_cccp5"
  type: "ReLU"
  bottom: "cccp5"
  top: "cccp5"
}
layer {
  name: "cccp6"
  type: "Convolution"
  bottom: "cccp5"
  top: "cccp6"
  convolution_param {
    num_output: 10
    kernel_size: 1
    group: 1
    weight_filler {
      type: "gaussian"
      std: 0.05
    }
    bias_filler {
      type: "constant"
      value: 0
    }
  }
}
layer {
  name: "relu_cccp6"
  type: "ReLU"
  bottom: "cccp6"
  top: "cccp6"
}
layer {
  name: "pool3"
  type: "Pooling"
  bottom: "cccp6"
  top: "pool3"
  pooling_param {
    pool: AVE
    kernel_size: 8
    stride: 1
  }
}
layer {
  name: "conv_s_1"
  type: "Convolution"
  bottom: "data"
  top: "conv_s_1"
  param {
    lr_mult: 1
  }
  param {
    lr_mult: 2
  }
  convolution_param {
    num_output: 32
    pad: 2
    kernel_size: 5
    stride: 1
    weight_filler {
      type: "gaussian"
      std: 0.0001
    }
    bias_filler {
      type: "constant"
    }
  }
}
layer {
  name: "pool_s_1"
  type: "Pooling"
  bottom: "conv_s_1"
  top: "pool_s_1"
  pooling_param {
    pool: MAX
    kernel_size: 3
    stride: 2
  }
}
layer {
  name: "relu_s_1"
  type: "ReLU"
  bottom: "pool_s_1"
  top: "pool_s_1"
}
layer {
  name: "norm_s_1"
  type: "LRN"
  bottom: "pool_s_1"
  top: "norm_s_1"
  lrn_param {
    local_size: 3
    alpha: 5e-05
    beta: 0.75
    norm_region: WITHIN_CHANNEL
  }
}
layer {
  name: "conv_s_2"
  type: "Convolution"
  bottom: "norm_s_1"
  top: "conv_s_2"
  param {
    lr_mult: 1
  }
  param {
    lr_mult: 2
  }
  convolution_param {
    num_output: 32
    pad: 2
    kernel_size: 5
    stride: 1
    weight_filler {
      type: "gaussian"
      std: 0.01
    }
    bias_filler {
      type: "constant"
    }
  }
}
layer {
  name: "relu_s_2"
  type: "ReLU"
  bottom: "conv_s_2"
  top: "conv_s_2"
}
layer {
  name: "pool_s_2"
  type: "Pooling"
  bottom: "conv_s_2"
  top: "pool_s_2"
  pooling_param {
    pool: AVE
    kernel_size: 3
    stride: 2
  }
}
layer {
  name: "norm_s_2"
  type: "LRN"
  bottom: "pool_s_2"
  top: "norm_s_2"
  lrn_param {
    local_size: 3
    alpha: 5e-05
    beta: 0.75
    norm_region: WITHIN_CHANNEL
  }
}
layer {
  name: "conv_s_3"
  type: "Convolution"
  bottom: "norm_s_2"
  top: "conv_s_3"
  convolution_param {
    num_output: 64
    pad: 2
    kernel_size: 5
    stride: 1
    weight_filler {
      type: "gaussian"
      std: 0.01
    }
    bias_filler {
      type: "constant"
    }
  }
}
layer {
  name: "relu_s_3"
  type: "ReLU"
  bottom: "conv_s_3"
  top: "conv_s_3"
}
layer {
  name: "pool_s_3"
  type: "Pooling"
  bottom: "conv_s_3"
  top: "pool_s_3"
  pooling_param {
    pool: AVE
    kernel_size: 3
    stride: 2
  }
}
layer {
  name: "ip_s_1"
  type: "InnerProduct"
  bottom: "pool_s_3"
  top: "ip_s_1"
  param {
    lr_mult: 1
    decay_mult: 250
  }
  param {
    lr_mult: 2
    decay_mult: 0
  }
  inner_product_param {
    num_output: 10
    weight_filler {
      type: "gaussian"
      std: 0.01
    }
    bias_filler {
      type: "constant"
    }
  }
}
layer {
  name: "sm_s_1"
  type: "Softmax"
  bottom: "ip_s_1"
  top: "sm_s_1"
}
layer {
  name: "sm_t_1"
  type: "Softmax"
  bottom: "pool3"
  top: "sm_t_1"
}
layer {
  name: "ts_loss"
  type: "SigmoidCrossEntropyLoss"
  bottom: "sm_s_1"
  bottom: "sm_t_1"
  top: "ts_loss"
  loss_weight: 0
}
layer {
  name: "loss"
  type: "SoftmaxWithLoss"
  bottom: "ip_s_1"
  bottom: "label"
  top: "loss"
  loss_weight: 1
}
I0802 16:45:40.396646  2733 layer_factory.hpp:77] Creating layer cifar
I0802 16:45:40.469341  2733 db_leveldb.cpp:18] Opened leveldb cifar-train-leveldb
I0802 16:45:40.469578  2733 net.cpp:84] Creating Layer cifar
I0802 16:45:40.469615  2733 net.cpp:380] cifar -> data
I0802 16:45:40.469671  2733 net.cpp:380] cifar -> label
I0802 16:45:40.471951  2733 data_layer.cpp:45] output data size: 128,3,32,32
I0802 16:45:40.485003  2733 net.cpp:122] Setting up cifar
I0802 16:45:40.485051  2733 net.cpp:129] Top shape: 128 3 32 32 (393216)
I0802 16:45:40.485064  2733 net.cpp:129] Top shape: 128 (128)
I0802 16:45:40.485074  2733 net.cpp:137] Memory required for data: 1573376
I0802 16:45:40.485131  2733 layer_factory.hpp:77] Creating layer data_cifar_0_split
I0802 16:45:40.485163  2733 net.cpp:84] Creating Layer data_cifar_0_split
I0802 16:45:40.485177  2733 net.cpp:406] data_cifar_0_split <- data
I0802 16:45:40.485204  2733 net.cpp:380] data_cifar_0_split -> data_cifar_0_split_0
I0802 16:45:40.485298  2733 net.cpp:380] data_cifar_0_split -> data_cifar_0_split_1
I0802 16:45:40.485440  2733 net.cpp:122] Setting up data_cifar_0_split
I0802 16:45:40.485489  2733 net.cpp:129] Top shape: 128 3 32 32 (393216)
I0802 16:45:40.485522  2733 net.cpp:129] Top shape: 128 3 32 32 (393216)
I0802 16:45:40.485555  2733 net.cpp:137] Memory required for data: 4719104
I0802 16:45:40.485584  2733 layer_factory.hpp:77] Creating layer conv1
I0802 16:45:40.485644  2733 net.cpp:84] Creating Layer conv1
I0802 16:45:40.485682  2733 net.cpp:406] conv1 <- data_cifar_0_split_0
I0802 16:45:40.485725  2733 net.cpp:380] conv1 -> conv1
I0802 16:45:40.797349  2733 net.cpp:122] Setting up conv1
I0802 16:45:40.797394  2733 net.cpp:129] Top shape: 128 192 32 32 (25165824)
I0802 16:45:40.797402  2733 net.cpp:137] Memory required for data: 105382400
I0802 16:45:40.797425  2733 layer_factory.hpp:77] Creating layer relu1
I0802 16:45:40.797441  2733 net.cpp:84] Creating Layer relu1
I0802 16:45:40.797448  2733 net.cpp:406] relu1 <- conv1
I0802 16:45:40.797457  2733 net.cpp:367] relu1 -> conv1 (in-place)
I0802 16:45:40.797816  2733 net.cpp:122] Setting up relu1
I0802 16:45:40.797832  2733 net.cpp:129] Top shape: 128 192 32 32 (25165824)
I0802 16:45:40.797840  2733 net.cpp:137] Memory required for data: 206045696
I0802 16:45:40.797848  2733 layer_factory.hpp:77] Creating layer cccp1
I0802 16:45:40.797863  2733 net.cpp:84] Creating Layer cccp1
I0802 16:45:40.797870  2733 net.cpp:406] cccp1 <- conv1
I0802 16:45:40.797879  2733 net.cpp:380] cccp1 -> cccp1
I0802 16:45:40.799212  2733 net.cpp:122] Setting up cccp1
I0802 16:45:40.799232  2733 net.cpp:129] Top shape: 128 160 32 32 (20971520)
I0802 16:45:40.799239  2733 net.cpp:137] Memory required for data: 289931776
I0802 16:45:40.799252  2733 layer_factory.hpp:77] Creating layer relu_cccp1
I0802 16:45:40.799260  2733 net.cpp:84] Creating Layer relu_cccp1
I0802 16:45:40.799268  2733 net.cpp:406] relu_cccp1 <- cccp1
I0802 16:45:40.799278  2733 net.cpp:367] relu_cccp1 -> cccp1 (in-place)
I0802 16:45:40.799396  2733 net.cpp:122] Setting up relu_cccp1
I0802 16:45:40.799407  2733 net.cpp:129] Top shape: 128 160 32 32 (20971520)
I0802 16:45:40.799414  2733 net.cpp:137] Memory required for data: 373817856
I0802 16:45:40.799420  2733 layer_factory.hpp:77] Creating layer cccp2
I0802 16:45:40.799432  2733 net.cpp:84] Creating Layer cccp2
I0802 16:45:40.799437  2733 net.cpp:406] cccp2 <- cccp1
I0802 16:45:40.799446  2733 net.cpp:380] cccp2 -> cccp2
I0802 16:45:40.800225  2733 net.cpp:122] Setting up cccp2
I0802 16:45:40.800242  2733 net.cpp:129] Top shape: 128 96 32 32 (12582912)
I0802 16:45:40.800249  2733 net.cpp:137] Memory required for data: 424149504
I0802 16:45:40.800276  2733 layer_factory.hpp:77] Creating layer relu_cccp2
I0802 16:45:40.800285  2733 net.cpp:84] Creating Layer relu_cccp2
I0802 16:45:40.800292  2733 net.cpp:406] relu_cccp2 <- cccp2
I0802 16:45:40.800300  2733 net.cpp:367] relu_cccp2 -> cccp2 (in-place)
I0802 16:45:40.800416  2733 net.cpp:122] Setting up relu_cccp2
I0802 16:45:40.800428  2733 net.cpp:129] Top shape: 128 96 32 32 (12582912)
I0802 16:45:40.800434  2733 net.cpp:137] Memory required for data: 474481152
I0802 16:45:40.800441  2733 layer_factory.hpp:77] Creating layer pool1
I0802 16:45:40.800451  2733 net.cpp:84] Creating Layer pool1
I0802 16:45:40.800459  2733 net.cpp:406] pool1 <- cccp2
I0802 16:45:40.800467  2733 net.cpp:380] pool1 -> pool1
I0802 16:45:40.800506  2733 net.cpp:122] Setting up pool1
I0802 16:45:40.800516  2733 net.cpp:129] Top shape: 128 96 16 16 (3145728)
I0802 16:45:40.800523  2733 net.cpp:137] Memory required for data: 487064064
I0802 16:45:40.800529  2733 layer_factory.hpp:77] Creating layer drop3
I0802 16:45:40.800539  2733 net.cpp:84] Creating Layer drop3
I0802 16:45:40.800545  2733 net.cpp:406] drop3 <- pool1
I0802 16:45:40.800554  2733 net.cpp:367] drop3 -> pool1 (in-place)
I0802 16:45:40.800575  2733 net.cpp:122] Setting up drop3
I0802 16:45:40.800585  2733 net.cpp:129] Top shape: 128 96 16 16 (3145728)
I0802 16:45:40.800591  2733 net.cpp:137] Memory required for data: 499646976
I0802 16:45:40.800598  2733 layer_factory.hpp:77] Creating layer conv2
I0802 16:45:40.800608  2733 net.cpp:84] Creating Layer conv2
I0802 16:45:40.800616  2733 net.cpp:406] conv2 <- pool1
I0802 16:45:40.800624  2733 net.cpp:380] conv2 -> conv2
I0802 16:45:40.804520  2733 net.cpp:122] Setting up conv2
I0802 16:45:40.804543  2733 net.cpp:129] Top shape: 128 192 16 16 (6291456)
I0802 16:45:40.804550  2733 net.cpp:137] Memory required for data: 524812800
I0802 16:45:40.804560  2733 layer_factory.hpp:77] Creating layer relu2
I0802 16:45:40.804570  2733 net.cpp:84] Creating Layer relu2
I0802 16:45:40.804577  2733 net.cpp:406] relu2 <- conv2
I0802 16:45:40.804586  2733 net.cpp:367] relu2 -> conv2 (in-place)
I0802 16:45:40.804891  2733 net.cpp:122] Setting up relu2
I0802 16:45:40.804906  2733 net.cpp:129] Top shape: 128 192 16 16 (6291456)
I0802 16:45:40.804913  2733 net.cpp:137] Memory required for data: 549978624
I0802 16:45:40.804919  2733 layer_factory.hpp:77] Creating layer cccp3
I0802 16:45:40.804930  2733 net.cpp:84] Creating Layer cccp3
I0802 16:45:40.804939  2733 net.cpp:406] cccp3 <- conv2
I0802 16:45:40.804947  2733 net.cpp:380] cccp3 -> cccp3
I0802 16:45:40.805838  2733 net.cpp:122] Setting up cccp3
I0802 16:45:40.805855  2733 net.cpp:129] Top shape: 128 192 16 16 (6291456)
I0802 16:45:40.805862  2733 net.cpp:137] Memory required for data: 575144448
I0802 16:45:40.805873  2733 layer_factory.hpp:77] Creating layer relu_cccp3
I0802 16:45:40.805883  2733 net.cpp:84] Creating Layer relu_cccp3
I0802 16:45:40.805891  2733 net.cpp:406] relu_cccp3 <- cccp3
I0802 16:45:40.805899  2733 net.cpp:367] relu_cccp3 -> cccp3 (in-place)
I0802 16:45:40.806013  2733 net.cpp:122] Setting up relu_cccp3
I0802 16:45:40.806025  2733 net.cpp:129] Top shape: 128 192 16 16 (6291456)
I0802 16:45:40.806032  2733 net.cpp:137] Memory required for data: 600310272
I0802 16:45:40.806040  2733 layer_factory.hpp:77] Creating layer cccp4
I0802 16:45:40.806049  2733 net.cpp:84] Creating Layer cccp4
I0802 16:45:40.806056  2733 net.cpp:406] cccp4 <- cccp3
I0802 16:45:40.806066  2733 net.cpp:380] cccp4 -> cccp4
I0802 16:45:40.806941  2733 net.cpp:122] Setting up cccp4
I0802 16:45:40.806957  2733 net.cpp:129] Top shape: 128 192 16 16 (6291456)
I0802 16:45:40.806965  2733 net.cpp:137] Memory required for data: 625476096
I0802 16:45:40.806974  2733 layer_factory.hpp:77] Creating layer relu_cccp4
I0802 16:45:40.806983  2733 net.cpp:84] Creating Layer relu_cccp4
I0802 16:45:40.806990  2733 net.cpp:406] relu_cccp4 <- cccp4
I0802 16:45:40.806998  2733 net.cpp:367] relu_cccp4 -> cccp4 (in-place)
I0802 16:45:40.807114  2733 net.cpp:122] Setting up relu_cccp4
I0802 16:45:40.807130  2733 net.cpp:129] Top shape: 128 192 16 16 (6291456)
I0802 16:45:40.807144  2733 net.cpp:137] Memory required for data: 650641920
I0802 16:45:40.807152  2733 layer_factory.hpp:77] Creating layer pool2
I0802 16:45:40.807163  2733 net.cpp:84] Creating Layer pool2
I0802 16:45:40.807169  2733 net.cpp:406] pool2 <- cccp4
I0802 16:45:40.807178  2733 net.cpp:380] pool2 -> pool2
I0802 16:45:40.807306  2733 net.cpp:122] Setting up pool2
I0802 16:45:40.807317  2733 net.cpp:129] Top shape: 128 192 8 8 (1572864)
I0802 16:45:40.807324  2733 net.cpp:137] Memory required for data: 656933376
I0802 16:45:40.807332  2733 layer_factory.hpp:77] Creating layer drop6
I0802 16:45:40.807340  2733 net.cpp:84] Creating Layer drop6
I0802 16:45:40.807348  2733 net.cpp:406] drop6 <- pool2
I0802 16:45:40.807355  2733 net.cpp:367] drop6 -> pool2 (in-place)
I0802 16:45:40.807379  2733 net.cpp:122] Setting up drop6
I0802 16:45:40.807387  2733 net.cpp:129] Top shape: 128 192 8 8 (1572864)
I0802 16:45:40.807394  2733 net.cpp:137] Memory required for data: 663224832
I0802 16:45:40.807400  2733 layer_factory.hpp:77] Creating layer conv3
I0802 16:45:40.807410  2733 net.cpp:84] Creating Layer conv3
I0802 16:45:40.807417  2733 net.cpp:406] conv3 <- pool2
I0802 16:45:40.807425  2733 net.cpp:380] conv3 -> conv3
I0802 16:45:40.810724  2733 net.cpp:122] Setting up conv3
I0802 16:45:40.810776  2733 net.cpp:129] Top shape: 128 192 8 8 (1572864)
I0802 16:45:40.810786  2733 net.cpp:137] Memory required for data: 669516288
I0802 16:45:40.810799  2733 layer_factory.hpp:77] Creating layer relu3
I0802 16:45:40.810812  2733 net.cpp:84] Creating Layer relu3
I0802 16:45:40.810820  2733 net.cpp:406] relu3 <- conv3
I0802 16:45:40.810830  2733 net.cpp:367] relu3 -> conv3 (in-place)
I0802 16:45:40.811158  2733 net.cpp:122] Setting up relu3
I0802 16:45:40.811177  2733 net.cpp:129] Top shape: 128 192 8 8 (1572864)
I0802 16:45:40.811183  2733 net.cpp:137] Memory required for data: 675807744
I0802 16:45:40.811192  2733 layer_factory.hpp:77] Creating layer cccp5
I0802 16:45:40.811203  2733 net.cpp:84] Creating Layer cccp5
I0802 16:45:40.811211  2733 net.cpp:406] cccp5 <- conv3
I0802 16:45:40.811220  2733 net.cpp:380] cccp5 -> cccp5
I0802 16:45:40.812189  2733 net.cpp:122] Setting up cccp5
I0802 16:45:40.812216  2733 net.cpp:129] Top shape: 128 192 8 8 (1572864)
I0802 16:45:40.812224  2733 net.cpp:137] Memory required for data: 682099200
I0802 16:45:40.812235  2733 layer_factory.hpp:77] Creating layer relu_cccp5
I0802 16:45:40.812244  2733 net.cpp:84] Creating Layer relu_cccp5
I0802 16:45:40.812252  2733 net.cpp:406] relu_cccp5 <- cccp5
I0802 16:45:40.812260  2733 net.cpp:367] relu_cccp5 -> cccp5 (in-place)
I0802 16:45:40.812377  2733 net.cpp:122] Setting up relu_cccp5
I0802 16:45:40.812388  2733 net.cpp:129] Top shape: 128 192 8 8 (1572864)
I0802 16:45:40.812397  2733 net.cpp:137] Memory required for data: 688390656
I0802 16:45:40.812402  2733 layer_factory.hpp:77] Creating layer cccp6
I0802 16:45:40.812412  2733 net.cpp:84] Creating Layer cccp6
I0802 16:45:40.812419  2733 net.cpp:406] cccp6 <- cccp5
I0802 16:45:40.812428  2733 net.cpp:380] cccp6 -> cccp6
I0802 16:45:40.813664  2733 net.cpp:122] Setting up cccp6
I0802 16:45:40.813686  2733 net.cpp:129] Top shape: 128 10 8 8 (81920)
I0802 16:45:40.813694  2733 net.cpp:137] Memory required for data: 688718336
I0802 16:45:40.813707  2733 layer_factory.hpp:77] Creating layer relu_cccp6
I0802 16:45:40.813717  2733 net.cpp:84] Creating Layer relu_cccp6
I0802 16:45:40.813724  2733 net.cpp:406] relu_cccp6 <- cccp6
I0802 16:45:40.813732  2733 net.cpp:367] relu_cccp6 -> cccp6 (in-place)
I0802 16:45:40.813848  2733 net.cpp:122] Setting up relu_cccp6
I0802 16:45:40.813860  2733 net.cpp:129] Top shape: 128 10 8 8 (81920)
I0802 16:45:40.813868  2733 net.cpp:137] Memory required for data: 689046016
I0802 16:45:40.813874  2733 layer_factory.hpp:77] Creating layer pool3
I0802 16:45:40.813884  2733 net.cpp:84] Creating Layer pool3
I0802 16:45:40.813890  2733 net.cpp:406] pool3 <- cccp6
I0802 16:45:40.813905  2733 net.cpp:380] pool3 -> pool3
I0802 16:45:40.814237  2733 net.cpp:122] Setting up pool3
I0802 16:45:40.814254  2733 net.cpp:129] Top shape: 128 10 1 1 (1280)
I0802 16:45:40.814260  2733 net.cpp:137] Memory required for data: 689051136
I0802 16:45:40.814267  2733 layer_factory.hpp:77] Creating layer conv_s_1
I0802 16:45:40.814278  2733 net.cpp:84] Creating Layer conv_s_1
I0802 16:45:40.814286  2733 net.cpp:406] conv_s_1 <- data_cifar_0_split_1
I0802 16:45:40.814296  2733 net.cpp:380] conv_s_1 -> conv_s_1
I0802 16:45:40.815006  2733 net.cpp:122] Setting up conv_s_1
I0802 16:45:40.815021  2733 net.cpp:129] Top shape: 128 32 32 32 (4194304)
I0802 16:45:40.815029  2733 net.cpp:137] Memory required for data: 705828352
I0802 16:45:40.815039  2733 layer_factory.hpp:77] Creating layer pool_s_1
I0802 16:45:40.815047  2733 net.cpp:84] Creating Layer pool_s_1
I0802 16:45:40.815055  2733 net.cpp:406] pool_s_1 <- conv_s_1
I0802 16:45:40.815063  2733 net.cpp:380] pool_s_1 -> pool_s_1
I0802 16:45:40.815095  2733 net.cpp:122] Setting up pool_s_1
I0802 16:45:40.815105  2733 net.cpp:129] Top shape: 128 32 16 16 (1048576)
I0802 16:45:40.815112  2733 net.cpp:137] Memory required for data: 710022656
I0802 16:45:40.815119  2733 layer_factory.hpp:77] Creating layer relu_s_1
I0802 16:45:40.815127  2733 net.cpp:84] Creating Layer relu_s_1
I0802 16:45:40.815135  2733 net.cpp:406] relu_s_1 <- pool_s_1
I0802 16:45:40.815142  2733 net.cpp:367] relu_s_1 -> pool_s_1 (in-place)
I0802 16:45:40.815263  2733 net.cpp:122] Setting up relu_s_1
I0802 16:45:40.815274  2733 net.cpp:129] Top shape: 128 32 16 16 (1048576)
I0802 16:45:40.815279  2733 net.cpp:137] Memory required for data: 714216960
I0802 16:45:40.815286  2733 layer_factory.hpp:77] Creating layer norm_s_1
I0802 16:45:40.815299  2733 net.cpp:84] Creating Layer norm_s_1
I0802 16:45:40.815306  2733 net.cpp:406] norm_s_1 <- pool_s_1
I0802 16:45:40.815315  2733 net.cpp:380] norm_s_1 -> norm_s_1
I0802 16:45:40.815868  2733 net.cpp:122] Setting up norm_s_1
I0802 16:45:40.815884  2733 net.cpp:129] Top shape: 128 32 16 16 (1048576)
I0802 16:45:40.815891  2733 net.cpp:137] Memory required for data: 718411264
I0802 16:45:40.815898  2733 layer_factory.hpp:77] Creating layer conv_s_2
I0802 16:45:40.815908  2733 net.cpp:84] Creating Layer conv_s_2
I0802 16:45:40.815917  2733 net.cpp:406] conv_s_2 <- norm_s_1
I0802 16:45:40.815925  2733 net.cpp:380] conv_s_2 -> conv_s_2
I0802 16:45:40.816784  2733 net.cpp:122] Setting up conv_s_2
I0802 16:45:40.816802  2733 net.cpp:129] Top shape: 128 32 16 16 (1048576)
I0802 16:45:40.816809  2733 net.cpp:137] Memory required for data: 722605568
I0802 16:45:40.816817  2733 layer_factory.hpp:77] Creating layer relu_s_2
I0802 16:45:40.816826  2733 net.cpp:84] Creating Layer relu_s_2
I0802 16:45:40.816833  2733 net.cpp:406] relu_s_2 <- conv_s_2
I0802 16:45:40.816843  2733 net.cpp:367] relu_s_2 -> conv_s_2 (in-place)
I0802 16:45:40.817162  2733 net.cpp:122] Setting up relu_s_2
I0802 16:45:40.817178  2733 net.cpp:129] Top shape: 128 32 16 16 (1048576)
I0802 16:45:40.817184  2733 net.cpp:137] Memory required for data: 726799872
I0802 16:45:40.817193  2733 layer_factory.hpp:77] Creating layer pool_s_2
I0802 16:45:40.817201  2733 net.cpp:84] Creating Layer pool_s_2
I0802 16:45:40.817209  2733 net.cpp:406] pool_s_2 <- conv_s_2
I0802 16:45:40.817216  2733 net.cpp:380] pool_s_2 -> pool_s_2
I0802 16:45:40.817348  2733 net.cpp:122] Setting up pool_s_2
I0802 16:45:40.817361  2733 net.cpp:129] Top shape: 128 32 8 8 (262144)
I0802 16:45:40.817368  2733 net.cpp:137] Memory required for data: 727848448
I0802 16:45:40.817374  2733 layer_factory.hpp:77] Creating layer norm_s_2
I0802 16:45:40.817386  2733 net.cpp:84] Creating Layer norm_s_2
I0802 16:45:40.817394  2733 net.cpp:406] norm_s_2 <- pool_s_2
I0802 16:45:40.817402  2733 net.cpp:380] norm_s_2 -> norm_s_2
I0802 16:45:40.817783  2733 net.cpp:122] Setting up norm_s_2
I0802 16:45:40.817800  2733 net.cpp:129] Top shape: 128 32 8 8 (262144)
I0802 16:45:40.817807  2733 net.cpp:137] Memory required for data: 728897024
I0802 16:45:40.817813  2733 layer_factory.hpp:77] Creating layer conv_s_3
I0802 16:45:40.817833  2733 net.cpp:84] Creating Layer conv_s_3
I0802 16:45:40.817842  2733 net.cpp:406] conv_s_3 <- norm_s_2
I0802 16:45:40.817852  2733 net.cpp:380] conv_s_3 -> conv_s_3
I0802 16:45:40.818897  2733 net.cpp:122] Setting up conv_s_3
I0802 16:45:40.818915  2733 net.cpp:129] Top shape: 128 64 8 8 (524288)
I0802 16:45:40.818923  2733 net.cpp:137] Memory required for data: 730994176
I0802 16:45:40.818931  2733 layer_factory.hpp:77] Creating layer relu_s_3
I0802 16:45:40.818940  2733 net.cpp:84] Creating Layer relu_s_3
I0802 16:45:40.818948  2733 net.cpp:406] relu_s_3 <- conv_s_3
I0802 16:45:40.818955  2733 net.cpp:367] relu_s_3 -> conv_s_3 (in-place)
I0802 16:45:40.819089  2733 net.cpp:122] Setting up relu_s_3
I0802 16:45:40.819102  2733 net.cpp:129] Top shape: 128 64 8 8 (524288)
I0802 16:45:40.819108  2733 net.cpp:137] Memory required for data: 733091328
I0802 16:45:40.819115  2733 layer_factory.hpp:77] Creating layer pool_s_3
I0802 16:45:40.819123  2733 net.cpp:84] Creating Layer pool_s_3
I0802 16:45:40.819130  2733 net.cpp:406] pool_s_3 <- conv_s_3
I0802 16:45:40.819139  2733 net.cpp:380] pool_s_3 -> pool_s_3
I0802 16:45:40.819465  2733 net.cpp:122] Setting up pool_s_3
I0802 16:45:40.819479  2733 net.cpp:129] Top shape: 128 64 4 4 (131072)
I0802 16:45:40.819486  2733 net.cpp:137] Memory required for data: 733615616
I0802 16:45:40.819494  2733 layer_factory.hpp:77] Creating layer ip_s_1
I0802 16:45:40.819504  2733 net.cpp:84] Creating Layer ip_s_1
I0802 16:45:40.819511  2733 net.cpp:406] ip_s_1 <- pool_s_3
I0802 16:45:40.819520  2733 net.cpp:380] ip_s_1 -> ip_s_1
I0802 16:45:40.819661  2733 net.cpp:122] Setting up ip_s_1
I0802 16:45:40.819672  2733 net.cpp:129] Top shape: 128 10 (1280)
I0802 16:45:40.819679  2733 net.cpp:137] Memory required for data: 733620736
I0802 16:45:40.819687  2733 layer_factory.hpp:77] Creating layer ip_s_1_ip_s_1_0_split
I0802 16:45:40.819696  2733 net.cpp:84] Creating Layer ip_s_1_ip_s_1_0_split
I0802 16:45:40.819703  2733 net.cpp:406] ip_s_1_ip_s_1_0_split <- ip_s_1
I0802 16:45:40.819712  2733 net.cpp:380] ip_s_1_ip_s_1_0_split -> ip_s_1_ip_s_1_0_split_0
I0802 16:45:40.819722  2733 net.cpp:380] ip_s_1_ip_s_1_0_split -> ip_s_1_ip_s_1_0_split_1
I0802 16:45:40.819751  2733 net.cpp:122] Setting up ip_s_1_ip_s_1_0_split
I0802 16:45:40.819763  2733 net.cpp:129] Top shape: 128 10 (1280)
I0802 16:45:40.819770  2733 net.cpp:129] Top shape: 128 10 (1280)
I0802 16:45:40.819777  2733 net.cpp:137] Memory required for data: 733630976
I0802 16:45:40.819783  2733 layer_factory.hpp:77] Creating layer sm_s_1
I0802 16:45:40.819792  2733 net.cpp:84] Creating Layer sm_s_1
I0802 16:45:40.819798  2733 net.cpp:406] sm_s_1 <- ip_s_1_ip_s_1_0_split_0
I0802 16:45:40.819806  2733 net.cpp:380] sm_s_1 -> sm_s_1
I0802 16:45:40.819975  2733 net.cpp:122] Setting up sm_s_1
I0802 16:45:40.819988  2733 net.cpp:129] Top shape: 128 10 (1280)
I0802 16:45:40.819994  2733 net.cpp:137] Memory required for data: 733636096
I0802 16:45:40.820000  2733 layer_factory.hpp:77] Creating layer sm_t_1
I0802 16:45:40.820009  2733 net.cpp:84] Creating Layer sm_t_1
I0802 16:45:40.820017  2733 net.cpp:406] sm_t_1 <- pool3
I0802 16:45:40.820025  2733 net.cpp:380] sm_t_1 -> sm_t_1
I0802 16:45:40.820184  2733 net.cpp:122] Setting up sm_t_1
I0802 16:45:40.820196  2733 net.cpp:129] Top shape: 128 10 1 1 (1280)
I0802 16:45:40.820204  2733 net.cpp:137] Memory required for data: 733641216
I0802 16:45:40.820210  2733 layer_factory.hpp:77] Creating layer ts_loss
I0802 16:45:40.820219  2733 net.cpp:84] Creating Layer ts_loss
I0802 16:45:40.820226  2733 net.cpp:406] ts_loss <- sm_s_1
I0802 16:45:40.820235  2733 net.cpp:406] ts_loss <- sm_t_1
I0802 16:45:40.820243  2733 net.cpp:380] ts_loss -> ts_loss
…
I0802 16:45:40.821113  2733 net.cpp:255] Network initialization done.
I0802 16:45:40.821357  2733 solver.cpp:172] Creating test net (#0) specified by net file: ts_cifar10_nin.prototxt
I0802 16:45:40.821389  2733 net.cpp:294] The NetState phase (1) differed from the phase (0) specified by a rule in layer cifar
I0802 16:45:40.821534  2733 net.cpp:51] Initializing net from parameters: 
name: "CIFAR10_full"
state {
  phase: TEST
}
layer {
  name: "cifar"
  type: "Data"
  top: "data"
  top: "label"
  include {
    phase: TEST
  }
  data_param {
    source: "cifar-test-leveldb"
    batch_size: 100
  }
}
layer {
  name: "conv1"
  type: "Convolution"
  bottom: "data"
  top: "conv1"
  param {
    lr_mult: 1
    decay_mult: 1
  }
  param {
    lr_mult: 2
    decay_mult: 0
  }
  convolution_param {
    num_output: 192
    pad: 2
    kernel_size: 5
    weight_filler {
      type: "gaussian"
      std: 0.05
    }
    bias_filler {
      type: "constant"
    }
  }
}
layer {
  name: "relu1"
  type: "ReLU"
  bottom: "conv1"
  top: "conv1"
}
layer {
  name: "cccp1"
  type: "Convolution"
  bottom: "conv1"
  top: "cccp1"
  param {
    lr_mult: 1
    decay_mult: 1
  }
  param {
    lr_mult: 2
    decay_mult: 0
  }
  convolution_param {
    num_output: 160
    kernel_size: 1
    group: 1
    weight_filler {
      type: "gaussian"
      std: 0.05
    }
    bias_filler {
      type: "constant"
      value: 0
    }
  }
}
layer {
  name: "relu_cccp1"
  type: "ReLU"
  bottom: "cccp1"
  top: "cccp1"
}
layer {
  name: "cccp2"
  type: "Convolution"
  bottom: "cccp1"
  top: "cccp2"
  param {
    lr_mult: 1
    decay_mult: 1
  }
  param {
    lr_mult: 2
    decay_mult: 0
  }
  convolution_param {
    num_output: 96
    kernel_size: 1
    group: 1
    weight_filler {
      type: "gaussian"
      std: 0.05
    }
    bias_filler {
      type: "constant"
      value: 0
    }
  }
}
layer {
  name: "relu_cccp2"
  type: "ReLU"
  bottom: "cccp2"
  top: "cccp2"
}
layer {
  name: "pool1"
  type: "Pooling"
  bottom: "cccp2"
  top: "pool1"
  pooling_param {
    pool: MAX
    kernel_size: 3
    stride: 2
  }
}
layer {
  name: "drop3"
  type: "Dropout"
  bottom: "pool1"
  top: "pool1"
  dropout_param {
    dropout_ratio: 0.5
  }
}
layer {
  name: "conv2"
  type: "Convolution"
  bottom: "pool1"
  top: "conv2"
  param {
    lr_mult: 1
    decay_mult: 1
  }
  param {
    lr_mult: 2
    decay_mult: 0
  }
  convolution_param {
    num_output: 192
    pad: 2
    kernel_size: 5
    weight_filler {
      type: "gaussian"
      std: 0.05
    }
    bias_filler {
      type: "constant"
    }
  }
}
layer {
  name: "relu2"
  type: "ReLU"
  bottom: "conv2"
  top: "conv2"
}
layer {
  name: "cccp3"
  type: "Convolution"
  bottom: "conv2"
  top: "cccp3"
  param {
    lr_mult: 1
    decay_mult: 1
  }
  param {
    lr_mult: 2
    decay_mult: 0
  }
  convolution_param {
    num_output: 192
    kernel_size: 1
    group: 1
    weight_filler {
      type: "gaussian"
      std: 0.05
    }
    bias_filler {
      type: "constant"
      value: 0
    }
  }
}
layer {
  name: "relu_cccp3"
  type: "ReLU"
  bottom: "cccp3"
  top: "cccp3"
}
layer {
  name: "cccp4"
  type: "Convolution"
  bottom: "cccp3"
  top: "cccp4"
  param {
    lr_mult: 1
    decay_mult: 1
  }
  param {
    lr_mult: 2
    decay_mult: 0
  }
  convolution_param {
    num_output: 192
    kernel_size: 1
    group: 1
    weight_filler {
      type: "gaussian"
      std: 0.05
    }
    bias_filler {
      type: "constant"
      value: 0
    }
  }
}
layer {
  name: "relu_cccp4"
  type: "ReLU"
  bottom: "cccp4"
  top: "cccp4"
}
layer {
  name: "pool2"
  type: "Pooling"
  bottom: "cccp4"
  top: "pool2"
  pooling_param {
    pool: AVE
    kernel_size: 3
    stride: 2
  }
}
layer {
  name: "drop6"
  type: "Dropout"
  bottom: "pool2"
  top: "pool2"
  dropout_param {
    dropout_ratio: 0.5
  }
}
layer {
  name: "conv3"
  type: "Convolution"
  bottom: "pool2"
  top: "conv3"
  param {
    lr_mult: 1
    decay_mult: 1
  }
  param {
    lr_mult: 2
    decay_mult: 0
  }
  convolution_param {
    num_output: 192
    pad: 1
    kernel_size: 3
    weight_filler {
      type: "gaussian"
      std: 0.05
    }
    bias_filler {
      type: "constant"
    }
  }
}
layer {
  name: "relu3"
  type: "ReLU"
  bottom: "conv3"
  top: "conv3"
}
layer {
  name: "cccp5"
  type: "Convolution"
  bottom: "conv3"
  top: "cccp5"
  param {
    lr_mult: 1
    decay_mult: 1
  }
  param {
    lr_mult: 2
    decay_mult: 0
  }
  convolution_param {
    num_output: 192
    kernel_size: 1
    group: 1
    weight_filler {
      type: "gaussian"
      std: 0.05
    }
    bias_filler {
      type: "constant"
      value: 0
    }
  }
}
layer {
  name: "relu_cccp5"
  type: "ReLU"
  bottom: "cccp5"
  top: "cccp5"
}
layer {
  name: "cccp6"
  type: "Convolution"
  bottom: "cccp5"
  top: "cccp6"
  convolution_param {
    num_output: 10
    kernel_size: 1
    group: 1
    weight_filler {
      type: "gaussian"
      std: 0.05
    }
    bias_filler {
      type: "constant"
      value: 0
    }
  }
}
layer {
  name: "relu_cccp6"
  type: "ReLU"
  bottom: "cccp6"
  top: "cccp6"
}
layer {
  name: "pool3"
  type: "Pooling"
  bottom: "cccp6"
  top: "pool3"
  pooling_param {
    pool: AVE
    kernel_size: 8
    stride: 1
  }
}
layer {
  name: "conv_s_1"
  type: "Convolution"
  bottom: "data"
  top: "conv_s_1"
  param {
    lr_mult: 1
  }
  param {
    lr_mult: 2
  }
  convolution_param {
    num_output: 32
    pad: 2
    kernel_size: 5
    stride: 1
    weight_filler {
      type: "gaussian"
      std: 0.0001
    }
    bias_filler {
      type: "constant"
    }
  }
}
layer {
  name: "pool_s_1"
  type: "Pooling"
  bottom: "conv_s_1"
  top: "pool_s_1"
  pooling_param {
    pool: MAX
    kernel_size: 3
    stride: 2
  }
}
layer {
  name: "relu_s_1"
  type: "ReLU"
  bottom: "pool_s_1"
  top: "pool_s_1"
}
layer {
  name: "norm_s_1"
  type: "LRN"
  bottom: "pool_s_1"
  top: "norm_s_1"
  lrn_param {
    local_size: 3
    alpha: 5e-05
    beta: 0.75
    norm_region: WITHIN_CHANNEL
  }
}
layer {
  name: "conv_s_2"
  type: "Convolution"
  bottom: "norm_s_1"
  top: "conv_s_2"
  param {
    lr_mult: 1
  }
  param {
    lr_mult: 2
  }
  convolution_param {
    num_output: 32
    pad: 2
    kernel_size: 5
    stride: 1
    weight_filler {
      type: "gaussian"
      std: 0.01
    }
    bias_filler {
      type: "constant"
    }
  }
}
layer {
  name: "relu_s_2"
  type: "ReLU"
  bottom: "conv_s_2"
  top: "conv_s_2"
}
layer {
  name: "pool_s_2"
  type: "Pooling"
  bottom: "conv_s_2"
  top: "pool_s_2"
  pooling_param {
    pool: AVE
    kernel_size: 3
    stride: 2
  }
}
layer {
  name: "norm_s_2"
  type: "LRN"
  bottom: "pool_s_2"
  top: "norm_s_2"
  lrn_param {
    local_size: 3
    alpha: 5e-05
    beta: 0.75
    norm_region: WITHIN_CHANNEL
  }
}
layer {
  name: "conv_s_3"
  type: "Convolution"
  bottom: "norm_s_2"
  top: "conv_s_3"
  convolution_param {
    num_output: 64
    pad: 2
    kernel_size: 5
    stride: 1
    weight_filler {
      type: "gaussian"
      std: 0.01
    }
    bias_filler {
      type: "constant"
    }
  }
}
layer {
  name: "relu_s_3"
  type: "ReLU"
  bottom: "conv_s_3"
  top: "conv_s_3"
}
layer {
  name: "pool_s_3"
  type: "Pooling"
  bottom: "conv_s_3"
  top: "pool_s_3"
  pooling_param {
    pool: AVE
    kernel_size: 3
    stride: 2
  }
}
layer {
  name: "ip_s_1"
  type: "InnerProduct"
  bottom: "pool_s_3"
  top: "ip_s_1"
  param {
    lr_mult: 1
    decay_mult: 250
  }
  param {
    lr_mult: 2
    decay_mult: 0
  }
  inner_product_param {
    num_output: 10
    weight_filler {
      type: "gaussian"
      std: 0.01
    }
    bias_filler {
      type: "constant"
    }
  }
}
layer {
  name: "sm_s_1"
  type: "Softmax"
  bottom: "ip_s_1"
  top: "sm_s_1"
}
layer {
  name: "sm_t_1"
  type: "Softmax"
  bottom: "pool3"
  top: "sm_t_1"
}
layer {
  name: "accuracy"
  type: "Accuracy"
  bottom: "ip_s_1"
  bottom: "label"
  top: "accuracy"
  include {
    phase: TEST
  }
}
layer {
  name: "ts_loss"
  type: "SigmoidCrossEntropyLoss"
  bottom: "sm_s_1"
  bottom: "sm_t_1"
  top: "ts_loss"
  loss_weight: 0
}
layer {
  name: "loss"
  type: "SoftmaxWithLoss"
  bottom: "ip_s_1"
  bottom: "label"
  top: "loss"
  loss_weight: 1
}
I0802 16:45:40.821866  2733 layer_factory.hpp:77] Creating layer cifar
I0802 16:45:40.887189  2733 db_leveldb.cpp:18] Opened leveldb cifar-test-leveldb
I0802 16:45:40.887379  2733 net.cpp:84] Creating Layer cifar
I0802 16:45:40.887406  2733 net.cpp:380] cifar -> data
I0802 16:45:40.887428  2733 net.cpp:380] cifar -> label
I0802 16:45:40.887600  2733 data_layer.cpp:45] output data size: 100,3,32,32
I0802 16:45:40.893333  2733 net.cpp:122] Setting up cifar
I0802 16:45:40.893395  2733 net.cpp:129] Top shape: 100 3 32 32 (307200)
I0802 16:45:40.893415  2733 net.cpp:129] Top shape: 100 (100)
I0802 16:45:40.893431  2733 net.cpp:137] Memory required for data: 1229200
I0802 16:45:40.893448  2733 layer_factory.hpp:77] Creating layer data_cifar_0_split
I0802 16:45:40.893473  2733 net.cpp:84] Creating Layer data_cifar_0_split
I0802 16:45:40.893489  2733 net.cpp:406] data_cifar_0_split <- data
I0802 16:45:40.893512  2733 net.cpp:380] data_cifar_0_split -> data_cifar_0_split_0
I0802 16:45:40.893535  2733 net.cpp:380] data_cifar_0_split -> data_cifar_0_split_1
I0802 16:45:40.893621  2733 net.cpp:122] Setting up data_cifar_0_split
I0802 16:45:40.893643  2733 net.cpp:129] Top shape: 100 3 32 32 (307200)
I0802 16:45:40.893659  2733 net.cpp:129] Top shape: 100 3 32 32 (307200)
I0802 16:45:40.893672  2733 net.cpp:137] Memory required for data: 3686800
I0802 16:45:40.893685  2733 layer_factory.hpp:77] Creating layer label_cifar_1_split
I0802 16:45:40.893702  2733 net.cpp:84] Creating Layer label_cifar_1_split
I0802 16:45:40.893718  2733 net.cpp:406] label_cifar_1_split <- label
I0802 16:45:40.893735  2733 net.cpp:380] label_cifar_1_split -> label_cifar_1_split_0
I0802 16:45:40.893757  2733 net.cpp:380] label_cifar_1_split -> label_cifar_1_split_1
I0802 16:45:40.893827  2733 net.cpp:122] Setting up label_cifar_1_split
I0802 16:45:40.893848  2733 net.cpp:129] Top shape: 100 (100)
I0802 16:45:40.893862  2733 net.cpp:129] Top shape: 100 (100)
I0802 16:45:40.893877  2733 net.cpp:137] Memory required for data: 3687600
I0802 16:45:40.893889  2733 layer_factory.hpp:77] Creating layer conv1
I0802 16:45:40.893915  2733 net.cpp:84] Creating Layer conv1
I0802 16:45:40.893930  2733 net.cpp:406] conv1 <- data_cifar_0_split_0
I0802 16:45:40.893949  2733 net.cpp:380] conv1 -> conv1
I0802 16:45:40.896443  2733 net.cpp:122] Setting up conv1
I0802 16:45:40.896498  2733 net.cpp:129] Top shape: 100 192 32 32 (19660800)
I0802 16:45:40.896515  2733 net.cpp:137] Memory required for data: 82330800
I0802 16:45:40.896541  2733 layer_factory.hpp:77] Creating layer relu1
I0802 16:45:40.896567  2733 net.cpp:84] Creating Layer relu1
I0802 16:45:40.896584  2733 net.cpp:406] relu1 <- conv1
I0802 16:45:40.896602  2733 net.cpp:367] relu1 -> conv1 (in-place)
I0802 16:45:40.896877  2733 net.cpp:122] Setting up relu1
I0802 16:45:40.896901  2733 net.cpp:129] Top shape: 100 192 32 32 (19660800)
I0802 16:45:40.896916  2733 net.cpp:137] Memory required for data: 160974000
I0802 16:45:40.896930  2733 layer_factory.hpp:77] Creating layer cccp1
I0802 16:45:40.896956  2733 net.cpp:84] Creating Layer cccp1
I0802 16:45:40.896971  2733 net.cpp:406] cccp1 <- conv1
I0802 16:45:40.896991  2733 net.cpp:380] cccp1 -> cccp1
I0802 16:45:40.899089  2733 net.cpp:122] Setting up cccp1
I0802 16:45:40.899129  2733 net.cpp:129] Top shape: 100 160 32 32 (16384000)
I0802 16:45:40.899147  2733 net.cpp:137] Memory required for data: 226510000
I0802 16:45:40.899169  2733 layer_factory.hpp:77] Creating layer relu_cccp1
I0802 16:45:40.899188  2733 net.cpp:84] Creating Layer relu_cccp1
I0802 16:45:40.899204  2733 net.cpp:406] relu_cccp1 <- cccp1
I0802 16:45:40.899220  2733 net.cpp:367] relu_cccp1 -> cccp1 (in-place)
I0802 16:45:40.899490  2733 net.cpp:122] Setting up relu_cccp1
I0802 16:45:40.899515  2733 net.cpp:129] Top shape: 100 160 32 32 (16384000)
I0802 16:45:40.899530  2733 net.cpp:137] Memory required for data: 292046000
I0802 16:45:40.899544  2733 layer_factory.hpp:77] Creating layer cccp2
I0802 16:45:40.899569  2733 net.cpp:84] Creating Layer cccp2
I0802 16:45:40.899595  2733 net.cpp:406] cccp2 <- cccp1
I0802 16:45:40.899632  2733 net.cpp:380] cccp2 -> cccp2
I0802 16:45:40.901537  2733 net.cpp:122] Setting up cccp2
I0802 16:45:40.901585  2733 net.cpp:129] Top shape: 100 96 32 32 (9830400)
I0802 16:45:40.901602  2733 net.cpp:137] Memory required for data: 331367600
I0802 16:45:40.901628  2733 layer_factory.hpp:77] Creating layer relu_cccp2
I0802 16:45:40.901650  2733 net.cpp:84] Creating Layer relu_cccp2
I0802 16:45:40.901666  2733 net.cpp:406] relu_cccp2 <- cccp2
I0802 16:45:40.901684  2733 net.cpp:367] relu_cccp2 -> cccp2 (in-place)
I0802 16:45:40.902366  2733 net.cpp:122] Setting up relu_cccp2
I0802 16:45:40.902397  2733 net.cpp:129] Top shape: 100 96 32 32 (9830400)
I0802 16:45:40.902412  2733 net.cpp:137] Memory required for data: 370689200
I0802 16:45:40.902426  2733 layer_factory.hpp:77] Creating layer pool1
I0802 16:45:40.902443  2733 net.cpp:84] Creating Layer pool1
I0802 16:45:40.902458  2733 net.cpp:406] pool1 <- cccp2
I0802 16:45:40.902479  2733 net.cpp:380] pool1 -> pool1
I0802 16:45:40.902560  2733 net.cpp:122] Setting up pool1
I0802 16:45:40.902580  2733 net.cpp:129] Top shape: 100 96 16 16 (2457600)
I0802 16:45:40.902593  2733 net.cpp:137] Memory required for data: 380519600
I0802 16:45:40.902608  2733 layer_factory.hpp:77] Creating layer drop3
I0802 16:45:40.902631  2733 net.cpp:84] Creating Layer drop3
I0802 16:45:40.902644  2733 net.cpp:406] drop3 <- pool1
I0802 16:45:40.902662  2733 net.cpp:367] drop3 -> pool1 (in-place)
I0802 16:45:40.902711  2733 net.cpp:122] Setting up drop3
I0802 16:45:40.902729  2733 net.cpp:129] Top shape: 100 96 16 16 (2457600)
I0802 16:45:40.902742  2733 net.cpp:137] Memory required for data: 390350000
I0802 16:45:40.902755  2733 layer_factory.hpp:77] Creating layer conv2
I0802 16:45:40.902781  2733 net.cpp:84] Creating Layer conv2
I0802 16:45:40.902796  2733 net.cpp:406] conv2 <- pool1
I0802 16:45:40.902814  2733 net.cpp:380] conv2 -> conv2
I0802 16:45:40.910532  2733 net.cpp:122] Setting up conv2
I0802 16:45:40.910588  2733 net.cpp:129] Top shape: 100 192 16 16 (4915200)
I0802 16:45:40.910615  2733 net.cpp:137] Memory required for data: 410010800
I0802 16:45:40.910636  2733 layer_factory.hpp:77] Creating layer relu2
I0802 16:45:40.910655  2733 net.cpp:84] Creating Layer relu2
I0802 16:45:40.910671  2733 net.cpp:406] relu2 <- conv2
I0802 16:45:40.910687  2733 net.cpp:367] relu2 -> conv2 (in-place)
I0802 16:45:40.910948  2733 net.cpp:122] Setting up relu2
I0802 16:45:40.910974  2733 net.cpp:129] Top shape: 100 192 16 16 (4915200)
I0802 16:45:40.910986  2733 net.cpp:137] Memory required for data: 429671600
I0802 16:45:40.911000  2733 layer_factory.hpp:77] Creating layer cccp3
I0802 16:45:40.911023  2733 net.cpp:84] Creating Layer cccp3
I0802 16:45:40.911038  2733 net.cpp:406] cccp3 <- conv2
I0802 16:45:40.911057  2733 net.cpp:380] cccp3 -> cccp3
I0802 16:45:40.912981  2733 net.cpp:122] Setting up cccp3
I0802 16:45:40.913015  2733 net.cpp:129] Top shape: 100 192 16 16 (4915200)
I0802 16:45:40.913030  2733 net.cpp:137] Memory required for data: 449332400
I0802 16:45:40.913054  2733 layer_factory.hpp:77] Creating layer relu_cccp3
I0802 16:45:40.913074  2733 net.cpp:84] Creating Layer relu_cccp3
I0802 16:45:40.913095  2733 net.cpp:406] relu_cccp3 <- cccp3
I0802 16:45:40.913115  2733 net.cpp:367] relu_cccp3 -> cccp3 (in-place)
I0802 16:45:40.913367  2733 net.cpp:122] Setting up relu_cccp3
I0802 16:45:40.913391  2733 net.cpp:129] Top shape: 100 192 16 16 (4915200)
I0802 16:45:40.913404  2733 net.cpp:137] Memory required for data: 468993200
I0802 16:45:40.913416  2733 layer_factory.hpp:77] Creating layer cccp4
I0802 16:45:40.913437  2733 net.cpp:84] Creating Layer cccp4
I0802 16:45:40.913450  2733 net.cpp:406] cccp4 <- cccp3
I0802 16:45:40.913468  2733 net.cpp:380] cccp4 -> cccp4
I0802 16:45:40.915359  2733 net.cpp:122] Setting up cccp4
I0802 16:45:40.915405  2733 net.cpp:129] Top shape: 100 192 16 16 (4915200)
I0802 16:45:40.915421  2733 net.cpp:137] Memory required for data: 488654000
I0802 16:45:40.915441  2733 layer_factory.hpp:77] Creating layer relu_cccp4
I0802 16:45:40.915480  2733 net.cpp:84] Creating Layer relu_cccp4
I0802 16:45:40.915498  2733 net.cpp:406] relu_cccp4 <- cccp4
I0802 16:45:40.915518  2733 net.cpp:367] relu_cccp4 -> cccp4 (in-place)
I0802 16:45:40.916159  2733 net.cpp:122] Setting up relu_cccp4
I0802 16:45:40.916190  2733 net.cpp:129] Top shape: 100 192 16 16 (4915200)
I0802 16:45:40.916205  2733 net.cpp:137] Memory required for data: 508314800
I0802 16:45:40.916218  2733 layer_factory.hpp:77] Creating layer pool2
I0802 16:45:40.916236  2733 net.cpp:84] Creating Layer pool2
I0802 16:45:40.916252  2733 net.cpp:406] pool2 <- cccp4
I0802 16:45:40.916270  2733 net.cpp:380] pool2 -> pool2
I0802 16:45:40.916548  2733 net.cpp:122] Setting up pool2
I0802 16:45:40.916573  2733 net.cpp:129] Top shape: 100 192 8 8 (1228800)
I0802 16:45:40.916585  2733 net.cpp:137] Memory required for data: 513230000
I0802 16:45:40.916599  2733 layer_factory.hpp:77] Creating layer drop6
I0802 16:45:40.916618  2733 net.cpp:84] Creating Layer drop6
I0802 16:45:40.916632  2733 net.cpp:406] drop6 <- pool2
I0802 16:45:40.916651  2733 net.cpp:367] drop6 -> pool2 (in-place)
I0802 16:45:40.916705  2733 net.cpp:122] Setting up drop6
I0802 16:45:40.916724  2733 net.cpp:129] Top shape: 100 192 8 8 (1228800)
I0802 16:45:40.916738  2733 net.cpp:137] Memory required for data: 518145200
I0802 16:45:40.916751  2733 layer_factory.hpp:77] Creating layer conv3
I0802 16:45:40.916774  2733 net.cpp:84] Creating Layer conv3
I0802 16:45:40.916788  2733 net.cpp:406] conv3 <- pool2
I0802 16:45:40.916806  2733 net.cpp:380] conv3 -> conv3
I0802 16:45:40.922621  2733 net.cpp:122] Setting up conv3
I0802 16:45:40.922669  2733 net.cpp:129] Top shape: 100 192 8 8 (1228800)
I0802 16:45:40.922684  2733 net.cpp:137] Memory required for data: 523060400
I0802 16:45:40.922703  2733 layer_factory.hpp:77] Creating layer relu3
I0802 16:45:40.922720  2733 net.cpp:84] Creating Layer relu3
I0802 16:45:40.922734  2733 net.cpp:406] relu3 <- conv3
I0802 16:45:40.922749  2733 net.cpp:367] relu3 -> conv3 (in-place)
I0802 16:45:40.922977  2733 net.cpp:122] Setting up relu3
I0802 16:45:40.922997  2733 net.cpp:129] Top shape: 100 192 8 8 (1228800)
I0802 16:45:40.923008  2733 net.cpp:137] Memory required for data: 527975600
I0802 16:45:40.923020  2733 layer_factory.hpp:77] Creating layer cccp5
I0802 16:45:40.923053  2733 net.cpp:84] Creating Layer cccp5
I0802 16:45:40.923063  2733 net.cpp:406] cccp5 <- conv3
I0802 16:45:40.923079  2733 net.cpp:380] cccp5 -> cccp5
I0802 16:45:40.924474  2733 net.cpp:122] Setting up cccp5
I0802 16:45:40.924497  2733 net.cpp:129] Top shape: 100 192 8 8 (1228800)
I0802 16:45:40.924507  2733 net.cpp:137] Memory required for data: 532890800
I0802 16:45:40.924521  2733 layer_factory.hpp:77] Creating layer relu_cccp5
I0802 16:45:40.924533  2733 net.cpp:84] Creating Layer relu_cccp5
I0802 16:45:40.924543  2733 net.cpp:406] relu_cccp5 <- cccp5
I0802 16:45:40.924556  2733 net.cpp:367] relu_cccp5 -> cccp5 (in-place)
I0802 16:45:40.924741  2733 net.cpp:122] Setting up relu_cccp5
I0802 16:45:40.924757  2733 net.cpp:129] Top shape: 100 192 8 8 (1228800)
I0802 16:45:40.924767  2733 net.cpp:137] Memory required for data: 537806000
I0802 16:45:40.924777  2733 layer_factory.hpp:77] Creating layer cccp6
I0802 16:45:40.924793  2733 net.cpp:84] Creating Layer cccp6
I0802 16:45:40.924803  2733 net.cpp:406] cccp6 <- cccp5
I0802 16:45:40.924816  2733 net.cpp:380] cccp6 -> cccp6
I0802 16:45:40.925904  2733 net.cpp:122] Setting up cccp6
I0802 16:45:40.925930  2733 net.cpp:129] Top shape: 100 10 8 8 (64000)
I0802 16:45:40.925940  2733 net.cpp:137] Memory required for data: 538062000
I0802 16:45:40.925958  2733 layer_factory.hpp:77] Creating layer relu_cccp6
I0802 16:45:40.925972  2733 net.cpp:84] Creating Layer relu_cccp6
I0802 16:45:40.925983  2733 net.cpp:406] relu_cccp6 <- cccp6
I0802 16:45:40.925995  2733 net.cpp:367] relu_cccp6 -> cccp6 (in-place)
I0802 16:45:40.926445  2733 net.cpp:122] Setting up relu_cccp6
I0802 16:45:40.926467  2733 net.cpp:129] Top shape: 100 10 8 8 (64000)
I0802 16:45:40.926486  2733 net.cpp:137] Memory required for data: 538318000
I0802 16:45:40.926506  2733 layer_factory.hpp:77] Creating layer pool3
I0802 16:45:40.926518  2733 net.cpp:84] Creating Layer pool3
I0802 16:45:40.926529  2733 net.cpp:406] pool3 <- cccp6
I0802 16:45:40.926542  2733 net.cpp:380] pool3 -> pool3
I0802 16:45:40.926760  2733 net.cpp:122] Setting up pool3
I0802 16:45:40.926779  2733 net.cpp:129] Top shape: 100 10 1 1 (1000)
I0802 16:45:40.926789  2733 net.cpp:137] Memory required for data: 538322000
I0802 16:45:40.926803  2733 layer_factory.hpp:77] Creating layer conv_s_1
I0802 16:45:40.926820  2733 net.cpp:84] Creating Layer conv_s_1
I0802 16:45:40.926831  2733 net.cpp:406] conv_s_1 <- data_cifar_0_split_1
I0802 16:45:40.926846  2733 net.cpp:380] conv_s_1 -> conv_s_1
I0802 16:45:40.927943  2733 net.cpp:122] Setting up conv_s_1
I0802 16:45:40.927966  2733 net.cpp:129] Top shape: 100 32 32 32 (3276800)
I0802 16:45:40.927978  2733 net.cpp:137] Memory required for data: 551429200
I0802 16:45:40.927990  2733 layer_factory.hpp:77] Creating layer pool_s_1
I0802 16:45:40.928016  2733 net.cpp:84] Creating Layer pool_s_1
I0802 16:45:40.928026  2733 net.cpp:406] pool_s_1 <- conv_s_1
I0802 16:45:40.928037  2733 net.cpp:380] pool_s_1 -> pool_s_1
I0802 16:45:40.928086  2733 net.cpp:122] Setting up pool_s_1
I0802 16:45:40.928097  2733 net.cpp:129] Top shape: 100 32 16 16 (819200)
I0802 16:45:40.928105  2733 net.cpp:137] Memory required for data: 554706000
I0802 16:45:40.928114  2733 layer_factory.hpp:77] Creating layer relu_s_1
I0802 16:45:40.928125  2733 net.cpp:84] Creating Layer relu_s_1
I0802 16:45:40.928134  2733 net.cpp:406] relu_s_1 <- pool_s_1
I0802 16:45:40.928144  2733 net.cpp:367] relu_s_1 -> pool_s_1 (in-place)
I0802 16:45:40.928306  2733 net.cpp:122] Setting up relu_s_1
I0802 16:45:40.928323  2733 net.cpp:129] Top shape: 100 32 16 16 (819200)
I0802 16:45:40.928331  2733 net.cpp:137] Memory required for data: 557982800
I0802 16:45:40.928339  2733 layer_factory.hpp:77] Creating layer norm_s_1
I0802 16:45:40.928351  2733 net.cpp:84] Creating Layer norm_s_1
I0802 16:45:40.928359  2733 net.cpp:406] norm_s_1 <- pool_s_1
I0802 16:45:40.928371  2733 net.cpp:380] norm_s_1 -> norm_s_1
I0802 16:45:40.929318  2733 net.cpp:122] Setting up norm_s_1
I0802 16:45:40.929339  2733 net.cpp:129] Top shape: 100 32 16 16 (819200)
I0802 16:45:40.929348  2733 net.cpp:137] Memory required for data: 561259600
I0802 16:45:40.929358  2733 layer_factory.hpp:77] Creating layer conv_s_2
I0802 16:45:40.929371  2733 net.cpp:84] Creating Layer conv_s_2
I0802 16:45:40.929381  2733 net.cpp:406] conv_s_2 <- norm_s_1
I0802 16:45:40.929394  2733 net.cpp:380] conv_s_2 -> conv_s_2
I0802 16:45:40.930558  2733 net.cpp:122] Setting up conv_s_2
I0802 16:45:40.930579  2733 net.cpp:129] Top shape: 100 32 16 16 (819200)
I0802 16:45:40.930588  2733 net.cpp:137] Memory required for data: 564536400
I0802 16:45:40.930599  2733 layer_factory.hpp:77] Creating layer relu_s_2
I0802 16:45:40.930610  2733 net.cpp:84] Creating Layer relu_s_2
I0802 16:45:40.930620  2733 net.cpp:406] relu_s_2 <- conv_s_2
I0802 16:45:40.930631  2733 net.cpp:367] relu_s_2 -> conv_s_2 (in-place)
I0802 16:45:40.930794  2733 net.cpp:122] Setting up relu_s_2
I0802 16:45:40.930809  2733 net.cpp:129] Top shape: 100 32 16 16 (819200)
I0802 16:45:40.930819  2733 net.cpp:137] Memory required for data: 567813200
I0802 16:45:40.930827  2733 layer_factory.hpp:77] Creating layer pool_s_2
I0802 16:45:40.930843  2733 net.cpp:84] Creating Layer pool_s_2
I0802 16:45:40.930853  2733 net.cpp:406] pool_s_2 <- conv_s_2
I0802 16:45:40.930863  2733 net.cpp:380] pool_s_2 -> pool_s_2
I0802 16:45:40.931032  2733 net.cpp:122] Setting up pool_s_2
I0802 16:45:40.931047  2733 net.cpp:129] Top shape: 100 32 8 8 (204800)
I0802 16:45:40.931056  2733 net.cpp:137] Memory required for data: 568632400
I0802 16:45:40.931064  2733 layer_factory.hpp:77] Creating layer norm_s_2
I0802 16:45:40.931077  2733 net.cpp:84] Creating Layer norm_s_2
I0802 16:45:40.931085  2733 net.cpp:406] norm_s_2 <- pool_s_2
I0802 16:45:40.931102  2733 net.cpp:380] norm_s_2 -> norm_s_2
I0802 16:45:40.931627  2733 net.cpp:122] Setting up norm_s_2
I0802 16:45:40.931646  2733 net.cpp:129] Top shape: 100 32 8 8 (204800)
I0802 16:45:40.931655  2733 net.cpp:137] Memory required for data: 569451600
I0802 16:45:40.931665  2733 layer_factory.hpp:77] Creating layer conv_s_3
I0802 16:45:40.931679  2733 net.cpp:84] Creating Layer conv_s_3
I0802 16:45:40.931689  2733 net.cpp:406] conv_s_3 <- norm_s_2
I0802 16:45:40.931700  2733 net.cpp:380] conv_s_3 -> conv_s_3
I0802 16:45:40.933045  2733 net.cpp:122] Setting up conv_s_3
I0802 16:45:40.933063  2733 net.cpp:129] Top shape: 100 64 8 8 (409600)
I0802 16:45:40.933073  2733 net.cpp:137] Memory required for data: 571090000
I0802 16:45:40.933082  2733 layer_factory.hpp:77] Creating layer relu_s_3
I0802 16:45:40.933099  2733 net.cpp:84] Creating Layer relu_s_3
I0802 16:45:40.933109  2733 net.cpp:406] relu_s_3 <- conv_s_3
I0802 16:45:40.933117  2733 net.cpp:367] relu_s_3 -> conv_s_3 (in-place)
I0802 16:45:40.933264  2733 net.cpp:122] Setting up relu_s_3
I0802 16:45:40.933277  2733 net.cpp:129] Top shape: 100 64 8 8 (409600)
I0802 16:45:40.933284  2733 net.cpp:137] Memory required for data: 572728400
I0802 16:45:40.933292  2733 layer_factory.hpp:77] Creating layer pool_s_3
I0802 16:45:40.933302  2733 net.cpp:84] Creating Layer pool_s_3
I0802 16:45:40.933310  2733 net.cpp:406] pool_s_3 <- conv_s_3
I0802 16:45:40.933318  2733 net.cpp:380] pool_s_3 -> pool_s_3
I0802 16:45:40.933475  2733 net.cpp:122] Setting up pool_s_3
I0802 16:45:40.933488  2733 net.cpp:129] Top shape: 100 64 4 4 (102400)
I0802 16:45:40.933496  2733 net.cpp:137] Memory required for data: 573138000
I0802 16:45:40.933504  2733 layer_factory.hpp:77] Creating layer ip_s_1
I0802 16:45:40.933516  2733 net.cpp:84] Creating Layer ip_s_1
I0802 16:45:40.933523  2733 net.cpp:406] ip_s_1 <- pool_s_3
I0802 16:45:40.933533  2733 net.cpp:380] ip_s_1 -> ip_s_1
I0802 16:45:40.933699  2733 net.cpp:122] Setting up ip_s_1
I0802 16:45:40.933712  2733 net.cpp:129] Top shape: 100 10 (1000)
I0802 16:45:40.933718  2733 net.cpp:137] Memory required for data: 573142000
I0802 16:45:40.933728  2733 layer_factory.hpp:77] Creating layer ip_s_1_ip_s_1_0_split
I0802 16:45:40.933737  2733 net.cpp:84] Creating Layer ip_s_1_ip_s_1_0_split
I0802 16:45:40.933745  2733 net.cpp:406] ip_s_1_ip_s_1_0_split <- ip_s_1
I0802 16:45:40.933755  2733 net.cpp:380] ip_s_1_ip_s_1_0_split -> ip_s_1_ip_s_1_0_split_0
I0802 16:45:40.933768  2733 net.cpp:380] ip_s_1_ip_s_1_0_split -> ip_s_1_ip_s_1_0_split_1
I0802 16:45:40.933779  2733 net.cpp:380] ip_s_1_ip_s_1_0_split -> ip_s_1_ip_s_1_0_split_2
I0802 16:45:40.933830  2733 net.cpp:122] Setting up ip_s_1_ip_s_1_0_split
I0802 16:45:40.933840  2733 net.cpp:129] Top shape: 100 10 (1000)
I0802 16:45:40.933848  2733 net.cpp:129] Top shape: 100 10 (1000)
I0802 16:45:40.933856  2733 net.cpp:129] Top shape: 100 10 (1000)
I0802 16:45:40.933863  2733 net.cpp:137] Memory required for data: 573154000
I0802 16:45:40.933871  2733 layer_factory.hpp:77] Creating layer sm_s_1
I0802 16:45:40.933881  2733 net.cpp:84] Creating Layer sm_s_1
I0802 16:45:40.933888  2733 net.cpp:406] sm_s_1 <- ip_s_1_ip_s_1_0_split_0
I0802 16:45:40.933898  2733 net.cpp:380] sm_s_1 -> sm_s_1
I0802 16:45:40.934088  2733 net.cpp:122] Setting up sm_s_1
I0802 16:45:40.934103  2733 net.cpp:129] Top shape: 100 10 (1000)
I0802 16:45:40.934110  2733 net.cpp:137] Memory required for data: 573158000
I0802 16:45:40.934118  2733 layer_factory.hpp:77] Creating layer sm_t_1
I0802 16:45:40.934126  2733 net.cpp:84] Creating Layer sm_t_1
I0802 16:45:40.934134  2733 net.cpp:406] sm_t_1 <- pool3
I0802 16:45:40.934144  2733 net.cpp:380] sm_t_1 -> sm_t_1
I0802 16:45:40.934557  2733 net.cpp:122] Setting up sm_t_1
I0802 16:45:40.934576  2733 net.cpp:129] Top shape: 100 10 1 1 (1000)
I0802 16:45:40.934583  2733 net.cpp:137] Memory required for data: 573162000
I0802 16:45:40.934592  2733 layer_factory.hpp:77] Creating layer accuracy
I0802 16:45:40.934602  2733 net.cpp:84] Creating Layer accuracy
I0802 16:45:40.934609  2733 net.cpp:406] accuracy <- ip_s_1_ip_s_1_0_split_1
I0802 16:45:40.934629  2733 net.cpp:406] accuracy <- label_cifar_1_split_0
I0802 16:45:40.934641  2733 net.cpp:380] accuracy -> accuracy
…
