…
I0801 16:21:31.985265  2153 net.cpp:294] The NetState phase (0) differed from the phase (1) specified by a rule in layer accuracy
I0801 16:21:31.985368  2153 net.cpp:51] Initializing net from parameters: 
name: "CIFAR10_full"
state {
  phase: TRAIN
  level: 0
  stage: ""
}
layer {
  name: "cifar"
  type: "Data"
  top: "data"
  top: "label"
  include {
    phase: TRAIN
  }
  transform_param {
    mean_file: "/opt/caffe/examples/cifar10/mean.binaryproto"
  }
  data_param {
    source: "/opt/caffe/examples/cifar10/cifar10_train_lmdb"
    batch_size: 100
    backend: LMDB
  }
}
layer {
  name: "conv_s_1"
  type: "Convolution"
  bottom: "data"
  top: "conv_s_1"
  param {
    lr_mult: 1
  }
  param {
    lr_mult: 2
  }
  convolution_param {
    num_output: 32
    pad: 2
    kernel_size: 5
    stride: 1
    weight_filler {
      type: "gaussian"
      std: 0.0001
    }
    bias_filler {
      type: "constant"
    }
  }
}
layer {
  name: "pool_s_1"
  type: "Pooling"
  bottom: "conv_s_1"
  top: "pool_s_1"
  pooling_param {
    pool: MAX
    kernel_size: 3
    stride: 2
  }
}
layer {
  name: "relu_s_1"
  type: "ReLU"
  bottom: "pool_s_1"
  top: "pool_s_1"
}
layer {
  name: "norm_s_1"
  type: "LRN"
  bottom: "pool_s_1"
  top: "norm_s_1"
  lrn_param {
    local_size: 3
    alpha: 5e-05
    beta: 0.75
    norm_region: WITHIN_CHANNEL
  }
}
layer {
  name: "conv_s_2"
  type: "Convolution"
  bottom: "norm_s_1"
  top: "conv_s_2"
  param {
    lr_mult: 1
  }
  param {
    lr_mult: 2
  }
  convolution_param {
    num_output: 32
    pad: 2
    kernel_size: 5
    stride: 1
    weight_filler {
      type: "gaussian"
      std: 0.01
    }
    bias_filler {
      type: "constant"
    }
  }
}
layer {
  name: "relu_s_2"
  type: "ReLU"
  bottom: "conv_s_2"
  top: "conv_s_2"
}
layer {
  name: "pool_s_2"
  type: "Pooling"
  bottom: "conv_s_2"
  top: "pool_s_2"
  pooling_param {
    pool: AVE
    kernel_size: 3
    stride: 2
  }
}
layer {
  name: "norm_s_2"
  type: "LRN"
  bottom: "pool_s_2"
  top: "norm_s_2"
  lrn_param {
    local_size: 3
    alpha: 5e-05
    beta: 0.75
    norm_region: WITHIN_CHANNEL
  }
}
layer {
  name: "conv_s_3"
  type: "Convolution"
  bottom: "norm_s_2"
  top: "conv_s_3"
  param {
    lr_mult: 1
  }
  param {
    lr_mult: 2
  }
  convolution_param {
    num_output: 64
    pad: 2
    kernel_size: 5
    stride: 1
    weight_filler {
      type: "gaussian"
      std: 0.01
    }
    bias_filler {
      type: "constant"
    }
  }
}
layer {
  name: "relu_s_3"
  type: "ReLU"
  bottom: "conv_s_3"
  top: "conv_s_3"
}
layer {
  name: "pool_s_3"
  type: "Pooling"
  bottom: "conv_s_3"
  top: "pool_s_3"
  pooling_param {
    pool: AVE
    kernel_size: 3
    stride: 2
  }
}
layer {
  name: "ip_s_1"
  type: "InnerProduct"
  bottom: "pool_s_3"
  top: "ip_s_1"
  param {
    lr_mult: 1
    decay_mult: 250
  }
  param {
    lr_mult: 2
    decay_mult: 0
  }
  inner_product_param {
    num_output: 10
    weight_filler {
      type: "gaussian"
      std: 0.01
    }
    bias_filler {
      type: "constant"
    }
  }
}
layer {
  name: "conv_t_1"
  type: "Convolution"
  bottom: "data"
  top: "conv_t_1"
  param {
    lr_mult: 0
  }
  param {
    lr_mult: 0
  }
  convolution_param {
    num_output: 32
    pad: 2
    kernel_size: 5
    stride: 1
    weight_filler {
      type: "gaussian"
      std: 0.0001
    }
    bias_filler {
      type: "constant"
    }
  }
}
layer {
  name: "pool_t_1"
  type: "Pooling"
  bottom: "conv_t_1"
  top: "pool_t_1"
  pooling_param {
    pool: MAX
    kernel_size: 3
    stride: 2
  }
}
layer {
  name: "relu_t_1"
  type: "ReLU"
  bottom: "pool_t_1"
  top: "pool_t_1"
}
layer {
  name: "norm_t_1"
  type: "LRN"
  bottom: "pool_t_1"
  top: "norm_t_1"
  lrn_param {
    local_size: 3
    alpha: 5e-05
    beta: 0.75
    norm_region: WITHIN_CHANNEL
  }
}
layer {
  name: "conv_t_2"
  type: "Convolution"
  bottom: "norm_t_1"
  top: "conv_t_2"
  param {
    lr_mult: 0
  }
  param {
    lr_mult: 0
  }
  convolution_param {
    num_output: 32
    pad: 2
    kernel_size: 5
    stride: 1
    weight_filler {
      type: "gaussian"
      std: 0.01
    }
    bias_filler {
      type: "constant"
    }
  }
}
layer {
  name: "relu_t_2"
  type: "ReLU"
  bottom: "conv_t_2"
  top: "conv_t_2"
}
layer {
  name: "pool_t_2"
  type: "Pooling"
  bottom: "conv_t_2"
  top: "pool_t_2"
  pooling_param {
    pool: AVE
    kernel_size: 3
    stride: 2
  }
}
layer {
  name: "norm_t_2"
  type: "LRN"
  bottom: "pool_t_2"
  top: "norm_t_2"
  lrn_param {
    local_size: 3
    alpha: 5e-05
    beta: 0.75
    norm_region: WITHIN_CHANNEL
  }
}
layer {
  name: "conv_t_3"
  type: "Convolution"
  bottom: "norm_t_2"
  top: "conv_t_3"
  param {
    lr_mult: 0
  }
  param {
    lr_mult: 0
  }
  convolution_param {
    num_output: 64
    pad: 2
    kernel_size: 5
    stride: 1
    weight_filler {
      type: "gaussian"
      std: 0.01
    }
    bias_filler {
      type: "constant"
    }
  }
}
layer {
  name: "relu_t_3"
  type: "ReLU"
  bottom: "conv_t_3"
  top: "conv_t_3"
}
layer {
  name: "pool_t_3"
  type: "Pooling"
  bottom: "conv_t_3"
  top: "pool_t_3"
  pooling_param {
    pool: AVE
    kernel_size: 3
    stride: 2
  }
}
layer {
  name: "ip_t_1"
  type: "InnerProduct"
  bottom: "pool_t_3"
  top: "ip_t_1"
  param {
    lr_mult: 0
  }
  param {
    lr_mult: 0
  }
  inner_product_param {
    num_output: 10
    weight_filler {
      type: "gaussian"
      std: 0.01
    }
    bias_filler {
      type: "constant"
    }
  }
}
layer {
  name: "sm_s_1"
  type: "Softmax"
  bottom: "ip_s_1"
  top: "sm_s_1"
}
layer {
  name: "sm_t_1"
  type: "Softmax"
  bottom: "ip_t_1"
  top: "sm_t_1"
}
layer {
  name: "ts_loss"
  type: "SigmoidCrossEntropyLoss"
  bottom: "sm_s_1"
  bottom: "sm_t_1"
  top: "ts_loss"
  loss_weight: 0.9
}
layer {
  name: "loss"
  type: "SoftmaxWithLoss"
  bottom: "ip_s_1"
  bottom: "label"
  top: "loss"
  loss_weight: 0.1
}
I0801 16:21:31.985457  2153 layer_factory.hpp:77] Creating layer cifar
I0801 16:21:31.985545  2153 db_lmdb.cpp:35] Opened lmdb /opt/caffe/examples/cifar10/cifar10_train_lmdb
I0801 16:21:31.985564  2153 net.cpp:84] Creating Layer cifar
I0801 16:21:31.985570  2153 net.cpp:380] cifar -> data
I0801 16:21:31.985585  2153 net.cpp:380] cifar -> label
I0801 16:21:31.985594  2153 data_transformer.cpp:25] Loading mean file from: /opt/caffe/examples/cifar10/mean.binaryproto
I0801 16:21:31.986721  2153 data_layer.cpp:45] output data size: 100,3,32,32
I0801 16:21:31.990294  2153 net.cpp:122] Setting up cifar
I0801 16:21:31.990311  2153 net.cpp:129] Top shape: 100 3 32 32 (307200)
I0801 16:21:31.990314  2153 net.cpp:129] Top shape: 100 (100)
I0801 16:21:31.990316  2153 net.cpp:137] Memory required for data: 1229200
I0801 16:21:31.990324  2153 layer_factory.hpp:77] Creating layer data_cifar_0_split
I0801 16:21:31.990335  2153 net.cpp:84] Creating Layer data_cifar_0_split
I0801 16:21:31.990339  2153 net.cpp:406] data_cifar_0_split <- data
I0801 16:21:31.990350  2153 net.cpp:380] data_cifar_0_split -> data_cifar_0_split_0
I0801 16:21:31.990358  2153 net.cpp:380] data_cifar_0_split -> data_cifar_0_split_1
I0801 16:21:31.990387  2153 net.cpp:122] Setting up data_cifar_0_split
I0801 16:21:31.990391  2153 net.cpp:129] Top shape: 100 3 32 32 (307200)
I0801 16:21:31.990394  2153 net.cpp:129] Top shape: 100 3 32 32 (307200)
I0801 16:21:31.990396  2153 net.cpp:137] Memory required for data: 3686800
I0801 16:21:31.990397  2153 layer_factory.hpp:77] Creating layer conv_s_1
I0801 16:21:31.990408  2153 net.cpp:84] Creating Layer conv_s_1
I0801 16:21:31.990423  2153 net.cpp:406] conv_s_1 <- data_cifar_0_split_0
I0801 16:21:31.990428  2153 net.cpp:380] conv_s_1 -> conv_s_1
I0801 16:21:32.300427  2153 net.cpp:122] Setting up conv_s_1
I0801 16:21:32.300446  2153 net.cpp:129] Top shape: 100 32 32 32 (3276800)
I0801 16:21:32.300448  2153 net.cpp:137] Memory required for data: 16794000
I0801 16:21:32.300463  2153 layer_factory.hpp:77] Creating layer pool_s_1
I0801 16:21:32.300472  2153 net.cpp:84] Creating Layer pool_s_1
I0801 16:21:32.300474  2153 net.cpp:406] pool_s_1 <- conv_s_1
I0801 16:21:32.300478  2153 net.cpp:380] pool_s_1 -> pool_s_1
I0801 16:21:32.300518  2153 net.cpp:122] Setting up pool_s_1
I0801 16:21:32.300523  2153 net.cpp:129] Top shape: 100 32 16 16 (819200)
I0801 16:21:32.300524  2153 net.cpp:137] Memory required for data: 20070800
I0801 16:21:32.300526  2153 layer_factory.hpp:77] Creating layer relu_s_1
I0801 16:21:32.300531  2153 net.cpp:84] Creating Layer relu_s_1
I0801 16:21:32.300534  2153 net.cpp:406] relu_s_1 <- pool_s_1
I0801 16:21:32.300535  2153 net.cpp:367] relu_s_1 -> pool_s_1 (in-place)
I0801 16:21:32.300863  2153 net.cpp:122] Setting up relu_s_1
I0801 16:21:32.300871  2153 net.cpp:129] Top shape: 100 32 16 16 (819200)
I0801 16:21:32.300873  2153 net.cpp:137] Memory required for data: 23347600
I0801 16:21:32.300874  2153 layer_factory.hpp:77] Creating layer norm_s_1
I0801 16:21:32.300881  2153 net.cpp:84] Creating Layer norm_s_1
I0801 16:21:32.300884  2153 net.cpp:406] norm_s_1 <- pool_s_1
I0801 16:21:32.300887  2153 net.cpp:380] norm_s_1 -> norm_s_1
I0801 16:21:32.301424  2153 net.cpp:122] Setting up norm_s_1
I0801 16:21:32.301429  2153 net.cpp:129] Top shape: 100 32 16 16 (819200)
I0801 16:21:32.301432  2153 net.cpp:137] Memory required for data: 26624400
I0801 16:21:32.301434  2153 layer_factory.hpp:77] Creating layer conv_s_2
I0801 16:21:32.301440  2153 net.cpp:84] Creating Layer conv_s_2
I0801 16:21:32.301443  2153 net.cpp:406] conv_s_2 <- norm_s_1
I0801 16:21:32.301447  2153 net.cpp:380] conv_s_2 -> conv_s_2
I0801 16:21:32.302918  2153 net.cpp:122] Setting up conv_s_2
I0801 16:21:32.302927  2153 net.cpp:129] Top shape: 100 32 16 16 (819200)
I0801 16:21:32.302928  2153 net.cpp:137] Memory required for data: 29901200
I0801 16:21:32.302935  2153 layer_factory.hpp:77] Creating layer relu_s_2
I0801 16:21:32.302942  2153 net.cpp:84] Creating Layer relu_s_2
I0801 16:21:32.302943  2153 net.cpp:406] relu_s_2 <- conv_s_2
I0801 16:21:32.302945  2153 net.cpp:367] relu_s_2 -> conv_s_2 (in-place)
I0801 16:21:32.303057  2153 net.cpp:122] Setting up relu_s_2
I0801 16:21:32.303062  2153 net.cpp:129] Top shape: 100 32 16 16 (819200)
I0801 16:21:32.303064  2153 net.cpp:137] Memory required for data: 33178000
I0801 16:21:32.303066  2153 layer_factory.hpp:77] Creating layer pool_s_2
I0801 16:21:32.303071  2153 net.cpp:84] Creating Layer pool_s_2
I0801 16:21:32.303073  2153 net.cpp:406] pool_s_2 <- conv_s_2
I0801 16:21:32.303076  2153 net.cpp:380] pool_s_2 -> pool_s_2
I0801 16:21:32.303387  2153 net.cpp:122] Setting up pool_s_2
I0801 16:21:32.303395  2153 net.cpp:129] Top shape: 100 32 8 8 (204800)
I0801 16:21:32.303396  2153 net.cpp:137] Memory required for data: 33997200
I0801 16:21:32.303398  2153 layer_factory.hpp:77] Creating layer norm_s_2
I0801 16:21:32.303403  2153 net.cpp:84] Creating Layer norm_s_2
I0801 16:21:32.303406  2153 net.cpp:406] norm_s_2 <- pool_s_2
I0801 16:21:32.303409  2153 net.cpp:380] norm_s_2 -> norm_s_2
I0801 16:21:32.303575  2153 net.cpp:122] Setting up norm_s_2
I0801 16:21:32.303580  2153 net.cpp:129] Top shape: 100 32 8 8 (204800)
I0801 16:21:32.303581  2153 net.cpp:137] Memory required for data: 34816400
I0801 16:21:32.303583  2153 layer_factory.hpp:77] Creating layer conv_s_3
I0801 16:21:32.303588  2153 net.cpp:84] Creating Layer conv_s_3
I0801 16:21:32.303591  2153 net.cpp:406] conv_s_3 <- norm_s_2
I0801 16:21:32.303594  2153 net.cpp:380] conv_s_3 -> conv_s_3
I0801 16:21:32.304560  2153 net.cpp:122] Setting up conv_s_3
I0801 16:21:32.304569  2153 net.cpp:129] Top shape: 100 64 8 8 (409600)
I0801 16:21:32.304569  2153 net.cpp:137] Memory required for data: 36454800
I0801 16:21:32.304592  2153 layer_factory.hpp:77] Creating layer relu_s_3
I0801 16:21:32.304596  2153 net.cpp:84] Creating Layer relu_s_3
I0801 16:21:32.304599  2153 net.cpp:406] relu_s_3 <- conv_s_3
I0801 16:21:32.304601  2153 net.cpp:367] relu_s_3 -> conv_s_3 (in-place)
I0801 16:21:32.304708  2153 net.cpp:122] Setting up relu_s_3
I0801 16:21:32.304713  2153 net.cpp:129] Top shape: 100 64 8 8 (409600)
I0801 16:21:32.304714  2153 net.cpp:137] Memory required for data: 38093200
I0801 16:21:32.304715  2153 layer_factory.hpp:77] Creating layer pool_s_3
I0801 16:21:32.304719  2153 net.cpp:84] Creating Layer pool_s_3
I0801 16:21:32.304721  2153 net.cpp:406] pool_s_3 <- conv_s_3
I0801 16:21:32.304724  2153 net.cpp:380] pool_s_3 -> pool_s_3
I0801 16:21:32.304834  2153 net.cpp:122] Setting up pool_s_3
I0801 16:21:32.304839  2153 net.cpp:129] Top shape: 100 64 4 4 (102400)
I0801 16:21:32.304841  2153 net.cpp:137] Memory required for data: 38502800
I0801 16:21:32.304842  2153 layer_factory.hpp:77] Creating layer ip_s_1
I0801 16:21:32.304847  2153 net.cpp:84] Creating Layer ip_s_1
I0801 16:21:32.304849  2153 net.cpp:406] ip_s_1 <- pool_s_3
I0801 16:21:32.304852  2153 net.cpp:380] ip_s_1 -> ip_s_1
I0801 16:21:32.305469  2153 net.cpp:122] Setting up ip_s_1
I0801 16:21:32.305475  2153 net.cpp:129] Top shape: 100 10 (1000)
I0801 16:21:32.305477  2153 net.cpp:137] Memory required for data: 38506800
I0801 16:21:32.305481  2153 layer_factory.hpp:77] Creating layer ip_s_1_ip_s_1_0_split
I0801 16:21:32.305487  2153 net.cpp:84] Creating Layer ip_s_1_ip_s_1_0_split
I0801 16:21:32.305490  2153 net.cpp:406] ip_s_1_ip_s_1_0_split <- ip_s_1
I0801 16:21:32.305493  2153 net.cpp:380] ip_s_1_ip_s_1_0_split -> ip_s_1_ip_s_1_0_split_0
I0801 16:21:32.305497  2153 net.cpp:380] ip_s_1_ip_s_1_0_split -> ip_s_1_ip_s_1_0_split_1
I0801 16:21:32.305521  2153 net.cpp:122] Setting up ip_s_1_ip_s_1_0_split
I0801 16:21:32.305524  2153 net.cpp:129] Top shape: 100 10 (1000)
I0801 16:21:32.305526  2153 net.cpp:129] Top shape: 100 10 (1000)
I0801 16:21:32.305527  2153 net.cpp:137] Memory required for data: 38514800
I0801 16:21:32.305529  2153 layer_factory.hpp:77] Creating layer conv_t_1
I0801 16:21:32.305534  2153 net.cpp:84] Creating Layer conv_t_1
I0801 16:21:32.305537  2153 net.cpp:406] conv_t_1 <- data_cifar_0_split_1
I0801 16:21:32.305541  2153 net.cpp:380] conv_t_1 -> conv_t_1
I0801 16:21:32.306237  2153 net.cpp:122] Setting up conv_t_1
I0801 16:21:32.306244  2153 net.cpp:129] Top shape: 100 32 32 32 (3276800)
I0801 16:21:32.306246  2153 net.cpp:137] Memory required for data: 51622000
I0801 16:21:32.306252  2153 layer_factory.hpp:77] Creating layer pool_t_1
I0801 16:21:32.306257  2153 net.cpp:84] Creating Layer pool_t_1
I0801 16:21:32.306259  2153 net.cpp:406] pool_t_1 <- conv_t_1
I0801 16:21:32.306263  2153 net.cpp:380] pool_t_1 -> pool_t_1
I0801 16:21:32.306288  2153 net.cpp:122] Setting up pool_t_1
I0801 16:21:32.306293  2153 net.cpp:129] Top shape: 100 32 16 16 (819200)
I0801 16:21:32.306294  2153 net.cpp:137] Memory required for data: 54898800
I0801 16:21:32.306296  2153 layer_factory.hpp:77] Creating layer relu_t_1
I0801 16:21:32.306299  2153 net.cpp:84] Creating Layer relu_t_1
I0801 16:21:32.306300  2153 net.cpp:406] relu_t_1 <- pool_t_1
I0801 16:21:32.306303  2153 net.cpp:367] relu_t_1 -> pool_t_1 (in-place)
I0801 16:21:32.306594  2153 net.cpp:122] Setting up relu_t_1
I0801 16:21:32.306601  2153 net.cpp:129] Top shape: 100 32 16 16 (819200)
I0801 16:21:32.306602  2153 net.cpp:137] Memory required for data: 58175600
I0801 16:21:32.306604  2153 layer_factory.hpp:77] Creating layer norm_t_1
I0801 16:21:32.306608  2153 net.cpp:84] Creating Layer norm_t_1
I0801 16:21:32.306610  2153 net.cpp:406] norm_t_1 <- pool_t_1
I0801 16:21:32.306613  2153 net.cpp:380] norm_t_1 -> norm_t_1
I0801 16:21:32.307128  2153 net.cpp:122] Setting up norm_t_1
I0801 16:21:32.307135  2153 net.cpp:129] Top shape: 100 32 16 16 (819200)
I0801 16:21:32.307137  2153 net.cpp:137] Memory required for data: 61452400
I0801 16:21:32.307138  2153 layer_factory.hpp:77] Creating layer conv_t_2
I0801 16:21:32.307154  2153 net.cpp:84] Creating Layer conv_t_2
I0801 16:21:32.307157  2153 net.cpp:406] conv_t_2 <- norm_t_1
I0801 16:21:32.307160  2153 net.cpp:380] conv_t_2 -> conv_t_2
I0801 16:21:32.308025  2153 net.cpp:122] Setting up conv_t_2
I0801 16:21:32.308032  2153 net.cpp:129] Top shape: 100 32 16 16 (819200)
I0801 16:21:32.308034  2153 net.cpp:137] Memory required for data: 64729200
I0801 16:21:32.308038  2153 layer_factory.hpp:77] Creating layer relu_t_2
I0801 16:21:32.308042  2153 net.cpp:84] Creating Layer relu_t_2
I0801 16:21:32.308043  2153 net.cpp:406] relu_t_2 <- conv_t_2
I0801 16:21:32.308048  2153 net.cpp:367] relu_t_2 -> conv_t_2 (in-place)
I0801 16:21:32.308162  2153 net.cpp:122] Setting up relu_t_2
I0801 16:21:32.308167  2153 net.cpp:129] Top shape: 100 32 16 16 (819200)
I0801 16:21:32.308169  2153 net.cpp:137] Memory required for data: 68006000
I0801 16:21:32.308171  2153 layer_factory.hpp:77] Creating layer pool_t_2
I0801 16:21:32.308174  2153 net.cpp:84] Creating Layer pool_t_2
I0801 16:21:32.308176  2153 net.cpp:406] pool_t_2 <- conv_t_2
I0801 16:21:32.308178  2153 net.cpp:380] pool_t_2 -> pool_t_2
I0801 16:21:32.308486  2153 net.cpp:122] Setting up pool_t_2
I0801 16:21:32.308492  2153 net.cpp:129] Top shape: 100 32 8 8 (204800)
I0801 16:21:32.308493  2153 net.cpp:137] Memory required for data: 68825200
I0801 16:21:32.308496  2153 layer_factory.hpp:77] Creating layer norm_t_2
I0801 16:21:32.308501  2153 net.cpp:84] Creating Layer norm_t_2
I0801 16:21:32.308504  2153 net.cpp:406] norm_t_2 <- pool_t_2
I0801 16:21:32.308507  2153 net.cpp:380] norm_t_2 -> norm_t_2
I0801 16:21:32.308693  2153 net.cpp:122] Setting up norm_t_2
I0801 16:21:32.308699  2153 net.cpp:129] Top shape: 100 32 8 8 (204800)
I0801 16:21:32.308701  2153 net.cpp:137] Memory required for data: 69644400
I0801 16:21:32.308702  2153 layer_factory.hpp:77] Creating layer conv_t_3
I0801 16:21:32.308708  2153 net.cpp:84] Creating Layer conv_t_3
I0801 16:21:32.308712  2153 net.cpp:406] conv_t_3 <- norm_t_2
I0801 16:21:32.308715  2153 net.cpp:380] conv_t_3 -> conv_t_3
I0801 16:21:32.309725  2153 net.cpp:122] Setting up conv_t_3
I0801 16:21:32.309731  2153 net.cpp:129] Top shape: 100 64 8 8 (409600)
I0801 16:21:32.309734  2153 net.cpp:137] Memory required for data: 71282800
I0801 16:21:32.309737  2153 layer_factory.hpp:77] Creating layer relu_t_3
I0801 16:21:32.309741  2153 net.cpp:84] Creating Layer relu_t_3
I0801 16:21:32.309742  2153 net.cpp:406] relu_t_3 <- conv_t_3
I0801 16:21:32.309747  2153 net.cpp:367] relu_t_3 -> conv_t_3 (in-place)
I0801 16:21:32.309860  2153 net.cpp:122] Setting up relu_t_3
I0801 16:21:32.309865  2153 net.cpp:129] Top shape: 100 64 8 8 (409600)
I0801 16:21:32.309866  2153 net.cpp:137] Memory required for data: 72921200
I0801 16:21:32.309869  2153 layer_factory.hpp:77] Creating layer pool_t_3
I0801 16:21:32.309872  2153 net.cpp:84] Creating Layer pool_t_3
I0801 16:21:32.309875  2153 net.cpp:406] pool_t_3 <- conv_t_3
I0801 16:21:32.309876  2153 net.cpp:380] pool_t_3 -> pool_t_3
I0801 16:21:32.310184  2153 net.cpp:122] Setting up pool_t_3
I0801 16:21:32.310190  2153 net.cpp:129] Top shape: 100 64 4 4 (102400)
I0801 16:21:32.310192  2153 net.cpp:137] Memory required for data: 73330800
I0801 16:21:32.310194  2153 layer_factory.hpp:77] Creating layer ip_t_1
I0801 16:21:32.310200  2153 net.cpp:84] Creating Layer ip_t_1
I0801 16:21:32.310202  2153 net.cpp:406] ip_t_1 <- pool_t_3
I0801 16:21:32.310207  2153 net.cpp:380] ip_t_1 -> ip_t_1
I0801 16:21:32.310336  2153 net.cpp:122] Setting up ip_t_1
I0801 16:21:32.310340  2153 net.cpp:129] Top shape: 100 10 (1000)
I0801 16:21:32.310343  2153 net.cpp:137] Memory required for data: 73334800
I0801 16:21:32.310345  2153 layer_factory.hpp:77] Creating layer sm_s_1
I0801 16:21:32.310350  2153 net.cpp:84] Creating Layer sm_s_1
I0801 16:21:32.310353  2153 net.cpp:406] sm_s_1 <- ip_s_1_ip_s_1_0_split_0
I0801 16:21:32.310355  2153 net.cpp:380] sm_s_1 -> sm_s_1
I0801 16:21:32.310511  2153 net.cpp:122] Setting up sm_s_1
I0801 16:21:32.310515  2153 net.cpp:129] Top shape: 100 10 (1000)
I0801 16:21:32.310526  2153 net.cpp:137] Memory required for data: 73338800
I0801 16:21:32.310528  2153 layer_factory.hpp:77] Creating layer sm_t_1
I0801 16:21:32.310533  2153 net.cpp:84] Creating Layer sm_t_1
I0801 16:21:32.310534  2153 net.cpp:406] sm_t_1 <- ip_t_1
I0801 16:21:32.310537  2153 net.cpp:380] sm_t_1 -> sm_t_1
I0801 16:21:32.310688  2153 net.cpp:122] Setting up sm_t_1
I0801 16:21:32.310693  2153 net.cpp:129] Top shape: 100 10 (1000)
I0801 16:21:32.310693  2153 net.cpp:137] Memory required for data: 73342800
I0801 16:21:32.310695  2153 layer_factory.hpp:77] Creating layer ts_loss
I0801 16:21:32.310700  2153 net.cpp:84] Creating Layer ts_loss
I0801 16:21:32.310703  2153 net.cpp:406] ts_loss <- sm_s_1
I0801 16:21:32.310705  2153 net.cpp:406] ts_loss <- sm_t_1
I0801 16:21:32.310708  2153 net.cpp:380] ts_loss -> ts_loss
…
I0801 16:21:32.311269  2153 net.cpp:294] The NetState phase (1) differed from the phase (0) specified by a rule in layer cifar
I0801 16:21:32.311377  2153 net.cpp:51] Initializing net from parameters: 
name: "CIFAR10_full"
state {
  phase: TEST
}
layer {
  name: "cifar"
  type: "Data"
  top: "data"
  top: "label"
  include {
    phase: TEST
  }
  transform_param {
    mean_file: "/opt/caffe/examples/cifar10/mean.binaryproto"
  }
  data_param {
    source: "/opt/caffe/examples/cifar10/cifar10_test_lmdb"
    batch_size: 100
    backend: LMDB
  }
}
layer {
  name: "conv_s_1"
  type: "Convolution"
  bottom: "data"
  top: "conv_s_1"
  param {
    lr_mult: 1
  }
  param {
    lr_mult: 2
  }
  convolution_param {
    num_output: 32
    pad: 2
    kernel_size: 5
    stride: 1
    weight_filler {
      type: "gaussian"
      std: 0.0001
    }
    bias_filler {
      type: "constant"
    }
  }
}
layer {
  name: "pool_s_1"
  type: "Pooling"
  bottom: "conv_s_1"
  top: "pool_s_1"
  pooling_param {
    pool: MAX
    kernel_size: 3
    stride: 2
  }
}
layer {
  name: "relu_s_1"
  type: "ReLU"
  bottom: "pool_s_1"
  top: "pool_s_1"
}
layer {
  name: "norm_s_1"
  type: "LRN"
  bottom: "pool_s_1"
  top: "norm_s_1"
  lrn_param {
    local_size: 3
    alpha: 5e-05
    beta: 0.75
    norm_region: WITHIN_CHANNEL
  }
}
layer {
  name: "conv_s_2"
  type: "Convolution"
  bottom: "norm_s_1"
  top: "conv_s_2"
  param {
    lr_mult: 1
  }
  param {
    lr_mult: 2
  }
  convolution_param {
    num_output: 32
    pad: 2
    kernel_size: 5
    stride: 1
    weight_filler {
      type: "gaussian"
      std: 0.01
    }
    bias_filler {
      type: "constant"
    }
  }
}
layer {
  name: "relu_s_2"
  type: "ReLU"
  bottom: "conv_s_2"
  top: "conv_s_2"
}
layer {
  name: "pool_s_2"
  type: "Pooling"
  bottom: "conv_s_2"
  top: "pool_s_2"
  pooling_param {
    pool: AVE
    kernel_size: 3
    stride: 2
  }
}
layer {
  name: "norm_s_2"
  type: "LRN"
  bottom: "pool_s_2"
  top: "norm_s_2"
  lrn_param {
    local_size: 3
    alpha: 5e-05
    beta: 0.75
    norm_region: WITHIN_CHANNEL
  }
}
layer {
  name: "conv_s_3"
  type: "Convolution"
  bottom: "norm_s_2"
  top: "conv_s_3"
  param {
    lr_mult: 1
  }
  param {
    lr_mult: 2
  }
  convolution_param {
    num_output: 64
    pad: 2
    kernel_size: 5
    stride: 1
    weight_filler {
      type: "gaussian"
      std: 0.01
    }
    bias_filler {
      type: "constant"
    }
  }
}
layer {
  name: "relu_s_3"
  type: "ReLU"
  bottom: "conv_s_3"
  top: "conv_s_3"
}
layer {
  name: "pool_s_3"
  type: "Pooling"
  bottom: "conv_s_3"
  top: "pool_s_3"
  pooling_param {
    pool: AVE
    kernel_size: 3
    stride: 2
  }
}
layer {
  name: "ip_s_1"
  type: "InnerProduct"
  bottom: "pool_s_3"
  top: "ip_s_1"
  param {
    lr_mult: 1
    decay_mult: 250
  }
  param {
    lr_mult: 2
    decay_mult: 0
  }
  inner_product_param {
    num_output: 10
    weight_filler {
      type: "gaussian"
      std: 0.01
    }
    bias_filler {
      type: "constant"
    }
  }
}
layer {
  name: "conv_t_1"
  type: "Convolution"
  bottom: "data"
  top: "conv_t_1"
  param {
    lr_mult: 0
  }
  param {
    lr_mult: 0
  }
  convolution_param {
    num_output: 32
    pad: 2
    kernel_size: 5
    stride: 1
    weight_filler {
      type: "gaussian"
      std: 0.0001
    }
    bias_filler {
      type: "constant"
    }
  }
}
layer {
  name: "pool_t_1"
  type: "Pooling"
  bottom: "conv_t_1"
  top: "pool_t_1"
  pooling_param {
    pool: MAX
    kernel_size: 3
    stride: 2
  }
}
layer {
  name: "relu_t_1"
  type: "ReLU"
  bottom: "pool_t_1"
  top: "pool_t_1"
}
layer {
  name: "norm_t_1"
  type: "LRN"
  bottom: "pool_t_1"
  top: "norm_t_1"
  lrn_param {
    local_size: 3
    alpha: 5e-05
    beta: 0.75
    norm_region: WITHIN_CHANNEL
  }
}
layer {
  name: "conv_t_2"
  type: "Convolution"
  bottom: "norm_t_1"
  top: "conv_t_2"
  param {
    lr_mult: 0
  }
  param {
    lr_mult: 0
  }
  convolution_param {
    num_output: 32
    pad: 2
    kernel_size: 5
    stride: 1
    weight_filler {
      type: "gaussian"
      std: 0.01
    }
    bias_filler {
      type: "constant"
    }
  }
}
layer {
  name: "relu_t_2"
  type: "ReLU"
  bottom: "conv_t_2"
  top: "conv_t_2"
}
layer {
  name: "pool_t_2"
  type: "Pooling"
  bottom: "conv_t_2"
  top: "pool_t_2"
  pooling_param {
    pool: AVE
    kernel_size: 3
    stride: 2
  }
}
layer {
  name: "norm_t_2"
  type: "LRN"
  bottom: "pool_t_2"
  top: "norm_t_2"
  lrn_param {
    local_size: 3
    alpha: 5e-05
    beta: 0.75
    norm_region: WITHIN_CHANNEL
  }
}
layer {
  name: "conv_t_3"
  type: "Convolution"
  bottom: "norm_t_2"
  top: "conv_t_3"
  param {
    lr_mult: 0
  }
  param {
    lr_mult: 0
  }
  convolution_param {
    num_output: 64
    pad: 2
    kernel_size: 5
    stride: 1
    weight_filler {
      type: "gaussian"
      std: 0.01
    }
    bias_filler {
      type: "constant"
    }
  }
}
layer {
  name: "relu_t_3"
  type: "ReLU"
  bottom: "conv_t_3"
  top: "conv_t_3"
}
layer {
  name: "pool_t_3"
  type: "Pooling"
  bottom: "conv_t_3"
  top: "pool_t_3"
  pooling_param {
    pool: AVE
    kernel_size: 3
    stride: 2
  }
}
layer {
  name: "ip_t_1"
  type: "InnerProduct"
  bottom: "pool_t_3"
  top: "ip_t_1"
  param {
    lr_mult: 0
  }
  param {
    lr_mult: 0
  }
  inner_product_param {
    num_output: 10
    weight_filler {
      type: "gaussian"
      std: 0.01
    }
    bias_filler {
      type: "constant"
    }
  }
}
layer {
  name: "sm_s_1"
  type: "Softmax"
  bottom: "ip_s_1"
  top: "sm_s_1"
}
layer {
  name: "sm_t_1"
  type: "Softmax"
  bottom: "ip_t_1"
  top: "sm_t_1"
}
layer {
  name: "accuracy"
  type: "Accuracy"
  bottom: "ip_s_1"
  bottom: "label"
  top: "accuracy"
  include {
    phase: TEST
  }
}
layer {
  name: "ts_loss"
  type: "SigmoidCrossEntropyLoss"
  bottom: "sm_s_1"
  bottom: "sm_t_1"
  top: "ts_loss"
  loss_weight: 0.9
}
layer {
  name: "loss"
  type: "SoftmaxWithLoss"
  bottom: "ip_s_1"
  bottom: "label"
  top: "loss"
  loss_weight: 0.1
}
I0801 16:21:32.311452  2153 layer_factory.hpp:77] Creating layer cifar
I0801 16:21:32.311506  2153 db_lmdb.cpp:35] Opened lmdb /opt/caffe/examples/cifar10/cifar10_test_lmdb
I0801 16:21:32.311516  2153 net.cpp:84] Creating Layer cifar
I0801 16:21:32.311520  2153 net.cpp:380] cifar -> data
I0801 16:21:32.311525  2153 net.cpp:380] cifar -> label
I0801 16:21:32.311529  2153 data_transformer.cpp:25] Loading mean file from: /opt/caffe/examples/cifar10/mean.binaryproto
I0801 16:21:32.311642  2153 data_layer.cpp:45] output data size: 100,3,32,32
I0801 16:21:32.315625  2153 net.cpp:122] Setting up cifar
I0801 16:21:32.315641  2153 net.cpp:129] Top shape: 100 3 32 32 (307200)
I0801 16:21:32.315645  2153 net.cpp:129] Top shape: 100 (100)
I0801 16:21:32.315646  2153 net.cpp:137] Memory required for data: 1229200
I0801 16:21:32.315651  2153 layer_factory.hpp:77] Creating layer data_cifar_0_split
I0801 16:21:32.315659  2153 net.cpp:84] Creating Layer data_cifar_0_split
I0801 16:21:32.315662  2153 net.cpp:406] data_cifar_0_split <- data
I0801 16:21:32.315668  2153 net.cpp:380] data_cifar_0_split -> data_cifar_0_split_0
I0801 16:21:32.315675  2153 net.cpp:380] data_cifar_0_split -> data_cifar_0_split_1
I0801 16:21:32.315765  2153 net.cpp:122] Setting up data_cifar_0_split
I0801 16:21:32.315769  2153 net.cpp:129] Top shape: 100 3 32 32 (307200)
I0801 16:21:32.315771  2153 net.cpp:129] Top shape: 100 3 32 32 (307200)
I0801 16:21:32.315773  2153 net.cpp:137] Memory required for data: 3686800
I0801 16:21:32.315775  2153 layer_factory.hpp:77] Creating layer label_cifar_1_split
I0801 16:21:32.315779  2153 net.cpp:84] Creating Layer label_cifar_1_split
I0801 16:21:32.315793  2153 net.cpp:406] label_cifar_1_split <- label
I0801 16:21:32.315798  2153 net.cpp:380] label_cifar_1_split -> label_cifar_1_split_0
I0801 16:21:32.315801  2153 net.cpp:380] label_cifar_1_split -> label_cifar_1_split_1
I0801 16:21:32.315838  2153 net.cpp:122] Setting up label_cifar_1_split
I0801 16:21:32.315843  2153 net.cpp:129] Top shape: 100 (100)
I0801 16:21:32.315845  2153 net.cpp:129] Top shape: 100 (100)
I0801 16:21:32.315846  2153 net.cpp:137] Memory required for data: 3687600
I0801 16:21:32.315848  2153 layer_factory.hpp:77] Creating layer conv_s_1
I0801 16:21:32.315856  2153 net.cpp:84] Creating Layer conv_s_1
I0801 16:21:32.315858  2153 net.cpp:406] conv_s_1 <- data_cifar_0_split_0
I0801 16:21:32.315862  2153 net.cpp:380] conv_s_1 -> conv_s_1
I0801 16:21:32.317195  2153 net.cpp:122] Setting up conv_s_1
I0801 16:21:32.317203  2153 net.cpp:129] Top shape: 100 32 32 32 (3276800)
I0801 16:21:32.317204  2153 net.cpp:137] Memory required for data: 16794800
I0801 16:21:32.317211  2153 layer_factory.hpp:77] Creating layer pool_s_1
I0801 16:21:32.317217  2153 net.cpp:84] Creating Layer pool_s_1
I0801 16:21:32.317219  2153 net.cpp:406] pool_s_1 <- conv_s_1
I0801 16:21:32.317224  2153 net.cpp:380] pool_s_1 -> pool_s_1
I0801 16:21:32.317250  2153 net.cpp:122] Setting up pool_s_1
I0801 16:21:32.317255  2153 net.cpp:129] Top shape: 100 32 16 16 (819200)
I0801 16:21:32.317256  2153 net.cpp:137] Memory required for data: 20071600
I0801 16:21:32.317258  2153 layer_factory.hpp:77] Creating layer relu_s_1
I0801 16:21:32.317261  2153 net.cpp:84] Creating Layer relu_s_1
I0801 16:21:32.317263  2153 net.cpp:406] relu_s_1 <- pool_s_1
I0801 16:21:32.317266  2153 net.cpp:367] relu_s_1 -> pool_s_1 (in-place)
I0801 16:21:32.317391  2153 net.cpp:122] Setting up relu_s_1
I0801 16:21:32.317395  2153 net.cpp:129] Top shape: 100 32 16 16 (819200)
I0801 16:21:32.317399  2153 net.cpp:137] Memory required for data: 23348400
I0801 16:21:32.317399  2153 layer_factory.hpp:77] Creating layer norm_s_1
I0801 16:21:32.317405  2153 net.cpp:84] Creating Layer norm_s_1
I0801 16:21:32.317407  2153 net.cpp:406] norm_s_1 <- pool_s_1
I0801 16:21:32.317414  2153 net.cpp:380] norm_s_1 -> norm_s_1
I0801 16:21:32.318001  2153 net.cpp:122] Setting up norm_s_1
I0801 16:21:32.318007  2153 net.cpp:129] Top shape: 100 32 16 16 (819200)
I0801 16:21:32.318011  2153 net.cpp:137] Memory required for data: 26625200
I0801 16:21:32.318012  2153 layer_factory.hpp:77] Creating layer conv_s_2
I0801 16:21:32.318019  2153 net.cpp:84] Creating Layer conv_s_2
I0801 16:21:32.318022  2153 net.cpp:406] conv_s_2 <- norm_s_1
I0801 16:21:32.318025  2153 net.cpp:380] conv_s_2 -> conv_s_2
I0801 16:21:32.319160  2153 net.cpp:122] Setting up conv_s_2
I0801 16:21:32.319169  2153 net.cpp:129] Top shape: 100 32 16 16 (819200)
I0801 16:21:32.319170  2153 net.cpp:137] Memory required for data: 29902000
I0801 16:21:32.319176  2153 layer_factory.hpp:77] Creating layer relu_s_2
I0801 16:21:32.319182  2153 net.cpp:84] Creating Layer relu_s_2
I0801 16:21:32.319185  2153 net.cpp:406] relu_s_2 <- conv_s_2
I0801 16:21:32.319187  2153 net.cpp:367] relu_s_2 -> conv_s_2 (in-place)
I0801 16:21:32.319309  2153 net.cpp:122] Setting up relu_s_2
I0801 16:21:32.319314  2153 net.cpp:129] Top shape: 100 32 16 16 (819200)
I0801 16:21:32.319316  2153 net.cpp:137] Memory required for data: 33178800
I0801 16:21:32.319317  2153 layer_factory.hpp:77] Creating layer pool_s_2
I0801 16:21:32.319321  2153 net.cpp:84] Creating Layer pool_s_2
I0801 16:21:32.319324  2153 net.cpp:406] pool_s_2 <- conv_s_2
I0801 16:21:32.319327  2153 net.cpp:380] pool_s_2 -> pool_s_2
I0801 16:21:32.319670  2153 net.cpp:122] Setting up pool_s_2
I0801 16:21:32.319676  2153 net.cpp:129] Top shape: 100 32 8 8 (204800)
I0801 16:21:32.319679  2153 net.cpp:137] Memory required for data: 33998000
I0801 16:21:32.319680  2153 layer_factory.hpp:77] Creating layer norm_s_2
I0801 16:21:32.319687  2153 net.cpp:84] Creating Layer norm_s_2
I0801 16:21:32.319689  2153 net.cpp:406] norm_s_2 <- pool_s_2
I0801 16:21:32.319715  2153 net.cpp:380] norm_s_2 -> norm_s_2
I0801 16:21:32.319907  2153 net.cpp:122] Setting up norm_s_2
I0801 16:21:32.319912  2153 net.cpp:129] Top shape: 100 32 8 8 (204800)
I0801 16:21:32.319914  2153 net.cpp:137] Memory required for data: 34817200
I0801 16:21:32.319916  2153 layer_factory.hpp:77] Creating layer conv_s_3
I0801 16:21:32.319923  2153 net.cpp:84] Creating Layer conv_s_3
I0801 16:21:32.319926  2153 net.cpp:406] conv_s_3 <- norm_s_2
I0801 16:21:32.319929  2153 net.cpp:380] conv_s_3 -> conv_s_3
I0801 16:21:32.320955  2153 net.cpp:122] Setting up conv_s_3
I0801 16:21:32.320961  2153 net.cpp:129] Top shape: 100 64 8 8 (409600)
I0801 16:21:32.320963  2153 net.cpp:137] Memory required for data: 36455600
I0801 16:21:32.320968  2153 layer_factory.hpp:77] Creating layer relu_s_3
I0801 16:21:32.320973  2153 net.cpp:84] Creating Layer relu_s_3
I0801 16:21:32.320976  2153 net.cpp:406] relu_s_3 <- conv_s_3
I0801 16:21:32.320979  2153 net.cpp:367] relu_s_3 -> conv_s_3 (in-place)
I0801 16:21:32.321105  2153 net.cpp:122] Setting up relu_s_3
I0801 16:21:32.321110  2153 net.cpp:129] Top shape: 100 64 8 8 (409600)
I0801 16:21:32.321111  2153 net.cpp:137] Memory required for data: 38094000
I0801 16:21:32.321113  2153 layer_factory.hpp:77] Creating layer pool_s_3
I0801 16:21:32.321116  2153 net.cpp:84] Creating Layer pool_s_3
I0801 16:21:32.321118  2153 net.cpp:406] pool_s_3 <- conv_s_3
I0801 16:21:32.321121  2153 net.cpp:380] pool_s_3 -> pool_s_3
I0801 16:21:32.321447  2153 net.cpp:122] Setting up pool_s_3
I0801 16:21:32.321455  2153 net.cpp:129] Top shape: 100 64 4 4 (102400)
I0801 16:21:32.321455  2153 net.cpp:137] Memory required for data: 38503600
I0801 16:21:32.321458  2153 layer_factory.hpp:77] Creating layer ip_s_1
I0801 16:21:32.321463  2153 net.cpp:84] Creating Layer ip_s_1
I0801 16:21:32.321465  2153 net.cpp:406] ip_s_1 <- pool_s_3
I0801 16:21:32.321467  2153 net.cpp:380] ip_s_1 -> ip_s_1
I0801 16:21:32.321602  2153 net.cpp:122] Setting up ip_s_1
I0801 16:21:32.321606  2153 net.cpp:129] Top shape: 100 10 (1000)
I0801 16:21:32.321609  2153 net.cpp:137] Memory required for data: 38507600
I0801 16:21:32.321611  2153 layer_factory.hpp:77] Creating layer ip_s_1_ip_s_1_0_split
I0801 16:21:32.321615  2153 net.cpp:84] Creating Layer ip_s_1_ip_s_1_0_split
I0801 16:21:32.321616  2153 net.cpp:406] ip_s_1_ip_s_1_0_split <- ip_s_1
I0801 16:21:32.321621  2153 net.cpp:380] ip_s_1_ip_s_1_0_split -> ip_s_1_ip_s_1_0_split_0
I0801 16:21:32.321624  2153 net.cpp:380] ip_s_1_ip_s_1_0_split -> ip_s_1_ip_s_1_0_split_1
I0801 16:21:32.321630  2153 net.cpp:380] ip_s_1_ip_s_1_0_split -> ip_s_1_ip_s_1_0_split_2
I0801 16:21:32.321662  2153 net.cpp:122] Setting up ip_s_1_ip_s_1_0_split
I0801 16:21:32.321666  2153 net.cpp:129] Top shape: 100 10 (1000)
I0801 16:21:32.321667  2153 net.cpp:129] Top shape: 100 10 (1000)
I0801 16:21:32.321669  2153 net.cpp:129] Top shape: 100 10 (1000)
I0801 16:21:32.321671  2153 net.cpp:137] Memory required for data: 38519600
I0801 16:21:32.321672  2153 layer_factory.hpp:77] Creating layer conv_t_1
I0801 16:21:32.321681  2153 net.cpp:84] Creating Layer conv_t_1
I0801 16:21:32.321683  2153 net.cpp:406] conv_t_1 <- data_cifar_0_split_1
I0801 16:21:32.321687  2153 net.cpp:380] conv_t_1 -> conv_t_1
I0801 16:21:32.322449  2153 net.cpp:122] Setting up conv_t_1
I0801 16:21:32.322455  2153 net.cpp:129] Top shape: 100 32 32 32 (3276800)
I0801 16:21:32.322458  2153 net.cpp:137] Memory required for data: 51626800
I0801 16:21:32.322463  2153 layer_factory.hpp:77] Creating layer pool_t_1
I0801 16:21:32.322468  2153 net.cpp:84] Creating Layer pool_t_1
I0801 16:21:32.322470  2153 net.cpp:406] pool_t_1 <- conv_t_1
I0801 16:21:32.322474  2153 net.cpp:380] pool_t_1 -> pool_t_1
I0801 16:21:32.322499  2153 net.cpp:122] Setting up pool_t_1
I0801 16:21:32.322504  2153 net.cpp:129] Top shape: 100 32 16 16 (819200)
I0801 16:21:32.322504  2153 net.cpp:137] Memory required for data: 54903600
I0801 16:21:32.322506  2153 layer_factory.hpp:77] Creating layer relu_t_1
I0801 16:21:32.322510  2153 net.cpp:84] Creating Layer relu_t_1
I0801 16:21:32.322521  2153 net.cpp:406] relu_t_1 <- pool_t_1
I0801 16:21:32.322523  2153 net.cpp:367] relu_t_1 -> pool_t_1 (in-place)
I0801 16:21:32.322644  2153 net.cpp:122] Setting up relu_t_1
I0801 16:21:32.322649  2153 net.cpp:129] Top shape: 100 32 16 16 (819200)
I0801 16:21:32.322650  2153 net.cpp:137] Memory required for data: 58180400
I0801 16:21:32.322652  2153 layer_factory.hpp:77] Creating layer norm_t_1
I0801 16:21:32.322656  2153 net.cpp:84] Creating Layer norm_t_1
I0801 16:21:32.322659  2153 net.cpp:406] norm_t_1 <- pool_t_1
I0801 16:21:32.322661  2153 net.cpp:380] norm_t_1 -> norm_t_1
I0801 16:21:32.323204  2153 net.cpp:122] Setting up norm_t_1
I0801 16:21:32.323211  2153 net.cpp:129] Top shape: 100 32 16 16 (819200)
I0801 16:21:32.323213  2153 net.cpp:137] Memory required for data: 61457200
I0801 16:21:32.323215  2153 layer_factory.hpp:77] Creating layer conv_t_2
I0801 16:21:32.323220  2153 net.cpp:84] Creating Layer conv_t_2
I0801 16:21:32.323225  2153 net.cpp:406] conv_t_2 <- norm_t_1
I0801 16:21:32.323228  2153 net.cpp:380] conv_t_2 -> conv_t_2
I0801 16:21:32.324301  2153 net.cpp:122] Setting up conv_t_2
I0801 16:21:32.324308  2153 net.cpp:129] Top shape: 100 32 16 16 (819200)
I0801 16:21:32.324311  2153 net.cpp:137] Memory required for data: 64734000
I0801 16:21:32.324313  2153 layer_factory.hpp:77] Creating layer relu_t_2
I0801 16:21:32.324318  2153 net.cpp:84] Creating Layer relu_t_2
I0801 16:21:32.324321  2153 net.cpp:406] relu_t_2 <- conv_t_2
I0801 16:21:32.324324  2153 net.cpp:367] relu_t_2 -> conv_t_2 (in-place)
I0801 16:21:32.324635  2153 net.cpp:122] Setting up relu_t_2
I0801 16:21:32.324642  2153 net.cpp:129] Top shape: 100 32 16 16 (819200)
I0801 16:21:32.324643  2153 net.cpp:137] Memory required for data: 68010800
I0801 16:21:32.324646  2153 layer_factory.hpp:77] Creating layer pool_t_2
I0801 16:21:32.324650  2153 net.cpp:84] Creating Layer pool_t_2
I0801 16:21:32.324651  2153 net.cpp:406] pool_t_2 <- conv_t_2
I0801 16:21:32.324656  2153 net.cpp:380] pool_t_2 -> pool_t_2
I0801 16:21:32.324781  2153 net.cpp:122] Setting up pool_t_2
I0801 16:21:32.324786  2153 net.cpp:129] Top shape: 100 32 8 8 (204800)
I0801 16:21:32.324787  2153 net.cpp:137] Memory required for data: 68830000
I0801 16:21:32.324790  2153 layer_factory.hpp:77] Creating layer norm_t_2
I0801 16:21:32.324793  2153 net.cpp:84] Creating Layer norm_t_2
I0801 16:21:32.324795  2153 net.cpp:406] norm_t_2 <- pool_t_2
I0801 16:21:32.324798  2153 net.cpp:380] norm_t_2 -> norm_t_2
I0801 16:21:32.324983  2153 net.cpp:122] Setting up norm_t_2
I0801 16:21:32.324990  2153 net.cpp:129] Top shape: 100 32 8 8 (204800)
I0801 16:21:32.324990  2153 net.cpp:137] Memory required for data: 69649200
I0801 16:21:32.324992  2153 layer_factory.hpp:77] Creating layer conv_t_3
I0801 16:21:32.324998  2153 net.cpp:84] Creating Layer conv_t_3
I0801 16:21:32.325002  2153 net.cpp:406] conv_t_3 <- norm_t_2
I0801 16:21:32.325006  2153 net.cpp:380] conv_t_3 -> conv_t_3
I0801 16:21:32.326071  2153 net.cpp:122] Setting up conv_t_3
I0801 16:21:32.326077  2153 net.cpp:129] Top shape: 100 64 8 8 (409600)
I0801 16:21:32.326079  2153 net.cpp:137] Memory required for data: 71287600
I0801 16:21:32.326083  2153 layer_factory.hpp:77] Creating layer relu_t_3
I0801 16:21:32.326089  2153 net.cpp:84] Creating Layer relu_t_3
I0801 16:21:32.326092  2153 net.cpp:406] relu_t_3 <- conv_t_3
I0801 16:21:32.326094  2153 net.cpp:367] relu_t_3 -> conv_t_3 (in-place)
I0801 16:21:32.326215  2153 net.cpp:122] Setting up relu_t_3
I0801 16:21:32.326218  2153 net.cpp:129] Top shape: 100 64 8 8 (409600)
I0801 16:21:32.326220  2153 net.cpp:137] Memory required for data: 72926000
I0801 16:21:32.326221  2153 layer_factory.hpp:77] Creating layer pool_t_3
I0801 16:21:32.326225  2153 net.cpp:84] Creating Layer pool_t_3
I0801 16:21:32.326227  2153 net.cpp:406] pool_t_3 <- conv_t_3
I0801 16:21:32.326230  2153 net.cpp:380] pool_t_3 -> pool_t_3
I0801 16:21:32.326551  2153 net.cpp:122] Setting up pool_t_3
I0801 16:21:32.326556  2153 net.cpp:129] Top shape: 100 64 4 4 (102400)
I0801 16:21:32.326558  2153 net.cpp:137] Memory required for data: 73335600
I0801 16:21:32.326570  2153 layer_factory.hpp:77] Creating layer ip_t_1
I0801 16:21:32.326576  2153 net.cpp:84] Creating Layer ip_t_1
I0801 16:21:32.326578  2153 net.cpp:406] ip_t_1 <- pool_t_3
I0801 16:21:32.326581  2153 net.cpp:380] ip_t_1 -> ip_t_1
I0801 16:21:32.326715  2153 net.cpp:122] Setting up ip_t_1
I0801 16:21:32.326719  2153 net.cpp:129] Top shape: 100 10 (1000)
I0801 16:21:32.326720  2153 net.cpp:137] Memory required for data: 73339600
I0801 16:21:32.326723  2153 layer_factory.hpp:77] Creating layer sm_s_1
I0801 16:21:32.326726  2153 net.cpp:84] Creating Layer sm_s_1
I0801 16:21:32.326730  2153 net.cpp:406] sm_s_1 <- ip_s_1_ip_s_1_0_split_0
I0801 16:21:32.326732  2153 net.cpp:380] sm_s_1 -> sm_s_1
I0801 16:21:32.326890  2153 net.cpp:122] Setting up sm_s_1
I0801 16:21:32.326894  2153 net.cpp:129] Top shape: 100 10 (1000)
I0801 16:21:32.326896  2153 net.cpp:137] Memory required for data: 73343600
I0801 16:21:32.326897  2153 layer_factory.hpp:77] Creating layer sm_t_1
I0801 16:21:32.326900  2153 net.cpp:84] Creating Layer sm_t_1
I0801 16:21:32.326902  2153 net.cpp:406] sm_t_1 <- ip_t_1
I0801 16:21:32.326906  2153 net.cpp:380] sm_t_1 -> sm_t_1
I0801 16:21:32.327056  2153 net.cpp:122] Setting up sm_t_1
I0801 16:21:32.327059  2153 net.cpp:129] Top shape: 100 10 (1000)
I0801 16:21:32.327061  2153 net.cpp:137] Memory required for data: 73347600
I0801 16:21:32.327064  2153 layer_factory.hpp:77] Creating layer accuracy
I0801 16:21:32.327067  2153 net.cpp:84] Creating Layer accuracy
I0801 16:21:32.327069  2153 net.cpp:406] accuracy <- ip_s_1_ip_s_1_0_split_1
I0801 16:21:32.327071  2153 net.cpp:406] accuracy <- label_cifar_1_split_0
I0801 16:21:32.327075  2153 net.cpp:380] accuracy -> accuracy
…
