…
I0801 02:17:19.177162  2068 net.cpp:294] The NetState phase (0) differed from the phase (1) specified by a rule in layer accuracy
I0801 02:17:19.177283  2068 net.cpp:51] Initializing net from parameters: 
name: "CIFAR10_full"
state {
  phase: TRAIN
  level: 0
  stage: ""
}
layer {
  name: "cifar"
  type: "Data"
  top: "data"
  top: "label"
  include {
    phase: TRAIN
  }
  transform_param {
    mean_file: "/opt/caffe/examples/cifar10/mean.binaryproto"
  }
  data_param {
    source: "/opt/caffe/examples/cifar10/cifar10_train_lmdb"
    batch_size: 100
    backend: LMDB
  }
}
layer {
  name: "conv_s_1"
  type: "Convolution"
  bottom: "data"
  top: "conv_s_1"
  param {
    lr_mult: 1
  }
  param {
    lr_mult: 2
  }
  convolution_param {
    num_output: 32
    pad: 2
    kernel_size: 5
    stride: 1
    weight_filler {
      type: "gaussian"
      std: 0.0001
    }
    bias_filler {
      type: "constant"
    }
  }
}
layer {
  name: "pool_s_1"
  type: "Pooling"
  bottom: "conv_s_1"
  top: "pool_s_1"
  pooling_param {
    pool: MAX
    kernel_size: 3
    stride: 2
  }
}
layer {
  name: "relu_s_1"
  type: "ReLU"
  bottom: "pool_s_1"
  top: "pool_s_1"
}
layer {
  name: "norm_s_1"
  type: "LRN"
  bottom: "pool_s_1"
  top: "norm_s_1"
  lrn_param {
    local_size: 3
    alpha: 5e-05
    beta: 0.75
    norm_region: WITHIN_CHANNEL
  }
}
layer {
  name: "conv_s_2"
  type: "Convolution"
  bottom: "norm_s_1"
  top: "conv_s_2"
  param {
    lr_mult: 1
  }
  param {
    lr_mult: 2
  }
  convolution_param {
    num_output: 32
    pad: 2
    kernel_size: 5
    stride: 1
    weight_filler {
      type: "gaussian"
      std: 0.01
    }
    bias_filler {
      type: "constant"
    }
  }
}
layer {
  name: "relu_s_2"
  type: "ReLU"
  bottom: "conv_s_2"
  top: "conv_s_2"
}
layer {
  name: "pool_s_2"
  type: "Pooling"
  bottom: "conv_s_2"
  top: "pool_s_2"
  pooling_param {
    pool: AVE
    kernel_size: 3
    stride: 2
  }
}
layer {
  name: "norm_s_2"
  type: "LRN"
  bottom: "pool_s_2"
  top: "norm_s_2"
  lrn_param {
    local_size: 3
    alpha: 5e-05
    beta: 0.75
    norm_region: WITHIN_CHANNEL
  }
}
layer {
  name: "conv_s_3"
  type: "Convolution"
  bottom: "norm_s_2"
  top: "conv_s_3"
  param {
    lr_mult: 1
  }
  param {
    lr_mult: 2
  }
  convolution_param {
    num_output: 64
    pad: 2
    kernel_size: 5
    stride: 1
    weight_filler {
      type: "gaussian"
      std: 0.01
    }
    bias_filler {
      type: "constant"
    }
  }
}
layer {
  name: "relu_s_3"
  type: "ReLU"
  bottom: "conv_s_3"
  top: "conv_s_3"
}
layer {
  name: "pool_s_3"
  type: "Pooling"
  bottom: "conv_s_3"
  top: "pool_s_3"
  pooling_param {
    pool: AVE
    kernel_size: 3
    stride: 2
  }
}
layer {
  name: "ip_s_1"
  type: "InnerProduct"
  bottom: "pool_s_3"
  top: "ip_s_1"
  param {
    lr_mult: 1
    decay_mult: 250
  }
  param {
    lr_mult: 2
    decay_mult: 0
  }
  inner_product_param {
    num_output: 10
    weight_filler {
      type: "gaussian"
      std: 0.01
    }
    bias_filler {
      type: "constant"
    }
  }
}
layer {
  name: "conv_t_1"
  type: "Convolution"
  bottom: "data"
  top: "conv_t_1"
  param {
    lr_mult: 0
  }
  param {
    lr_mult: 0
  }
  convolution_param {
    num_output: 32
    pad: 2
    kernel_size: 5
    stride: 1
    weight_filler {
      type: "gaussian"
      std: 0.0001
    }
    bias_filler {
      type: "constant"
    }
  }
}
layer {
  name: "pool_t_1"
  type: "Pooling"
  bottom: "conv_t_1"
  top: "pool_t_1"
  pooling_param {
    pool: MAX
    kernel_size: 3
    stride: 2
  }
}
layer {
  name: "relu_t_1"
  type: "ReLU"
  bottom: "pool_t_1"
  top: "pool_t_1"
}
layer {
  name: "norm_t_1"
  type: "LRN"
  bottom: "pool_t_1"
  top: "norm_t_1"
  lrn_param {
    local_size: 3
    alpha: 5e-05
    beta: 0.75
    norm_region: WITHIN_CHANNEL
  }
}
layer {
  name: "conv_t_2"
  type: "Convolution"
  bottom: "norm_t_1"
  top: "conv_t_2"
  param {
    lr_mult: 0
  }
  param {
    lr_mult: 0
  }
  convolution_param {
    num_output: 32
    pad: 2
    kernel_size: 5
    stride: 1
    weight_filler {
      type: "gaussian"
      std: 0.01
    }
    bias_filler {
      type: "constant"
    }
  }
}
layer {
  name: "relu_t_2"
  type: "ReLU"
  bottom: "conv_t_2"
  top: "conv_t_2"
}
layer {
  name: "pool_t_2"
  type: "Pooling"
  bottom: "conv_t_2"
  top: "pool_t_2"
  pooling_param {
    pool: AVE
    kernel_size: 3
    stride: 2
  }
}
layer {
  name: "norm_t_2"
  type: "LRN"
  bottom: "pool_t_2"
  top: "norm_t_2"
  lrn_param {
    local_size: 3
    alpha: 5e-05
    beta: 0.75
    norm_region: WITHIN_CHANNEL
  }
}
layer {
  name: "conv_t_3"
  type: "Convolution"
  bottom: "norm_t_2"
  top: "conv_t_3"
  param {
    lr_mult: 0
  }
  param {
    lr_mult: 0
  }
  convolution_param {
    num_output: 64
    pad: 2
    kernel_size: 5
    stride: 1
    weight_filler {
      type: "gaussian"
      std: 0.01
    }
    bias_filler {
      type: "constant"
    }
  }
}
layer {
  name: "relu_t_3"
  type: "ReLU"
  bottom: "conv_t_3"
  top: "conv_t_3"
}
layer {
  name: "pool_t_3"
  type: "Pooling"
  bottom: "conv_t_3"
  top: "pool_t_3"
  pooling_param {
    pool: AVE
    kernel_size: 3
    stride: 2
  }
}
layer {
  name: "ip_t_1"
  type: "InnerProduct"
  bottom: "pool_t_3"
  top: "ip_t_1"
  param {
    lr_mult: 0
  }
  param {
    lr_mult: 0
  }
  inner_product_param {
    num_output: 10
    weight_filler {
      type: "gaussian"
      std: 0.01
    }
    bias_filler {
      type: "constant"
    }
  }
}
layer {
  name: "sm_s_1"
  type: "Softmax"
  bottom: "ip_s_1"
  top: "sm_s_1"
}
layer {
  name: "sm_t_1"
  type: "Softmax"
  bottom: "ip_t_1"
  top: "sm_t_1"
}
layer {
  name: "ts_loss"
  type: "SigmoidCrossEntropyLoss"
  bottom: "sm_s_1"
  bottom: "sm_t_1"
  top: "ts_loss"
  loss_weight: 0.1
}
layer {
  name: "loss"
  type: "SoftmaxWithLoss"
  bottom: "ip_s_1"
  bottom: "label"
  top: "loss"
  loss_weight: 0.9
}
I0801 02:17:19.177384  2068 layer_factory.hpp:77] Creating layer cifar
I0801 02:17:19.177482  2068 db_lmdb.cpp:35] Opened lmdb /opt/caffe/examples/cifar10/cifar10_train_lmdb
I0801 02:17:19.177502  2068 net.cpp:84] Creating Layer cifar
I0801 02:17:19.177508  2068 net.cpp:380] cifar -> data
I0801 02:17:19.177522  2068 net.cpp:380] cifar -> label
I0801 02:17:19.177536  2068 data_transformer.cpp:25] Loading mean file from: /opt/caffe/examples/cifar10/mean.binaryproto
I0801 02:17:19.178650  2068 data_layer.cpp:45] output data size: 100,3,32,32
I0801 02:17:19.182193  2068 net.cpp:122] Setting up cifar
I0801 02:17:19.182209  2068 net.cpp:129] Top shape: 100 3 32 32 (307200)
I0801 02:17:19.182211  2068 net.cpp:129] Top shape: 100 (100)
I0801 02:17:19.182214  2068 net.cpp:137] Memory required for data: 1229200
I0801 02:17:19.182222  2068 layer_factory.hpp:77] Creating layer data_cifar_0_split
I0801 02:17:19.182232  2068 net.cpp:84] Creating Layer data_cifar_0_split
I0801 02:17:19.182236  2068 net.cpp:406] data_cifar_0_split <- data
I0801 02:17:19.182245  2068 net.cpp:380] data_cifar_0_split -> data_cifar_0_split_0
I0801 02:17:19.182253  2068 net.cpp:380] data_cifar_0_split -> data_cifar_0_split_1
I0801 02:17:19.182289  2068 net.cpp:122] Setting up data_cifar_0_split
I0801 02:17:19.182294  2068 net.cpp:129] Top shape: 100 3 32 32 (307200)
I0801 02:17:19.182296  2068 net.cpp:129] Top shape: 100 3 32 32 (307200)
I0801 02:17:19.182298  2068 net.cpp:137] Memory required for data: 3686800
I0801 02:17:19.182301  2068 layer_factory.hpp:77] Creating layer conv_s_1
I0801 02:17:19.182313  2068 net.cpp:84] Creating Layer conv_s_1
I0801 02:17:19.182327  2068 net.cpp:406] conv_s_1 <- data_cifar_0_split_0
I0801 02:17:19.182332  2068 net.cpp:380] conv_s_1 -> conv_s_1
I0801 02:17:19.488924  2068 net.cpp:122] Setting up conv_s_1
I0801 02:17:19.488945  2068 net.cpp:129] Top shape: 100 32 32 32 (3276800)
I0801 02:17:19.488947  2068 net.cpp:137] Memory required for data: 16794000
I0801 02:17:19.488961  2068 layer_factory.hpp:77] Creating layer pool_s_1
I0801 02:17:19.488970  2068 net.cpp:84] Creating Layer pool_s_1
I0801 02:17:19.488973  2068 net.cpp:406] pool_s_1 <- conv_s_1
I0801 02:17:19.488977  2068 net.cpp:380] pool_s_1 -> pool_s_1
I0801 02:17:19.489017  2068 net.cpp:122] Setting up pool_s_1
I0801 02:17:19.489022  2068 net.cpp:129] Top shape: 100 32 16 16 (819200)
I0801 02:17:19.489022  2068 net.cpp:137] Memory required for data: 20070800
I0801 02:17:19.489024  2068 layer_factory.hpp:77] Creating layer relu_s_1
I0801 02:17:19.489029  2068 net.cpp:84] Creating Layer relu_s_1
I0801 02:17:19.489032  2068 net.cpp:406] relu_s_1 <- pool_s_1
I0801 02:17:19.489033  2068 net.cpp:367] relu_s_1 -> pool_s_1 (in-place)
I0801 02:17:19.489392  2068 net.cpp:122] Setting up relu_s_1
I0801 02:17:19.489399  2068 net.cpp:129] Top shape: 100 32 16 16 (819200)
I0801 02:17:19.489401  2068 net.cpp:137] Memory required for data: 23347600
I0801 02:17:19.489403  2068 layer_factory.hpp:77] Creating layer norm_s_1
I0801 02:17:19.489409  2068 net.cpp:84] Creating Layer norm_s_1
I0801 02:17:19.489413  2068 net.cpp:406] norm_s_1 <- pool_s_1
I0801 02:17:19.489415  2068 net.cpp:380] norm_s_1 -> norm_s_1
I0801 02:17:19.489941  2068 net.cpp:122] Setting up norm_s_1
I0801 02:17:19.489948  2068 net.cpp:129] Top shape: 100 32 16 16 (819200)
I0801 02:17:19.489950  2068 net.cpp:137] Memory required for data: 26624400
I0801 02:17:19.489953  2068 layer_factory.hpp:77] Creating layer conv_s_2
I0801 02:17:19.489959  2068 net.cpp:84] Creating Layer conv_s_2
I0801 02:17:19.489960  2068 net.cpp:406] conv_s_2 <- norm_s_1
I0801 02:17:19.489964  2068 net.cpp:380] conv_s_2 -> conv_s_2
I0801 02:17:19.491574  2068 net.cpp:122] Setting up conv_s_2
I0801 02:17:19.491582  2068 net.cpp:129] Top shape: 100 32 16 16 (819200)
I0801 02:17:19.491585  2068 net.cpp:137] Memory required for data: 29901200
I0801 02:17:19.491591  2068 layer_factory.hpp:77] Creating layer relu_s_2
I0801 02:17:19.491595  2068 net.cpp:84] Creating Layer relu_s_2
I0801 02:17:19.491596  2068 net.cpp:406] relu_s_2 <- conv_s_2
I0801 02:17:19.491600  2068 net.cpp:367] relu_s_2 -> conv_s_2 (in-place)
I0801 02:17:19.491706  2068 net.cpp:122] Setting up relu_s_2
I0801 02:17:19.491710  2068 net.cpp:129] Top shape: 100 32 16 16 (819200)
I0801 02:17:19.491711  2068 net.cpp:137] Memory required for data: 33178000
I0801 02:17:19.491714  2068 layer_factory.hpp:77] Creating layer pool_s_2
I0801 02:17:19.491719  2068 net.cpp:84] Creating Layer pool_s_2
I0801 02:17:19.491720  2068 net.cpp:406] pool_s_2 <- conv_s_2
I0801 02:17:19.491722  2068 net.cpp:380] pool_s_2 -> pool_s_2
I0801 02:17:19.492025  2068 net.cpp:122] Setting up pool_s_2
I0801 02:17:19.492033  2068 net.cpp:129] Top shape: 100 32 8 8 (204800)
I0801 02:17:19.492034  2068 net.cpp:137] Memory required for data: 33997200
I0801 02:17:19.492036  2068 layer_factory.hpp:77] Creating layer norm_s_2
I0801 02:17:19.492040  2068 net.cpp:84] Creating Layer norm_s_2
I0801 02:17:19.492043  2068 net.cpp:406] norm_s_2 <- pool_s_2
I0801 02:17:19.492045  2068 net.cpp:380] norm_s_2 -> norm_s_2
I0801 02:17:19.492205  2068 net.cpp:122] Setting up norm_s_2
I0801 02:17:19.492210  2068 net.cpp:129] Top shape: 100 32 8 8 (204800)
I0801 02:17:19.492213  2068 net.cpp:137] Memory required for data: 34816400
I0801 02:17:19.492214  2068 layer_factory.hpp:77] Creating layer conv_s_3
I0801 02:17:19.492219  2068 net.cpp:84] Creating Layer conv_s_3
I0801 02:17:19.492221  2068 net.cpp:406] conv_s_3 <- norm_s_2
I0801 02:17:19.492225  2068 net.cpp:380] conv_s_3 -> conv_s_3
I0801 02:17:19.493171  2068 net.cpp:122] Setting up conv_s_3
I0801 02:17:19.493178  2068 net.cpp:129] Top shape: 100 64 8 8 (409600)
I0801 02:17:19.493180  2068 net.cpp:137] Memory required for data: 36454800
I0801 02:17:19.493201  2068 layer_factory.hpp:77] Creating layer relu_s_3
I0801 02:17:19.493203  2068 net.cpp:84] Creating Layer relu_s_3
I0801 02:17:19.493206  2068 net.cpp:406] relu_s_3 <- conv_s_3
I0801 02:17:19.493207  2068 net.cpp:367] relu_s_3 -> conv_s_3 (in-place)
I0801 02:17:19.493311  2068 net.cpp:122] Setting up relu_s_3
I0801 02:17:19.493315  2068 net.cpp:129] Top shape: 100 64 8 8 (409600)
I0801 02:17:19.493316  2068 net.cpp:137] Memory required for data: 38093200
I0801 02:17:19.493319  2068 layer_factory.hpp:77] Creating layer pool_s_3
I0801 02:17:19.493322  2068 net.cpp:84] Creating Layer pool_s_3
I0801 02:17:19.493324  2068 net.cpp:406] pool_s_3 <- conv_s_3
I0801 02:17:19.493326  2068 net.cpp:380] pool_s_3 -> pool_s_3
I0801 02:17:19.493432  2068 net.cpp:122] Setting up pool_s_3
I0801 02:17:19.493436  2068 net.cpp:129] Top shape: 100 64 4 4 (102400)
I0801 02:17:19.493438  2068 net.cpp:137] Memory required for data: 38502800
I0801 02:17:19.493439  2068 layer_factory.hpp:77] Creating layer ip_s_1
I0801 02:17:19.493443  2068 net.cpp:84] Creating Layer ip_s_1
I0801 02:17:19.493446  2068 net.cpp:406] ip_s_1 <- pool_s_3
I0801 02:17:19.493449  2068 net.cpp:380] ip_s_1 -> ip_s_1
I0801 02:17:19.494045  2068 net.cpp:122] Setting up ip_s_1
I0801 02:17:19.494051  2068 net.cpp:129] Top shape: 100 10 (1000)
I0801 02:17:19.494053  2068 net.cpp:137] Memory required for data: 38506800
I0801 02:17:19.494058  2068 layer_factory.hpp:77] Creating layer ip_s_1_ip_s_1_0_split
I0801 02:17:19.494061  2068 net.cpp:84] Creating Layer ip_s_1_ip_s_1_0_split
I0801 02:17:19.494063  2068 net.cpp:406] ip_s_1_ip_s_1_0_split <- ip_s_1
I0801 02:17:19.494067  2068 net.cpp:380] ip_s_1_ip_s_1_0_split -> ip_s_1_ip_s_1_0_split_0
I0801 02:17:19.494071  2068 net.cpp:380] ip_s_1_ip_s_1_0_split -> ip_s_1_ip_s_1_0_split_1
I0801 02:17:19.494092  2068 net.cpp:122] Setting up ip_s_1_ip_s_1_0_split
I0801 02:17:19.494096  2068 net.cpp:129] Top shape: 100 10 (1000)
I0801 02:17:19.494098  2068 net.cpp:129] Top shape: 100 10 (1000)
I0801 02:17:19.494099  2068 net.cpp:137] Memory required for data: 38514800
I0801 02:17:19.494102  2068 layer_factory.hpp:77] Creating layer conv_t_1
I0801 02:17:19.494107  2068 net.cpp:84] Creating Layer conv_t_1
I0801 02:17:19.494108  2068 net.cpp:406] conv_t_1 <- data_cifar_0_split_1
I0801 02:17:19.494112  2068 net.cpp:380] conv_t_1 -> conv_t_1
I0801 02:17:19.494783  2068 net.cpp:122] Setting up conv_t_1
I0801 02:17:19.494789  2068 net.cpp:129] Top shape: 100 32 32 32 (3276800)
I0801 02:17:19.494792  2068 net.cpp:137] Memory required for data: 51622000
I0801 02:17:19.494798  2068 layer_factory.hpp:77] Creating layer pool_t_1
I0801 02:17:19.494802  2068 net.cpp:84] Creating Layer pool_t_1
I0801 02:17:19.494806  2068 net.cpp:406] pool_t_1 <- conv_t_1
I0801 02:17:19.494808  2068 net.cpp:380] pool_t_1 -> pool_t_1
I0801 02:17:19.494832  2068 net.cpp:122] Setting up pool_t_1
I0801 02:17:19.494835  2068 net.cpp:129] Top shape: 100 32 16 16 (819200)
I0801 02:17:19.494837  2068 net.cpp:137] Memory required for data: 54898800
I0801 02:17:19.494839  2068 layer_factory.hpp:77] Creating layer relu_t_1
I0801 02:17:19.494843  2068 net.cpp:84] Creating Layer relu_t_1
I0801 02:17:19.494843  2068 net.cpp:406] relu_t_1 <- pool_t_1
I0801 02:17:19.494846  2068 net.cpp:367] relu_t_1 -> pool_t_1 (in-place)
I0801 02:17:19.495133  2068 net.cpp:122] Setting up relu_t_1
I0801 02:17:19.495139  2068 net.cpp:129] Top shape: 100 32 16 16 (819200)
I0801 02:17:19.495141  2068 net.cpp:137] Memory required for data: 58175600
I0801 02:17:19.495142  2068 layer_factory.hpp:77] Creating layer norm_t_1
I0801 02:17:19.495147  2068 net.cpp:84] Creating Layer norm_t_1
I0801 02:17:19.495149  2068 net.cpp:406] norm_t_1 <- pool_t_1
I0801 02:17:19.495152  2068 net.cpp:380] norm_t_1 -> norm_t_1
I0801 02:17:19.495658  2068 net.cpp:122] Setting up norm_t_1
I0801 02:17:19.495666  2068 net.cpp:129] Top shape: 100 32 16 16 (819200)
I0801 02:17:19.495667  2068 net.cpp:137] Memory required for data: 61452400
I0801 02:17:19.495669  2068 layer_factory.hpp:77] Creating layer conv_t_2
I0801 02:17:19.495684  2068 net.cpp:84] Creating Layer conv_t_2
I0801 02:17:19.495687  2068 net.cpp:406] conv_t_2 <- norm_t_1
I0801 02:17:19.495690  2068 net.cpp:380] conv_t_2 -> conv_t_2
I0801 02:17:19.496505  2068 net.cpp:122] Setting up conv_t_2
I0801 02:17:19.496512  2068 net.cpp:129] Top shape: 100 32 16 16 (819200)
I0801 02:17:19.496515  2068 net.cpp:137] Memory required for data: 64729200
I0801 02:17:19.496520  2068 layer_factory.hpp:77] Creating layer relu_t_2
I0801 02:17:19.496522  2068 net.cpp:84] Creating Layer relu_t_2
I0801 02:17:19.496525  2068 net.cpp:406] relu_t_2 <- conv_t_2
I0801 02:17:19.496527  2068 net.cpp:367] relu_t_2 -> conv_t_2 (in-place)
I0801 02:17:19.496628  2068 net.cpp:122] Setting up relu_t_2
I0801 02:17:19.496632  2068 net.cpp:129] Top shape: 100 32 16 16 (819200)
I0801 02:17:19.496634  2068 net.cpp:137] Memory required for data: 68006000
I0801 02:17:19.496636  2068 layer_factory.hpp:77] Creating layer pool_t_2
I0801 02:17:19.496639  2068 net.cpp:84] Creating Layer pool_t_2
I0801 02:17:19.496640  2068 net.cpp:406] pool_t_2 <- conv_t_2
I0801 02:17:19.496644  2068 net.cpp:380] pool_t_2 -> pool_t_2
I0801 02:17:19.496942  2068 net.cpp:122] Setting up pool_t_2
I0801 02:17:19.496948  2068 net.cpp:129] Top shape: 100 32 8 8 (204800)
I0801 02:17:19.496950  2068 net.cpp:137] Memory required for data: 68825200
I0801 02:17:19.496953  2068 layer_factory.hpp:77] Creating layer norm_t_2
I0801 02:17:19.496956  2068 net.cpp:84] Creating Layer norm_t_2
I0801 02:17:19.496958  2068 net.cpp:406] norm_t_2 <- pool_t_2
I0801 02:17:19.496961  2068 net.cpp:380] norm_t_2 -> norm_t_2
I0801 02:17:19.497130  2068 net.cpp:122] Setting up norm_t_2
I0801 02:17:19.497136  2068 net.cpp:129] Top shape: 100 32 8 8 (204800)
I0801 02:17:19.497138  2068 net.cpp:137] Memory required for data: 69644400
I0801 02:17:19.497139  2068 layer_factory.hpp:77] Creating layer conv_t_3
I0801 02:17:19.497144  2068 net.cpp:84] Creating Layer conv_t_3
I0801 02:17:19.497148  2068 net.cpp:406] conv_t_3 <- norm_t_2
I0801 02:17:19.497150  2068 net.cpp:380] conv_t_3 -> conv_t_3
I0801 02:17:19.498086  2068 net.cpp:122] Setting up conv_t_3
I0801 02:17:19.498093  2068 net.cpp:129] Top shape: 100 64 8 8 (409600)
I0801 02:17:19.498095  2068 net.cpp:137] Memory required for data: 71282800
I0801 02:17:19.498100  2068 layer_factory.hpp:77] Creating layer relu_t_3
I0801 02:17:19.498103  2068 net.cpp:84] Creating Layer relu_t_3
I0801 02:17:19.498106  2068 net.cpp:406] relu_t_3 <- conv_t_3
I0801 02:17:19.498108  2068 net.cpp:367] relu_t_3 -> conv_t_3 (in-place)
I0801 02:17:19.498209  2068 net.cpp:122] Setting up relu_t_3
I0801 02:17:19.498214  2068 net.cpp:129] Top shape: 100 64 8 8 (409600)
I0801 02:17:19.498215  2068 net.cpp:137] Memory required for data: 72921200
I0801 02:17:19.498217  2068 layer_factory.hpp:77] Creating layer pool_t_3
I0801 02:17:19.498220  2068 net.cpp:84] Creating Layer pool_t_3
I0801 02:17:19.498222  2068 net.cpp:406] pool_t_3 <- conv_t_3
I0801 02:17:19.498225  2068 net.cpp:380] pool_t_3 -> pool_t_3
I0801 02:17:19.498517  2068 net.cpp:122] Setting up pool_t_3
I0801 02:17:19.498524  2068 net.cpp:129] Top shape: 100 64 4 4 (102400)
I0801 02:17:19.498525  2068 net.cpp:137] Memory required for data: 73330800
I0801 02:17:19.498528  2068 layer_factory.hpp:77] Creating layer ip_t_1
I0801 02:17:19.498531  2068 net.cpp:84] Creating Layer ip_t_1
I0801 02:17:19.498533  2068 net.cpp:406] ip_t_1 <- pool_t_3
I0801 02:17:19.498538  2068 net.cpp:380] ip_t_1 -> ip_t_1
I0801 02:17:19.498659  2068 net.cpp:122] Setting up ip_t_1
I0801 02:17:19.498663  2068 net.cpp:129] Top shape: 100 10 (1000)
I0801 02:17:19.498664  2068 net.cpp:137] Memory required for data: 73334800
I0801 02:17:19.498668  2068 layer_factory.hpp:77] Creating layer sm_s_1
I0801 02:17:19.498672  2068 net.cpp:84] Creating Layer sm_s_1
I0801 02:17:19.498674  2068 net.cpp:406] sm_s_1 <- ip_s_1_ip_s_1_0_split_0
I0801 02:17:19.498677  2068 net.cpp:380] sm_s_1 -> sm_s_1
I0801 02:17:19.498818  2068 net.cpp:122] Setting up sm_s_1
I0801 02:17:19.498823  2068 net.cpp:129] Top shape: 100 10 (1000)
I0801 02:17:19.498834  2068 net.cpp:137] Memory required for data: 73338800
I0801 02:17:19.498836  2068 layer_factory.hpp:77] Creating layer sm_t_1
I0801 02:17:19.498839  2068 net.cpp:84] Creating Layer sm_t_1
I0801 02:17:19.498842  2068 net.cpp:406] sm_t_1 <- ip_t_1
I0801 02:17:19.498844  2068 net.cpp:380] sm_t_1 -> sm_t_1
I0801 02:17:19.498976  2068 net.cpp:122] Setting up sm_t_1
I0801 02:17:19.498980  2068 net.cpp:129] Top shape: 100 10 (1000)
I0801 02:17:19.498982  2068 net.cpp:137] Memory required for data: 73342800
I0801 02:17:19.498984  2068 layer_factory.hpp:77] Creating layer ts_loss
I0801 02:17:19.498988  2068 net.cpp:84] Creating Layer ts_loss
I0801 02:17:19.498991  2068 net.cpp:406] ts_loss <- sm_s_1
I0801 02:17:19.498992  2068 net.cpp:406] ts_loss <- sm_t_1
I0801 02:17:19.498996  2068 net.cpp:380] ts_loss -> ts_loss
…
I0801 02:17:19.499531  2068 net.cpp:294] The NetState phase (1) differed from the phase (0) specified by a rule in layer cifar
I0801 02:17:19.499639  2068 net.cpp:51] Initializing net from parameters: 
name: "CIFAR10_full"
state {
  phase: TEST
}
layer {
  name: "cifar"
  type: "Data"
  top: "data"
  top: "label"
  include {
    phase: TEST
  }
  transform_param {
    mean_file: "/opt/caffe/examples/cifar10/mean.binaryproto"
  }
  data_param {
    source: "/opt/caffe/examples/cifar10/cifar10_test_lmdb"
    batch_size: 100
    backend: LMDB
  }
}
layer {
  name: "conv_s_1"
  type: "Convolution"
  bottom: "data"
  top: "conv_s_1"
  param {
    lr_mult: 1
  }
  param {
    lr_mult: 2
  }
  convolution_param {
    num_output: 32
    pad: 2
    kernel_size: 5
    stride: 1
    weight_filler {
      type: "gaussian"
      std: 0.0001
    }
    bias_filler {
      type: "constant"
    }
  }
}
layer {
  name: "pool_s_1"
  type: "Pooling"
  bottom: "conv_s_1"
  top: "pool_s_1"
  pooling_param {
    pool: MAX
    kernel_size: 3
    stride: 2
  }
}
layer {
  name: "relu_s_1"
  type: "ReLU"
  bottom: "pool_s_1"
  top: "pool_s_1"
}
layer {
  name: "norm_s_1"
  type: "LRN"
  bottom: "pool_s_1"
  top: "norm_s_1"
  lrn_param {
    local_size: 3
    alpha: 5e-05
    beta: 0.75
    norm_region: WITHIN_CHANNEL
  }
}
layer {
  name: "conv_s_2"
  type: "Convolution"
  bottom: "norm_s_1"
  top: "conv_s_2"
  param {
    lr_mult: 1
  }
  param {
    lr_mult: 2
  }
  convolution_param {
    num_output: 32
    pad: 2
    kernel_size: 5
    stride: 1
    weight_filler {
      type: "gaussian"
      std: 0.01
    }
    bias_filler {
      type: "constant"
    }
  }
}
layer {
  name: "relu_s_2"
  type: "ReLU"
  bottom: "conv_s_2"
  top: "conv_s_2"
}
layer {
  name: "pool_s_2"
  type: "Pooling"
  bottom: "conv_s_2"
  top: "pool_s_2"
  pooling_param {
    pool: AVE
    kernel_size: 3
    stride: 2
  }
}
layer {
  name: "norm_s_2"
  type: "LRN"
  bottom: "pool_s_2"
  top: "norm_s_2"
  lrn_param {
    local_size: 3
    alpha: 5e-05
    beta: 0.75
    norm_region: WITHIN_CHANNEL
  }
}
layer {
  name: "conv_s_3"
  type: "Convolution"
  bottom: "norm_s_2"
  top: "conv_s_3"
  param {
    lr_mult: 1
  }
  param {
    lr_mult: 2
  }
  convolution_param {
    num_output: 64
    pad: 2
    kernel_size: 5
    stride: 1
    weight_filler {
      type: "gaussian"
      std: 0.01
    }
    bias_filler {
      type: "constant"
    }
  }
}
layer {
  name: "relu_s_3"
  type: "ReLU"
  bottom: "conv_s_3"
  top: "conv_s_3"
}
layer {
  name: "pool_s_3"
  type: "Pooling"
  bottom: "conv_s_3"
  top: "pool_s_3"
  pooling_param {
    pool: AVE
    kernel_size: 3
    stride: 2
  }
}
layer {
  name: "ip_s_1"
  type: "InnerProduct"
  bottom: "pool_s_3"
  top: "ip_s_1"
  param {
    lr_mult: 1
    decay_mult: 250
  }
  param {
    lr_mult: 2
    decay_mult: 0
  }
  inner_product_param {
    num_output: 10
    weight_filler {
      type: "gaussian"
      std: 0.01
    }
    bias_filler {
      type: "constant"
    }
  }
}
layer {
  name: "conv_t_1"
  type: "Convolution"
  bottom: "data"
  top: "conv_t_1"
  param {
    lr_mult: 0
  }
  param {
    lr_mult: 0
  }
  convolution_param {
    num_output: 32
    pad: 2
    kernel_size: 5
    stride: 1
    weight_filler {
      type: "gaussian"
      std: 0.0001
    }
    bias_filler {
      type: "constant"
    }
  }
}
layer {
  name: "pool_t_1"
  type: "Pooling"
  bottom: "conv_t_1"
  top: "pool_t_1"
  pooling_param {
    pool: MAX
    kernel_size: 3
    stride: 2
  }
}
layer {
  name: "relu_t_1"
  type: "ReLU"
  bottom: "pool_t_1"
  top: "pool_t_1"
}
layer {
  name: "norm_t_1"
  type: "LRN"
  bottom: "pool_t_1"
  top: "norm_t_1"
  lrn_param {
    local_size: 3
    alpha: 5e-05
    beta: 0.75
    norm_region: WITHIN_CHANNEL
  }
}
layer {
  name: "conv_t_2"
  type: "Convolution"
  bottom: "norm_t_1"
  top: "conv_t_2"
  param {
    lr_mult: 0
  }
  param {
    lr_mult: 0
  }
  convolution_param {
    num_output: 32
    pad: 2
    kernel_size: 5
    stride: 1
    weight_filler {
      type: "gaussian"
      std: 0.01
    }
    bias_filler {
      type: "constant"
    }
  }
}
layer {
  name: "relu_t_2"
  type: "ReLU"
  bottom: "conv_t_2"
  top: "conv_t_2"
}
layer {
  name: "pool_t_2"
  type: "Pooling"
  bottom: "conv_t_2"
  top: "pool_t_2"
  pooling_param {
    pool: AVE
    kernel_size: 3
    stride: 2
  }
}
layer {
  name: "norm_t_2"
  type: "LRN"
  bottom: "pool_t_2"
  top: "norm_t_2"
  lrn_param {
    local_size: 3
    alpha: 5e-05
    beta: 0.75
    norm_region: WITHIN_CHANNEL
  }
}
layer {
  name: "conv_t_3"
  type: "Convolution"
  bottom: "norm_t_2"
  top: "conv_t_3"
  param {
    lr_mult: 0
  }
  param {
    lr_mult: 0
  }
  convolution_param {
    num_output: 64
    pad: 2
    kernel_size: 5
    stride: 1
    weight_filler {
      type: "gaussian"
      std: 0.01
    }
    bias_filler {
      type: "constant"
    }
  }
}
layer {
  name: "relu_t_3"
  type: "ReLU"
  bottom: "conv_t_3"
  top: "conv_t_3"
}
layer {
  name: "pool_t_3"
  type: "Pooling"
  bottom: "conv_t_3"
  top: "pool_t_3"
  pooling_param {
    pool: AVE
    kernel_size: 3
    stride: 2
  }
}
layer {
  name: "ip_t_1"
  type: "InnerProduct"
  bottom: "pool_t_3"
  top: "ip_t_1"
  param {
    lr_mult: 0
  }
  param {
    lr_mult: 0
  }
  inner_product_param {
    num_output: 10
    weight_filler {
      type: "gaussian"
      std: 0.01
    }
    bias_filler {
      type: "constant"
    }
  }
}
layer {
  name: "sm_s_1"
  type: "Softmax"
  bottom: "ip_s_1"
  top: "sm_s_1"
}
layer {
  name: "sm_t_1"
  type: "Softmax"
  bottom: "ip_t_1"
  top: "sm_t_1"
}
layer {
  name: "accuracy"
  type: "Accuracy"
  bottom: "ip_s_1"
  bottom: "label"
  top: "accuracy"
  include {
    phase: TEST
  }
}
layer {
  name: "ts_loss"
  type: "SigmoidCrossEntropyLoss"
  bottom: "sm_s_1"
  bottom: "sm_t_1"
  top: "ts_loss"
  loss_weight: 0.1
}
layer {
  name: "loss"
  type: "SoftmaxWithLoss"
  bottom: "ip_s_1"
  bottom: "label"
  top: "loss"
  loss_weight: 0.9
}
I0801 02:17:19.499711  2068 layer_factory.hpp:77] Creating layer cifar
I0801 02:17:19.499763  2068 db_lmdb.cpp:35] Opened lmdb /opt/caffe/examples/cifar10/cifar10_test_lmdb
I0801 02:17:19.499771  2068 net.cpp:84] Creating Layer cifar
I0801 02:17:19.499774  2068 net.cpp:380] cifar -> data
I0801 02:17:19.499780  2068 net.cpp:380] cifar -> label
I0801 02:17:19.499784  2068 data_transformer.cpp:25] Loading mean file from: /opt/caffe/examples/cifar10/mean.binaryproto
I0801 02:17:19.499884  2068 data_layer.cpp:45] output data size: 100,3,32,32
I0801 02:17:19.504081  2068 net.cpp:122] Setting up cifar
I0801 02:17:19.504098  2068 net.cpp:129] Top shape: 100 3 32 32 (307200)
I0801 02:17:19.504101  2068 net.cpp:129] Top shape: 100 (100)
I0801 02:17:19.504103  2068 net.cpp:137] Memory required for data: 1229200
I0801 02:17:19.504109  2068 layer_factory.hpp:77] Creating layer data_cifar_0_split
I0801 02:17:19.504120  2068 net.cpp:84] Creating Layer data_cifar_0_split
I0801 02:17:19.504123  2068 net.cpp:406] data_cifar_0_split <- data
I0801 02:17:19.504127  2068 net.cpp:380] data_cifar_0_split -> data_cifar_0_split_0
I0801 02:17:19.504133  2068 net.cpp:380] data_cifar_0_split -> data_cifar_0_split_1
I0801 02:17:19.504190  2068 net.cpp:122] Setting up data_cifar_0_split
I0801 02:17:19.504194  2068 net.cpp:129] Top shape: 100 3 32 32 (307200)
I0801 02:17:19.504196  2068 net.cpp:129] Top shape: 100 3 32 32 (307200)
I0801 02:17:19.504199  2068 net.cpp:137] Memory required for data: 3686800
I0801 02:17:19.504200  2068 layer_factory.hpp:77] Creating layer label_cifar_1_split
I0801 02:17:19.504204  2068 net.cpp:84] Creating Layer label_cifar_1_split
I0801 02:17:19.504217  2068 net.cpp:406] label_cifar_1_split <- label
I0801 02:17:19.504221  2068 net.cpp:380] label_cifar_1_split -> label_cifar_1_split_0
I0801 02:17:19.504225  2068 net.cpp:380] label_cifar_1_split -> label_cifar_1_split_1
I0801 02:17:19.504251  2068 net.cpp:122] Setting up label_cifar_1_split
I0801 02:17:19.504254  2068 net.cpp:129] Top shape: 100 (100)
I0801 02:17:19.504256  2068 net.cpp:129] Top shape: 100 (100)
I0801 02:17:19.504257  2068 net.cpp:137] Memory required for data: 3687600
I0801 02:17:19.504259  2068 layer_factory.hpp:77] Creating layer conv_s_1
I0801 02:17:19.504266  2068 net.cpp:84] Creating Layer conv_s_1
I0801 02:17:19.504267  2068 net.cpp:406] conv_s_1 <- data_cifar_0_split_0
I0801 02:17:19.504271  2068 net.cpp:380] conv_s_1 -> conv_s_1
I0801 02:17:19.505406  2068 net.cpp:122] Setting up conv_s_1
I0801 02:17:19.505414  2068 net.cpp:129] Top shape: 100 32 32 32 (3276800)
I0801 02:17:19.505415  2068 net.cpp:137] Memory required for data: 16794800
I0801 02:17:19.505424  2068 layer_factory.hpp:77] Creating layer pool_s_1
I0801 02:17:19.505431  2068 net.cpp:84] Creating Layer pool_s_1
I0801 02:17:19.505434  2068 net.cpp:406] pool_s_1 <- conv_s_1
I0801 02:17:19.505436  2068 net.cpp:380] pool_s_1 -> pool_s_1
I0801 02:17:19.505537  2068 net.cpp:122] Setting up pool_s_1
I0801 02:17:19.505540  2068 net.cpp:129] Top shape: 100 32 16 16 (819200)
I0801 02:17:19.505542  2068 net.cpp:137] Memory required for data: 20071600
I0801 02:17:19.505543  2068 layer_factory.hpp:77] Creating layer relu_s_1
I0801 02:17:19.505547  2068 net.cpp:84] Creating Layer relu_s_1
I0801 02:17:19.505548  2068 net.cpp:406] relu_s_1 <- pool_s_1
I0801 02:17:19.505551  2068 net.cpp:367] relu_s_1 -> pool_s_1 (in-place)
I0801 02:17:19.505671  2068 net.cpp:122] Setting up relu_s_1
I0801 02:17:19.505674  2068 net.cpp:129] Top shape: 100 32 16 16 (819200)
I0801 02:17:19.505677  2068 net.cpp:137] Memory required for data: 23348400
I0801 02:17:19.505679  2068 layer_factory.hpp:77] Creating layer norm_s_1
I0801 02:17:19.505683  2068 net.cpp:84] Creating Layer norm_s_1
I0801 02:17:19.505686  2068 net.cpp:406] norm_s_1 <- pool_s_1
I0801 02:17:19.505688  2068 net.cpp:380] norm_s_1 -> norm_s_1
I0801 02:17:19.506237  2068 net.cpp:122] Setting up norm_s_1
I0801 02:17:19.506244  2068 net.cpp:129] Top shape: 100 32 16 16 (819200)
I0801 02:17:19.506247  2068 net.cpp:137] Memory required for data: 26625200
I0801 02:17:19.506248  2068 layer_factory.hpp:77] Creating layer conv_s_2
I0801 02:17:19.506256  2068 net.cpp:84] Creating Layer conv_s_2
I0801 02:17:19.506258  2068 net.cpp:406] conv_s_2 <- norm_s_1
I0801 02:17:19.506263  2068 net.cpp:380] conv_s_2 -> conv_s_2
I0801 02:17:19.507326  2068 net.cpp:122] Setting up conv_s_2
I0801 02:17:19.507333  2068 net.cpp:129] Top shape: 100 32 16 16 (819200)
I0801 02:17:19.507334  2068 net.cpp:137] Memory required for data: 29902000
I0801 02:17:19.507340  2068 layer_factory.hpp:77] Creating layer relu_s_2
I0801 02:17:19.507345  2068 net.cpp:84] Creating Layer relu_s_2
I0801 02:17:19.507349  2068 net.cpp:406] relu_s_2 <- conv_s_2
I0801 02:17:19.507351  2068 net.cpp:367] relu_s_2 -> conv_s_2 (in-place)
I0801 02:17:19.507457  2068 net.cpp:122] Setting up relu_s_2
I0801 02:17:19.507462  2068 net.cpp:129] Top shape: 100 32 16 16 (819200)
I0801 02:17:19.507464  2068 net.cpp:137] Memory required for data: 33178800
I0801 02:17:19.507465  2068 layer_factory.hpp:77] Creating layer pool_s_2
I0801 02:17:19.507469  2068 net.cpp:84] Creating Layer pool_s_2
I0801 02:17:19.507472  2068 net.cpp:406] pool_s_2 <- conv_s_2
I0801 02:17:19.507474  2068 net.cpp:380] pool_s_2 -> pool_s_2
I0801 02:17:19.507810  2068 net.cpp:122] Setting up pool_s_2
I0801 02:17:19.507817  2068 net.cpp:129] Top shape: 100 32 8 8 (204800)
I0801 02:17:19.507819  2068 net.cpp:137] Memory required for data: 33998000
I0801 02:17:19.507822  2068 layer_factory.hpp:77] Creating layer norm_s_2
I0801 02:17:19.507825  2068 net.cpp:84] Creating Layer norm_s_2
I0801 02:17:19.507827  2068 net.cpp:406] norm_s_2 <- pool_s_2
I0801 02:17:19.507854  2068 net.cpp:380] norm_s_2 -> norm_s_2
I0801 02:17:19.508021  2068 net.cpp:122] Setting up norm_s_2
I0801 02:17:19.508026  2068 net.cpp:129] Top shape: 100 32 8 8 (204800)
I0801 02:17:19.508028  2068 net.cpp:137] Memory required for data: 34817200
I0801 02:17:19.508030  2068 layer_factory.hpp:77] Creating layer conv_s_3
I0801 02:17:19.508035  2068 net.cpp:84] Creating Layer conv_s_3
I0801 02:17:19.508038  2068 net.cpp:406] conv_s_3 <- norm_s_2
I0801 02:17:19.508040  2068 net.cpp:380] conv_s_3 -> conv_s_3
I0801 02:17:19.509001  2068 net.cpp:122] Setting up conv_s_3
I0801 02:17:19.509007  2068 net.cpp:129] Top shape: 100 64 8 8 (409600)
I0801 02:17:19.509009  2068 net.cpp:137] Memory required for data: 36455600
I0801 02:17:19.509014  2068 layer_factory.hpp:77] Creating layer relu_s_3
I0801 02:17:19.509018  2068 net.cpp:84] Creating Layer relu_s_3
I0801 02:17:19.509021  2068 net.cpp:406] relu_s_3 <- conv_s_3
I0801 02:17:19.509023  2068 net.cpp:367] relu_s_3 -> conv_s_3 (in-place)
I0801 02:17:19.509142  2068 net.cpp:122] Setting up relu_s_3
I0801 02:17:19.509147  2068 net.cpp:129] Top shape: 100 64 8 8 (409600)
I0801 02:17:19.509150  2068 net.cpp:137] Memory required for data: 38094000
I0801 02:17:19.509151  2068 layer_factory.hpp:77] Creating layer pool_s_3
I0801 02:17:19.509155  2068 net.cpp:84] Creating Layer pool_s_3
I0801 02:17:19.509156  2068 net.cpp:406] pool_s_3 <- conv_s_3
I0801 02:17:19.509160  2068 net.cpp:380] pool_s_3 -> pool_s_3
I0801 02:17:19.509464  2068 net.cpp:122] Setting up pool_s_3
I0801 02:17:19.509470  2068 net.cpp:129] Top shape: 100 64 4 4 (102400)
I0801 02:17:19.509472  2068 net.cpp:137] Memory required for data: 38503600
I0801 02:17:19.509474  2068 layer_factory.hpp:77] Creating layer ip_s_1
I0801 02:17:19.509479  2068 net.cpp:84] Creating Layer ip_s_1
I0801 02:17:19.509480  2068 net.cpp:406] ip_s_1 <- pool_s_3
I0801 02:17:19.509485  2068 net.cpp:380] ip_s_1 -> ip_s_1
I0801 02:17:19.509609  2068 net.cpp:122] Setting up ip_s_1
I0801 02:17:19.509613  2068 net.cpp:129] Top shape: 100 10 (1000)
I0801 02:17:19.509615  2068 net.cpp:137] Memory required for data: 38507600
I0801 02:17:19.509619  2068 layer_factory.hpp:77] Creating layer ip_s_1_ip_s_1_0_split
I0801 02:17:19.509623  2068 net.cpp:84] Creating Layer ip_s_1_ip_s_1_0_split
I0801 02:17:19.509624  2068 net.cpp:406] ip_s_1_ip_s_1_0_split <- ip_s_1
I0801 02:17:19.509627  2068 net.cpp:380] ip_s_1_ip_s_1_0_split -> ip_s_1_ip_s_1_0_split_0
I0801 02:17:19.509631  2068 net.cpp:380] ip_s_1_ip_s_1_0_split -> ip_s_1_ip_s_1_0_split_1
I0801 02:17:19.509636  2068 net.cpp:380] ip_s_1_ip_s_1_0_split -> ip_s_1_ip_s_1_0_split_2
I0801 02:17:19.509665  2068 net.cpp:122] Setting up ip_s_1_ip_s_1_0_split
I0801 02:17:19.509667  2068 net.cpp:129] Top shape: 100 10 (1000)
I0801 02:17:19.509670  2068 net.cpp:129] Top shape: 100 10 (1000)
I0801 02:17:19.509672  2068 net.cpp:129] Top shape: 100 10 (1000)
I0801 02:17:19.509673  2068 net.cpp:137] Memory required for data: 38519600
I0801 02:17:19.509675  2068 layer_factory.hpp:77] Creating layer conv_t_1
I0801 02:17:19.509681  2068 net.cpp:84] Creating Layer conv_t_1
I0801 02:17:19.509683  2068 net.cpp:406] conv_t_1 <- data_cifar_0_split_1
I0801 02:17:19.509687  2068 net.cpp:380] conv_t_1 -> conv_t_1
I0801 02:17:19.510368  2068 net.cpp:122] Setting up conv_t_1
I0801 02:17:19.510375  2068 net.cpp:129] Top shape: 100 32 32 32 (3276800)
I0801 02:17:19.510378  2068 net.cpp:137] Memory required for data: 51626800
I0801 02:17:19.510383  2068 layer_factory.hpp:77] Creating layer pool_t_1
I0801 02:17:19.510387  2068 net.cpp:84] Creating Layer pool_t_1
I0801 02:17:19.510390  2068 net.cpp:406] pool_t_1 <- conv_t_1
I0801 02:17:19.510392  2068 net.cpp:380] pool_t_1 -> pool_t_1
I0801 02:17:19.510416  2068 net.cpp:122] Setting up pool_t_1
I0801 02:17:19.510418  2068 net.cpp:129] Top shape: 100 32 16 16 (819200)
I0801 02:17:19.510421  2068 net.cpp:137] Memory required for data: 54903600
I0801 02:17:19.510422  2068 layer_factory.hpp:77] Creating layer relu_t_1
I0801 02:17:19.510426  2068 net.cpp:84] Creating Layer relu_t_1
I0801 02:17:19.510437  2068 net.cpp:406] relu_t_1 <- pool_t_1
I0801 02:17:19.510439  2068 net.cpp:367] relu_t_1 -> pool_t_1 (in-place)
I0801 02:17:19.510545  2068 net.cpp:122] Setting up relu_t_1
I0801 02:17:19.510550  2068 net.cpp:129] Top shape: 100 32 16 16 (819200)
I0801 02:17:19.510551  2068 net.cpp:137] Memory required for data: 58180400
I0801 02:17:19.510553  2068 layer_factory.hpp:77] Creating layer norm_t_1
I0801 02:17:19.510556  2068 net.cpp:84] Creating Layer norm_t_1
I0801 02:17:19.510558  2068 net.cpp:406] norm_t_1 <- pool_t_1
I0801 02:17:19.510561  2068 net.cpp:380] norm_t_1 -> norm_t_1
I0801 02:17:19.511085  2068 net.cpp:122] Setting up norm_t_1
I0801 02:17:19.511090  2068 net.cpp:129] Top shape: 100 32 16 16 (819200)
I0801 02:17:19.511092  2068 net.cpp:137] Memory required for data: 61457200
I0801 02:17:19.511095  2068 layer_factory.hpp:77] Creating layer conv_t_2
I0801 02:17:19.511099  2068 net.cpp:84] Creating Layer conv_t_2
I0801 02:17:19.511101  2068 net.cpp:406] conv_t_2 <- norm_t_1
I0801 02:17:19.511106  2068 net.cpp:380] conv_t_2 -> conv_t_2
I0801 02:17:19.512104  2068 net.cpp:122] Setting up conv_t_2
I0801 02:17:19.512110  2068 net.cpp:129] Top shape: 100 32 16 16 (819200)
I0801 02:17:19.512112  2068 net.cpp:137] Memory required for data: 64734000
I0801 02:17:19.512116  2068 layer_factory.hpp:77] Creating layer relu_t_2
I0801 02:17:19.512120  2068 net.cpp:84] Creating Layer relu_t_2
I0801 02:17:19.512121  2068 net.cpp:406] relu_t_2 <- conv_t_2
I0801 02:17:19.512125  2068 net.cpp:367] relu_t_2 -> conv_t_2 (in-place)
I0801 02:17:19.512419  2068 net.cpp:122] Setting up relu_t_2
I0801 02:17:19.512425  2068 net.cpp:129] Top shape: 100 32 16 16 (819200)
I0801 02:17:19.512428  2068 net.cpp:137] Memory required for data: 68010800
I0801 02:17:19.512429  2068 layer_factory.hpp:77] Creating layer pool_t_2
I0801 02:17:19.512434  2068 net.cpp:84] Creating Layer pool_t_2
I0801 02:17:19.512435  2068 net.cpp:406] pool_t_2 <- conv_t_2
I0801 02:17:19.512439  2068 net.cpp:380] pool_t_2 -> pool_t_2
I0801 02:17:19.512547  2068 net.cpp:122] Setting up pool_t_2
I0801 02:17:19.512552  2068 net.cpp:129] Top shape: 100 32 8 8 (204800)
I0801 02:17:19.512553  2068 net.cpp:137] Memory required for data: 68830000
I0801 02:17:19.512555  2068 layer_factory.hpp:77] Creating layer norm_t_2
I0801 02:17:19.512558  2068 net.cpp:84] Creating Layer norm_t_2
I0801 02:17:19.512560  2068 net.cpp:406] norm_t_2 <- pool_t_2
I0801 02:17:19.512563  2068 net.cpp:380] norm_t_2 -> norm_t_2
I0801 02:17:19.512723  2068 net.cpp:122] Setting up norm_t_2
I0801 02:17:19.512728  2068 net.cpp:129] Top shape: 100 32 8 8 (204800)
I0801 02:17:19.512729  2068 net.cpp:137] Memory required for data: 69649200
I0801 02:17:19.512732  2068 layer_factory.hpp:77] Creating layer conv_t_3
I0801 02:17:19.512737  2068 net.cpp:84] Creating Layer conv_t_3
I0801 02:17:19.512738  2068 net.cpp:406] conv_t_3 <- norm_t_2
I0801 02:17:19.512742  2068 net.cpp:380] conv_t_3 -> conv_t_3
I0801 02:17:19.513710  2068 net.cpp:122] Setting up conv_t_3
I0801 02:17:19.513718  2068 net.cpp:129] Top shape: 100 64 8 8 (409600)
I0801 02:17:19.513720  2068 net.cpp:137] Memory required for data: 71287600
I0801 02:17:19.513723  2068 layer_factory.hpp:77] Creating layer relu_t_3
I0801 02:17:19.513727  2068 net.cpp:84] Creating Layer relu_t_3
I0801 02:17:19.513730  2068 net.cpp:406] relu_t_3 <- conv_t_3
I0801 02:17:19.513732  2068 net.cpp:367] relu_t_3 -> conv_t_3 (in-place)
I0801 02:17:19.513833  2068 net.cpp:122] Setting up relu_t_3
I0801 02:17:19.513839  2068 net.cpp:129] Top shape: 100 64 8 8 (409600)
I0801 02:17:19.513840  2068 net.cpp:137] Memory required for data: 72926000
I0801 02:17:19.513842  2068 layer_factory.hpp:77] Creating layer pool_t_3
I0801 02:17:19.513845  2068 net.cpp:84] Creating Layer pool_t_3
I0801 02:17:19.513847  2068 net.cpp:406] pool_t_3 <- conv_t_3
I0801 02:17:19.513850  2068 net.cpp:380] pool_t_3 -> pool_t_3
I0801 02:17:19.514153  2068 net.cpp:122] Setting up pool_t_3
I0801 02:17:19.514160  2068 net.cpp:129] Top shape: 100 64 4 4 (102400)
I0801 02:17:19.514161  2068 net.cpp:137] Memory required for data: 73335600
I0801 02:17:19.514174  2068 layer_factory.hpp:77] Creating layer ip_t_1
I0801 02:17:19.514178  2068 net.cpp:84] Creating Layer ip_t_1
I0801 02:17:19.514180  2068 net.cpp:406] ip_t_1 <- pool_t_3
I0801 02:17:19.514184  2068 net.cpp:380] ip_t_1 -> ip_t_1
I0801 02:17:19.514309  2068 net.cpp:122] Setting up ip_t_1
I0801 02:17:19.514313  2068 net.cpp:129] Top shape: 100 10 (1000)
I0801 02:17:19.514315  2068 net.cpp:137] Memory required for data: 73339600
I0801 02:17:19.514318  2068 layer_factory.hpp:77] Creating layer sm_s_1
I0801 02:17:19.514322  2068 net.cpp:84] Creating Layer sm_s_1
I0801 02:17:19.514324  2068 net.cpp:406] sm_s_1 <- ip_s_1_ip_s_1_0_split_0
I0801 02:17:19.514328  2068 net.cpp:380] sm_s_1 -> sm_s_1
I0801 02:17:19.514466  2068 net.cpp:122] Setting up sm_s_1
I0801 02:17:19.514470  2068 net.cpp:129] Top shape: 100 10 (1000)
I0801 02:17:19.514472  2068 net.cpp:137] Memory required for data: 73343600
I0801 02:17:19.514473  2068 layer_factory.hpp:77] Creating layer sm_t_1
I0801 02:17:19.514477  2068 net.cpp:84] Creating Layer sm_t_1
I0801 02:17:19.514479  2068 net.cpp:406] sm_t_1 <- ip_t_1
I0801 02:17:19.514482  2068 net.cpp:380] sm_t_1 -> sm_t_1
I0801 02:17:19.514613  2068 net.cpp:122] Setting up sm_t_1
I0801 02:17:19.514618  2068 net.cpp:129] Top shape: 100 10 (1000)
I0801 02:17:19.514621  2068 net.cpp:137] Memory required for data: 73347600
I0801 02:17:19.514621  2068 layer_factory.hpp:77] Creating layer accuracy
I0801 02:17:19.514626  2068 net.cpp:84] Creating Layer accuracy
I0801 02:17:19.514628  2068 net.cpp:406] accuracy <- ip_s_1_ip_s_1_0_split_1
I0801 02:17:19.514631  2068 net.cpp:406] accuracy <- label_cifar_1_split_0
I0801 02:17:19.514634  2068 net.cpp:380] accuracy -> accuracy
…
