…
I0801 16:17:32.858526  2129 net.cpp:294] The NetState phase (0) differed from the phase (1) specified by a rule in layer accuracy
I0801 16:17:32.858639  2129 net.cpp:51] Initializing net from parameters: 
name: "CIFAR10_full"
state {
  phase: TRAIN
  level: 0
  stage: ""
}
layer {
  name: "cifar"
  type: "Data"
  top: "data"
  top: "label"
  include {
    phase: TRAIN
  }
  transform_param {
    mean_file: "/opt/caffe/examples/cifar10/mean.binaryproto"
  }
  data_param {
    source: "/opt/caffe/examples/cifar10/cifar10_train_lmdb"
    batch_size: 100
    backend: LMDB
  }
}
layer {
  name: "conv_s_1"
  type: "Convolution"
  bottom: "data"
  top: "conv_s_1"
  param {
    lr_mult: 1
  }
  param {
    lr_mult: 2
  }
  convolution_param {
    num_output: 32
    pad: 2
    kernel_size: 5
    stride: 1
    weight_filler {
      type: "gaussian"
      std: 0.0001
    }
    bias_filler {
      type: "constant"
    }
  }
}
layer {
  name: "pool_s_1"
  type: "Pooling"
  bottom: "conv_s_1"
  top: "pool_s_1"
  pooling_param {
    pool: MAX
    kernel_size: 3
    stride: 2
  }
}
layer {
  name: "relu_s_1"
  type: "ReLU"
  bottom: "pool_s_1"
  top: "pool_s_1"
}
layer {
  name: "norm_s_1"
  type: "LRN"
  bottom: "pool_s_1"
  top: "norm_s_1"
  lrn_param {
    local_size: 3
    alpha: 5e-05
    beta: 0.75
    norm_region: WITHIN_CHANNEL
  }
}
layer {
  name: "conv_s_2"
  type: "Convolution"
  bottom: "norm_s_1"
  top: "conv_s_2"
  param {
    lr_mult: 1
  }
  param {
    lr_mult: 2
  }
  convolution_param {
    num_output: 32
    pad: 2
    kernel_size: 5
    stride: 1
    weight_filler {
      type: "gaussian"
      std: 0.01
    }
    bias_filler {
      type: "constant"
    }
  }
}
layer {
  name: "relu_s_2"
  type: "ReLU"
  bottom: "conv_s_2"
  top: "conv_s_2"
}
layer {
  name: "pool_s_2"
  type: "Pooling"
  bottom: "conv_s_2"
  top: "pool_s_2"
  pooling_param {
    pool: AVE
    kernel_size: 3
    stride: 2
  }
}
layer {
  name: "norm_s_2"
  type: "LRN"
  bottom: "pool_s_2"
  top: "norm_s_2"
  lrn_param {
    local_size: 3
    alpha: 5e-05
    beta: 0.75
    norm_region: WITHIN_CHANNEL
  }
}
layer {
  name: "conv_s_3"
  type: "Convolution"
  bottom: "norm_s_2"
  top: "conv_s_3"
  param {
    lr_mult: 1
  }
  param {
    lr_mult: 2
  }
  convolution_param {
    num_output: 64
    pad: 2
    kernel_size: 5
    stride: 1
    weight_filler {
      type: "gaussian"
      std: 0.01
    }
    bias_filler {
      type: "constant"
    }
  }
}
layer {
  name: "relu_s_3"
  type: "ReLU"
  bottom: "conv_s_3"
  top: "conv_s_3"
}
layer {
  name: "pool_s_3"
  type: "Pooling"
  bottom: "conv_s_3"
  top: "pool_s_3"
  pooling_param {
    pool: AVE
    kernel_size: 3
    stride: 2
  }
}
layer {
  name: "ip_s_1"
  type: "InnerProduct"
  bottom: "pool_s_3"
  top: "ip_s_1"
  param {
    lr_mult: 1
    decay_mult: 250
  }
  param {
    lr_mult: 2
    decay_mult: 0
  }
  inner_product_param {
    num_output: 10
    weight_filler {
      type: "gaussian"
      std: 0.01
    }
    bias_filler {
      type: "constant"
    }
  }
}
layer {
  name: "conv_t_1"
  type: "Convolution"
  bottom: "data"
  top: "conv_t_1"
  param {
    lr_mult: 0
  }
  param {
    lr_mult: 0
  }
  convolution_param {
    num_output: 32
    pad: 2
    kernel_size: 5
    stride: 1
    weight_filler {
      type: "gaussian"
      std: 0.0001
    }
    bias_filler {
      type: "constant"
    }
  }
}
layer {
  name: "pool_t_1"
  type: "Pooling"
  bottom: "conv_t_1"
  top: "pool_t_1"
  pooling_param {
    pool: MAX
    kernel_size: 3
    stride: 2
  }
}
layer {
  name: "relu_t_1"
  type: "ReLU"
  bottom: "pool_t_1"
  top: "pool_t_1"
}
layer {
  name: "norm_t_1"
  type: "LRN"
  bottom: "pool_t_1"
  top: "norm_t_1"
  lrn_param {
    local_size: 3
    alpha: 5e-05
    beta: 0.75
    norm_region: WITHIN_CHANNEL
  }
}
layer {
  name: "conv_t_2"
  type: "Convolution"
  bottom: "norm_t_1"
  top: "conv_t_2"
  param {
    lr_mult: 0
  }
  param {
    lr_mult: 0
  }
  convolution_param {
    num_output: 32
    pad: 2
    kernel_size: 5
    stride: 1
    weight_filler {
      type: "gaussian"
      std: 0.01
    }
    bias_filler {
      type: "constant"
    }
  }
}
layer {
  name: "relu_t_2"
  type: "ReLU"
  bottom: "conv_t_2"
  top: "conv_t_2"
}
layer {
  name: "pool_t_2"
  type: "Pooling"
  bottom: "conv_t_2"
  top: "pool_t_2"
  pooling_param {
    pool: AVE
    kernel_size: 3
    stride: 2
  }
}
layer {
  name: "norm_t_2"
  type: "LRN"
  bottom: "pool_t_2"
  top: "norm_t_2"
  lrn_param {
    local_size: 3
    alpha: 5e-05
    beta: 0.75
    norm_region: WITHIN_CHANNEL
  }
}
layer {
  name: "conv_t_3"
  type: "Convolution"
  bottom: "norm_t_2"
  top: "conv_t_3"
  param {
    lr_mult: 0
  }
  param {
    lr_mult: 0
  }
  convolution_param {
    num_output: 64
    pad: 2
    kernel_size: 5
    stride: 1
    weight_filler {
      type: "gaussian"
      std: 0.01
    }
    bias_filler {
      type: "constant"
    }
  }
}
layer {
  name: "relu_t_3"
  type: "ReLU"
  bottom: "conv_t_3"
  top: "conv_t_3"
}
layer {
  name: "pool_t_3"
  type: "Pooling"
  bottom: "conv_t_3"
  top: "pool_t_3"
  pooling_param {
    pool: AVE
    kernel_size: 3
    stride: 2
  }
}
layer {
  name: "ip_t_1"
  type: "InnerProduct"
  bottom: "pool_t_3"
  top: "ip_t_1"
  param {
    lr_mult: 0
  }
  param {
    lr_mult: 0
  }
  inner_product_param {
    num_output: 10
    weight_filler {
      type: "gaussian"
      std: 0.01
    }
    bias_filler {
      type: "constant"
    }
  }
}
layer {
  name: "sm_s_1"
  type: "Softmax"
  bottom: "ip_s_1"
  top: "sm_s_1"
}
layer {
  name: "sm_t_1"
  type: "Softmax"
  bottom: "ip_t_1"
  top: "sm_t_1"
}
layer {
  name: "ts_loss"
  type: "SigmoidCrossEntropyLoss"
  bottom: "sm_s_1"
  bottom: "sm_t_1"
  top: "ts_loss"
  loss_weight: 0.6
}
layer {
  name: "loss"
  type: "SoftmaxWithLoss"
  bottom: "ip_s_1"
  bottom: "label"
  top: "loss"
  loss_weight: 0.4
}
I0801 16:17:32.859181  2129 layer_factory.hpp:77] Creating layer cifar
I0801 16:17:32.859274  2129 db_lmdb.cpp:35] Opened lmdb /opt/caffe/examples/cifar10/cifar10_train_lmdb
I0801 16:17:32.859299  2129 net.cpp:84] Creating Layer cifar
I0801 16:17:32.859311  2129 net.cpp:380] cifar -> data
I0801 16:17:32.859333  2129 net.cpp:380] cifar -> label
I0801 16:17:32.859349  2129 data_transformer.cpp:25] Loading mean file from: /opt/caffe/examples/cifar10/mean.binaryproto
I0801 16:17:32.860483  2129 data_layer.cpp:45] output data size: 100,3,32,32
I0801 16:17:32.864145  2129 net.cpp:122] Setting up cifar
I0801 16:17:32.864190  2129 net.cpp:129] Top shape: 100 3 32 32 (307200)
I0801 16:17:32.864200  2129 net.cpp:129] Top shape: 100 (100)
I0801 16:17:32.864207  2129 net.cpp:137] Memory required for data: 1229200
I0801 16:17:32.864219  2129 layer_factory.hpp:77] Creating layer data_cifar_0_split
I0801 16:17:32.864236  2129 net.cpp:84] Creating Layer data_cifar_0_split
I0801 16:17:32.864245  2129 net.cpp:406] data_cifar_0_split <- data
I0801 16:17:32.864259  2129 net.cpp:380] data_cifar_0_split -> data_cifar_0_split_0
I0801 16:17:32.864272  2129 net.cpp:380] data_cifar_0_split -> data_cifar_0_split_1
I0801 16:17:32.864307  2129 net.cpp:122] Setting up data_cifar_0_split
I0801 16:17:32.864316  2129 net.cpp:129] Top shape: 100 3 32 32 (307200)
I0801 16:17:32.864323  2129 net.cpp:129] Top shape: 100 3 32 32 (307200)
I0801 16:17:32.864329  2129 net.cpp:137] Memory required for data: 3686800
I0801 16:17:32.864336  2129 layer_factory.hpp:77] Creating layer conv_s_1
I0801 16:17:32.864357  2129 net.cpp:84] Creating Layer conv_s_1
I0801 16:17:32.864372  2129 net.cpp:406] conv_s_1 <- data_cifar_0_split_0
I0801 16:17:32.864382  2129 net.cpp:380] conv_s_1 -> conv_s_1
I0801 16:17:33.172792  2129 net.cpp:122] Setting up conv_s_1
I0801 16:17:33.172838  2129 net.cpp:129] Top shape: 100 32 32 32 (3276800)
I0801 16:17:33.172847  2129 net.cpp:137] Memory required for data: 16794000
I0801 16:17:33.172870  2129 layer_factory.hpp:77] Creating layer pool_s_1
I0801 16:17:33.172886  2129 net.cpp:84] Creating Layer pool_s_1
I0801 16:17:33.172894  2129 net.cpp:406] pool_s_1 <- conv_s_1
I0801 16:17:33.172902  2129 net.cpp:380] pool_s_1 -> pool_s_1
I0801 16:17:33.172950  2129 net.cpp:122] Setting up pool_s_1
I0801 16:17:33.172960  2129 net.cpp:129] Top shape: 100 32 16 16 (819200)
I0801 16:17:33.172966  2129 net.cpp:137] Memory required for data: 20070800
I0801 16:17:33.172971  2129 layer_factory.hpp:77] Creating layer relu_s_1
I0801 16:17:33.172981  2129 net.cpp:84] Creating Layer relu_s_1
I0801 16:17:33.172991  2129 net.cpp:406] relu_s_1 <- pool_s_1
I0801 16:17:33.172998  2129 net.cpp:367] relu_s_1 -> pool_s_1 (in-place)
I0801 16:17:33.173339  2129 net.cpp:122] Setting up relu_s_1
I0801 16:17:33.173355  2129 net.cpp:129] Top shape: 100 32 16 16 (819200)
I0801 16:17:33.173362  2129 net.cpp:137] Memory required for data: 23347600
I0801 16:17:33.173369  2129 layer_factory.hpp:77] Creating layer norm_s_1
I0801 16:17:33.173380  2129 net.cpp:84] Creating Layer norm_s_1
I0801 16:17:33.173388  2129 net.cpp:406] norm_s_1 <- pool_s_1
I0801 16:17:33.173398  2129 net.cpp:380] norm_s_1 -> norm_s_1
I0801 16:17:33.173933  2129 net.cpp:122] Setting up norm_s_1
I0801 16:17:33.173949  2129 net.cpp:129] Top shape: 100 32 16 16 (819200)
I0801 16:17:33.173956  2129 net.cpp:137] Memory required for data: 26624400
I0801 16:17:33.173964  2129 layer_factory.hpp:77] Creating layer conv_s_2
I0801 16:17:33.173975  2129 net.cpp:84] Creating Layer conv_s_2
I0801 16:17:33.173982  2129 net.cpp:406] conv_s_2 <- norm_s_1
I0801 16:17:33.173991  2129 net.cpp:380] conv_s_2 -> conv_s_2
I0801 16:17:33.175462  2129 net.cpp:122] Setting up conv_s_2
I0801 16:17:33.175482  2129 net.cpp:129] Top shape: 100 32 16 16 (819200)
I0801 16:17:33.175489  2129 net.cpp:137] Memory required for data: 29901200
I0801 16:17:33.175501  2129 layer_factory.hpp:77] Creating layer relu_s_2
I0801 16:17:33.175511  2129 net.cpp:84] Creating Layer relu_s_2
I0801 16:17:33.175518  2129 net.cpp:406] relu_s_2 <- conv_s_2
I0801 16:17:33.175528  2129 net.cpp:367] relu_s_2 -> conv_s_2 (in-place)
I0801 16:17:33.175643  2129 net.cpp:122] Setting up relu_s_2
I0801 16:17:33.175655  2129 net.cpp:129] Top shape: 100 32 16 16 (819200)
I0801 16:17:33.175662  2129 net.cpp:137] Memory required for data: 33178000
I0801 16:17:33.175669  2129 layer_factory.hpp:77] Creating layer pool_s_2
I0801 16:17:33.175679  2129 net.cpp:84] Creating Layer pool_s_2
I0801 16:17:33.175686  2129 net.cpp:406] pool_s_2 <- conv_s_2
I0801 16:17:33.175695  2129 net.cpp:380] pool_s_2 -> pool_s_2
I0801 16:17:33.176003  2129 net.cpp:122] Setting up pool_s_2
I0801 16:17:33.176018  2129 net.cpp:129] Top shape: 100 32 8 8 (204800)
I0801 16:17:33.176026  2129 net.cpp:137] Memory required for data: 33997200
I0801 16:17:33.176033  2129 layer_factory.hpp:77] Creating layer norm_s_2
I0801 16:17:33.176043  2129 net.cpp:84] Creating Layer norm_s_2
I0801 16:17:33.176050  2129 net.cpp:406] norm_s_2 <- pool_s_2
I0801 16:17:33.176059  2129 net.cpp:380] norm_s_2 -> norm_s_2
I0801 16:17:33.176229  2129 net.cpp:122] Setting up norm_s_2
I0801 16:17:33.176242  2129 net.cpp:129] Top shape: 100 32 8 8 (204800)
I0801 16:17:33.176249  2129 net.cpp:137] Memory required for data: 34816400
I0801 16:17:33.176256  2129 layer_factory.hpp:77] Creating layer conv_s_3
I0801 16:17:33.176267  2129 net.cpp:84] Creating Layer conv_s_3
I0801 16:17:33.176275  2129 net.cpp:406] conv_s_3 <- norm_s_2
I0801 16:17:33.176283  2129 net.cpp:380] conv_s_3 -> conv_s_3
I0801 16:17:33.177269  2129 net.cpp:122] Setting up conv_s_3
I0801 16:17:33.177287  2129 net.cpp:129] Top shape: 100 64 8 8 (409600)
I0801 16:17:33.177302  2129 net.cpp:137] Memory required for data: 36454800
I0801 16:17:33.177322  2129 layer_factory.hpp:77] Creating layer relu_s_3
I0801 16:17:33.177331  2129 net.cpp:84] Creating Layer relu_s_3
I0801 16:17:33.177338  2129 net.cpp:406] relu_s_3 <- conv_s_3
I0801 16:17:33.177346  2129 net.cpp:367] relu_s_3 -> conv_s_3 (in-place)
I0801 16:17:33.177469  2129 net.cpp:122] Setting up relu_s_3
I0801 16:17:33.177480  2129 net.cpp:129] Top shape: 100 64 8 8 (409600)
I0801 16:17:33.177489  2129 net.cpp:137] Memory required for data: 38093200
I0801 16:17:33.177496  2129 layer_factory.hpp:77] Creating layer pool_s_3
I0801 16:17:33.177505  2129 net.cpp:84] Creating Layer pool_s_3
I0801 16:17:33.177512  2129 net.cpp:406] pool_s_3 <- conv_s_3
I0801 16:17:33.177522  2129 net.cpp:380] pool_s_3 -> pool_s_3
I0801 16:17:33.177651  2129 net.cpp:122] Setting up pool_s_3
I0801 16:17:33.177662  2129 net.cpp:129] Top shape: 100 64 4 4 (102400)
I0801 16:17:33.177670  2129 net.cpp:137] Memory required for data: 38502800
I0801 16:17:33.177676  2129 layer_factory.hpp:77] Creating layer ip_s_1
I0801 16:17:33.177686  2129 net.cpp:84] Creating Layer ip_s_1
I0801 16:17:33.177695  2129 net.cpp:406] ip_s_1 <- pool_s_3
I0801 16:17:33.177703  2129 net.cpp:380] ip_s_1 -> ip_s_1
I0801 16:17:33.178329  2129 net.cpp:122] Setting up ip_s_1
I0801 16:17:33.178346  2129 net.cpp:129] Top shape: 100 10 (1000)
I0801 16:17:33.178354  2129 net.cpp:137] Memory required for data: 38506800
I0801 16:17:33.178364  2129 layer_factory.hpp:77] Creating layer ip_s_1_ip_s_1_0_split
I0801 16:17:33.178375  2129 net.cpp:84] Creating Layer ip_s_1_ip_s_1_0_split
I0801 16:17:33.178381  2129 net.cpp:406] ip_s_1_ip_s_1_0_split <- ip_s_1
I0801 16:17:33.178390  2129 net.cpp:380] ip_s_1_ip_s_1_0_split -> ip_s_1_ip_s_1_0_split_0
I0801 16:17:33.178400  2129 net.cpp:380] ip_s_1_ip_s_1_0_split -> ip_s_1_ip_s_1_0_split_1
I0801 16:17:33.178436  2129 net.cpp:122] Setting up ip_s_1_ip_s_1_0_split
I0801 16:17:33.178445  2129 net.cpp:129] Top shape: 100 10 (1000)
I0801 16:17:33.178452  2129 net.cpp:129] Top shape: 100 10 (1000)
I0801 16:17:33.178458  2129 net.cpp:137] Memory required for data: 38514800
I0801 16:17:33.178467  2129 layer_factory.hpp:77] Creating layer conv_t_1
I0801 16:17:33.178478  2129 net.cpp:84] Creating Layer conv_t_1
I0801 16:17:33.178485  2129 net.cpp:406] conv_t_1 <- data_cifar_0_split_1
I0801 16:17:33.178495  2129 net.cpp:380] conv_t_1 -> conv_t_1
I0801 16:17:33.179237  2129 net.cpp:122] Setting up conv_t_1
I0801 16:17:33.179255  2129 net.cpp:129] Top shape: 100 32 32 32 (3276800)
I0801 16:17:33.179262  2129 net.cpp:137] Memory required for data: 51622000
I0801 16:17:33.179273  2129 layer_factory.hpp:77] Creating layer pool_t_1
I0801 16:17:33.179286  2129 net.cpp:84] Creating Layer pool_t_1
I0801 16:17:33.179293  2129 net.cpp:406] pool_t_1 <- conv_t_1
I0801 16:17:33.179302  2129 net.cpp:380] pool_t_1 -> pool_t_1
I0801 16:17:33.179337  2129 net.cpp:122] Setting up pool_t_1
I0801 16:17:33.179349  2129 net.cpp:129] Top shape: 100 32 16 16 (819200)
I0801 16:17:33.179356  2129 net.cpp:137] Memory required for data: 54898800
I0801 16:17:33.179363  2129 layer_factory.hpp:77] Creating layer relu_t_1
I0801 16:17:33.179371  2129 net.cpp:84] Creating Layer relu_t_1
I0801 16:17:33.179379  2129 net.cpp:406] relu_t_1 <- pool_t_1
I0801 16:17:33.179388  2129 net.cpp:367] relu_t_1 -> pool_t_1 (in-place)
I0801 16:17:33.179700  2129 net.cpp:122] Setting up relu_t_1
I0801 16:17:33.179715  2129 net.cpp:129] Top shape: 100 32 16 16 (819200)
I0801 16:17:33.179723  2129 net.cpp:137] Memory required for data: 58175600
I0801 16:17:33.179730  2129 layer_factory.hpp:77] Creating layer norm_t_1
I0801 16:17:33.179742  2129 net.cpp:84] Creating Layer norm_t_1
I0801 16:17:33.179749  2129 net.cpp:406] norm_t_1 <- pool_t_1
I0801 16:17:33.179759  2129 net.cpp:380] norm_t_1 -> norm_t_1
I0801 16:17:33.180299  2129 net.cpp:122] Setting up norm_t_1
I0801 16:17:33.180315  2129 net.cpp:129] Top shape: 100 32 16 16 (819200)
I0801 16:17:33.180322  2129 net.cpp:137] Memory required for data: 61452400
I0801 16:17:33.180335  2129 layer_factory.hpp:77] Creating layer conv_t_2
I0801 16:17:33.180353  2129 net.cpp:84] Creating Layer conv_t_2
I0801 16:17:33.180361  2129 net.cpp:406] conv_t_2 <- norm_t_1
I0801 16:17:33.180371  2129 net.cpp:380] conv_t_2 -> conv_t_2
I0801 16:17:33.181255  2129 net.cpp:122] Setting up conv_t_2
I0801 16:17:33.181273  2129 net.cpp:129] Top shape: 100 32 16 16 (819200)
I0801 16:17:33.181280  2129 net.cpp:137] Memory required for data: 64729200
I0801 16:17:33.181288  2129 layer_factory.hpp:77] Creating layer relu_t_2
I0801 16:17:33.181299  2129 net.cpp:84] Creating Layer relu_t_2
I0801 16:17:33.181308  2129 net.cpp:406] relu_t_2 <- conv_t_2
I0801 16:17:33.181316  2129 net.cpp:367] relu_t_2 -> conv_t_2 (in-place)
I0801 16:17:33.181440  2129 net.cpp:122] Setting up relu_t_2
I0801 16:17:33.181452  2129 net.cpp:129] Top shape: 100 32 16 16 (819200)
I0801 16:17:33.181458  2129 net.cpp:137] Memory required for data: 68006000
I0801 16:17:33.181465  2129 layer_factory.hpp:77] Creating layer pool_t_2
I0801 16:17:33.181473  2129 net.cpp:84] Creating Layer pool_t_2
I0801 16:17:33.181480  2129 net.cpp:406] pool_t_2 <- conv_t_2
I0801 16:17:33.181489  2129 net.cpp:380] pool_t_2 -> pool_t_2
I0801 16:17:33.181805  2129 net.cpp:122] Setting up pool_t_2
I0801 16:17:33.181820  2129 net.cpp:129] Top shape: 100 32 8 8 (204800)
I0801 16:17:33.181828  2129 net.cpp:137] Memory required for data: 68825200
I0801 16:17:33.181833  2129 layer_factory.hpp:77] Creating layer norm_t_2
I0801 16:17:33.181843  2129 net.cpp:84] Creating Layer norm_t_2
I0801 16:17:33.181850  2129 net.cpp:406] norm_t_2 <- pool_t_2
I0801 16:17:33.181859  2129 net.cpp:380] norm_t_2 -> norm_t_2
I0801 16:17:33.182051  2129 net.cpp:122] Setting up norm_t_2
I0801 16:17:33.182065  2129 net.cpp:129] Top shape: 100 32 8 8 (204800)
I0801 16:17:33.182070  2129 net.cpp:137] Memory required for data: 69644400
I0801 16:17:33.182077  2129 layer_factory.hpp:77] Creating layer conv_t_3
I0801 16:17:33.182090  2129 net.cpp:84] Creating Layer conv_t_3
I0801 16:17:33.182097  2129 net.cpp:406] conv_t_3 <- norm_t_2
I0801 16:17:33.182107  2129 net.cpp:380] conv_t_3 -> conv_t_3
I0801 16:17:33.183110  2129 net.cpp:122] Setting up conv_t_3
I0801 16:17:33.183127  2129 net.cpp:129] Top shape: 100 64 8 8 (409600)
I0801 16:17:33.183135  2129 net.cpp:137] Memory required for data: 71282800
I0801 16:17:33.183143  2129 layer_factory.hpp:77] Creating layer relu_t_3
I0801 16:17:33.183152  2129 net.cpp:84] Creating Layer relu_t_3
I0801 16:17:33.183161  2129 net.cpp:406] relu_t_3 <- conv_t_3
I0801 16:17:33.183171  2129 net.cpp:367] relu_t_3 -> conv_t_3 (in-place)
I0801 16:17:33.183295  2129 net.cpp:122] Setting up relu_t_3
I0801 16:17:33.183306  2129 net.cpp:129] Top shape: 100 64 8 8 (409600)
I0801 16:17:33.183315  2129 net.cpp:137] Memory required for data: 72921200
I0801 16:17:33.183321  2129 layer_factory.hpp:77] Creating layer pool_t_3
I0801 16:17:33.183331  2129 net.cpp:84] Creating Layer pool_t_3
I0801 16:17:33.183338  2129 net.cpp:406] pool_t_3 <- conv_t_3
I0801 16:17:33.183347  2129 net.cpp:380] pool_t_3 -> pool_t_3
I0801 16:17:33.183667  2129 net.cpp:122] Setting up pool_t_3
I0801 16:17:33.183682  2129 net.cpp:129] Top shape: 100 64 4 4 (102400)
I0801 16:17:33.183689  2129 net.cpp:137] Memory required for data: 73330800
I0801 16:17:33.183697  2129 layer_factory.hpp:77] Creating layer ip_t_1
I0801 16:17:33.183706  2129 net.cpp:84] Creating Layer ip_t_1
I0801 16:17:33.183714  2129 net.cpp:406] ip_t_1 <- pool_t_3
I0801 16:17:33.183724  2129 net.cpp:380] ip_t_1 -> ip_t_1
I0801 16:17:33.183863  2129 net.cpp:122] Setting up ip_t_1
I0801 16:17:33.183874  2129 net.cpp:129] Top shape: 100 10 (1000)
I0801 16:17:33.183881  2129 net.cpp:137] Memory required for data: 73334800
I0801 16:17:33.183889  2129 layer_factory.hpp:77] Creating layer sm_s_1
I0801 16:17:33.183900  2129 net.cpp:84] Creating Layer sm_s_1
I0801 16:17:33.183908  2129 net.cpp:406] sm_s_1 <- ip_s_1_ip_s_1_0_split_0
I0801 16:17:33.183917  2129 net.cpp:380] sm_s_1 -> sm_s_1
I0801 16:17:33.184082  2129 net.cpp:122] Setting up sm_s_1
I0801 16:17:33.184099  2129 net.cpp:129] Top shape: 100 10 (1000)
I0801 16:17:33.184113  2129 net.cpp:137] Memory required for data: 73338800
I0801 16:17:33.184119  2129 layer_factory.hpp:77] Creating layer sm_t_1
I0801 16:17:33.184128  2129 net.cpp:84] Creating Layer sm_t_1
I0801 16:17:33.184135  2129 net.cpp:406] sm_t_1 <- ip_t_1
I0801 16:17:33.184144  2129 net.cpp:380] sm_t_1 -> sm_t_1
I0801 16:17:33.184303  2129 net.cpp:122] Setting up sm_t_1
I0801 16:17:33.184314  2129 net.cpp:129] Top shape: 100 10 (1000)
I0801 16:17:33.184321  2129 net.cpp:137] Memory required for data: 73342800
I0801 16:17:33.184329  2129 layer_factory.hpp:77] Creating layer ts_loss
I0801 16:17:33.184339  2129 net.cpp:84] Creating Layer ts_loss
I0801 16:17:33.184346  2129 net.cpp:406] ts_loss <- sm_s_1
I0801 16:17:33.184355  2129 net.cpp:406] ts_loss <- sm_t_1
I0801 16:17:33.184363  2129 net.cpp:380] ts_loss -> ts_loss
…
I0801 16:17:33.185221  2129 net.cpp:294] The NetState phase (1) differed from the phase (0) specified by a rule in layer cifar
I0801 16:17:33.185335  2129 net.cpp:51] Initializing net from parameters: 
name: "CIFAR10_full"
state {
  phase: TEST
}
layer {
  name: "cifar"
  type: "Data"
  top: "data"
  top: "label"
  include {
    phase: TEST
  }
  transform_param {
    mean_file: "/opt/caffe/examples/cifar10/mean.binaryproto"
  }
  data_param {
    source: "/opt/caffe/examples/cifar10/cifar10_test_lmdb"
    batch_size: 100
    backend: LMDB
  }
}
layer {
  name: "conv_s_1"
  type: "Convolution"
  bottom: "data"
  top: "conv_s_1"
  param {
    lr_mult: 1
  }
  param {
    lr_mult: 2
  }
  convolution_param {
    num_output: 32
    pad: 2
    kernel_size: 5
    stride: 1
    weight_filler {
      type: "gaussian"
      std: 0.0001
    }
    bias_filler {
      type: "constant"
    }
  }
}
layer {
  name: "pool_s_1"
  type: "Pooling"
  bottom: "conv_s_1"
  top: "pool_s_1"
  pooling_param {
    pool: MAX
    kernel_size: 3
    stride: 2
  }
}
layer {
  name: "relu_s_1"
  type: "ReLU"
  bottom: "pool_s_1"
  top: "pool_s_1"
}
layer {
  name: "norm_s_1"
  type: "LRN"
  bottom: "pool_s_1"
  top: "norm_s_1"
  lrn_param {
    local_size: 3
    alpha: 5e-05
    beta: 0.75
    norm_region: WITHIN_CHANNEL
  }
}
layer {
  name: "conv_s_2"
  type: "Convolution"
  bottom: "norm_s_1"
  top: "conv_s_2"
  param {
    lr_mult: 1
  }
  param {
    lr_mult: 2
  }
  convolution_param {
    num_output: 32
    pad: 2
    kernel_size: 5
    stride: 1
    weight_filler {
      type: "gaussian"
      std: 0.01
    }
    bias_filler {
      type: "constant"
    }
  }
}
layer {
  name: "relu_s_2"
  type: "ReLU"
  bottom: "conv_s_2"
  top: "conv_s_2"
}
layer {
  name: "pool_s_2"
  type: "Pooling"
  bottom: "conv_s_2"
  top: "pool_s_2"
  pooling_param {
    pool: AVE
    kernel_size: 3
    stride: 2
  }
}
layer {
  name: "norm_s_2"
  type: "LRN"
  bottom: "pool_s_2"
  top: "norm_s_2"
  lrn_param {
    local_size: 3
    alpha: 5e-05
    beta: 0.75
    norm_region: WITHIN_CHANNEL
  }
}
layer {
  name: "conv_s_3"
  type: "Convolution"
  bottom: "norm_s_2"
  top: "conv_s_3"
  param {
    lr_mult: 1
  }
  param {
    lr_mult: 2
  }
  convolution_param {
    num_output: 64
    pad: 2
    kernel_size: 5
    stride: 1
    weight_filler {
      type: "gaussian"
      std: 0.01
    }
    bias_filler {
      type: "constant"
    }
  }
}
layer {
  name: "relu_s_3"
  type: "ReLU"
  bottom: "conv_s_3"
  top: "conv_s_3"
}
layer {
  name: "pool_s_3"
  type: "Pooling"
  bottom: "conv_s_3"
  top: "pool_s_3"
  pooling_param {
    pool: AVE
    kernel_size: 3
    stride: 2
  }
}
layer {
  name: "ip_s_1"
  type: "InnerProduct"
  bottom: "pool_s_3"
  top: "ip_s_1"
  param {
    lr_mult: 1
    decay_mult: 250
  }
  param {
    lr_mult: 2
    decay_mult: 0
  }
  inner_product_param {
    num_output: 10
    weight_filler {
      type: "gaussian"
      std: 0.01
    }
    bias_filler {
      type: "constant"
    }
  }
}
layer {
  name: "conv_t_1"
  type: "Convolution"
  bottom: "data"
  top: "conv_t_1"
  param {
    lr_mult: 0
  }
  param {
    lr_mult: 0
  }
  convolution_param {
    num_output: 32
    pad: 2
    kernel_size: 5
    stride: 1
    weight_filler {
      type: "gaussian"
      std: 0.0001
    }
    bias_filler {
      type: "constant"
    }
  }
}
layer {
  name: "pool_t_1"
  type: "Pooling"
  bottom: "conv_t_1"
  top: "pool_t_1"
  pooling_param {
    pool: MAX
    kernel_size: 3
    stride: 2
  }
}
layer {
  name: "relu_t_1"
  type: "ReLU"
  bottom: "pool_t_1"
  top: "pool_t_1"
}
layer {
  name: "norm_t_1"
  type: "LRN"
  bottom: "pool_t_1"
  top: "norm_t_1"
  lrn_param {
    local_size: 3
    alpha: 5e-05
    beta: 0.75
    norm_region: WITHIN_CHANNEL
  }
}
layer {
  name: "conv_t_2"
  type: "Convolution"
  bottom: "norm_t_1"
  top: "conv_t_2"
  param {
    lr_mult: 0
  }
  param {
    lr_mult: 0
  }
  convolution_param {
    num_output: 32
    pad: 2
    kernel_size: 5
    stride: 1
    weight_filler {
      type: "gaussian"
      std: 0.01
    }
    bias_filler {
      type: "constant"
    }
  }
}
layer {
  name: "relu_t_2"
  type: "ReLU"
  bottom: "conv_t_2"
  top: "conv_t_2"
}
layer {
  name: "pool_t_2"
  type: "Pooling"
  bottom: "conv_t_2"
  top: "pool_t_2"
  pooling_param {
    pool: AVE
    kernel_size: 3
    stride: 2
  }
}
layer {
  name: "norm_t_2"
  type: "LRN"
  bottom: "pool_t_2"
  top: "norm_t_2"
  lrn_param {
    local_size: 3
    alpha: 5e-05
    beta: 0.75
    norm_region: WITHIN_CHANNEL
  }
}
layer {
  name: "conv_t_3"
  type: "Convolution"
  bottom: "norm_t_2"
  top: "conv_t_3"
  param {
    lr_mult: 0
  }
  param {
    lr_mult: 0
  }
  convolution_param {
    num_output: 64
    pad: 2
    kernel_size: 5
    stride: 1
    weight_filler {
      type: "gaussian"
      std: 0.01
    }
    bias_filler {
      type: "constant"
    }
  }
}
layer {
  name: "relu_t_3"
  type: "ReLU"
  bottom: "conv_t_3"
  top: "conv_t_3"
}
layer {
  name: "pool_t_3"
  type: "Pooling"
  bottom: "conv_t_3"
  top: "pool_t_3"
  pooling_param {
    pool: AVE
    kernel_size: 3
    stride: 2
  }
}
layer {
  name: "ip_t_1"
  type: "InnerProduct"
  bottom: "pool_t_3"
  top: "ip_t_1"
  param {
    lr_mult: 0
  }
  param {
    lr_mult: 0
  }
  inner_product_param {
    num_output: 10
    weight_filler {
      type: "gaussian"
      std: 0.01
    }
    bias_filler {
      type: "constant"
    }
  }
}
layer {
  name: "sm_s_1"
  type: "Softmax"
  bottom: "ip_s_1"
  top: "sm_s_1"
}
layer {
  name: "sm_t_1"
  type: "Softmax"
  bottom: "ip_t_1"
  top: "sm_t_1"
}
layer {
  name: "accuracy"
  type: "Accuracy"
  bottom: "ip_s_1"
  bottom: "label"
  top: "accuracy"
  include {
    phase: TEST
  }
}
layer {
  name: "ts_loss"
  type: "SigmoidCrossEntropyLoss"
  bottom: "sm_s_1"
  bottom: "sm_t_1"
  top: "ts_loss"
  loss_weight: 0.6
}
layer {
  name: "loss"
  type: "SoftmaxWithLoss"
  bottom: "ip_s_1"
  bottom: "label"
  top: "loss"
  loss_weight: 0.4
}
I0801 16:17:33.185611  2129 layer_factory.hpp:77] Creating layer cifar
I0801 16:17:33.185672  2129 db_lmdb.cpp:35] Opened lmdb /opt/caffe/examples/cifar10/cifar10_test_lmdb
I0801 16:17:33.185689  2129 net.cpp:84] Creating Layer cifar
I0801 16:17:33.185698  2129 net.cpp:380] cifar -> data
I0801 16:17:33.185710  2129 net.cpp:380] cifar -> label
I0801 16:17:33.185720  2129 data_transformer.cpp:25] Loading mean file from: /opt/caffe/examples/cifar10/mean.binaryproto
I0801 16:17:33.185842  2129 data_layer.cpp:45] output data size: 100,3,32,32
I0801 16:17:33.190039  2129 net.cpp:122] Setting up cifar
I0801 16:17:33.190086  2129 net.cpp:129] Top shape: 100 3 32 32 (307200)
I0801 16:17:33.190096  2129 net.cpp:129] Top shape: 100 (100)
I0801 16:17:33.190104  2129 net.cpp:137] Memory required for data: 1229200
I0801 16:17:33.190112  2129 layer_factory.hpp:77] Creating layer data_cifar_0_split
I0801 16:17:33.190127  2129 net.cpp:84] Creating Layer data_cifar_0_split
I0801 16:17:33.190135  2129 net.cpp:406] data_cifar_0_split <- data
I0801 16:17:33.190146  2129 net.cpp:380] data_cifar_0_split -> data_cifar_0_split_0
I0801 16:17:33.190158  2129 net.cpp:380] data_cifar_0_split -> data_cifar_0_split_1
I0801 16:17:33.190207  2129 net.cpp:122] Setting up data_cifar_0_split
I0801 16:17:33.190217  2129 net.cpp:129] Top shape: 100 3 32 32 (307200)
I0801 16:17:33.190223  2129 net.cpp:129] Top shape: 100 3 32 32 (307200)
I0801 16:17:33.190230  2129 net.cpp:137] Memory required for data: 3686800
I0801 16:17:33.190237  2129 layer_factory.hpp:77] Creating layer label_cifar_1_split
I0801 16:17:33.190253  2129 net.cpp:84] Creating Layer label_cifar_1_split
I0801 16:17:33.190268  2129 net.cpp:406] label_cifar_1_split <- label
I0801 16:17:33.190277  2129 net.cpp:380] label_cifar_1_split -> label_cifar_1_split_0
I0801 16:17:33.190287  2129 net.cpp:380] label_cifar_1_split -> label_cifar_1_split_1
I0801 16:17:33.190322  2129 net.cpp:122] Setting up label_cifar_1_split
I0801 16:17:33.190332  2129 net.cpp:129] Top shape: 100 (100)
I0801 16:17:33.190340  2129 net.cpp:129] Top shape: 100 (100)
I0801 16:17:33.190346  2129 net.cpp:137] Memory required for data: 3687600
I0801 16:17:33.190353  2129 layer_factory.hpp:77] Creating layer conv_s_1
I0801 16:17:33.190366  2129 net.cpp:84] Creating Layer conv_s_1
I0801 16:17:33.190374  2129 net.cpp:406] conv_s_1 <- data_cifar_0_split_0
I0801 16:17:33.190384  2129 net.cpp:380] conv_s_1 -> conv_s_1
I0801 16:17:33.191548  2129 net.cpp:122] Setting up conv_s_1
I0801 16:17:33.191566  2129 net.cpp:129] Top shape: 100 32 32 32 (3276800)
I0801 16:17:33.191575  2129 net.cpp:137] Memory required for data: 16794800
I0801 16:17:33.191587  2129 layer_factory.hpp:77] Creating layer pool_s_1
I0801 16:17:33.191598  2129 net.cpp:84] Creating Layer pool_s_1
I0801 16:17:33.191606  2129 net.cpp:406] pool_s_1 <- conv_s_1
I0801 16:17:33.191615  2129 net.cpp:380] pool_s_1 -> pool_s_1
I0801 16:17:33.191653  2129 net.cpp:122] Setting up pool_s_1
I0801 16:17:33.191663  2129 net.cpp:129] Top shape: 100 32 16 16 (819200)
I0801 16:17:33.191669  2129 net.cpp:137] Memory required for data: 20071600
I0801 16:17:33.191676  2129 layer_factory.hpp:77] Creating layer relu_s_1
I0801 16:17:33.191686  2129 net.cpp:84] Creating Layer relu_s_1
I0801 16:17:33.191694  2129 net.cpp:406] relu_s_1 <- pool_s_1
I0801 16:17:33.191702  2129 net.cpp:367] relu_s_1 -> pool_s_1 (in-place)
I0801 16:17:33.191838  2129 net.cpp:122] Setting up relu_s_1
I0801 16:17:33.191851  2129 net.cpp:129] Top shape: 100 32 16 16 (819200)
I0801 16:17:33.191859  2129 net.cpp:137] Memory required for data: 23348400
I0801 16:17:33.191865  2129 layer_factory.hpp:77] Creating layer norm_s_1
I0801 16:17:33.191875  2129 net.cpp:84] Creating Layer norm_s_1
I0801 16:17:33.191884  2129 net.cpp:406] norm_s_1 <- pool_s_1
I0801 16:17:33.191892  2129 net.cpp:380] norm_s_1 -> norm_s_1
I0801 16:17:33.192479  2129 net.cpp:122] Setting up norm_s_1
I0801 16:17:33.192497  2129 net.cpp:129] Top shape: 100 32 16 16 (819200)
I0801 16:17:33.192505  2129 net.cpp:137] Memory required for data: 26625200
I0801 16:17:33.192512  2129 layer_factory.hpp:77] Creating layer conv_s_2
I0801 16:17:33.192528  2129 net.cpp:84] Creating Layer conv_s_2
I0801 16:17:33.192535  2129 net.cpp:406] conv_s_2 <- norm_s_1
I0801 16:17:33.192545  2129 net.cpp:380] conv_s_2 -> conv_s_2
I0801 16:17:33.193650  2129 net.cpp:122] Setting up conv_s_2
I0801 16:17:33.193670  2129 net.cpp:129] Top shape: 100 32 16 16 (819200)
I0801 16:17:33.193677  2129 net.cpp:137] Memory required for data: 29902000
I0801 16:17:33.193689  2129 layer_factory.hpp:77] Creating layer relu_s_2
I0801 16:17:33.193701  2129 net.cpp:84] Creating Layer relu_s_2
I0801 16:17:33.193709  2129 net.cpp:406] relu_s_2 <- conv_s_2
I0801 16:17:33.193718  2129 net.cpp:367] relu_s_2 -> conv_s_2 (in-place)
I0801 16:17:33.193845  2129 net.cpp:122] Setting up relu_s_2
I0801 16:17:33.193857  2129 net.cpp:129] Top shape: 100 32 16 16 (819200)
I0801 16:17:33.193866  2129 net.cpp:137] Memory required for data: 33178800
I0801 16:17:33.193873  2129 layer_factory.hpp:77] Creating layer pool_s_2
I0801 16:17:33.193884  2129 net.cpp:84] Creating Layer pool_s_2
I0801 16:17:33.193892  2129 net.cpp:406] pool_s_2 <- conv_s_2
I0801 16:17:33.193902  2129 net.cpp:380] pool_s_2 -> pool_s_2
I0801 16:17:33.194265  2129 net.cpp:122] Setting up pool_s_2
I0801 16:17:33.194280  2129 net.cpp:129] Top shape: 100 32 8 8 (204800)
I0801 16:17:33.194288  2129 net.cpp:137] Memory required for data: 33998000
I0801 16:17:33.194296  2129 layer_factory.hpp:77] Creating layer norm_s_2
I0801 16:17:33.194306  2129 net.cpp:84] Creating Layer norm_s_2
I0801 16:17:33.194315  2129 net.cpp:406] norm_s_2 <- pool_s_2
I0801 16:17:33.194347  2129 net.cpp:380] norm_s_2 -> norm_s_2
I0801 16:17:33.194677  2129 net.cpp:122] Setting up norm_s_2
I0801 16:17:33.194690  2129 net.cpp:129] Top shape: 100 32 8 8 (204800)
I0801 16:17:33.194699  2129 net.cpp:137] Memory required for data: 34817200
I0801 16:17:33.194705  2129 layer_factory.hpp:77] Creating layer conv_s_3
I0801 16:17:33.194717  2129 net.cpp:84] Creating Layer conv_s_3
I0801 16:17:33.194725  2129 net.cpp:406] conv_s_3 <- norm_s_2
I0801 16:17:33.194736  2129 net.cpp:380] conv_s_3 -> conv_s_3
I0801 16:17:33.195786  2129 net.cpp:122] Setting up conv_s_3
I0801 16:17:33.195804  2129 net.cpp:129] Top shape: 100 64 8 8 (409600)
I0801 16:17:33.195812  2129 net.cpp:137] Memory required for data: 36455600
I0801 16:17:33.195822  2129 layer_factory.hpp:77] Creating layer relu_s_3
I0801 16:17:33.195832  2129 net.cpp:84] Creating Layer relu_s_3
I0801 16:17:33.195839  2129 net.cpp:406] relu_s_3 <- conv_s_3
I0801 16:17:33.195848  2129 net.cpp:367] relu_s_3 -> conv_s_3 (in-place)
I0801 16:17:33.195978  2129 net.cpp:122] Setting up relu_s_3
I0801 16:17:33.195991  2129 net.cpp:129] Top shape: 100 64 8 8 (409600)
I0801 16:17:33.195997  2129 net.cpp:137] Memory required for data: 38094000
I0801 16:17:33.196004  2129 layer_factory.hpp:77] Creating layer pool_s_3
I0801 16:17:33.196014  2129 net.cpp:84] Creating Layer pool_s_3
I0801 16:17:33.196022  2129 net.cpp:406] pool_s_3 <- conv_s_3
I0801 16:17:33.196030  2129 net.cpp:380] pool_s_3 -> pool_s_3
I0801 16:17:33.196357  2129 net.cpp:122] Setting up pool_s_3
I0801 16:17:33.196372  2129 net.cpp:129] Top shape: 100 64 4 4 (102400)
I0801 16:17:33.196379  2129 net.cpp:137] Memory required for data: 38503600
I0801 16:17:33.196388  2129 layer_factory.hpp:77] Creating layer ip_s_1
I0801 16:17:33.196398  2129 net.cpp:84] Creating Layer ip_s_1
I0801 16:17:33.196405  2129 net.cpp:406] ip_s_1 <- pool_s_3
I0801 16:17:33.196415  2129 net.cpp:380] ip_s_1 -> ip_s_1
I0801 16:17:33.196557  2129 net.cpp:122] Setting up ip_s_1
I0801 16:17:33.196569  2129 net.cpp:129] Top shape: 100 10 (1000)
I0801 16:17:33.196576  2129 net.cpp:137] Memory required for data: 38507600
I0801 16:17:33.196585  2129 layer_factory.hpp:77] Creating layer ip_s_1_ip_s_1_0_split
I0801 16:17:33.196594  2129 net.cpp:84] Creating Layer ip_s_1_ip_s_1_0_split
I0801 16:17:33.196601  2129 net.cpp:406] ip_s_1_ip_s_1_0_split <- ip_s_1
I0801 16:17:33.196609  2129 net.cpp:380] ip_s_1_ip_s_1_0_split -> ip_s_1_ip_s_1_0_split_0
I0801 16:17:33.196619  2129 net.cpp:380] ip_s_1_ip_s_1_0_split -> ip_s_1_ip_s_1_0_split_1
I0801 16:17:33.196631  2129 net.cpp:380] ip_s_1_ip_s_1_0_split -> ip_s_1_ip_s_1_0_split_2
I0801 16:17:33.196674  2129 net.cpp:122] Setting up ip_s_1_ip_s_1_0_split
I0801 16:17:33.196683  2129 net.cpp:129] Top shape: 100 10 (1000)
I0801 16:17:33.196691  2129 net.cpp:129] Top shape: 100 10 (1000)
I0801 16:17:33.196699  2129 net.cpp:129] Top shape: 100 10 (1000)
I0801 16:17:33.196707  2129 net.cpp:137] Memory required for data: 38519600
I0801 16:17:33.196713  2129 layer_factory.hpp:77] Creating layer conv_t_1
I0801 16:17:33.196725  2129 net.cpp:84] Creating Layer conv_t_1
I0801 16:17:33.196734  2129 net.cpp:406] conv_t_1 <- data_cifar_0_split_1
I0801 16:17:33.196743  2129 net.cpp:380] conv_t_1 -> conv_t_1
I0801 16:17:33.197513  2129 net.cpp:122] Setting up conv_t_1
I0801 16:17:33.197531  2129 net.cpp:129] Top shape: 100 32 32 32 (3276800)
I0801 16:17:33.197540  2129 net.cpp:137] Memory required for data: 51626800
I0801 16:17:33.197551  2129 layer_factory.hpp:77] Creating layer pool_t_1
I0801 16:17:33.197559  2129 net.cpp:84] Creating Layer pool_t_1
I0801 16:17:33.197567  2129 net.cpp:406] pool_t_1 <- conv_t_1
I0801 16:17:33.197577  2129 net.cpp:380] pool_t_1 -> pool_t_1
I0801 16:17:33.197613  2129 net.cpp:122] Setting up pool_t_1
I0801 16:17:33.197621  2129 net.cpp:129] Top shape: 100 32 16 16 (819200)
I0801 16:17:33.197628  2129 net.cpp:137] Memory required for data: 54903600
I0801 16:17:33.197635  2129 layer_factory.hpp:77] Creating layer relu_t_1
I0801 16:17:33.197644  2129 net.cpp:84] Creating Layer relu_t_1
I0801 16:17:33.197662  2129 net.cpp:406] relu_t_1 <- pool_t_1
I0801 16:17:33.197671  2129 net.cpp:367] relu_t_1 -> pool_t_1 (in-place)
I0801 16:17:33.197800  2129 net.cpp:122] Setting up relu_t_1
I0801 16:17:33.197813  2129 net.cpp:129] Top shape: 100 32 16 16 (819200)
I0801 16:17:33.197819  2129 net.cpp:137] Memory required for data: 58180400
I0801 16:17:33.197826  2129 layer_factory.hpp:77] Creating layer norm_t_1
I0801 16:17:33.197836  2129 net.cpp:84] Creating Layer norm_t_1
I0801 16:17:33.197844  2129 net.cpp:406] norm_t_1 <- pool_t_1
I0801 16:17:33.197851  2129 net.cpp:380] norm_t_1 -> norm_t_1
I0801 16:17:33.198410  2129 net.cpp:122] Setting up norm_t_1
I0801 16:17:33.198426  2129 net.cpp:129] Top shape: 100 32 16 16 (819200)
I0801 16:17:33.198433  2129 net.cpp:137] Memory required for data: 61457200
I0801 16:17:33.198441  2129 layer_factory.hpp:77] Creating layer conv_t_2
I0801 16:17:33.198452  2129 net.cpp:84] Creating Layer conv_t_2
I0801 16:17:33.198460  2129 net.cpp:406] conv_t_2 <- norm_t_1
I0801 16:17:33.198470  2129 net.cpp:380] conv_t_2 -> conv_t_2
I0801 16:17:33.199546  2129 net.cpp:122] Setting up conv_t_2
I0801 16:17:33.199564  2129 net.cpp:129] Top shape: 100 32 16 16 (819200)
I0801 16:17:33.199573  2129 net.cpp:137] Memory required for data: 64734000
I0801 16:17:33.199581  2129 layer_factory.hpp:77] Creating layer relu_t_2
I0801 16:17:33.199590  2129 net.cpp:84] Creating Layer relu_t_2
I0801 16:17:33.199599  2129 net.cpp:406] relu_t_2 <- conv_t_2
I0801 16:17:33.199606  2129 net.cpp:367] relu_t_2 -> conv_t_2 (in-place)
I0801 16:17:33.199931  2129 net.cpp:122] Setting up relu_t_2
I0801 16:17:33.199946  2129 net.cpp:129] Top shape: 100 32 16 16 (819200)
I0801 16:17:33.199954  2129 net.cpp:137] Memory required for data: 68010800
I0801 16:17:33.199962  2129 layer_factory.hpp:77] Creating layer pool_t_2
I0801 16:17:33.199971  2129 net.cpp:84] Creating Layer pool_t_2
I0801 16:17:33.199978  2129 net.cpp:406] pool_t_2 <- conv_t_2
I0801 16:17:33.199988  2129 net.cpp:380] pool_t_2 -> pool_t_2
I0801 16:17:33.200124  2129 net.cpp:122] Setting up pool_t_2
I0801 16:17:33.200136  2129 net.cpp:129] Top shape: 100 32 8 8 (204800)
I0801 16:17:33.200143  2129 net.cpp:137] Memory required for data: 68830000
I0801 16:17:33.200150  2129 layer_factory.hpp:77] Creating layer norm_t_2
I0801 16:17:33.200161  2129 net.cpp:84] Creating Layer norm_t_2
I0801 16:17:33.200170  2129 net.cpp:406] norm_t_2 <- pool_t_2
I0801 16:17:33.200179  2129 net.cpp:380] norm_t_2 -> norm_t_2
I0801 16:17:33.200374  2129 net.cpp:122] Setting up norm_t_2
I0801 16:17:33.200387  2129 net.cpp:129] Top shape: 100 32 8 8 (204800)
I0801 16:17:33.200395  2129 net.cpp:137] Memory required for data: 69649200
I0801 16:17:33.200402  2129 layer_factory.hpp:77] Creating layer conv_t_3
I0801 16:17:33.200415  2129 net.cpp:84] Creating Layer conv_t_3
I0801 16:17:33.200423  2129 net.cpp:406] conv_t_3 <- norm_t_2
I0801 16:17:33.200433  2129 net.cpp:380] conv_t_3 -> conv_t_3
I0801 16:17:33.202230  2129 net.cpp:122] Setting up conv_t_3
I0801 16:17:33.202250  2129 net.cpp:129] Top shape: 100 64 8 8 (409600)
I0801 16:17:33.202258  2129 net.cpp:137] Memory required for data: 71287600
I0801 16:17:33.202268  2129 layer_factory.hpp:77] Creating layer relu_t_3
I0801 16:17:33.202278  2129 net.cpp:84] Creating Layer relu_t_3
I0801 16:17:33.202286  2129 net.cpp:406] relu_t_3 <- conv_t_3
I0801 16:17:33.202294  2129 net.cpp:367] relu_t_3 -> conv_t_3 (in-place)
I0801 16:17:33.202422  2129 net.cpp:122] Setting up relu_t_3
I0801 16:17:33.202435  2129 net.cpp:129] Top shape: 100 64 8 8 (409600)
I0801 16:17:33.202441  2129 net.cpp:137] Memory required for data: 72926000
I0801 16:17:33.202448  2129 layer_factory.hpp:77] Creating layer pool_t_3
I0801 16:17:33.202457  2129 net.cpp:84] Creating Layer pool_t_3
I0801 16:17:33.202464  2129 net.cpp:406] pool_t_3 <- conv_t_3
I0801 16:17:33.202473  2129 net.cpp:380] pool_t_3 -> pool_t_3
I0801 16:17:33.202819  2129 net.cpp:122] Setting up pool_t_3
I0801 16:17:33.202836  2129 net.cpp:129] Top shape: 100 64 4 4 (102400)
I0801 16:17:33.202847  2129 net.cpp:137] Memory required for data: 73335600
I0801 16:17:33.202862  2129 layer_factory.hpp:77] Creating layer ip_t_1
I0801 16:17:33.202872  2129 net.cpp:84] Creating Layer ip_t_1
I0801 16:17:33.202881  2129 net.cpp:406] ip_t_1 <- pool_t_3
I0801 16:17:33.202891  2129 net.cpp:380] ip_t_1 -> ip_t_1
I0801 16:17:33.203094  2129 net.cpp:122] Setting up ip_t_1
I0801 16:17:33.203106  2129 net.cpp:129] Top shape: 100 10 (1000)
I0801 16:17:33.203114  2129 net.cpp:137] Memory required for data: 73339600
I0801 16:17:33.203121  2129 layer_factory.hpp:77] Creating layer sm_s_1
I0801 16:17:33.203133  2129 net.cpp:84] Creating Layer sm_s_1
I0801 16:17:33.203141  2129 net.cpp:406] sm_s_1 <- ip_s_1_ip_s_1_0_split_0
I0801 16:17:33.203150  2129 net.cpp:380] sm_s_1 -> sm_s_1
I0801 16:17:33.203322  2129 net.cpp:122] Setting up sm_s_1
I0801 16:17:33.203336  2129 net.cpp:129] Top shape: 100 10 (1000)
I0801 16:17:33.203341  2129 net.cpp:137] Memory required for data: 73343600
I0801 16:17:33.203349  2129 layer_factory.hpp:77] Creating layer sm_t_1
I0801 16:17:33.203358  2129 net.cpp:84] Creating Layer sm_t_1
I0801 16:17:33.203366  2129 net.cpp:406] sm_t_1 <- ip_t_1
I0801 16:17:33.203374  2129 net.cpp:380] sm_t_1 -> sm_t_1
I0801 16:17:33.203537  2129 net.cpp:122] Setting up sm_t_1
I0801 16:17:33.203549  2129 net.cpp:129] Top shape: 100 10 (1000)
I0801 16:17:33.203555  2129 net.cpp:137] Memory required for data: 73347600
I0801 16:17:33.203562  2129 layer_factory.hpp:77] Creating layer accuracy
I0801 16:17:33.203573  2129 net.cpp:84] Creating Layer accuracy
I0801 16:17:33.203580  2129 net.cpp:406] accuracy <- ip_s_1_ip_s_1_0_split_1
I0801 16:17:33.203588  2129 net.cpp:406] accuracy <- label_cifar_1_split_0
I0801 16:17:33.203598  2129 net.cpp:380] accuracy -> accuracy
…
