…
I0801 16:13:53.087551  2113 net.cpp:294] The NetState phase (0) differed from the phase (1) specified by a rule in layer accuracy
I0801 16:13:53.087656  2113 net.cpp:51] Initializing net from parameters: 
name: "CIFAR10_full"
state {
  phase: TRAIN
  level: 0
  stage: ""
}
layer {
  name: "cifar"
  type: "Data"
  top: "data"
  top: "label"
  include {
    phase: TRAIN
  }
  transform_param {
    mean_file: "/opt/caffe/examples/cifar10/mean.binaryproto"
  }
  data_param {
    source: "/opt/caffe/examples/cifar10/cifar10_train_lmdb"
    batch_size: 100
    backend: LMDB
  }
}
layer {
  name: "conv_s_1"
  type: "Convolution"
  bottom: "data"
  top: "conv_s_1"
  param {
    lr_mult: 1
  }
  param {
    lr_mult: 2
  }
  convolution_param {
    num_output: 32
    pad: 2
    kernel_size: 5
    stride: 1
    weight_filler {
      type: "gaussian"
      std: 0.0001
    }
    bias_filler {
      type: "constant"
    }
  }
}
layer {
  name: "pool_s_1"
  type: "Pooling"
  bottom: "conv_s_1"
  top: "pool_s_1"
  pooling_param {
    pool: MAX
    kernel_size: 3
    stride: 2
  }
}
layer {
  name: "relu_s_1"
  type: "ReLU"
  bottom: "pool_s_1"
  top: "pool_s_1"
}
layer {
  name: "norm_s_1"
  type: "LRN"
  bottom: "pool_s_1"
  top: "norm_s_1"
  lrn_param {
    local_size: 3
    alpha: 5e-05
    beta: 0.75
    norm_region: WITHIN_CHANNEL
  }
}
layer {
  name: "conv_s_2"
  type: "Convolution"
  bottom: "norm_s_1"
  top: "conv_s_2"
  param {
    lr_mult: 1
  }
  param {
    lr_mult: 2
  }
  convolution_param {
    num_output: 32
    pad: 2
    kernel_size: 5
    stride: 1
    weight_filler {
      type: "gaussian"
      std: 0.01
    }
    bias_filler {
      type: "constant"
    }
  }
}
layer {
  name: "relu_s_2"
  type: "ReLU"
  bottom: "conv_s_2"
  top: "conv_s_2"
}
layer {
  name: "pool_s_2"
  type: "Pooling"
  bottom: "conv_s_2"
  top: "pool_s_2"
  pooling_param {
    pool: AVE
    kernel_size: 3
    stride: 2
  }
}
layer {
  name: "norm_s_2"
  type: "LRN"
  bottom: "pool_s_2"
  top: "norm_s_2"
  lrn_param {
    local_size: 3
    alpha: 5e-05
    beta: 0.75
    norm_region: WITHIN_CHANNEL
  }
}
layer {
  name: "conv_s_3"
  type: "Convolution"
  bottom: "norm_s_2"
  top: "conv_s_3"
  param {
    lr_mult: 1
  }
  param {
    lr_mult: 2
  }
  convolution_param {
    num_output: 64
    pad: 2
    kernel_size: 5
    stride: 1
    weight_filler {
      type: "gaussian"
      std: 0.01
    }
    bias_filler {
      type: "constant"
    }
  }
}
layer {
  name: "relu_s_3"
  type: "ReLU"
  bottom: "conv_s_3"
  top: "conv_s_3"
}
layer {
  name: "pool_s_3"
  type: "Pooling"
  bottom: "conv_s_3"
  top: "pool_s_3"
  pooling_param {
    pool: AVE
    kernel_size: 3
    stride: 2
  }
}
layer {
  name: "ip_s_1"
  type: "InnerProduct"
  bottom: "pool_s_3"
  top: "ip_s_1"
  param {
    lr_mult: 1
    decay_mult: 250
  }
  param {
    lr_mult: 2
    decay_mult: 0
  }
  inner_product_param {
    num_output: 10
    weight_filler {
      type: "gaussian"
      std: 0.01
    }
    bias_filler {
      type: "constant"
    }
  }
}
layer {
  name: "conv_t_1"
  type: "Convolution"
  bottom: "data"
  top: "conv_t_1"
  param {
    lr_mult: 0
  }
  param {
    lr_mult: 0
  }
  convolution_param {
    num_output: 32
    pad: 2
    kernel_size: 5
    stride: 1
    weight_filler {
      type: "gaussian"
      std: 0.0001
    }
    bias_filler {
      type: "constant"
    }
  }
}
layer {
  name: "pool_t_1"
  type: "Pooling"
  bottom: "conv_t_1"
  top: "pool_t_1"
  pooling_param {
    pool: MAX
    kernel_size: 3
    stride: 2
  }
}
layer {
  name: "relu_t_1"
  type: "ReLU"
  bottom: "pool_t_1"
  top: "pool_t_1"
}
layer {
  name: "norm_t_1"
  type: "LRN"
  bottom: "pool_t_1"
  top: "norm_t_1"
  lrn_param {
    local_size: 3
    alpha: 5e-05
    beta: 0.75
    norm_region: WITHIN_CHANNEL
  }
}
layer {
  name: "conv_t_2"
  type: "Convolution"
  bottom: "norm_t_1"
  top: "conv_t_2"
  param {
    lr_mult: 0
  }
  param {
    lr_mult: 0
  }
  convolution_param {
    num_output: 32
    pad: 2
    kernel_size: 5
    stride: 1
    weight_filler {
      type: "gaussian"
      std: 0.01
    }
    bias_filler {
      type: "constant"
    }
  }
}
layer {
  name: "relu_t_2"
  type: "ReLU"
  bottom: "conv_t_2"
  top: "conv_t_2"
}
layer {
  name: "pool_t_2"
  type: "Pooling"
  bottom: "conv_t_2"
  top: "pool_t_2"
  pooling_param {
    pool: AVE
    kernel_size: 3
    stride: 2
  }
}
layer {
  name: "norm_t_2"
  type: "LRN"
  bottom: "pool_t_2"
  top: "norm_t_2"
  lrn_param {
    local_size: 3
    alpha: 5e-05
    beta: 0.75
    norm_region: WITHIN_CHANNEL
  }
}
layer {
  name: "conv_t_3"
  type: "Convolution"
  bottom: "norm_t_2"
  top: "conv_t_3"
  param {
    lr_mult: 0
  }
  param {
    lr_mult: 0
  }
  convolution_param {
    num_output: 64
    pad: 2
    kernel_size: 5
    stride: 1
    weight_filler {
      type: "gaussian"
      std: 0.01
    }
    bias_filler {
      type: "constant"
    }
  }
}
layer {
  name: "relu_t_3"
  type: "ReLU"
  bottom: "conv_t_3"
  top: "conv_t_3"
}
layer {
  name: "pool_t_3"
  type: "Pooling"
  bottom: "conv_t_3"
  top: "pool_t_3"
  pooling_param {
    pool: AVE
    kernel_size: 3
    stride: 2
  }
}
layer {
  name: "ip_t_1"
  type: "InnerProduct"
  bottom: "pool_t_3"
  top: "ip_t_1"
  param {
    lr_mult: 0
  }
  param {
    lr_mult: 0
  }
  inner_product_param {
    num_output: 10
    weight_filler {
      type: "gaussian"
      std: 0.01
    }
    bias_filler {
      type: "constant"
    }
  }
}
layer {
  name: "sm_s_1"
  type: "Softmax"
  bottom: "ip_s_1"
  top: "sm_s_1"
}
layer {
  name: "sm_t_1"
  type: "Softmax"
  bottom: "ip_t_1"
  top: "sm_t_1"
}
layer {
  name: "ts_loss"
  type: "SigmoidCrossEntropyLoss"
  bottom: "sm_s_1"
  bottom: "sm_t_1"
  top: "ts_loss"
  loss_weight: 0.4
}
layer {
  name: "loss"
  type: "SoftmaxWithLoss"
  bottom: "ip_s_1"
  bottom: "label"
  top: "loss"
  loss_weight: 0.6
}
I0801 16:13:53.087743  2113 layer_factory.hpp:77] Creating layer cifar
I0801 16:13:53.087826  2113 db_lmdb.cpp:35] Opened lmdb /opt/caffe/examples/cifar10/cifar10_train_lmdb
I0801 16:13:53.087841  2113 net.cpp:84] Creating Layer cifar
I0801 16:13:53.087846  2113 net.cpp:380] cifar -> data
I0801 16:13:53.087862  2113 net.cpp:380] cifar -> label
I0801 16:13:53.087869  2113 data_transformer.cpp:25] Loading mean file from: /opt/caffe/examples/cifar10/mean.binaryproto
I0801 16:13:53.089002  2113 data_layer.cpp:45] output data size: 100,3,32,32
I0801 16:13:53.092545  2113 net.cpp:122] Setting up cifar
I0801 16:13:53.092566  2113 net.cpp:129] Top shape: 100 3 32 32 (307200)
I0801 16:13:53.092568  2113 net.cpp:129] Top shape: 100 (100)
I0801 16:13:53.092571  2113 net.cpp:137] Memory required for data: 1229200
I0801 16:13:53.092577  2113 layer_factory.hpp:77] Creating layer data_cifar_0_split
I0801 16:13:53.092589  2113 net.cpp:84] Creating Layer data_cifar_0_split
I0801 16:13:53.092593  2113 net.cpp:406] data_cifar_0_split <- data
I0801 16:13:53.092609  2113 net.cpp:380] data_cifar_0_split -> data_cifar_0_split_0
I0801 16:13:53.092617  2113 net.cpp:380] data_cifar_0_split -> data_cifar_0_split_1
I0801 16:13:53.092648  2113 net.cpp:122] Setting up data_cifar_0_split
I0801 16:13:53.092650  2113 net.cpp:129] Top shape: 100 3 32 32 (307200)
I0801 16:13:53.092653  2113 net.cpp:129] Top shape: 100 3 32 32 (307200)
I0801 16:13:53.092654  2113 net.cpp:137] Memory required for data: 3686800
I0801 16:13:53.092656  2113 layer_factory.hpp:77] Creating layer conv_s_1
I0801 16:13:53.092667  2113 net.cpp:84] Creating Layer conv_s_1
I0801 16:13:53.092681  2113 net.cpp:406] conv_s_1 <- data_cifar_0_split_0
I0801 16:13:53.092686  2113 net.cpp:380] conv_s_1 -> conv_s_1
I0801 16:13:53.402115  2113 net.cpp:122] Setting up conv_s_1
I0801 16:13:53.402138  2113 net.cpp:129] Top shape: 100 32 32 32 (3276800)
I0801 16:13:53.402140  2113 net.cpp:137] Memory required for data: 16794000
I0801 16:13:53.402155  2113 layer_factory.hpp:77] Creating layer pool_s_1
I0801 16:13:53.402164  2113 net.cpp:84] Creating Layer pool_s_1
I0801 16:13:53.402166  2113 net.cpp:406] pool_s_1 <- conv_s_1
I0801 16:13:53.402169  2113 net.cpp:380] pool_s_1 -> pool_s_1
I0801 16:13:53.402205  2113 net.cpp:122] Setting up pool_s_1
I0801 16:13:53.402209  2113 net.cpp:129] Top shape: 100 32 16 16 (819200)
I0801 16:13:53.402210  2113 net.cpp:137] Memory required for data: 20070800
I0801 16:13:53.402212  2113 layer_factory.hpp:77] Creating layer relu_s_1
I0801 16:13:53.402216  2113 net.cpp:84] Creating Layer relu_s_1
I0801 16:13:53.402218  2113 net.cpp:406] relu_s_1 <- pool_s_1
I0801 16:13:53.402221  2113 net.cpp:367] relu_s_1 -> pool_s_1 (in-place)
I0801 16:13:53.402561  2113 net.cpp:122] Setting up relu_s_1
I0801 16:13:53.402568  2113 net.cpp:129] Top shape: 100 32 16 16 (819200)
I0801 16:13:53.402570  2113 net.cpp:137] Memory required for data: 23347600
I0801 16:13:53.402572  2113 layer_factory.hpp:77] Creating layer norm_s_1
I0801 16:13:53.402578  2113 net.cpp:84] Creating Layer norm_s_1
I0801 16:13:53.402580  2113 net.cpp:406] norm_s_1 <- pool_s_1
I0801 16:13:53.402585  2113 net.cpp:380] norm_s_1 -> norm_s_1
I0801 16:13:53.403125  2113 net.cpp:122] Setting up norm_s_1
I0801 16:13:53.403131  2113 net.cpp:129] Top shape: 100 32 16 16 (819200)
I0801 16:13:53.403132  2113 net.cpp:137] Memory required for data: 26624400
I0801 16:13:53.403134  2113 layer_factory.hpp:77] Creating layer conv_s_2
I0801 16:13:53.403141  2113 net.cpp:84] Creating Layer conv_s_2
I0801 16:13:53.403143  2113 net.cpp:406] conv_s_2 <- norm_s_1
I0801 16:13:53.403146  2113 net.cpp:380] conv_s_2 -> conv_s_2
I0801 16:13:53.404758  2113 net.cpp:122] Setting up conv_s_2
I0801 16:13:53.404796  2113 net.cpp:129] Top shape: 100 32 16 16 (819200)
I0801 16:13:53.404804  2113 net.cpp:137] Memory required for data: 29901200
I0801 16:13:53.404819  2113 layer_factory.hpp:77] Creating layer relu_s_2
I0801 16:13:53.404830  2113 net.cpp:84] Creating Layer relu_s_2
I0801 16:13:53.404837  2113 net.cpp:406] relu_s_2 <- conv_s_2
I0801 16:13:53.404846  2113 net.cpp:367] relu_s_2 -> conv_s_2 (in-place)
I0801 16:13:53.404979  2113 net.cpp:122] Setting up relu_s_2
I0801 16:13:53.404991  2113 net.cpp:129] Top shape: 100 32 16 16 (819200)
I0801 16:13:53.404999  2113 net.cpp:137] Memory required for data: 33178000
I0801 16:13:53.405005  2113 layer_factory.hpp:77] Creating layer pool_s_2
I0801 16:13:53.405015  2113 net.cpp:84] Creating Layer pool_s_2
I0801 16:13:53.405023  2113 net.cpp:406] pool_s_2 <- conv_s_2
I0801 16:13:53.405031  2113 net.cpp:380] pool_s_2 -> pool_s_2
I0801 16:13:53.405365  2113 net.cpp:122] Setting up pool_s_2
I0801 16:13:53.405382  2113 net.cpp:129] Top shape: 100 32 8 8 (204800)
I0801 16:13:53.405390  2113 net.cpp:137] Memory required for data: 33997200
I0801 16:13:53.405397  2113 layer_factory.hpp:77] Creating layer norm_s_2
I0801 16:13:53.405406  2113 net.cpp:84] Creating Layer norm_s_2
I0801 16:13:53.405414  2113 net.cpp:406] norm_s_2 <- pool_s_2
I0801 16:13:53.405422  2113 net.cpp:380] norm_s_2 -> norm_s_2
I0801 16:13:53.405603  2113 net.cpp:122] Setting up norm_s_2
I0801 16:13:53.405617  2113 net.cpp:129] Top shape: 100 32 8 8 (204800)
I0801 16:13:53.405624  2113 net.cpp:137] Memory required for data: 34816400
I0801 16:13:53.405632  2113 layer_factory.hpp:77] Creating layer conv_s_3
I0801 16:13:53.405642  2113 net.cpp:84] Creating Layer conv_s_3
I0801 16:13:53.405649  2113 net.cpp:406] conv_s_3 <- norm_s_2
I0801 16:13:53.405658  2113 net.cpp:380] conv_s_3 -> conv_s_3
I0801 16:13:53.406644  2113 net.cpp:122] Setting up conv_s_3
I0801 16:13:53.406661  2113 net.cpp:129] Top shape: 100 64 8 8 (409600)
I0801 16:13:53.406675  2113 net.cpp:137] Memory required for data: 36454800
I0801 16:13:53.406693  2113 layer_factory.hpp:77] Creating layer relu_s_3
I0801 16:13:53.406702  2113 net.cpp:84] Creating Layer relu_s_3
I0801 16:13:53.406709  2113 net.cpp:406] relu_s_3 <- conv_s_3
I0801 16:13:53.406718  2113 net.cpp:367] relu_s_3 -> conv_s_3 (in-place)
I0801 16:13:53.406833  2113 net.cpp:122] Setting up relu_s_3
I0801 16:13:53.406844  2113 net.cpp:129] Top shape: 100 64 8 8 (409600)
I0801 16:13:53.406852  2113 net.cpp:137] Memory required for data: 38093200
I0801 16:13:53.406857  2113 layer_factory.hpp:77] Creating layer pool_s_3
I0801 16:13:53.406865  2113 net.cpp:84] Creating Layer pool_s_3
I0801 16:13:53.406873  2113 net.cpp:406] pool_s_3 <- conv_s_3
I0801 16:13:53.406880  2113 net.cpp:380] pool_s_3 -> pool_s_3
I0801 16:13:53.407002  2113 net.cpp:122] Setting up pool_s_3
I0801 16:13:53.407014  2113 net.cpp:129] Top shape: 100 64 4 4 (102400)
I0801 16:13:53.407021  2113 net.cpp:137] Memory required for data: 38502800
I0801 16:13:53.407027  2113 layer_factory.hpp:77] Creating layer ip_s_1
I0801 16:13:53.407037  2113 net.cpp:84] Creating Layer ip_s_1
I0801 16:13:53.407043  2113 net.cpp:406] ip_s_1 <- pool_s_3
I0801 16:13:53.407052  2113 net.cpp:380] ip_s_1 -> ip_s_1
I0801 16:13:53.407667  2113 net.cpp:122] Setting up ip_s_1
I0801 16:13:53.407685  2113 net.cpp:129] Top shape: 100 10 (1000)
I0801 16:13:53.407691  2113 net.cpp:137] Memory required for data: 38506800
I0801 16:13:53.407701  2113 layer_factory.hpp:77] Creating layer ip_s_1_ip_s_1_0_split
I0801 16:13:53.407709  2113 net.cpp:84] Creating Layer ip_s_1_ip_s_1_0_split
I0801 16:13:53.407716  2113 net.cpp:406] ip_s_1_ip_s_1_0_split <- ip_s_1
I0801 16:13:53.407724  2113 net.cpp:380] ip_s_1_ip_s_1_0_split -> ip_s_1_ip_s_1_0_split_0
I0801 16:13:53.407734  2113 net.cpp:380] ip_s_1_ip_s_1_0_split -> ip_s_1_ip_s_1_0_split_1
I0801 16:13:53.407766  2113 net.cpp:122] Setting up ip_s_1_ip_s_1_0_split
I0801 16:13:53.407775  2113 net.cpp:129] Top shape: 100 10 (1000)
I0801 16:13:53.407783  2113 net.cpp:129] Top shape: 100 10 (1000)
I0801 16:13:53.407788  2113 net.cpp:137] Memory required for data: 38514800
I0801 16:13:53.407795  2113 layer_factory.hpp:77] Creating layer conv_t_1
I0801 16:13:53.407805  2113 net.cpp:84] Creating Layer conv_t_1
I0801 16:13:53.407814  2113 net.cpp:406] conv_t_1 <- data_cifar_0_split_1
I0801 16:13:53.407822  2113 net.cpp:380] conv_t_1 -> conv_t_1
I0801 16:13:53.408530  2113 net.cpp:122] Setting up conv_t_1
I0801 16:13:53.408547  2113 net.cpp:129] Top shape: 100 32 32 32 (3276800)
I0801 16:13:53.408553  2113 net.cpp:137] Memory required for data: 51622000
I0801 16:13:53.408565  2113 layer_factory.hpp:77] Creating layer pool_t_1
I0801 16:13:53.408576  2113 net.cpp:84] Creating Layer pool_t_1
I0801 16:13:53.408583  2113 net.cpp:406] pool_t_1 <- conv_t_1
I0801 16:13:53.408591  2113 net.cpp:380] pool_t_1 -> pool_t_1
I0801 16:13:53.408627  2113 net.cpp:122] Setting up pool_t_1
I0801 16:13:53.408637  2113 net.cpp:129] Top shape: 100 32 16 16 (819200)
I0801 16:13:53.408643  2113 net.cpp:137] Memory required for data: 54898800
I0801 16:13:53.408649  2113 layer_factory.hpp:77] Creating layer relu_t_1
I0801 16:13:53.408658  2113 net.cpp:84] Creating Layer relu_t_1
I0801 16:13:53.408663  2113 net.cpp:406] relu_t_1 <- pool_t_1
I0801 16:13:53.408671  2113 net.cpp:367] relu_t_1 -> pool_t_1 (in-place)
I0801 16:13:53.408974  2113 net.cpp:122] Setting up relu_t_1
I0801 16:13:53.408989  2113 net.cpp:129] Top shape: 100 32 16 16 (819200)
I0801 16:13:53.408996  2113 net.cpp:137] Memory required for data: 58175600
I0801 16:13:53.409003  2113 layer_factory.hpp:77] Creating layer norm_t_1
I0801 16:13:53.409011  2113 net.cpp:84] Creating Layer norm_t_1
I0801 16:13:53.409019  2113 net.cpp:406] norm_t_1 <- pool_t_1
I0801 16:13:53.409027  2113 net.cpp:380] norm_t_1 -> norm_t_1
I0801 16:13:53.409557  2113 net.cpp:122] Setting up norm_t_1
I0801 16:13:53.409574  2113 net.cpp:129] Top shape: 100 32 16 16 (819200)
I0801 16:13:53.409581  2113 net.cpp:137] Memory required for data: 61452400
I0801 16:13:53.409592  2113 layer_factory.hpp:77] Creating layer conv_t_2
I0801 16:13:53.409610  2113 net.cpp:84] Creating Layer conv_t_2
I0801 16:13:53.409617  2113 net.cpp:406] conv_t_2 <- norm_t_1
I0801 16:13:53.409626  2113 net.cpp:380] conv_t_2 -> conv_t_2
I0801 16:13:53.410465  2113 net.cpp:122] Setting up conv_t_2
I0801 16:13:53.410480  2113 net.cpp:129] Top shape: 100 32 16 16 (819200)
I0801 16:13:53.410487  2113 net.cpp:137] Memory required for data: 64729200
I0801 16:13:53.410496  2113 layer_factory.hpp:77] Creating layer relu_t_2
I0801 16:13:53.410506  2113 net.cpp:84] Creating Layer relu_t_2
I0801 16:13:53.410512  2113 net.cpp:406] relu_t_2 <- conv_t_2
I0801 16:13:53.410521  2113 net.cpp:367] relu_t_2 -> conv_t_2 (in-place)
I0801 16:13:53.410636  2113 net.cpp:122] Setting up relu_t_2
I0801 16:13:53.410647  2113 net.cpp:129] Top shape: 100 32 16 16 (819200)
I0801 16:13:53.410655  2113 net.cpp:137] Memory required for data: 68006000
I0801 16:13:53.410660  2113 layer_factory.hpp:77] Creating layer pool_t_2
I0801 16:13:53.410670  2113 net.cpp:84] Creating Layer pool_t_2
I0801 16:13:53.410676  2113 net.cpp:406] pool_t_2 <- conv_t_2
I0801 16:13:53.410683  2113 net.cpp:380] pool_t_2 -> pool_t_2
I0801 16:13:53.410989  2113 net.cpp:122] Setting up pool_t_2
I0801 16:13:53.411003  2113 net.cpp:129] Top shape: 100 32 8 8 (204800)
I0801 16:13:53.411010  2113 net.cpp:137] Memory required for data: 68825200
I0801 16:13:53.411017  2113 layer_factory.hpp:77] Creating layer norm_t_2
I0801 16:13:53.411026  2113 net.cpp:84] Creating Layer norm_t_2
I0801 16:13:53.411033  2113 net.cpp:406] norm_t_2 <- pool_t_2
I0801 16:13:53.411041  2113 net.cpp:380] norm_t_2 -> norm_t_2
I0801 16:13:53.411223  2113 net.cpp:122] Setting up norm_t_2
I0801 16:13:53.411237  2113 net.cpp:129] Top shape: 100 32 8 8 (204800)
I0801 16:13:53.411243  2113 net.cpp:137] Memory required for data: 69644400
I0801 16:13:53.411249  2113 layer_factory.hpp:77] Creating layer conv_t_3
I0801 16:13:53.411259  2113 net.cpp:84] Creating Layer conv_t_3
I0801 16:13:53.411267  2113 net.cpp:406] conv_t_3 <- norm_t_2
I0801 16:13:53.411275  2113 net.cpp:380] conv_t_3 -> conv_t_3
I0801 16:13:53.412286  2113 net.cpp:122] Setting up conv_t_3
I0801 16:13:53.412302  2113 net.cpp:129] Top shape: 100 64 8 8 (409600)
I0801 16:13:53.412309  2113 net.cpp:137] Memory required for data: 71282800
I0801 16:13:53.412318  2113 layer_factory.hpp:77] Creating layer relu_t_3
I0801 16:13:53.412328  2113 net.cpp:84] Creating Layer relu_t_3
I0801 16:13:53.412334  2113 net.cpp:406] relu_t_3 <- conv_t_3
I0801 16:13:53.412343  2113 net.cpp:367] relu_t_3 -> conv_t_3 (in-place)
I0801 16:13:53.412468  2113 net.cpp:122] Setting up relu_t_3
I0801 16:13:53.412479  2113 net.cpp:129] Top shape: 100 64 8 8 (409600)
I0801 16:13:53.412487  2113 net.cpp:137] Memory required for data: 72921200
I0801 16:13:53.412492  2113 layer_factory.hpp:77] Creating layer pool_t_3
I0801 16:13:53.412502  2113 net.cpp:84] Creating Layer pool_t_3
I0801 16:13:53.412508  2113 net.cpp:406] pool_t_3 <- conv_t_3
I0801 16:13:53.412516  2113 net.cpp:380] pool_t_3 -> pool_t_3
I0801 16:13:53.412838  2113 net.cpp:122] Setting up pool_t_3
I0801 16:13:53.412853  2113 net.cpp:129] Top shape: 100 64 4 4 (102400)
I0801 16:13:53.412860  2113 net.cpp:137] Memory required for data: 73330800
I0801 16:13:53.412866  2113 layer_factory.hpp:77] Creating layer ip_t_1
I0801 16:13:53.412876  2113 net.cpp:84] Creating Layer ip_t_1
I0801 16:13:53.412884  2113 net.cpp:406] ip_t_1 <- pool_t_3
I0801 16:13:53.412892  2113 net.cpp:380] ip_t_1 -> ip_t_1
I0801 16:13:53.413029  2113 net.cpp:122] Setting up ip_t_1
I0801 16:13:53.413039  2113 net.cpp:129] Top shape: 100 10 (1000)
I0801 16:13:53.413046  2113 net.cpp:137] Memory required for data: 73334800
I0801 16:13:53.413054  2113 layer_factory.hpp:77] Creating layer sm_s_1
I0801 16:13:53.413063  2113 net.cpp:84] Creating Layer sm_s_1
I0801 16:13:53.413069  2113 net.cpp:406] sm_s_1 <- ip_s_1_ip_s_1_0_split_0
I0801 16:13:53.413079  2113 net.cpp:380] sm_s_1 -> sm_s_1
I0801 16:13:53.413249  2113 net.cpp:122] Setting up sm_s_1
I0801 16:13:53.413266  2113 net.cpp:129] Top shape: 100 10 (1000)
I0801 16:13:53.413277  2113 net.cpp:137] Memory required for data: 73338800
I0801 16:13:53.413285  2113 layer_factory.hpp:77] Creating layer sm_t_1
I0801 16:13:53.413293  2113 net.cpp:84] Creating Layer sm_t_1
I0801 16:13:53.413300  2113 net.cpp:406] sm_t_1 <- ip_t_1
I0801 16:13:53.413310  2113 net.cpp:380] sm_t_1 -> sm_t_1
I0801 16:13:53.413472  2113 net.cpp:122] Setting up sm_t_1
I0801 16:13:53.413485  2113 net.cpp:129] Top shape: 100 10 (1000)
I0801 16:13:53.413491  2113 net.cpp:137] Memory required for data: 73342800
I0801 16:13:53.413497  2113 layer_factory.hpp:77] Creating layer ts_loss
I0801 16:13:53.413507  2113 net.cpp:84] Creating Layer ts_loss
I0801 16:13:53.413514  2113 net.cpp:406] ts_loss <- sm_s_1
I0801 16:13:53.413522  2113 net.cpp:406] ts_loss <- sm_t_1
I0801 16:13:53.413529  2113 net.cpp:380] ts_loss -> ts_loss
…
I0801 16:13:53.414346  2113 net.cpp:294] The NetState phase (1) differed from the phase (0) specified by a rule in layer cifar
I0801 16:13:53.414463  2113 net.cpp:51] Initializing net from parameters: 
name: "CIFAR10_full"
state {
  phase: TEST
}
layer {
  name: "cifar"
  type: "Data"
  top: "data"
  top: "label"
  include {
    phase: TEST
  }
  transform_param {
    mean_file: "/opt/caffe/examples/cifar10/mean.binaryproto"
  }
  data_param {
    source: "/opt/caffe/examples/cifar10/cifar10_test_lmdb"
    batch_size: 100
    backend: LMDB
  }
}
layer {
  name: "conv_s_1"
  type: "Convolution"
  bottom: "data"
  top: "conv_s_1"
  param {
    lr_mult: 1
  }
  param {
    lr_mult: 2
  }
  convolution_param {
    num_output: 32
    pad: 2
    kernel_size: 5
    stride: 1
    weight_filler {
      type: "gaussian"
      std: 0.0001
    }
    bias_filler {
      type: "constant"
    }
  }
}
layer {
  name: "pool_s_1"
  type: "Pooling"
  bottom: "conv_s_1"
  top: "pool_s_1"
  pooling_param {
    pool: MAX
    kernel_size: 3
    stride: 2
  }
}
layer {
  name: "relu_s_1"
  type: "ReLU"
  bottom: "pool_s_1"
  top: "pool_s_1"
}
layer {
  name: "norm_s_1"
  type: "LRN"
  bottom: "pool_s_1"
  top: "norm_s_1"
  lrn_param {
    local_size: 3
    alpha: 5e-05
    beta: 0.75
    norm_region: WITHIN_CHANNEL
  }
}
layer {
  name: "conv_s_2"
  type: "Convolution"
  bottom: "norm_s_1"
  top: "conv_s_2"
  param {
    lr_mult: 1
  }
  param {
    lr_mult: 2
  }
  convolution_param {
    num_output: 32
    pad: 2
    kernel_size: 5
    stride: 1
    weight_filler {
      type: "gaussian"
      std: 0.01
    }
    bias_filler {
      type: "constant"
    }
  }
}
layer {
  name: "relu_s_2"
  type: "ReLU"
  bottom: "conv_s_2"
  top: "conv_s_2"
}
layer {
  name: "pool_s_2"
  type: "Pooling"
  bottom: "conv_s_2"
  top: "pool_s_2"
  pooling_param {
    pool: AVE
    kernel_size: 3
    stride: 2
  }
}
layer {
  name: "norm_s_2"
  type: "LRN"
  bottom: "pool_s_2"
  top: "norm_s_2"
  lrn_param {
    local_size: 3
    alpha: 5e-05
    beta: 0.75
    norm_region: WITHIN_CHANNEL
  }
}
layer {
  name: "conv_s_3"
  type: "Convolution"
  bottom: "norm_s_2"
  top: "conv_s_3"
  param {
    lr_mult: 1
  }
  param {
    lr_mult: 2
  }
  convolution_param {
    num_output: 64
    pad: 2
    kernel_size: 5
    stride: 1
    weight_filler {
      type: "gaussian"
      std: 0.01
    }
    bias_filler {
      type: "constant"
    }
  }
}
layer {
  name: "relu_s_3"
  type: "ReLU"
  bottom: "conv_s_3"
  top: "conv_s_3"
}
layer {
  name: "pool_s_3"
  type: "Pooling"
  bottom: "conv_s_3"
  top: "pool_s_3"
  pooling_param {
    pool: AVE
    kernel_size: 3
    stride: 2
  }
}
layer {
  name: "ip_s_1"
  type: "InnerProduct"
  bottom: "pool_s_3"
  top: "ip_s_1"
  param {
    lr_mult: 1
    decay_mult: 250
  }
  param {
    lr_mult: 2
    decay_mult: 0
  }
  inner_product_param {
    num_output: 10
    weight_filler {
      type: "gaussian"
      std: 0.01
    }
    bias_filler {
      type: "constant"
    }
  }
}
layer {
  name: "conv_t_1"
  type: "Convolution"
  bottom: "data"
  top: "conv_t_1"
  param {
    lr_mult: 0
  }
  param {
    lr_mult: 0
  }
  convolution_param {
    num_output: 32
    pad: 2
    kernel_size: 5
    stride: 1
    weight_filler {
      type: "gaussian"
      std: 0.0001
    }
    bias_filler {
      type: "constant"
    }
  }
}
layer {
  name: "pool_t_1"
  type: "Pooling"
  bottom: "conv_t_1"
  top: "pool_t_1"
  pooling_param {
    pool: MAX
    kernel_size: 3
    stride: 2
  }
}
layer {
  name: "relu_t_1"
  type: "ReLU"
  bottom: "pool_t_1"
  top: "pool_t_1"
}
layer {
  name: "norm_t_1"
  type: "LRN"
  bottom: "pool_t_1"
  top: "norm_t_1"
  lrn_param {
    local_size: 3
    alpha: 5e-05
    beta: 0.75
    norm_region: WITHIN_CHANNEL
  }
}
layer {
  name: "conv_t_2"
  type: "Convolution"
  bottom: "norm_t_1"
  top: "conv_t_2"
  param {
    lr_mult: 0
  }
  param {
    lr_mult: 0
  }
  convolution_param {
    num_output: 32
    pad: 2
    kernel_size: 5
    stride: 1
    weight_filler {
      type: "gaussian"
      std: 0.01
    }
    bias_filler {
      type: "constant"
    }
  }
}
layer {
  name: "relu_t_2"
  type: "ReLU"
  bottom: "conv_t_2"
  top: "conv_t_2"
}
layer {
  name: "pool_t_2"
  type: "Pooling"
  bottom: "conv_t_2"
  top: "pool_t_2"
  pooling_param {
    pool: AVE
    kernel_size: 3
    stride: 2
  }
}
layer {
  name: "norm_t_2"
  type: "LRN"
  bottom: "pool_t_2"
  top: "norm_t_2"
  lrn_param {
    local_size: 3
    alpha: 5e-05
    beta: 0.75
    norm_region: WITHIN_CHANNEL
  }
}
layer {
  name: "conv_t_3"
  type: "Convolution"
  bottom: "norm_t_2"
  top: "conv_t_3"
  param {
    lr_mult: 0
  }
  param {
    lr_mult: 0
  }
  convolution_param {
    num_output: 64
    pad: 2
    kernel_size: 5
    stride: 1
    weight_filler {
      type: "gaussian"
      std: 0.01
    }
    bias_filler {
      type: "constant"
    }
  }
}
layer {
  name: "relu_t_3"
  type: "ReLU"
  bottom: "conv_t_3"
  top: "conv_t_3"
}
layer {
  name: "pool_t_3"
  type: "Pooling"
  bottom: "conv_t_3"
  top: "pool_t_3"
  pooling_param {
    pool: AVE
    kernel_size: 3
    stride: 2
  }
}
layer {
  name: "ip_t_1"
  type: "InnerProduct"
  bottom: "pool_t_3"
  top: "ip_t_1"
  param {
    lr_mult: 0
  }
  param {
    lr_mult: 0
  }
  inner_product_param {
    num_output: 10
    weight_filler {
      type: "gaussian"
      std: 0.01
    }
    bias_filler {
      type: "constant"
    }
  }
}
layer {
  name: "sm_s_1"
  type: "Softmax"
  bottom: "ip_s_1"
  top: "sm_s_1"
}
layer {
  name: "sm_t_1"
  type: "Softmax"
  bottom: "ip_t_1"
  top: "sm_t_1"
}
layer {
  name: "accuracy"
  type: "Accuracy"
  bottom: "ip_s_1"
  bottom: "label"
  top: "accuracy"
  include {
    phase: TEST
  }
}
layer {
  name: "ts_loss"
  type: "SigmoidCrossEntropyLoss"
  bottom: "sm_s_1"
  bottom: "sm_t_1"
  top: "ts_loss"
  loss_weight: 0.4
}
layer {
  name: "loss"
  type: "SoftmaxWithLoss"
  bottom: "ip_s_1"
  bottom: "label"
  top: "loss"
  loss_weight: 0.6
}
I0801 16:13:53.414631  2113 layer_factory.hpp:77] Creating layer cifar
I0801 16:13:53.414690  2113 db_lmdb.cpp:35] Opened lmdb /opt/caffe/examples/cifar10/cifar10_test_lmdb
I0801 16:13:53.414706  2113 net.cpp:84] Creating Layer cifar
I0801 16:13:53.414716  2113 net.cpp:380] cifar -> data
I0801 16:13:53.414726  2113 net.cpp:380] cifar -> label
I0801 16:13:53.414737  2113 data_transformer.cpp:25] Loading mean file from: /opt/caffe/examples/cifar10/mean.binaryproto
I0801 16:13:53.414857  2113 data_layer.cpp:45] output data size: 100,3,32,32
I0801 16:13:53.419081  2113 net.cpp:122] Setting up cifar
I0801 16:13:53.419124  2113 net.cpp:129] Top shape: 100 3 32 32 (307200)
I0801 16:13:53.419132  2113 net.cpp:129] Top shape: 100 (100)
I0801 16:13:53.419138  2113 net.cpp:137] Memory required for data: 1229200
I0801 16:13:53.419147  2113 layer_factory.hpp:77] Creating layer data_cifar_0_split
I0801 16:13:53.419159  2113 net.cpp:84] Creating Layer data_cifar_0_split
I0801 16:13:53.419167  2113 net.cpp:406] data_cifar_0_split <- data
I0801 16:13:53.419176  2113 net.cpp:380] data_cifar_0_split -> data_cifar_0_split_0
I0801 16:13:53.419188  2113 net.cpp:380] data_cifar_0_split -> data_cifar_0_split_1
I0801 16:13:53.419234  2113 net.cpp:122] Setting up data_cifar_0_split
I0801 16:13:53.419244  2113 net.cpp:129] Top shape: 100 3 32 32 (307200)
I0801 16:13:53.419250  2113 net.cpp:129] Top shape: 100 3 32 32 (307200)
I0801 16:13:53.419255  2113 net.cpp:137] Memory required for data: 3686800
I0801 16:13:53.419261  2113 layer_factory.hpp:77] Creating layer label_cifar_1_split
I0801 16:13:53.419275  2113 net.cpp:84] Creating Layer label_cifar_1_split
I0801 16:13:53.419289  2113 net.cpp:406] label_cifar_1_split <- label
I0801 16:13:53.419297  2113 net.cpp:380] label_cifar_1_split -> label_cifar_1_split_0
I0801 16:13:53.419307  2113 net.cpp:380] label_cifar_1_split -> label_cifar_1_split_1
I0801 16:13:53.419342  2113 net.cpp:122] Setting up label_cifar_1_split
I0801 16:13:53.419350  2113 net.cpp:129] Top shape: 100 (100)
I0801 16:13:53.419358  2113 net.cpp:129] Top shape: 100 (100)
I0801 16:13:53.419363  2113 net.cpp:137] Memory required for data: 3687600
I0801 16:13:53.419368  2113 layer_factory.hpp:77] Creating layer conv_s_1
I0801 16:13:53.419380  2113 net.cpp:84] Creating Layer conv_s_1
I0801 16:13:53.419387  2113 net.cpp:406] conv_s_1 <- data_cifar_0_split_0
I0801 16:13:53.419396  2113 net.cpp:380] conv_s_1 -> conv_s_1
I0801 16:13:53.420655  2113 net.cpp:122] Setting up conv_s_1
I0801 16:13:53.420672  2113 net.cpp:129] Top shape: 100 32 32 32 (3276800)
I0801 16:13:53.420680  2113 net.cpp:137] Memory required for data: 16794800
I0801 16:13:53.420693  2113 layer_factory.hpp:77] Creating layer pool_s_1
I0801 16:13:53.420706  2113 net.cpp:84] Creating Layer pool_s_1
I0801 16:13:53.420713  2113 net.cpp:406] pool_s_1 <- conv_s_1
I0801 16:13:53.420722  2113 net.cpp:380] pool_s_1 -> pool_s_1
I0801 16:13:53.420758  2113 net.cpp:122] Setting up pool_s_1
I0801 16:13:53.420769  2113 net.cpp:129] Top shape: 100 32 16 16 (819200)
I0801 16:13:53.420776  2113 net.cpp:137] Memory required for data: 20071600
I0801 16:13:53.420783  2113 layer_factory.hpp:77] Creating layer relu_s_1
I0801 16:13:53.420790  2113 net.cpp:84] Creating Layer relu_s_1
I0801 16:13:53.420799  2113 net.cpp:406] relu_s_1 <- pool_s_1
I0801 16:13:53.420806  2113 net.cpp:367] relu_s_1 -> pool_s_1 (in-place)
I0801 16:13:53.420941  2113 net.cpp:122] Setting up relu_s_1
I0801 16:13:53.420954  2113 net.cpp:129] Top shape: 100 32 16 16 (819200)
I0801 16:13:53.420961  2113 net.cpp:137] Memory required for data: 23348400
I0801 16:13:53.420967  2113 layer_factory.hpp:77] Creating layer norm_s_1
I0801 16:13:53.420979  2113 net.cpp:84] Creating Layer norm_s_1
I0801 16:13:53.420985  2113 net.cpp:406] norm_s_1 <- pool_s_1
I0801 16:13:53.420994  2113 net.cpp:380] norm_s_1 -> norm_s_1
I0801 16:13:53.421764  2113 net.cpp:122] Setting up norm_s_1
I0801 16:13:53.421783  2113 net.cpp:129] Top shape: 100 32 16 16 (819200)
I0801 16:13:53.421792  2113 net.cpp:137] Memory required for data: 26625200
I0801 16:13:53.421798  2113 layer_factory.hpp:77] Creating layer conv_s_2
I0801 16:13:53.421811  2113 net.cpp:84] Creating Layer conv_s_2
I0801 16:13:53.421819  2113 net.cpp:406] conv_s_2 <- norm_s_1
I0801 16:13:53.421828  2113 net.cpp:380] conv_s_2 -> conv_s_2
I0801 16:13:53.422790  2113 net.cpp:122] Setting up conv_s_2
I0801 16:13:53.422806  2113 net.cpp:129] Top shape: 100 32 16 16 (819200)
I0801 16:13:53.422813  2113 net.cpp:137] Memory required for data: 29902000
I0801 16:13:53.422823  2113 layer_factory.hpp:77] Creating layer relu_s_2
I0801 16:13:53.422834  2113 net.cpp:84] Creating Layer relu_s_2
I0801 16:13:53.422842  2113 net.cpp:406] relu_s_2 <- conv_s_2
I0801 16:13:53.422850  2113 net.cpp:367] relu_s_2 -> conv_s_2 (in-place)
I0801 16:13:53.422976  2113 net.cpp:122] Setting up relu_s_2
I0801 16:13:53.422991  2113 net.cpp:129] Top shape: 100 32 16 16 (819200)
I0801 16:13:53.422996  2113 net.cpp:137] Memory required for data: 33178800
I0801 16:13:53.423003  2113 layer_factory.hpp:77] Creating layer pool_s_2
I0801 16:13:53.423012  2113 net.cpp:84] Creating Layer pool_s_2
I0801 16:13:53.423018  2113 net.cpp:406] pool_s_2 <- conv_s_2
I0801 16:13:53.423027  2113 net.cpp:380] pool_s_2 -> pool_s_2
I0801 16:13:53.423360  2113 net.cpp:122] Setting up pool_s_2
I0801 16:13:53.423375  2113 net.cpp:129] Top shape: 100 32 8 8 (204800)
I0801 16:13:53.423383  2113 net.cpp:137] Memory required for data: 33998000
I0801 16:13:53.423390  2113 layer_factory.hpp:77] Creating layer norm_s_2
I0801 16:13:53.423399  2113 net.cpp:84] Creating Layer norm_s_2
I0801 16:13:53.423408  2113 net.cpp:406] norm_s_2 <- pool_s_2
I0801 16:13:53.423427  2113 net.cpp:380] norm_s_2 -> norm_s_2
I0801 16:13:53.423627  2113 net.cpp:122] Setting up norm_s_2
I0801 16:13:53.423640  2113 net.cpp:129] Top shape: 100 32 8 8 (204800)
I0801 16:13:53.423647  2113 net.cpp:137] Memory required for data: 34817200
I0801 16:13:53.423655  2113 layer_factory.hpp:77] Creating layer conv_s_3
I0801 16:13:53.423665  2113 net.cpp:84] Creating Layer conv_s_3
I0801 16:13:53.423672  2113 net.cpp:406] conv_s_3 <- norm_s_2
I0801 16:13:53.423681  2113 net.cpp:380] conv_s_3 -> conv_s_3
I0801 16:13:53.424723  2113 net.cpp:122] Setting up conv_s_3
I0801 16:13:53.424739  2113 net.cpp:129] Top shape: 100 64 8 8 (409600)
I0801 16:13:53.424746  2113 net.cpp:137] Memory required for data: 36455600
I0801 16:13:53.424757  2113 layer_factory.hpp:77] Creating layer relu_s_3
I0801 16:13:53.424767  2113 net.cpp:84] Creating Layer relu_s_3
I0801 16:13:53.424773  2113 net.cpp:406] relu_s_3 <- conv_s_3
I0801 16:13:53.424782  2113 net.cpp:367] relu_s_3 -> conv_s_3 (in-place)
I0801 16:13:53.424909  2113 net.cpp:122] Setting up relu_s_3
I0801 16:13:53.424921  2113 net.cpp:129] Top shape: 100 64 8 8 (409600)
I0801 16:13:53.424928  2113 net.cpp:137] Memory required for data: 38094000
I0801 16:13:53.424934  2113 layer_factory.hpp:77] Creating layer pool_s_3
I0801 16:13:53.424943  2113 net.cpp:84] Creating Layer pool_s_3
I0801 16:13:53.424950  2113 net.cpp:406] pool_s_3 <- conv_s_3
I0801 16:13:53.424958  2113 net.cpp:380] pool_s_3 -> pool_s_3
I0801 16:13:53.425305  2113 net.cpp:122] Setting up pool_s_3
I0801 16:13:53.425321  2113 net.cpp:129] Top shape: 100 64 4 4 (102400)
I0801 16:13:53.425328  2113 net.cpp:137] Memory required for data: 38503600
I0801 16:13:53.425335  2113 layer_factory.hpp:77] Creating layer ip_s_1
I0801 16:13:53.425344  2113 net.cpp:84] Creating Layer ip_s_1
I0801 16:13:53.425351  2113 net.cpp:406] ip_s_1 <- pool_s_3
I0801 16:13:53.425361  2113 net.cpp:380] ip_s_1 -> ip_s_1
I0801 16:13:53.425505  2113 net.cpp:122] Setting up ip_s_1
I0801 16:13:53.425515  2113 net.cpp:129] Top shape: 100 10 (1000)
I0801 16:13:53.425523  2113 net.cpp:137] Memory required for data: 38507600
I0801 16:13:53.425530  2113 layer_factory.hpp:77] Creating layer ip_s_1_ip_s_1_0_split
I0801 16:13:53.425539  2113 net.cpp:84] Creating Layer ip_s_1_ip_s_1_0_split
I0801 16:13:53.425546  2113 net.cpp:406] ip_s_1_ip_s_1_0_split <- ip_s_1
I0801 16:13:53.425555  2113 net.cpp:380] ip_s_1_ip_s_1_0_split -> ip_s_1_ip_s_1_0_split_0
I0801 16:13:53.425565  2113 net.cpp:380] ip_s_1_ip_s_1_0_split -> ip_s_1_ip_s_1_0_split_1
I0801 16:13:53.425576  2113 net.cpp:380] ip_s_1_ip_s_1_0_split -> ip_s_1_ip_s_1_0_split_2
I0801 16:13:53.425619  2113 net.cpp:122] Setting up ip_s_1_ip_s_1_0_split
I0801 16:13:53.425628  2113 net.cpp:129] Top shape: 100 10 (1000)
I0801 16:13:53.425637  2113 net.cpp:129] Top shape: 100 10 (1000)
I0801 16:13:53.425642  2113 net.cpp:129] Top shape: 100 10 (1000)
I0801 16:13:53.425648  2113 net.cpp:137] Memory required for data: 38519600
I0801 16:13:53.425655  2113 layer_factory.hpp:77] Creating layer conv_t_1
I0801 16:13:53.425668  2113 net.cpp:84] Creating Layer conv_t_1
I0801 16:13:53.425675  2113 net.cpp:406] conv_t_1 <- data_cifar_0_split_1
I0801 16:13:53.425684  2113 net.cpp:380] conv_t_1 -> conv_t_1
I0801 16:13:53.426442  2113 net.cpp:122] Setting up conv_t_1
I0801 16:13:53.426460  2113 net.cpp:129] Top shape: 100 32 32 32 (3276800)
I0801 16:13:53.426466  2113 net.cpp:137] Memory required for data: 51626800
I0801 16:13:53.426478  2113 layer_factory.hpp:77] Creating layer pool_t_1
I0801 16:13:53.426487  2113 net.cpp:84] Creating Layer pool_t_1
I0801 16:13:53.426496  2113 net.cpp:406] pool_t_1 <- conv_t_1
I0801 16:13:53.426503  2113 net.cpp:380] pool_t_1 -> pool_t_1
I0801 16:13:53.426538  2113 net.cpp:122] Setting up pool_t_1
I0801 16:13:53.426548  2113 net.cpp:129] Top shape: 100 32 16 16 (819200)
I0801 16:13:53.426554  2113 net.cpp:137] Memory required for data: 54903600
I0801 16:13:53.426561  2113 layer_factory.hpp:77] Creating layer relu_t_1
I0801 16:13:53.426568  2113 net.cpp:84] Creating Layer relu_t_1
I0801 16:13:53.426584  2113 net.cpp:406] relu_t_1 <- pool_t_1
I0801 16:13:53.426594  2113 net.cpp:367] relu_t_1 -> pool_t_1 (in-place)
I0801 16:13:53.426722  2113 net.cpp:122] Setting up relu_t_1
I0801 16:13:53.426734  2113 net.cpp:129] Top shape: 100 32 16 16 (819200)
I0801 16:13:53.426741  2113 net.cpp:137] Memory required for data: 58180400
I0801 16:13:53.426748  2113 layer_factory.hpp:77] Creating layer norm_t_1
I0801 16:13:53.426755  2113 net.cpp:84] Creating Layer norm_t_1
I0801 16:13:53.426762  2113 net.cpp:406] norm_t_1 <- pool_t_1
I0801 16:13:53.426771  2113 net.cpp:380] norm_t_1 -> norm_t_1
I0801 16:13:53.427333  2113 net.cpp:122] Setting up norm_t_1
I0801 16:13:53.427348  2113 net.cpp:129] Top shape: 100 32 16 16 (819200)
I0801 16:13:53.427356  2113 net.cpp:137] Memory required for data: 61457200
I0801 16:13:53.427362  2113 layer_factory.hpp:77] Creating layer conv_t_2
I0801 16:13:53.427374  2113 net.cpp:84] Creating Layer conv_t_2
I0801 16:13:53.427381  2113 net.cpp:406] conv_t_2 <- norm_t_1
I0801 16:13:53.427392  2113 net.cpp:380] conv_t_2 -> conv_t_2
I0801 16:13:53.428467  2113 net.cpp:122] Setting up conv_t_2
I0801 16:13:53.428483  2113 net.cpp:129] Top shape: 100 32 16 16 (819200)
I0801 16:13:53.428490  2113 net.cpp:137] Memory required for data: 64734000
I0801 16:13:53.428498  2113 layer_factory.hpp:77] Creating layer relu_t_2
I0801 16:13:53.428508  2113 net.cpp:84] Creating Layer relu_t_2
I0801 16:13:53.428514  2113 net.cpp:406] relu_t_2 <- conv_t_2
I0801 16:13:53.428524  2113 net.cpp:367] relu_t_2 -> conv_t_2 (in-place)
I0801 16:13:53.428839  2113 net.cpp:122] Setting up relu_t_2
I0801 16:13:53.428854  2113 net.cpp:129] Top shape: 100 32 16 16 (819200)
I0801 16:13:53.428863  2113 net.cpp:137] Memory required for data: 68010800
I0801 16:13:53.428869  2113 layer_factory.hpp:77] Creating layer pool_t_2
I0801 16:13:53.428877  2113 net.cpp:84] Creating Layer pool_t_2
I0801 16:13:53.428884  2113 net.cpp:406] pool_t_2 <- conv_t_2
I0801 16:13:53.428894  2113 net.cpp:380] pool_t_2 -> pool_t_2
I0801 16:13:53.429029  2113 net.cpp:122] Setting up pool_t_2
I0801 16:13:53.429041  2113 net.cpp:129] Top shape: 100 32 8 8 (204800)
I0801 16:13:53.429047  2113 net.cpp:137] Memory required for data: 68830000
I0801 16:13:53.429054  2113 layer_factory.hpp:77] Creating layer norm_t_2
I0801 16:13:53.429062  2113 net.cpp:84] Creating Layer norm_t_2
I0801 16:13:53.429069  2113 net.cpp:406] norm_t_2 <- pool_t_2
I0801 16:13:53.429077  2113 net.cpp:380] norm_t_2 -> norm_t_2
I0801 16:13:53.429282  2113 net.cpp:122] Setting up norm_t_2
I0801 16:13:53.429296  2113 net.cpp:129] Top shape: 100 32 8 8 (204800)
I0801 16:13:53.429302  2113 net.cpp:137] Memory required for data: 69649200
I0801 16:13:53.429309  2113 layer_factory.hpp:77] Creating layer conv_t_3
I0801 16:13:53.429321  2113 net.cpp:84] Creating Layer conv_t_3
I0801 16:13:53.429328  2113 net.cpp:406] conv_t_3 <- norm_t_2
I0801 16:13:53.429338  2113 net.cpp:380] conv_t_3 -> conv_t_3
I0801 16:13:53.430418  2113 net.cpp:122] Setting up conv_t_3
I0801 16:13:53.430449  2113 net.cpp:129] Top shape: 100 64 8 8 (409600)
I0801 16:13:53.430459  2113 net.cpp:137] Memory required for data: 71287600
I0801 16:13:53.430469  2113 layer_factory.hpp:77] Creating layer relu_t_3
I0801 16:13:53.430480  2113 net.cpp:84] Creating Layer relu_t_3
I0801 16:13:53.430486  2113 net.cpp:406] relu_t_3 <- conv_t_3
I0801 16:13:53.430495  2113 net.cpp:367] relu_t_3 -> conv_t_3 (in-place)
I0801 16:13:53.430634  2113 net.cpp:122] Setting up relu_t_3
I0801 16:13:53.430646  2113 net.cpp:129] Top shape: 100 64 8 8 (409600)
I0801 16:13:53.430654  2113 net.cpp:137] Memory required for data: 72926000
I0801 16:13:53.430660  2113 layer_factory.hpp:77] Creating layer pool_t_3
I0801 16:13:53.430668  2113 net.cpp:84] Creating Layer pool_t_3
I0801 16:13:53.430675  2113 net.cpp:406] pool_t_3 <- conv_t_3
I0801 16:13:53.430682  2113 net.cpp:380] pool_t_3 -> pool_t_3
I0801 16:13:53.431103  2113 net.cpp:122] Setting up pool_t_3
I0801 16:13:53.431126  2113 net.cpp:129] Top shape: 100 64 4 4 (102400)
I0801 16:13:53.431143  2113 net.cpp:137] Memory required for data: 73335600
I0801 16:13:53.431164  2113 layer_factory.hpp:77] Creating layer ip_t_1
I0801 16:13:53.431177  2113 net.cpp:84] Creating Layer ip_t_1
I0801 16:13:53.431185  2113 net.cpp:406] ip_t_1 <- pool_t_3
I0801 16:13:53.431195  2113 net.cpp:380] ip_t_1 -> ip_t_1
I0801 16:13:53.431358  2113 net.cpp:122] Setting up ip_t_1
I0801 16:13:53.431370  2113 net.cpp:129] Top shape: 100 10 (1000)
I0801 16:13:53.431376  2113 net.cpp:137] Memory required for data: 73339600
I0801 16:13:53.431385  2113 layer_factory.hpp:77] Creating layer sm_s_1
I0801 16:13:53.431394  2113 net.cpp:84] Creating Layer sm_s_1
I0801 16:13:53.431401  2113 net.cpp:406] sm_s_1 <- ip_s_1_ip_s_1_0_split_0
I0801 16:13:53.431409  2113 net.cpp:380] sm_s_1 -> sm_s_1
I0801 16:13:53.431592  2113 net.cpp:122] Setting up sm_s_1
I0801 16:13:53.431605  2113 net.cpp:129] Top shape: 100 10 (1000)
I0801 16:13:53.431612  2113 net.cpp:137] Memory required for data: 73343600
I0801 16:13:53.431618  2113 layer_factory.hpp:77] Creating layer sm_t_1
I0801 16:13:53.431627  2113 net.cpp:84] Creating Layer sm_t_1
I0801 16:13:53.431634  2113 net.cpp:406] sm_t_1 <- ip_t_1
I0801 16:13:53.431643  2113 net.cpp:380] sm_t_1 -> sm_t_1
I0801 16:13:53.432420  2113 net.cpp:122] Setting up sm_t_1
I0801 16:13:53.432435  2113 net.cpp:129] Top shape: 100 10 (1000)
I0801 16:13:53.432441  2113 net.cpp:137] Memory required for data: 73347600
I0801 16:13:53.432448  2113 layer_factory.hpp:77] Creating layer accuracy
I0801 16:13:53.432458  2113 net.cpp:84] Creating Layer accuracy
I0801 16:13:53.432466  2113 net.cpp:406] accuracy <- ip_s_1_ip_s_1_0_split_1
I0801 16:13:53.432474  2113 net.cpp:406] accuracy <- label_cifar_1_split_0
I0801 16:13:53.432482  2113 net.cpp:380] accuracy -> accuracy
…
