…
I0801 16:23:26.800385  2161 net.cpp:294] The NetState phase (0) differed from the phase (1) specified by a rule in layer accuracy
I0801 16:23:26.800496  2161 net.cpp:51] Initializing net from parameters: 
name: "CIFAR10_full"
state {
  phase: TRAIN
  level: 0
  stage: ""
}
layer {
  name: "cifar"
  type: "Data"
  top: "data"
  top: "label"
  include {
    phase: TRAIN
  }
  transform_param {
    mean_file: "/opt/caffe/examples/cifar10/mean.binaryproto"
  }
  data_param {
    source: "/opt/caffe/examples/cifar10/cifar10_train_lmdb"
    batch_size: 100
    backend: LMDB
  }
}
layer {
  name: "conv_s_1"
  type: "Convolution"
  bottom: "data"
  top: "conv_s_1"
  param {
    lr_mult: 1
  }
  param {
    lr_mult: 2
  }
  convolution_param {
    num_output: 32
    pad: 2
    kernel_size: 5
    stride: 1
    weight_filler {
      type: "gaussian"
      std: 0.0001
    }
    bias_filler {
      type: "constant"
    }
  }
}
layer {
  name: "pool_s_1"
  type: "Pooling"
  bottom: "conv_s_1"
  top: "pool_s_1"
  pooling_param {
    pool: MAX
    kernel_size: 3
    stride: 2
  }
}
layer {
  name: "relu_s_1"
  type: "ReLU"
  bottom: "pool_s_1"
  top: "pool_s_1"
}
layer {
  name: "norm_s_1"
  type: "LRN"
  bottom: "pool_s_1"
  top: "norm_s_1"
  lrn_param {
    local_size: 3
    alpha: 5e-05
    beta: 0.75
    norm_region: WITHIN_CHANNEL
  }
}
layer {
  name: "conv_s_2"
  type: "Convolution"
  bottom: "norm_s_1"
  top: "conv_s_2"
  param {
    lr_mult: 1
  }
  param {
    lr_mult: 2
  }
  convolution_param {
    num_output: 32
    pad: 2
    kernel_size: 5
    stride: 1
    weight_filler {
      type: "gaussian"
      std: 0.01
    }
    bias_filler {
      type: "constant"
    }
  }
}
layer {
  name: "relu_s_2"
  type: "ReLU"
  bottom: "conv_s_2"
  top: "conv_s_2"
}
layer {
  name: "pool_s_2"
  type: "Pooling"
  bottom: "conv_s_2"
  top: "pool_s_2"
  pooling_param {
    pool: AVE
    kernel_size: 3
    stride: 2
  }
}
layer {
  name: "norm_s_2"
  type: "LRN"
  bottom: "pool_s_2"
  top: "norm_s_2"
  lrn_param {
    local_size: 3
    alpha: 5e-05
    beta: 0.75
    norm_region: WITHIN_CHANNEL
  }
}
layer {
  name: "conv_s_3"
  type: "Convolution"
  bottom: "norm_s_2"
  top: "conv_s_3"
  param {
    lr_mult: 1
  }
  param {
    lr_mult: 2
  }
  convolution_param {
    num_output: 64
    pad: 2
    kernel_size: 5
    stride: 1
    weight_filler {
      type: "gaussian"
      std: 0.01
    }
    bias_filler {
      type: "constant"
    }
  }
}
layer {
  name: "relu_s_3"
  type: "ReLU"
  bottom: "conv_s_3"
  top: "conv_s_3"
}
layer {
  name: "pool_s_3"
  type: "Pooling"
  bottom: "conv_s_3"
  top: "pool_s_3"
  pooling_param {
    pool: AVE
    kernel_size: 3
    stride: 2
  }
}
layer {
  name: "ip_s_1"
  type: "InnerProduct"
  bottom: "pool_s_3"
  top: "ip_s_1"
  param {
    lr_mult: 1
    decay_mult: 250
  }
  param {
    lr_mult: 2
    decay_mult: 0
  }
  inner_product_param {
    num_output: 10
    weight_filler {
      type: "gaussian"
      std: 0.01
    }
    bias_filler {
      type: "constant"
    }
  }
}
layer {
  name: "conv_t_1"
  type: "Convolution"
  bottom: "data"
  top: "conv_t_1"
  param {
    lr_mult: 0
  }
  param {
    lr_mult: 0
  }
  convolution_param {
    num_output: 32
    pad: 2
    kernel_size: 5
    stride: 1
    weight_filler {
      type: "gaussian"
      std: 0.0001
    }
    bias_filler {
      type: "constant"
    }
  }
}
layer {
  name: "pool_t_1"
  type: "Pooling"
  bottom: "conv_t_1"
  top: "pool_t_1"
  pooling_param {
    pool: MAX
    kernel_size: 3
    stride: 2
  }
}
layer {
  name: "relu_t_1"
  type: "ReLU"
  bottom: "pool_t_1"
  top: "pool_t_1"
}
layer {
  name: "norm_t_1"
  type: "LRN"
  bottom: "pool_t_1"
  top: "norm_t_1"
  lrn_param {
    local_size: 3
    alpha: 5e-05
    beta: 0.75
    norm_region: WITHIN_CHANNEL
  }
}
layer {
  name: "conv_t_2"
  type: "Convolution"
  bottom: "norm_t_1"
  top: "conv_t_2"
  param {
    lr_mult: 0
  }
  param {
    lr_mult: 0
  }
  convolution_param {
    num_output: 32
    pad: 2
    kernel_size: 5
    stride: 1
    weight_filler {
      type: "gaussian"
      std: 0.01
    }
    bias_filler {
      type: "constant"
    }
  }
}
layer {
  name: "relu_t_2"
  type: "ReLU"
  bottom: "conv_t_2"
  top: "conv_t_2"
}
layer {
  name: "pool_t_2"
  type: "Pooling"
  bottom: "conv_t_2"
  top: "pool_t_2"
  pooling_param {
    pool: AVE
    kernel_size: 3
    stride: 2
  }
}
layer {
  name: "norm_t_2"
  type: "LRN"
  bottom: "pool_t_2"
  top: "norm_t_2"
  lrn_param {
    local_size: 3
    alpha: 5e-05
    beta: 0.75
    norm_region: WITHIN_CHANNEL
  }
}
layer {
  name: "conv_t_3"
  type: "Convolution"
  bottom: "norm_t_2"
  top: "conv_t_3"
  param {
    lr_mult: 0
  }
  param {
    lr_mult: 0
  }
  convolution_param {
    num_output: 64
    pad: 2
    kernel_size: 5
    stride: 1
    weight_filler {
      type: "gaussian"
      std: 0.01
    }
    bias_filler {
      type: "constant"
    }
  }
}
layer {
  name: "relu_t_3"
  type: "ReLU"
  bottom: "conv_t_3"
  top: "conv_t_3"
}
layer {
  name: "pool_t_3"
  type: "Pooling"
  bottom: "conv_t_3"
  top: "pool_t_3"
  pooling_param {
    pool: AVE
    kernel_size: 3
    stride: 2
  }
}
layer {
  name: "ip_t_1"
  type: "InnerProduct"
  bottom: "pool_t_3"
  top: "ip_t_1"
  param {
    lr_mult: 0
  }
  param {
    lr_mult: 0
  }
  inner_product_param {
    num_output: 10
    weight_filler {
      type: "gaussian"
      std: 0.01
    }
    bias_filler {
      type: "constant"
    }
  }
}
layer {
  name: "sm_s_1"
  type: "Softmax"
  bottom: "ip_s_1"
  top: "sm_s_1"
}
layer {
  name: "sm_t_1"
  type: "Softmax"
  bottom: "ip_t_1"
  top: "sm_t_1"
}
layer {
  name: "ts_loss"
  type: "SigmoidCrossEntropyLoss"
  bottom: "sm_s_1"
  bottom: "sm_t_1"
  top: "ts_loss"
  loss_weight: 0.8
}
layer {
  name: "loss"
  type: "SoftmaxWithLoss"
  bottom: "ip_s_1"
  bottom: "label"
  top: "loss"
  loss_weight: 0.2
}
I0801 16:23:26.801393  2161 layer_factory.hpp:77] Creating layer cifar
I0801 16:23:26.801483  2161 db_lmdb.cpp:35] Opened lmdb /opt/caffe/examples/cifar10/cifar10_train_lmdb
I0801 16:23:26.801508  2161 net.cpp:84] Creating Layer cifar
I0801 16:23:26.801519  2161 net.cpp:380] cifar -> data
I0801 16:23:26.801540  2161 net.cpp:380] cifar -> label
I0801 16:23:26.801553  2161 data_transformer.cpp:25] Loading mean file from: /opt/caffe/examples/cifar10/mean.binaryproto
I0801 16:23:26.802693  2161 data_layer.cpp:45] output data size: 100,3,32,32
I0801 16:23:26.806288  2161 net.cpp:122] Setting up cifar
I0801 16:23:26.806330  2161 net.cpp:129] Top shape: 100 3 32 32 (307200)
I0801 16:23:26.806339  2161 net.cpp:129] Top shape: 100 (100)
I0801 16:23:26.806345  2161 net.cpp:137] Memory required for data: 1229200
I0801 16:23:26.806360  2161 layer_factory.hpp:77] Creating layer data_cifar_0_split
I0801 16:23:26.806392  2161 net.cpp:84] Creating Layer data_cifar_0_split
I0801 16:23:26.806401  2161 net.cpp:406] data_cifar_0_split <- data
I0801 16:23:26.806414  2161 net.cpp:380] data_cifar_0_split -> data_cifar_0_split_0
I0801 16:23:26.806427  2161 net.cpp:380] data_cifar_0_split -> data_cifar_0_split_1
I0801 16:23:26.806462  2161 net.cpp:122] Setting up data_cifar_0_split
I0801 16:23:26.806470  2161 net.cpp:129] Top shape: 100 3 32 32 (307200)
I0801 16:23:26.806478  2161 net.cpp:129] Top shape: 100 3 32 32 (307200)
I0801 16:23:26.806483  2161 net.cpp:137] Memory required for data: 3686800
I0801 16:23:26.806488  2161 layer_factory.hpp:77] Creating layer conv_s_1
I0801 16:23:26.806511  2161 net.cpp:84] Creating Layer conv_s_1
I0801 16:23:26.806527  2161 net.cpp:406] conv_s_1 <- data_cifar_0_split_0
I0801 16:23:26.806540  2161 net.cpp:380] conv_s_1 -> conv_s_1
I0801 16:23:27.114687  2161 net.cpp:122] Setting up conv_s_1
I0801 16:23:27.114735  2161 net.cpp:129] Top shape: 100 32 32 32 (3276800)
I0801 16:23:27.114743  2161 net.cpp:137] Memory required for data: 16794000
I0801 16:23:27.114768  2161 layer_factory.hpp:77] Creating layer pool_s_1
I0801 16:23:27.114787  2161 net.cpp:84] Creating Layer pool_s_1
I0801 16:23:27.114795  2161 net.cpp:406] pool_s_1 <- conv_s_1
I0801 16:23:27.114806  2161 net.cpp:380] pool_s_1 -> pool_s_1
I0801 16:23:27.114864  2161 net.cpp:122] Setting up pool_s_1
I0801 16:23:27.114874  2161 net.cpp:129] Top shape: 100 32 16 16 (819200)
I0801 16:23:27.114881  2161 net.cpp:137] Memory required for data: 20070800
I0801 16:23:27.114887  2161 layer_factory.hpp:77] Creating layer relu_s_1
I0801 16:23:27.114897  2161 net.cpp:84] Creating Layer relu_s_1
I0801 16:23:27.114903  2161 net.cpp:406] relu_s_1 <- pool_s_1
I0801 16:23:27.114912  2161 net.cpp:367] relu_s_1 -> pool_s_1 (in-place)
I0801 16:23:27.115244  2161 net.cpp:122] Setting up relu_s_1
I0801 16:23:27.115260  2161 net.cpp:129] Top shape: 100 32 16 16 (819200)
I0801 16:23:27.115267  2161 net.cpp:137] Memory required for data: 23347600
I0801 16:23:27.115272  2161 layer_factory.hpp:77] Creating layer norm_s_1
I0801 16:23:27.115283  2161 net.cpp:84] Creating Layer norm_s_1
I0801 16:23:27.115291  2161 net.cpp:406] norm_s_1 <- pool_s_1
I0801 16:23:27.115299  2161 net.cpp:380] norm_s_1 -> norm_s_1
I0801 16:23:27.115836  2161 net.cpp:122] Setting up norm_s_1
I0801 16:23:27.115851  2161 net.cpp:129] Top shape: 100 32 16 16 (819200)
I0801 16:23:27.115859  2161 net.cpp:137] Memory required for data: 26624400
I0801 16:23:27.115864  2161 layer_factory.hpp:77] Creating layer conv_s_2
I0801 16:23:27.115875  2161 net.cpp:84] Creating Layer conv_s_2
I0801 16:23:27.115883  2161 net.cpp:406] conv_s_2 <- norm_s_1
I0801 16:23:27.115892  2161 net.cpp:380] conv_s_2 -> conv_s_2
I0801 16:23:27.117388  2161 net.cpp:122] Setting up conv_s_2
I0801 16:23:27.117408  2161 net.cpp:129] Top shape: 100 32 16 16 (819200)
I0801 16:23:27.117415  2161 net.cpp:137] Memory required for data: 29901200
I0801 16:23:27.117427  2161 layer_factory.hpp:77] Creating layer relu_s_2
I0801 16:23:27.117436  2161 net.cpp:84] Creating Layer relu_s_2
I0801 16:23:27.117444  2161 net.cpp:406] relu_s_2 <- conv_s_2
I0801 16:23:27.117451  2161 net.cpp:367] relu_s_2 -> conv_s_2 (in-place)
I0801 16:23:27.117569  2161 net.cpp:122] Setting up relu_s_2
I0801 16:23:27.117580  2161 net.cpp:129] Top shape: 100 32 16 16 (819200)
I0801 16:23:27.117586  2161 net.cpp:137] Memory required for data: 33178000
I0801 16:23:27.117594  2161 layer_factory.hpp:77] Creating layer pool_s_2
I0801 16:23:27.117606  2161 net.cpp:84] Creating Layer pool_s_2
I0801 16:23:27.117614  2161 net.cpp:406] pool_s_2 <- conv_s_2
I0801 16:23:27.117622  2161 net.cpp:380] pool_s_2 -> pool_s_2
I0801 16:23:27.117935  2161 net.cpp:122] Setting up pool_s_2
I0801 16:23:27.117951  2161 net.cpp:129] Top shape: 100 32 8 8 (204800)
I0801 16:23:27.117957  2161 net.cpp:137] Memory required for data: 33997200
I0801 16:23:27.117964  2161 layer_factory.hpp:77] Creating layer norm_s_2
I0801 16:23:27.117974  2161 net.cpp:84] Creating Layer norm_s_2
I0801 16:23:27.117981  2161 net.cpp:406] norm_s_2 <- pool_s_2
I0801 16:23:27.117990  2161 net.cpp:380] norm_s_2 -> norm_s_2
I0801 16:23:27.118171  2161 net.cpp:122] Setting up norm_s_2
I0801 16:23:27.118185  2161 net.cpp:129] Top shape: 100 32 8 8 (204800)
I0801 16:23:27.118192  2161 net.cpp:137] Memory required for data: 34816400
I0801 16:23:27.118198  2161 layer_factory.hpp:77] Creating layer conv_s_3
I0801 16:23:27.118209  2161 net.cpp:84] Creating Layer conv_s_3
I0801 16:23:27.118216  2161 net.cpp:406] conv_s_3 <- norm_s_2
I0801 16:23:27.118225  2161 net.cpp:380] conv_s_3 -> conv_s_3
I0801 16:23:27.119228  2161 net.cpp:122] Setting up conv_s_3
I0801 16:23:27.119246  2161 net.cpp:129] Top shape: 100 64 8 8 (409600)
I0801 16:23:27.119258  2161 net.cpp:137] Memory required for data: 36454800
I0801 16:23:27.119278  2161 layer_factory.hpp:77] Creating layer relu_s_3
I0801 16:23:27.119287  2161 net.cpp:84] Creating Layer relu_s_3
I0801 16:23:27.119293  2161 net.cpp:406] relu_s_3 <- conv_s_3
I0801 16:23:27.119302  2161 net.cpp:367] relu_s_3 -> conv_s_3 (in-place)
I0801 16:23:27.119427  2161 net.cpp:122] Setting up relu_s_3
I0801 16:23:27.119438  2161 net.cpp:129] Top shape: 100 64 8 8 (409600)
I0801 16:23:27.119446  2161 net.cpp:137] Memory required for data: 38093200
I0801 16:23:27.119451  2161 layer_factory.hpp:77] Creating layer pool_s_3
I0801 16:23:27.119459  2161 net.cpp:84] Creating Layer pool_s_3
I0801 16:23:27.119467  2161 net.cpp:406] pool_s_3 <- conv_s_3
I0801 16:23:27.119474  2161 net.cpp:380] pool_s_3 -> pool_s_3
I0801 16:23:27.119602  2161 net.cpp:122] Setting up pool_s_3
I0801 16:23:27.119614  2161 net.cpp:129] Top shape: 100 64 4 4 (102400)
I0801 16:23:27.119621  2161 net.cpp:137] Memory required for data: 38502800
I0801 16:23:27.119626  2161 layer_factory.hpp:77] Creating layer ip_s_1
I0801 16:23:27.119637  2161 net.cpp:84] Creating Layer ip_s_1
I0801 16:23:27.119643  2161 net.cpp:406] ip_s_1 <- pool_s_3
I0801 16:23:27.119652  2161 net.cpp:380] ip_s_1 -> ip_s_1
I0801 16:23:27.120260  2161 net.cpp:122] Setting up ip_s_1
I0801 16:23:27.120275  2161 net.cpp:129] Top shape: 100 10 (1000)
I0801 16:23:27.120283  2161 net.cpp:137] Memory required for data: 38506800
I0801 16:23:27.120292  2161 layer_factory.hpp:77] Creating layer ip_s_1_ip_s_1_0_split
I0801 16:23:27.120301  2161 net.cpp:84] Creating Layer ip_s_1_ip_s_1_0_split
I0801 16:23:27.120307  2161 net.cpp:406] ip_s_1_ip_s_1_0_split <- ip_s_1
I0801 16:23:27.120316  2161 net.cpp:380] ip_s_1_ip_s_1_0_split -> ip_s_1_ip_s_1_0_split_0
I0801 16:23:27.120328  2161 net.cpp:380] ip_s_1_ip_s_1_0_split -> ip_s_1_ip_s_1_0_split_1
I0801 16:23:27.120362  2161 net.cpp:122] Setting up ip_s_1_ip_s_1_0_split
I0801 16:23:27.120371  2161 net.cpp:129] Top shape: 100 10 (1000)
I0801 16:23:27.120378  2161 net.cpp:129] Top shape: 100 10 (1000)
I0801 16:23:27.120384  2161 net.cpp:137] Memory required for data: 38514800
I0801 16:23:27.120391  2161 layer_factory.hpp:77] Creating layer conv_t_1
I0801 16:23:27.120402  2161 net.cpp:84] Creating Layer conv_t_1
I0801 16:23:27.120410  2161 net.cpp:406] conv_t_1 <- data_cifar_0_split_1
I0801 16:23:27.120419  2161 net.cpp:380] conv_t_1 -> conv_t_1
I0801 16:23:27.121158  2161 net.cpp:122] Setting up conv_t_1
I0801 16:23:27.121175  2161 net.cpp:129] Top shape: 100 32 32 32 (3276800)
I0801 16:23:27.121182  2161 net.cpp:137] Memory required for data: 51622000
I0801 16:23:27.121192  2161 layer_factory.hpp:77] Creating layer pool_t_1
I0801 16:23:27.121203  2161 net.cpp:84] Creating Layer pool_t_1
I0801 16:23:27.121212  2161 net.cpp:406] pool_t_1 <- conv_t_1
I0801 16:23:27.121219  2161 net.cpp:380] pool_t_1 -> pool_t_1
I0801 16:23:27.121253  2161 net.cpp:122] Setting up pool_t_1
I0801 16:23:27.121263  2161 net.cpp:129] Top shape: 100 32 16 16 (819200)
I0801 16:23:27.121270  2161 net.cpp:137] Memory required for data: 54898800
I0801 16:23:27.121278  2161 layer_factory.hpp:77] Creating layer relu_t_1
I0801 16:23:27.121284  2161 net.cpp:84] Creating Layer relu_t_1
I0801 16:23:27.121290  2161 net.cpp:406] relu_t_1 <- pool_t_1
I0801 16:23:27.121299  2161 net.cpp:367] relu_t_1 -> pool_t_1 (in-place)
I0801 16:23:27.121608  2161 net.cpp:122] Setting up relu_t_1
I0801 16:23:27.121623  2161 net.cpp:129] Top shape: 100 32 16 16 (819200)
I0801 16:23:27.121629  2161 net.cpp:137] Memory required for data: 58175600
I0801 16:23:27.121636  2161 layer_factory.hpp:77] Creating layer norm_t_1
I0801 16:23:27.121646  2161 net.cpp:84] Creating Layer norm_t_1
I0801 16:23:27.121652  2161 net.cpp:406] norm_t_1 <- pool_t_1
I0801 16:23:27.121660  2161 net.cpp:380] norm_t_1 -> norm_t_1
I0801 16:23:27.122201  2161 net.cpp:122] Setting up norm_t_1
I0801 16:23:27.122217  2161 net.cpp:129] Top shape: 100 32 16 16 (819200)
I0801 16:23:27.122225  2161 net.cpp:137] Memory required for data: 61452400
I0801 16:23:27.122236  2161 layer_factory.hpp:77] Creating layer conv_t_2
I0801 16:23:27.122254  2161 net.cpp:84] Creating Layer conv_t_2
I0801 16:23:27.122262  2161 net.cpp:406] conv_t_2 <- norm_t_1
I0801 16:23:27.122272  2161 net.cpp:380] conv_t_2 -> conv_t_2
I0801 16:23:27.123147  2161 net.cpp:122] Setting up conv_t_2
I0801 16:23:27.123163  2161 net.cpp:129] Top shape: 100 32 16 16 (819200)
I0801 16:23:27.123170  2161 net.cpp:137] Memory required for data: 64729200
I0801 16:23:27.123178  2161 layer_factory.hpp:77] Creating layer relu_t_2
I0801 16:23:27.123188  2161 net.cpp:84] Creating Layer relu_t_2
I0801 16:23:27.123194  2161 net.cpp:406] relu_t_2 <- conv_t_2
I0801 16:23:27.123203  2161 net.cpp:367] relu_t_2 -> conv_t_2 (in-place)
I0801 16:23:27.123327  2161 net.cpp:122] Setting up relu_t_2
I0801 16:23:27.123338  2161 net.cpp:129] Top shape: 100 32 16 16 (819200)
I0801 16:23:27.123344  2161 net.cpp:137] Memory required for data: 68006000
I0801 16:23:27.123352  2161 layer_factory.hpp:77] Creating layer pool_t_2
I0801 16:23:27.123359  2161 net.cpp:84] Creating Layer pool_t_2
I0801 16:23:27.123366  2161 net.cpp:406] pool_t_2 <- conv_t_2
I0801 16:23:27.123375  2161 net.cpp:380] pool_t_2 -> pool_t_2
I0801 16:23:27.123692  2161 net.cpp:122] Setting up pool_t_2
I0801 16:23:27.123706  2161 net.cpp:129] Top shape: 100 32 8 8 (204800)
I0801 16:23:27.123713  2161 net.cpp:137] Memory required for data: 68825200
I0801 16:23:27.123719  2161 layer_factory.hpp:77] Creating layer norm_t_2
I0801 16:23:27.123729  2161 net.cpp:84] Creating Layer norm_t_2
I0801 16:23:27.123736  2161 net.cpp:406] norm_t_2 <- pool_t_2
I0801 16:23:27.123744  2161 net.cpp:380] norm_t_2 -> norm_t_2
I0801 16:23:27.123939  2161 net.cpp:122] Setting up norm_t_2
I0801 16:23:27.123951  2161 net.cpp:129] Top shape: 100 32 8 8 (204800)
I0801 16:23:27.123958  2161 net.cpp:137] Memory required for data: 69644400
I0801 16:23:27.123965  2161 layer_factory.hpp:77] Creating layer conv_t_3
I0801 16:23:27.123975  2161 net.cpp:84] Creating Layer conv_t_3
I0801 16:23:27.123983  2161 net.cpp:406] conv_t_3 <- norm_t_2
I0801 16:23:27.123992  2161 net.cpp:380] conv_t_3 -> conv_t_3
I0801 16:23:27.124995  2161 net.cpp:122] Setting up conv_t_3
I0801 16:23:27.125010  2161 net.cpp:129] Top shape: 100 64 8 8 (409600)
I0801 16:23:27.125018  2161 net.cpp:137] Memory required for data: 71282800
I0801 16:23:27.125026  2161 layer_factory.hpp:77] Creating layer relu_t_3
I0801 16:23:27.125036  2161 net.cpp:84] Creating Layer relu_t_3
I0801 16:23:27.125043  2161 net.cpp:406] relu_t_3 <- conv_t_3
I0801 16:23:27.125051  2161 net.cpp:367] relu_t_3 -> conv_t_3 (in-place)
I0801 16:23:27.125180  2161 net.cpp:122] Setting up relu_t_3
I0801 16:23:27.125191  2161 net.cpp:129] Top shape: 100 64 8 8 (409600)
I0801 16:23:27.125198  2161 net.cpp:137] Memory required for data: 72921200
I0801 16:23:27.125205  2161 layer_factory.hpp:77] Creating layer pool_t_3
I0801 16:23:27.125213  2161 net.cpp:84] Creating Layer pool_t_3
I0801 16:23:27.125221  2161 net.cpp:406] pool_t_3 <- conv_t_3
I0801 16:23:27.125229  2161 net.cpp:380] pool_t_3 -> pool_t_3
I0801 16:23:27.125548  2161 net.cpp:122] Setting up pool_t_3
I0801 16:23:27.125563  2161 net.cpp:129] Top shape: 100 64 4 4 (102400)
I0801 16:23:27.125571  2161 net.cpp:137] Memory required for data: 73330800
I0801 16:23:27.125576  2161 layer_factory.hpp:77] Creating layer ip_t_1
I0801 16:23:27.125586  2161 net.cpp:84] Creating Layer ip_t_1
I0801 16:23:27.125593  2161 net.cpp:406] ip_t_1 <- pool_t_3
I0801 16:23:27.125602  2161 net.cpp:380] ip_t_1 -> ip_t_1
I0801 16:23:27.125739  2161 net.cpp:122] Setting up ip_t_1
I0801 16:23:27.125751  2161 net.cpp:129] Top shape: 100 10 (1000)
I0801 16:23:27.125756  2161 net.cpp:137] Memory required for data: 73334800
I0801 16:23:27.125764  2161 layer_factory.hpp:77] Creating layer sm_s_1
I0801 16:23:27.125774  2161 net.cpp:84] Creating Layer sm_s_1
I0801 16:23:27.125782  2161 net.cpp:406] sm_s_1 <- ip_s_1_ip_s_1_0_split_0
I0801 16:23:27.125790  2161 net.cpp:380] sm_s_1 -> sm_s_1
I0801 16:23:27.125950  2161 net.cpp:122] Setting up sm_s_1
I0801 16:23:27.125967  2161 net.cpp:129] Top shape: 100 10 (1000)
I0801 16:23:27.125980  2161 net.cpp:137] Memory required for data: 73338800
I0801 16:23:27.125986  2161 layer_factory.hpp:77] Creating layer sm_t_1
I0801 16:23:27.125994  2161 net.cpp:84] Creating Layer sm_t_1
I0801 16:23:27.126000  2161 net.cpp:406] sm_t_1 <- ip_t_1
I0801 16:23:27.126008  2161 net.cpp:380] sm_t_1 -> sm_t_1
I0801 16:23:27.126169  2161 net.cpp:122] Setting up sm_t_1
I0801 16:23:27.126181  2161 net.cpp:129] Top shape: 100 10 (1000)
I0801 16:23:27.126186  2161 net.cpp:137] Memory required for data: 73342800
I0801 16:23:27.126194  2161 layer_factory.hpp:77] Creating layer ts_loss
I0801 16:23:27.126204  2161 net.cpp:84] Creating Layer ts_loss
I0801 16:23:27.126209  2161 net.cpp:406] ts_loss <- sm_s_1
I0801 16:23:27.126216  2161 net.cpp:406] ts_loss <- sm_t_1
I0801 16:23:27.126224  2161 net.cpp:380] ts_loss -> ts_loss
…
I0801 16:23:27.127061  2161 net.cpp:294] The NetState phase (1) differed from the phase (0) specified by a rule in layer cifar
I0801 16:23:27.127172  2161 net.cpp:51] Initializing net from parameters: 
name: "CIFAR10_full"
state {
  phase: TEST
}
layer {
  name: "cifar"
  type: "Data"
  top: "data"
  top: "label"
  include {
    phase: TEST
  }
  transform_param {
    mean_file: "/opt/caffe/examples/cifar10/mean.binaryproto"
  }
  data_param {
    source: "/opt/caffe/examples/cifar10/cifar10_test_lmdb"
    batch_size: 100
    backend: LMDB
  }
}
layer {
  name: "conv_s_1"
  type: "Convolution"
  bottom: "data"
  top: "conv_s_1"
  param {
    lr_mult: 1
  }
  param {
    lr_mult: 2
  }
  convolution_param {
    num_output: 32
    pad: 2
    kernel_size: 5
    stride: 1
    weight_filler {
      type: "gaussian"
      std: 0.0001
    }
    bias_filler {
      type: "constant"
    }
  }
}
layer {
  name: "pool_s_1"
  type: "Pooling"
  bottom: "conv_s_1"
  top: "pool_s_1"
  pooling_param {
    pool: MAX
    kernel_size: 3
    stride: 2
  }
}
layer {
  name: "relu_s_1"
  type: "ReLU"
  bottom: "pool_s_1"
  top: "pool_s_1"
}
layer {
  name: "norm_s_1"
  type: "LRN"
  bottom: "pool_s_1"
  top: "norm_s_1"
  lrn_param {
    local_size: 3
    alpha: 5e-05
    beta: 0.75
    norm_region: WITHIN_CHANNEL
  }
}
layer {
  name: "conv_s_2"
  type: "Convolution"
  bottom: "norm_s_1"
  top: "conv_s_2"
  param {
    lr_mult: 1
  }
  param {
    lr_mult: 2
  }
  convolution_param {
    num_output: 32
    pad: 2
    kernel_size: 5
    stride: 1
    weight_filler {
      type: "gaussian"
      std: 0.01
    }
    bias_filler {
      type: "constant"
    }
  }
}
layer {
  name: "relu_s_2"
  type: "ReLU"
  bottom: "conv_s_2"
  top: "conv_s_2"
}
layer {
  name: "pool_s_2"
  type: "Pooling"
  bottom: "conv_s_2"
  top: "pool_s_2"
  pooling_param {
    pool: AVE
    kernel_size: 3
    stride: 2
  }
}
layer {
  name: "norm_s_2"
  type: "LRN"
  bottom: "pool_s_2"
  top: "norm_s_2"
  lrn_param {
    local_size: 3
    alpha: 5e-05
    beta: 0.75
    norm_region: WITHIN_CHANNEL
  }
}
layer {
  name: "conv_s_3"
  type: "Convolution"
  bottom: "norm_s_2"
  top: "conv_s_3"
  param {
    lr_mult: 1
  }
  param {
    lr_mult: 2
  }
  convolution_param {
    num_output: 64
    pad: 2
    kernel_size: 5
    stride: 1
    weight_filler {
      type: "gaussian"
      std: 0.01
    }
    bias_filler {
      type: "constant"
    }
  }
}
layer {
  name: "relu_s_3"
  type: "ReLU"
  bottom: "conv_s_3"
  top: "conv_s_3"
}
layer {
  name: "pool_s_3"
  type: "Pooling"
  bottom: "conv_s_3"
  top: "pool_s_3"
  pooling_param {
    pool: AVE
    kernel_size: 3
    stride: 2
  }
}
layer {
  name: "ip_s_1"
  type: "InnerProduct"
  bottom: "pool_s_3"
  top: "ip_s_1"
  param {
    lr_mult: 1
    decay_mult: 250
  }
  param {
    lr_mult: 2
    decay_mult: 0
  }
  inner_product_param {
    num_output: 10
    weight_filler {
      type: "gaussian"
      std: 0.01
    }
    bias_filler {
      type: "constant"
    }
  }
}
layer {
  name: "conv_t_1"
  type: "Convolution"
  bottom: "data"
  top: "conv_t_1"
  param {
    lr_mult: 0
  }
  param {
    lr_mult: 0
  }
  convolution_param {
    num_output: 32
    pad: 2
    kernel_size: 5
    stride: 1
    weight_filler {
      type: "gaussian"
      std: 0.0001
    }
    bias_filler {
      type: "constant"
    }
  }
}
layer {
  name: "pool_t_1"
  type: "Pooling"
  bottom: "conv_t_1"
  top: "pool_t_1"
  pooling_param {
    pool: MAX
    kernel_size: 3
    stride: 2
  }
}
layer {
  name: "relu_t_1"
  type: "ReLU"
  bottom: "pool_t_1"
  top: "pool_t_1"
}
layer {
  name: "norm_t_1"
  type: "LRN"
  bottom: "pool_t_1"
  top: "norm_t_1"
  lrn_param {
    local_size: 3
    alpha: 5e-05
    beta: 0.75
    norm_region: WITHIN_CHANNEL
  }
}
layer {
  name: "conv_t_2"
  type: "Convolution"
  bottom: "norm_t_1"
  top: "conv_t_2"
  param {
    lr_mult: 0
  }
  param {
    lr_mult: 0
  }
  convolution_param {
    num_output: 32
    pad: 2
    kernel_size: 5
    stride: 1
    weight_filler {
      type: "gaussian"
      std: 0.01
    }
    bias_filler {
      type: "constant"
    }
  }
}
layer {
  name: "relu_t_2"
  type: "ReLU"
  bottom: "conv_t_2"
  top: "conv_t_2"
}
layer {
  name: "pool_t_2"
  type: "Pooling"
  bottom: "conv_t_2"
  top: "pool_t_2"
  pooling_param {
    pool: AVE
    kernel_size: 3
    stride: 2
  }
}
layer {
  name: "norm_t_2"
  type: "LRN"
  bottom: "pool_t_2"
  top: "norm_t_2"
  lrn_param {
    local_size: 3
    alpha: 5e-05
    beta: 0.75
    norm_region: WITHIN_CHANNEL
  }
}
layer {
  name: "conv_t_3"
  type: "Convolution"
  bottom: "norm_t_2"
  top: "conv_t_3"
  param {
    lr_mult: 0
  }
  param {
    lr_mult: 0
  }
  convolution_param {
    num_output: 64
    pad: 2
    kernel_size: 5
    stride: 1
    weight_filler {
      type: "gaussian"
      std: 0.01
    }
    bias_filler {
      type: "constant"
    }
  }
}
layer {
  name: "relu_t_3"
  type: "ReLU"
  bottom: "conv_t_3"
  top: "conv_t_3"
}
layer {
  name: "pool_t_3"
  type: "Pooling"
  bottom: "conv_t_3"
  top: "pool_t_3"
  pooling_param {
    pool: AVE
    kernel_size: 3
    stride: 2
  }
}
layer {
  name: "ip_t_1"
  type: "InnerProduct"
  bottom: "pool_t_3"
  top: "ip_t_1"
  param {
    lr_mult: 0
  }
  param {
    lr_mult: 0
  }
  inner_product_param {
    num_output: 10
    weight_filler {
      type: "gaussian"
      std: 0.01
    }
    bias_filler {
      type: "constant"
    }
  }
}
layer {
  name: "sm_s_1"
  type: "Softmax"
  bottom: "ip_s_1"
  top: "sm_s_1"
}
layer {
  name: "sm_t_1"
  type: "Softmax"
  bottom: "ip_t_1"
  top: "sm_t_1"
}
layer {
  name: "accuracy"
  type: "Accuracy"
  bottom: "ip_s_1"
  bottom: "label"
  top: "accuracy"
  include {
    phase: TEST
  }
}
layer {
  name: "ts_loss"
  type: "SigmoidCrossEntropyLoss"
  bottom: "sm_s_1"
  bottom: "sm_t_1"
  top: "ts_loss"
  loss_weight: 0.8
}
layer {
  name: "loss"
  type: "SoftmaxWithLoss"
  bottom: "ip_s_1"
  bottom: "label"
  top: "loss"
  loss_weight: 0.2
}
I0801 16:23:27.127450  2161 layer_factory.hpp:77] Creating layer cifar
I0801 16:23:27.127513  2161 db_lmdb.cpp:35] Opened lmdb /opt/caffe/examples/cifar10/cifar10_test_lmdb
I0801 16:23:27.127532  2161 net.cpp:84] Creating Layer cifar
I0801 16:23:27.127540  2161 net.cpp:380] cifar -> data
I0801 16:23:27.127552  2161 net.cpp:380] cifar -> label
I0801 16:23:27.127563  2161 data_transformer.cpp:25] Loading mean file from: /opt/caffe/examples/cifar10/mean.binaryproto
I0801 16:23:27.127692  2161 data_layer.cpp:45] output data size: 100,3,32,32
I0801 16:23:27.131619  2161 net.cpp:122] Setting up cifar
I0801 16:23:27.131669  2161 net.cpp:129] Top shape: 100 3 32 32 (307200)
I0801 16:23:27.131680  2161 net.cpp:129] Top shape: 100 (100)
I0801 16:23:27.131686  2161 net.cpp:137] Memory required for data: 1229200
I0801 16:23:27.131696  2161 layer_factory.hpp:77] Creating layer data_cifar_0_split
I0801 16:23:27.131713  2161 net.cpp:84] Creating Layer data_cifar_0_split
I0801 16:23:27.131721  2161 net.cpp:406] data_cifar_0_split <- data
I0801 16:23:27.131731  2161 net.cpp:380] data_cifar_0_split -> data_cifar_0_split_0
I0801 16:23:27.131755  2161 net.cpp:380] data_cifar_0_split -> data_cifar_0_split_1
I0801 16:23:27.131825  2161 net.cpp:122] Setting up data_cifar_0_split
I0801 16:23:27.131835  2161 net.cpp:129] Top shape: 100 3 32 32 (307200)
I0801 16:23:27.131842  2161 net.cpp:129] Top shape: 100 3 32 32 (307200)
I0801 16:23:27.131849  2161 net.cpp:137] Memory required for data: 3686800
I0801 16:23:27.131855  2161 layer_factory.hpp:77] Creating layer label_cifar_1_split
I0801 16:23:27.131870  2161 net.cpp:84] Creating Layer label_cifar_1_split
I0801 16:23:27.131884  2161 net.cpp:406] label_cifar_1_split <- label
I0801 16:23:27.131892  2161 net.cpp:380] label_cifar_1_split -> label_cifar_1_split_0
I0801 16:23:27.131902  2161 net.cpp:380] label_cifar_1_split -> label_cifar_1_split_1
I0801 16:23:27.131938  2161 net.cpp:122] Setting up label_cifar_1_split
I0801 16:23:27.131947  2161 net.cpp:129] Top shape: 100 (100)
I0801 16:23:27.131954  2161 net.cpp:129] Top shape: 100 (100)
I0801 16:23:27.131960  2161 net.cpp:137] Memory required for data: 3687600
I0801 16:23:27.131966  2161 layer_factory.hpp:77] Creating layer conv_s_1
I0801 16:23:27.131978  2161 net.cpp:84] Creating Layer conv_s_1
I0801 16:23:27.131985  2161 net.cpp:406] conv_s_1 <- data_cifar_0_split_0
I0801 16:23:27.131995  2161 net.cpp:380] conv_s_1 -> conv_s_1
I0801 16:23:27.133177  2161 net.cpp:122] Setting up conv_s_1
I0801 16:23:27.133198  2161 net.cpp:129] Top shape: 100 32 32 32 (3276800)
I0801 16:23:27.133205  2161 net.cpp:137] Memory required for data: 16794800
I0801 16:23:27.133219  2161 layer_factory.hpp:77] Creating layer pool_s_1
I0801 16:23:27.133231  2161 net.cpp:84] Creating Layer pool_s_1
I0801 16:23:27.133239  2161 net.cpp:406] pool_s_1 <- conv_s_1
I0801 16:23:27.133246  2161 net.cpp:380] pool_s_1 -> pool_s_1
I0801 16:23:27.133285  2161 net.cpp:122] Setting up pool_s_1
I0801 16:23:27.133296  2161 net.cpp:129] Top shape: 100 32 16 16 (819200)
I0801 16:23:27.133301  2161 net.cpp:137] Memory required for data: 20071600
I0801 16:23:27.133308  2161 layer_factory.hpp:77] Creating layer relu_s_1
I0801 16:23:27.133316  2161 net.cpp:84] Creating Layer relu_s_1
I0801 16:23:27.133323  2161 net.cpp:406] relu_s_1 <- pool_s_1
I0801 16:23:27.133330  2161 net.cpp:367] relu_s_1 -> pool_s_1 (in-place)
I0801 16:23:27.133536  2161 net.cpp:122] Setting up relu_s_1
I0801 16:23:27.133548  2161 net.cpp:129] Top shape: 100 32 16 16 (819200)
I0801 16:23:27.133554  2161 net.cpp:137] Memory required for data: 23348400
I0801 16:23:27.133560  2161 layer_factory.hpp:77] Creating layer norm_s_1
I0801 16:23:27.133570  2161 net.cpp:84] Creating Layer norm_s_1
I0801 16:23:27.133577  2161 net.cpp:406] norm_s_1 <- pool_s_1
I0801 16:23:27.133585  2161 net.cpp:380] norm_s_1 -> norm_s_1
I0801 16:23:27.134166  2161 net.cpp:122] Setting up norm_s_1
I0801 16:23:27.134181  2161 net.cpp:129] Top shape: 100 32 16 16 (819200)
I0801 16:23:27.134188  2161 net.cpp:137] Memory required for data: 26625200
I0801 16:23:27.134196  2161 layer_factory.hpp:77] Creating layer conv_s_2
I0801 16:23:27.134207  2161 net.cpp:84] Creating Layer conv_s_2
I0801 16:23:27.134214  2161 net.cpp:406] conv_s_2 <- norm_s_1
I0801 16:23:27.134225  2161 net.cpp:380] conv_s_2 -> conv_s_2
I0801 16:23:27.135277  2161 net.cpp:122] Setting up conv_s_2
I0801 16:23:27.135293  2161 net.cpp:129] Top shape: 100 32 16 16 (819200)
I0801 16:23:27.135299  2161 net.cpp:137] Memory required for data: 29902000
I0801 16:23:27.135310  2161 layer_factory.hpp:77] Creating layer relu_s_2
I0801 16:23:27.135321  2161 net.cpp:84] Creating Layer relu_s_2
I0801 16:23:27.135329  2161 net.cpp:406] relu_s_2 <- conv_s_2
I0801 16:23:27.135336  2161 net.cpp:367] relu_s_2 -> conv_s_2 (in-place)
I0801 16:23:27.135462  2161 net.cpp:122] Setting up relu_s_2
I0801 16:23:27.135474  2161 net.cpp:129] Top shape: 100 32 16 16 (819200)
I0801 16:23:27.135480  2161 net.cpp:137] Memory required for data: 33178800
I0801 16:23:27.135488  2161 layer_factory.hpp:77] Creating layer pool_s_2
I0801 16:23:27.135496  2161 net.cpp:84] Creating Layer pool_s_2
I0801 16:23:27.135502  2161 net.cpp:406] pool_s_2 <- conv_s_2
I0801 16:23:27.135510  2161 net.cpp:380] pool_s_2 -> pool_s_2
I0801 16:23:27.135865  2161 net.cpp:122] Setting up pool_s_2
I0801 16:23:27.135880  2161 net.cpp:129] Top shape: 100 32 8 8 (204800)
I0801 16:23:27.135887  2161 net.cpp:137] Memory required for data: 33998000
I0801 16:23:27.135895  2161 layer_factory.hpp:77] Creating layer norm_s_2
I0801 16:23:27.135906  2161 net.cpp:84] Creating Layer norm_s_2
I0801 16:23:27.135915  2161 net.cpp:406] norm_s_2 <- pool_s_2
I0801 16:23:27.135941  2161 net.cpp:380] norm_s_2 -> norm_s_2
I0801 16:23:27.136135  2161 net.cpp:122] Setting up norm_s_2
I0801 16:23:27.136148  2161 net.cpp:129] Top shape: 100 32 8 8 (204800)
I0801 16:23:27.136155  2161 net.cpp:137] Memory required for data: 34817200
I0801 16:23:27.136162  2161 layer_factory.hpp:77] Creating layer conv_s_3
I0801 16:23:27.136173  2161 net.cpp:84] Creating Layer conv_s_3
I0801 16:23:27.136180  2161 net.cpp:406] conv_s_3 <- norm_s_2
I0801 16:23:27.136189  2161 net.cpp:380] conv_s_3 -> conv_s_3
I0801 16:23:27.137234  2161 net.cpp:122] Setting up conv_s_3
I0801 16:23:27.137250  2161 net.cpp:129] Top shape: 100 64 8 8 (409600)
I0801 16:23:27.137259  2161 net.cpp:137] Memory required for data: 36455600
I0801 16:23:27.137269  2161 layer_factory.hpp:77] Creating layer relu_s_3
I0801 16:23:27.137279  2161 net.cpp:84] Creating Layer relu_s_3
I0801 16:23:27.137285  2161 net.cpp:406] relu_s_3 <- conv_s_3
I0801 16:23:27.137293  2161 net.cpp:367] relu_s_3 -> conv_s_3 (in-place)
I0801 16:23:27.137418  2161 net.cpp:122] Setting up relu_s_3
I0801 16:23:27.137429  2161 net.cpp:129] Top shape: 100 64 8 8 (409600)
I0801 16:23:27.137436  2161 net.cpp:137] Memory required for data: 38094000
I0801 16:23:27.137442  2161 layer_factory.hpp:77] Creating layer pool_s_3
I0801 16:23:27.137451  2161 net.cpp:84] Creating Layer pool_s_3
I0801 16:23:27.137459  2161 net.cpp:406] pool_s_3 <- conv_s_3
I0801 16:23:27.137466  2161 net.cpp:380] pool_s_3 -> pool_s_3
I0801 16:23:27.137794  2161 net.cpp:122] Setting up pool_s_3
I0801 16:23:27.137809  2161 net.cpp:129] Top shape: 100 64 4 4 (102400)
I0801 16:23:27.137814  2161 net.cpp:137] Memory required for data: 38503600
I0801 16:23:27.137821  2161 layer_factory.hpp:77] Creating layer ip_s_1
I0801 16:23:27.137830  2161 net.cpp:84] Creating Layer ip_s_1
I0801 16:23:27.137837  2161 net.cpp:406] ip_s_1 <- pool_s_3
I0801 16:23:27.137846  2161 net.cpp:380] ip_s_1 -> ip_s_1
I0801 16:23:27.137989  2161 net.cpp:122] Setting up ip_s_1
I0801 16:23:27.138000  2161 net.cpp:129] Top shape: 100 10 (1000)
I0801 16:23:27.138006  2161 net.cpp:137] Memory required for data: 38507600
I0801 16:23:27.138015  2161 layer_factory.hpp:77] Creating layer ip_s_1_ip_s_1_0_split
I0801 16:23:27.138022  2161 net.cpp:84] Creating Layer ip_s_1_ip_s_1_0_split
I0801 16:23:27.138029  2161 net.cpp:406] ip_s_1_ip_s_1_0_split <- ip_s_1
I0801 16:23:27.138038  2161 net.cpp:380] ip_s_1_ip_s_1_0_split -> ip_s_1_ip_s_1_0_split_0
I0801 16:23:27.138047  2161 net.cpp:380] ip_s_1_ip_s_1_0_split -> ip_s_1_ip_s_1_0_split_1
I0801 16:23:27.138058  2161 net.cpp:380] ip_s_1_ip_s_1_0_split -> ip_s_1_ip_s_1_0_split_2
I0801 16:23:27.138100  2161 net.cpp:122] Setting up ip_s_1_ip_s_1_0_split
I0801 16:23:27.138109  2161 net.cpp:129] Top shape: 100 10 (1000)
I0801 16:23:27.138116  2161 net.cpp:129] Top shape: 100 10 (1000)
I0801 16:23:27.138123  2161 net.cpp:129] Top shape: 100 10 (1000)
I0801 16:23:27.138128  2161 net.cpp:137] Memory required for data: 38519600
I0801 16:23:27.138135  2161 layer_factory.hpp:77] Creating layer conv_t_1
I0801 16:23:27.138149  2161 net.cpp:84] Creating Layer conv_t_1
I0801 16:23:27.138155  2161 net.cpp:406] conv_t_1 <- data_cifar_0_split_1
I0801 16:23:27.138164  2161 net.cpp:380] conv_t_1 -> conv_t_1
I0801 16:23:27.138919  2161 net.cpp:122] Setting up conv_t_1
I0801 16:23:27.138936  2161 net.cpp:129] Top shape: 100 32 32 32 (3276800)
I0801 16:23:27.138942  2161 net.cpp:137] Memory required for data: 51626800
I0801 16:23:27.138953  2161 layer_factory.hpp:77] Creating layer pool_t_1
I0801 16:23:27.138962  2161 net.cpp:84] Creating Layer pool_t_1
I0801 16:23:27.138970  2161 net.cpp:406] pool_t_1 <- conv_t_1
I0801 16:23:27.138978  2161 net.cpp:380] pool_t_1 -> pool_t_1
I0801 16:23:27.139014  2161 net.cpp:122] Setting up pool_t_1
I0801 16:23:27.139024  2161 net.cpp:129] Top shape: 100 32 16 16 (819200)
I0801 16:23:27.139029  2161 net.cpp:137] Memory required for data: 54903600
I0801 16:23:27.139036  2161 layer_factory.hpp:77] Creating layer relu_t_1
I0801 16:23:27.139044  2161 net.cpp:84] Creating Layer relu_t_1
I0801 16:23:27.139060  2161 net.cpp:406] relu_t_1 <- pool_t_1
I0801 16:23:27.139070  2161 net.cpp:367] relu_t_1 -> pool_t_1 (in-place)
I0801 16:23:27.139199  2161 net.cpp:122] Setting up relu_t_1
I0801 16:23:27.139209  2161 net.cpp:129] Top shape: 100 32 16 16 (819200)
I0801 16:23:27.139216  2161 net.cpp:137] Memory required for data: 58180400
I0801 16:23:27.139223  2161 layer_factory.hpp:77] Creating layer norm_t_1
I0801 16:23:27.139231  2161 net.cpp:84] Creating Layer norm_t_1
I0801 16:23:27.139238  2161 net.cpp:406] norm_t_1 <- pool_t_1
I0801 16:23:27.139247  2161 net.cpp:380] norm_t_1 -> norm_t_1
I0801 16:23:27.139814  2161 net.cpp:122] Setting up norm_t_1
I0801 16:23:27.139829  2161 net.cpp:129] Top shape: 100 32 16 16 (819200)
I0801 16:23:27.139837  2161 net.cpp:137] Memory required for data: 61457200
I0801 16:23:27.139843  2161 layer_factory.hpp:77] Creating layer conv_t_2
I0801 16:23:27.139854  2161 net.cpp:84] Creating Layer conv_t_2
I0801 16:23:27.139861  2161 net.cpp:406] conv_t_2 <- norm_t_1
I0801 16:23:27.139870  2161 net.cpp:380] conv_t_2 -> conv_t_2
I0801 16:23:27.140978  2161 net.cpp:122] Setting up conv_t_2
I0801 16:23:27.141003  2161 net.cpp:129] Top shape: 100 32 16 16 (819200)
I0801 16:23:27.141010  2161 net.cpp:137] Memory required for data: 64734000
I0801 16:23:27.141021  2161 layer_factory.hpp:77] Creating layer relu_t_2
I0801 16:23:27.141029  2161 net.cpp:84] Creating Layer relu_t_2
I0801 16:23:27.141037  2161 net.cpp:406] relu_t_2 <- conv_t_2
I0801 16:23:27.141046  2161 net.cpp:367] relu_t_2 -> conv_t_2 (in-place)
I0801 16:23:27.141425  2161 net.cpp:122] Setting up relu_t_2
I0801 16:23:27.141443  2161 net.cpp:129] Top shape: 100 32 16 16 (819200)
I0801 16:23:27.141450  2161 net.cpp:137] Memory required for data: 68010800
I0801 16:23:27.141456  2161 layer_factory.hpp:77] Creating layer pool_t_2
I0801 16:23:27.141465  2161 net.cpp:84] Creating Layer pool_t_2
I0801 16:23:27.141471  2161 net.cpp:406] pool_t_2 <- conv_t_2
I0801 16:23:27.141479  2161 net.cpp:380] pool_t_2 -> pool_t_2
I0801 16:23:27.141623  2161 net.cpp:122] Setting up pool_t_2
I0801 16:23:27.141634  2161 net.cpp:129] Top shape: 100 32 8 8 (204800)
I0801 16:23:27.141640  2161 net.cpp:137] Memory required for data: 68830000
I0801 16:23:27.141647  2161 layer_factory.hpp:77] Creating layer norm_t_2
I0801 16:23:27.141655  2161 net.cpp:84] Creating Layer norm_t_2
I0801 16:23:27.141661  2161 net.cpp:406] norm_t_2 <- pool_t_2
I0801 16:23:27.141670  2161 net.cpp:380] norm_t_2 -> norm_t_2
I0801 16:23:27.141875  2161 net.cpp:122] Setting up norm_t_2
I0801 16:23:27.141886  2161 net.cpp:129] Top shape: 100 32 8 8 (204800)
I0801 16:23:27.141892  2161 net.cpp:137] Memory required for data: 69649200
I0801 16:23:27.141897  2161 layer_factory.hpp:77] Creating layer conv_t_3
I0801 16:23:27.141909  2161 net.cpp:84] Creating Layer conv_t_3
I0801 16:23:27.141916  2161 net.cpp:406] conv_t_3 <- norm_t_2
I0801 16:23:27.141924  2161 net.cpp:380] conv_t_3 -> conv_t_3
I0801 16:23:27.143015  2161 net.cpp:122] Setting up conv_t_3
I0801 16:23:27.143036  2161 net.cpp:129] Top shape: 100 64 8 8 (409600)
I0801 16:23:27.143043  2161 net.cpp:137] Memory required for data: 71287600
I0801 16:23:27.143052  2161 layer_factory.hpp:77] Creating layer relu_t_3
I0801 16:23:27.143061  2161 net.cpp:84] Creating Layer relu_t_3
I0801 16:23:27.143069  2161 net.cpp:406] relu_t_3 <- conv_t_3
I0801 16:23:27.143076  2161 net.cpp:367] relu_t_3 -> conv_t_3 (in-place)
I0801 16:23:27.143208  2161 net.cpp:122] Setting up relu_t_3
I0801 16:23:27.143218  2161 net.cpp:129] Top shape: 100 64 8 8 (409600)
I0801 16:23:27.143225  2161 net.cpp:137] Memory required for data: 72926000
I0801 16:23:27.143231  2161 layer_factory.hpp:77] Creating layer pool_t_3
I0801 16:23:27.143239  2161 net.cpp:84] Creating Layer pool_t_3
I0801 16:23:27.143245  2161 net.cpp:406] pool_t_3 <- conv_t_3
I0801 16:23:27.143254  2161 net.cpp:380] pool_t_3 -> pool_t_3
I0801 16:23:27.143626  2161 net.cpp:122] Setting up pool_t_3
I0801 16:23:27.143642  2161 net.cpp:129] Top shape: 100 64 4 4 (102400)
I0801 16:23:27.143657  2161 net.cpp:137] Memory required for data: 73335600
I0801 16:23:27.143672  2161 layer_factory.hpp:77] Creating layer ip_t_1
I0801 16:23:27.143684  2161 net.cpp:84] Creating Layer ip_t_1
I0801 16:23:27.143692  2161 net.cpp:406] ip_t_1 <- pool_t_3
I0801 16:23:27.143700  2161 net.cpp:380] ip_t_1 -> ip_t_1
I0801 16:23:27.143852  2161 net.cpp:122] Setting up ip_t_1
I0801 16:23:27.143863  2161 net.cpp:129] Top shape: 100 10 (1000)
I0801 16:23:27.143869  2161 net.cpp:137] Memory required for data: 73339600
I0801 16:23:27.143877  2161 layer_factory.hpp:77] Creating layer sm_s_1
I0801 16:23:27.143887  2161 net.cpp:84] Creating Layer sm_s_1
I0801 16:23:27.143893  2161 net.cpp:406] sm_s_1 <- ip_s_1_ip_s_1_0_split_0
I0801 16:23:27.143901  2161 net.cpp:380] sm_s_1 -> sm_s_1
I0801 16:23:27.144227  2161 net.cpp:122] Setting up sm_s_1
I0801 16:23:27.144238  2161 net.cpp:129] Top shape: 100 10 (1000)
I0801 16:23:27.144244  2161 net.cpp:137] Memory required for data: 73343600
I0801 16:23:27.144251  2161 layer_factory.hpp:77] Creating layer sm_t_1
I0801 16:23:27.144259  2161 net.cpp:84] Creating Layer sm_t_1
I0801 16:23:27.144266  2161 net.cpp:406] sm_t_1 <- ip_t_1
I0801 16:23:27.144274  2161 net.cpp:380] sm_t_1 -> sm_t_1
I0801 16:23:27.144439  2161 net.cpp:122] Setting up sm_t_1
I0801 16:23:27.144451  2161 net.cpp:129] Top shape: 100 10 (1000)
I0801 16:23:27.144457  2161 net.cpp:137] Memory required for data: 73347600
I0801 16:23:27.144464  2161 layer_factory.hpp:77] Creating layer accuracy
I0801 16:23:27.144474  2161 net.cpp:84] Creating Layer accuracy
I0801 16:23:27.144480  2161 net.cpp:406] accuracy <- ip_s_1_ip_s_1_0_split_1
I0801 16:23:27.144489  2161 net.cpp:406] accuracy <- label_cifar_1_split_0
I0801 16:23:27.144496  2161 net.cpp:380] accuracy -> accuracy
…
