…
I0802 23:39:05.627982  2922 net.cpp:294] The NetState phase (0) differed from the phase (1) specified by a rule in layer accuracy
I0802 23:39:05.628082  2922 net.cpp:51] Initializing net from parameters: 
name: "CIFAR10_full"
state {
  phase: TRAIN
  level: 0
  stage: ""
}
layer {
  name: "cifar"
  type: "Data"
  top: "data"
  top: "label"
  include {
    phase: TRAIN
  }
  transform_param {
    mean_file: "/opt/caffe/examples/cifar10/mean.binaryproto"
  }
  data_param {
    source: "/opt/caffe/examples/cifar10/cifar10_train_lmdb"
    batch_size: 100
    backend: LMDB
  }
}
layer {
  name: "conv_s_1"
  type: "Convolution"
  bottom: "data"
  top: "conv_s_1"
  param {
    lr_mult: 1
  }
  param {
    lr_mult: 2
  }
  convolution_param {
    num_output: 32
    pad: 2
    kernel_size: 5
    stride: 1
    weight_filler {
      type: "gaussian"
      std: 0.0001
    }
    bias_filler {
      type: "constant"
    }
  }
}
layer {
  name: "pool_s_1"
  type: "Pooling"
  bottom: "conv_s_1"
  top: "pool_s_1"
  pooling_param {
    pool: MAX
    kernel_size: 3
    stride: 2
  }
}
layer {
  name: "relu_s_1"
  type: "ReLU"
  bottom: "pool_s_1"
  top: "pool_s_1"
}
layer {
  name: "norm_s_1"
  type: "LRN"
  bottom: "pool_s_1"
  top: "norm_s_1"
  lrn_param {
    local_size: 3
    alpha: 5e-05
    beta: 0.75
    norm_region: WITHIN_CHANNEL
  }
}
layer {
  name: "conv_s_2"
  type: "Convolution"
  bottom: "norm_s_1"
  top: "conv_s_2"
  param {
    lr_mult: 1
  }
  param {
    lr_mult: 2
  }
  convolution_param {
    num_output: 32
    pad: 2
    kernel_size: 5
    stride: 1
    weight_filler {
      type: "gaussian"
      std: 0.01
    }
    bias_filler {
      type: "constant"
    }
  }
}
layer {
  name: "relu_s_2"
  type: "ReLU"
  bottom: "conv_s_2"
  top: "conv_s_2"
}
layer {
  name: "pool_s_2"
  type: "Pooling"
  bottom: "conv_s_2"
  top: "pool_s_2"
  pooling_param {
    pool: AVE
    kernel_size: 3
    stride: 2
  }
}
layer {
  name: "norm_s_2"
  type: "LRN"
  bottom: "pool_s_2"
  top: "norm_s_2"
  lrn_param {
    local_size: 3
    alpha: 5e-05
    beta: 0.75
    norm_region: WITHIN_CHANNEL
  }
}
layer {
  name: "conv_s_3"
  type: "Convolution"
  bottom: "norm_s_2"
  top: "conv_s_3"
  param {
    lr_mult: 1
  }
  param {
    lr_mult: 2
  }
  convolution_param {
    num_output: 64
    pad: 2
    kernel_size: 5
    stride: 1
    weight_filler {
      type: "gaussian"
      std: 0.01
    }
    bias_filler {
      type: "constant"
    }
  }
}
layer {
  name: "relu_s_3"
  type: "ReLU"
  bottom: "conv_s_3"
  top: "conv_s_3"
}
layer {
  name: "pool_s_3"
  type: "Pooling"
  bottom: "conv_s_3"
  top: "pool_s_3"
  pooling_param {
    pool: AVE
    kernel_size: 3
    stride: 2
  }
}
layer {
  name: "ip_s_1"
  type: "InnerProduct"
  bottom: "pool_s_3"
  top: "ip_s_1"
  param {
    lr_mult: 1
    decay_mult: 250
  }
  param {
    lr_mult: 2
    decay_mult: 0
  }
  inner_product_param {
    num_output: 10
    weight_filler {
      type: "gaussian"
      std: 0.01
    }
    bias_filler {
      type: "constant"
    }
  }
}
layer {
  name: "conv_t_1"
  type: "Convolution"
  bottom: "data"
  top: "conv_t_1"
  param {
    lr_mult: 0
  }
  param {
    lr_mult: 0
  }
  convolution_param {
    num_output: 32
    pad: 2
    kernel_size: 5
    stride: 1
    weight_filler {
      type: "gaussian"
      std: 0.0001
    }
    bias_filler {
      type: "constant"
    }
  }
}
layer {
  name: "pool_t_1"
  type: "Pooling"
  bottom: "conv_t_1"
  top: "pool_t_1"
  pooling_param {
    pool: MAX
    kernel_size: 3
    stride: 2
  }
}
layer {
  name: "relu_t_1"
  type: "ReLU"
  bottom: "pool_t_1"
  top: "pool_t_1"
}
layer {
  name: "norm_t_1"
  type: "LRN"
  bottom: "pool_t_1"
  top: "norm_t_1"
  lrn_param {
    local_size: 3
    alpha: 5e-05
    beta: 0.75
    norm_region: WITHIN_CHANNEL
  }
}
layer {
  name: "conv_t_2"
  type: "Convolution"
  bottom: "norm_t_1"
  top: "conv_t_2"
  param {
    lr_mult: 0
  }
  param {
    lr_mult: 0
  }
  convolution_param {
    num_output: 32
    pad: 2
    kernel_size: 5
    stride: 1
    weight_filler {
      type: "gaussian"
      std: 0.01
    }
    bias_filler {
      type: "constant"
    }
  }
}
layer {
  name: "relu_t_2"
  type: "ReLU"
  bottom: "conv_t_2"
  top: "conv_t_2"
}
layer {
  name: "pool_t_2"
  type: "Pooling"
  bottom: "conv_t_2"
  top: "pool_t_2"
  pooling_param {
    pool: AVE
    kernel_size: 3
    stride: 2
  }
}
layer {
  name: "norm_t_2"
  type: "LRN"
  bottom: "pool_t_2"
  top: "norm_t_2"
  lrn_param {
    local_size: 3
    alpha: 5e-05
    beta: 0.75
    norm_region: WITHIN_CHANNEL
  }
}
layer {
  name: "conv_t_3"
  type: "Convolution"
  bottom: "norm_t_2"
  top: "conv_t_3"
  param {
    lr_mult: 0
  }
  param {
    lr_mult: 0
  }
  convolution_param {
    num_output: 64
    pad: 2
    kernel_size: 5
    stride: 1
    weight_filler {
      type: "gaussian"
      std: 0.01
    }
    bias_filler {
      type: "constant"
    }
  }
}
layer {
  name: "relu_t_3"
  type: "ReLU"
  bottom: "conv_t_3"
  top: "conv_t_3"
}
layer {
  name: "pool_t_3"
  type: "Pooling"
  bottom: "conv_t_3"
  top: "pool_t_3"
  pooling_param {
    pool: AVE
    kernel_size: 3
    stride: 2
  }
}
layer {
  name: "ip_t_1"
  type: "InnerProduct"
  bottom: "pool_t_3"
  top: "ip_t_1"
  param {
    lr_mult: 0
  }
  param {
    lr_mult: 0
  }
  inner_product_param {
    num_output: 10
    weight_filler {
      type: "gaussian"
      std: 0.01
    }
    bias_filler {
      type: "constant"
    }
  }
}
layer {
  name: "sm_s_1"
  type: "Softmax"
  bottom: "ip_s_1"
  top: "sm_s_1"
}
layer {
  name: "sm_t_1"
  type: "Softmax"
  bottom: "ip_t_1"
  top: "sm_t_1"
}
layer {
  name: "ts_loss"
  type: "SigmoidCrossEntropyLoss"
  bottom: "sm_s_1"
  bottom: "sm_t_1"
  top: "ts_loss"
  loss_weight: 1
}
I0802 23:39:05.628165  2922 layer_factory.hpp:77] Creating layer cifar
I0802 23:39:05.628252  2922 db_lmdb.cpp:35] Opened lmdb /opt/caffe/examples/cifar10/cifar10_train_lmdb
I0802 23:39:05.628271  2922 net.cpp:84] Creating Layer cifar
I0802 23:39:05.628276  2922 net.cpp:380] cifar -> data
I0802 23:39:05.628290  2922 net.cpp:380] cifar -> label
I0802 23:39:05.628298  2922 data_transformer.cpp:25] Loading mean file from: /opt/caffe/examples/cifar10/mean.binaryproto
I0802 23:39:05.629467  2922 data_layer.cpp:45] output data size: 100,3,32,32
I0802 23:39:05.633153  2922 net.cpp:122] Setting up cifar
I0802 23:39:05.633183  2922 net.cpp:129] Top shape: 100 3 32 32 (307200)
I0802 23:39:05.633185  2922 net.cpp:129] Top shape: 100 (100)
I0802 23:39:05.633188  2922 net.cpp:137] Memory required for data: 1229200
I0802 23:39:05.633198  2922 layer_factory.hpp:77] Creating layer data_cifar_0_split
I0802 23:39:05.633213  2922 net.cpp:84] Creating Layer data_cifar_0_split
I0802 23:39:05.633218  2922 net.cpp:406] data_cifar_0_split <- data
I0802 23:39:05.633229  2922 net.cpp:380] data_cifar_0_split -> data_cifar_0_split_0
I0802 23:39:05.633235  2922 net.cpp:380] data_cifar_0_split -> data_cifar_0_split_1
I0802 23:39:05.633271  2922 net.cpp:122] Setting up data_cifar_0_split
I0802 23:39:05.633275  2922 net.cpp:129] Top shape: 100 3 32 32 (307200)
I0802 23:39:05.633277  2922 net.cpp:129] Top shape: 100 3 32 32 (307200)
I0802 23:39:05.633280  2922 net.cpp:137] Memory required for data: 3686800
I0802 23:39:05.633280  2922 layer_factory.hpp:77] Creating layer conv_s_1
I0802 23:39:05.633291  2922 net.cpp:84] Creating Layer conv_s_1
I0802 23:39:05.633293  2922 net.cpp:406] conv_s_1 <- data_cifar_0_split_0
I0802 23:39:05.633297  2922 net.cpp:380] conv_s_1 -> conv_s_1
I0802 23:39:05.945749  2922 net.cpp:122] Setting up conv_s_1
I0802 23:39:05.945766  2922 net.cpp:129] Top shape: 100 32 32 32 (3276800)
I0802 23:39:05.945770  2922 net.cpp:137] Memory required for data: 16794000
I0802 23:39:05.945782  2922 layer_factory.hpp:77] Creating layer pool_s_1
I0802 23:39:05.945791  2922 net.cpp:84] Creating Layer pool_s_1
I0802 23:39:05.945793  2922 net.cpp:406] pool_s_1 <- conv_s_1
I0802 23:39:05.945797  2922 net.cpp:380] pool_s_1 -> pool_s_1
I0802 23:39:05.945837  2922 net.cpp:122] Setting up pool_s_1
I0802 23:39:05.945839  2922 net.cpp:129] Top shape: 100 32 16 16 (819200)
I0802 23:39:05.945842  2922 net.cpp:137] Memory required for data: 20070800
I0802 23:39:05.945843  2922 layer_factory.hpp:77] Creating layer relu_s_1
I0802 23:39:05.945847  2922 net.cpp:84] Creating Layer relu_s_1
I0802 23:39:05.945849  2922 net.cpp:406] relu_s_1 <- pool_s_1
I0802 23:39:05.945852  2922 net.cpp:367] relu_s_1 -> pool_s_1 (in-place)
I0802 23:39:05.946179  2922 net.cpp:122] Setting up relu_s_1
I0802 23:39:05.946187  2922 net.cpp:129] Top shape: 100 32 16 16 (819200)
I0802 23:39:05.946188  2922 net.cpp:137] Memory required for data: 23347600
I0802 23:39:05.946190  2922 layer_factory.hpp:77] Creating layer norm_s_1
I0802 23:39:05.946197  2922 net.cpp:84] Creating Layer norm_s_1
I0802 23:39:05.946199  2922 net.cpp:406] norm_s_1 <- pool_s_1
I0802 23:39:05.946202  2922 net.cpp:380] norm_s_1 -> norm_s_1
I0802 23:39:05.946739  2922 net.cpp:122] Setting up norm_s_1
I0802 23:39:05.946748  2922 net.cpp:129] Top shape: 100 32 16 16 (819200)
I0802 23:39:05.946749  2922 net.cpp:137] Memory required for data: 26624400
I0802 23:39:05.946750  2922 layer_factory.hpp:77] Creating layer conv_s_2
I0802 23:39:05.946758  2922 net.cpp:84] Creating Layer conv_s_2
I0802 23:39:05.946760  2922 net.cpp:406] conv_s_2 <- norm_s_1
I0802 23:39:05.946763  2922 net.cpp:380] conv_s_2 -> conv_s_2
I0802 23:39:05.948492  2922 net.cpp:122] Setting up conv_s_2
I0802 23:39:05.948499  2922 net.cpp:129] Top shape: 100 32 16 16 (819200)
I0802 23:39:05.948501  2922 net.cpp:137] Memory required for data: 29901200
I0802 23:39:05.948508  2922 layer_factory.hpp:77] Creating layer relu_s_2
I0802 23:39:05.948513  2922 net.cpp:84] Creating Layer relu_s_2
I0802 23:39:05.948514  2922 net.cpp:406] relu_s_2 <- conv_s_2
I0802 23:39:05.948518  2922 net.cpp:367] relu_s_2 -> conv_s_2 (in-place)
I0802 23:39:05.948633  2922 net.cpp:122] Setting up relu_s_2
I0802 23:39:05.948638  2922 net.cpp:129] Top shape: 100 32 16 16 (819200)
I0802 23:39:05.948640  2922 net.cpp:137] Memory required for data: 33178000
I0802 23:39:05.948642  2922 layer_factory.hpp:77] Creating layer pool_s_2
I0802 23:39:05.948647  2922 net.cpp:84] Creating Layer pool_s_2
I0802 23:39:05.948649  2922 net.cpp:406] pool_s_2 <- conv_s_2
I0802 23:39:05.948652  2922 net.cpp:380] pool_s_2 -> pool_s_2
I0802 23:39:05.948959  2922 net.cpp:122] Setting up pool_s_2
I0802 23:39:05.948966  2922 net.cpp:129] Top shape: 100 32 8 8 (204800)
I0802 23:39:05.948968  2922 net.cpp:137] Memory required for data: 33997200
I0802 23:39:05.948971  2922 layer_factory.hpp:77] Creating layer norm_s_2
I0802 23:39:05.948974  2922 net.cpp:84] Creating Layer norm_s_2
I0802 23:39:05.948976  2922 net.cpp:406] norm_s_2 <- pool_s_2
I0802 23:39:05.948981  2922 net.cpp:380] norm_s_2 -> norm_s_2
I0802 23:39:05.949163  2922 net.cpp:122] Setting up norm_s_2
I0802 23:39:05.949169  2922 net.cpp:129] Top shape: 100 32 8 8 (204800)
I0802 23:39:05.949172  2922 net.cpp:137] Memory required for data: 34816400
I0802 23:39:05.949173  2922 layer_factory.hpp:77] Creating layer conv_s_3
I0802 23:39:05.949179  2922 net.cpp:84] Creating Layer conv_s_3
I0802 23:39:05.949182  2922 net.cpp:406] conv_s_3 <- norm_s_2
I0802 23:39:05.949185  2922 net.cpp:380] conv_s_3 -> conv_s_3
I0802 23:39:05.950171  2922 net.cpp:122] Setting up conv_s_3
I0802 23:39:05.950177  2922 net.cpp:129] Top shape: 100 64 8 8 (409600)
I0802 23:39:05.950181  2922 net.cpp:137] Memory required for data: 36454800
I0802 23:39:05.950186  2922 layer_factory.hpp:77] Creating layer relu_s_3
I0802 23:39:05.950201  2922 net.cpp:84] Creating Layer relu_s_3
I0802 23:39:05.950203  2922 net.cpp:406] relu_s_3 <- conv_s_3
I0802 23:39:05.950207  2922 net.cpp:367] relu_s_3 -> conv_s_3 (in-place)
I0802 23:39:05.950320  2922 net.cpp:122] Setting up relu_s_3
I0802 23:39:05.950325  2922 net.cpp:129] Top shape: 100 64 8 8 (409600)
I0802 23:39:05.950326  2922 net.cpp:137] Memory required for data: 38093200
I0802 23:39:05.950328  2922 layer_factory.hpp:77] Creating layer pool_s_3
I0802 23:39:05.950332  2922 net.cpp:84] Creating Layer pool_s_3
I0802 23:39:05.950333  2922 net.cpp:406] pool_s_3 <- conv_s_3
I0802 23:39:05.950336  2922 net.cpp:380] pool_s_3 -> pool_s_3
I0802 23:39:05.950459  2922 net.cpp:122] Setting up pool_s_3
I0802 23:39:05.950462  2922 net.cpp:129] Top shape: 100 64 4 4 (102400)
I0802 23:39:05.950464  2922 net.cpp:137] Memory required for data: 38502800
I0802 23:39:05.950465  2922 layer_factory.hpp:77] Creating layer ip_s_1
I0802 23:39:05.950469  2922 net.cpp:84] Creating Layer ip_s_1
I0802 23:39:05.950471  2922 net.cpp:406] ip_s_1 <- pool_s_3
I0802 23:39:05.950474  2922 net.cpp:380] ip_s_1 -> ip_s_1
I0802 23:39:05.951088  2922 net.cpp:122] Setting up ip_s_1
I0802 23:39:05.951095  2922 net.cpp:129] Top shape: 100 10 (1000)
I0802 23:39:05.951097  2922 net.cpp:137] Memory required for data: 38506800
I0802 23:39:05.951102  2922 layer_factory.hpp:77] Creating layer conv_t_1
I0802 23:39:05.951107  2922 net.cpp:84] Creating Layer conv_t_1
I0802 23:39:05.951109  2922 net.cpp:406] conv_t_1 <- data_cifar_0_split_1
I0802 23:39:05.951115  2922 net.cpp:380] conv_t_1 -> conv_t_1
I0802 23:39:05.951845  2922 net.cpp:122] Setting up conv_t_1
I0802 23:39:05.951853  2922 net.cpp:129] Top shape: 100 32 32 32 (3276800)
I0802 23:39:05.951854  2922 net.cpp:137] Memory required for data: 51614000
I0802 23:39:05.951860  2922 layer_factory.hpp:77] Creating layer pool_t_1
I0802 23:39:05.951864  2922 net.cpp:84] Creating Layer pool_t_1
I0802 23:39:05.951866  2922 net.cpp:406] pool_t_1 <- conv_t_1
I0802 23:39:05.951869  2922 net.cpp:380] pool_t_1 -> pool_t_1
I0802 23:39:05.951894  2922 net.cpp:122] Setting up pool_t_1
I0802 23:39:05.951897  2922 net.cpp:129] Top shape: 100 32 16 16 (819200)
I0802 23:39:05.951898  2922 net.cpp:137] Memory required for data: 54890800
I0802 23:39:05.951900  2922 layer_factory.hpp:77] Creating layer relu_t_1
I0802 23:39:05.951905  2922 net.cpp:84] Creating Layer relu_t_1
I0802 23:39:05.951906  2922 net.cpp:406] relu_t_1 <- pool_t_1
I0802 23:39:05.951910  2922 net.cpp:367] relu_t_1 -> pool_t_1 (in-place)
I0802 23:39:05.952209  2922 net.cpp:122] Setting up relu_t_1
I0802 23:39:05.952215  2922 net.cpp:129] Top shape: 100 32 16 16 (819200)
I0802 23:39:05.952217  2922 net.cpp:137] Memory required for data: 58167600
I0802 23:39:05.952219  2922 layer_factory.hpp:77] Creating layer norm_t_1
I0802 23:39:05.952224  2922 net.cpp:84] Creating Layer norm_t_1
I0802 23:39:05.952225  2922 net.cpp:406] norm_t_1 <- pool_t_1
I0802 23:39:05.952229  2922 net.cpp:380] norm_t_1 -> norm_t_1
I0802 23:39:05.952755  2922 net.cpp:122] Setting up norm_t_1
I0802 23:39:05.952761  2922 net.cpp:129] Top shape: 100 32 16 16 (819200)
I0802 23:39:05.952764  2922 net.cpp:137] Memory required for data: 61444400
I0802 23:39:05.952765  2922 layer_factory.hpp:77] Creating layer conv_t_2
I0802 23:39:05.952771  2922 net.cpp:84] Creating Layer conv_t_2
I0802 23:39:05.952774  2922 net.cpp:406] conv_t_2 <- norm_t_1
I0802 23:39:05.952777  2922 net.cpp:380] conv_t_2 -> conv_t_2
I0802 23:39:05.953656  2922 net.cpp:122] Setting up conv_t_2
I0802 23:39:05.953663  2922 net.cpp:129] Top shape: 100 32 16 16 (819200)
I0802 23:39:05.953665  2922 net.cpp:137] Memory required for data: 64721200
I0802 23:39:05.953670  2922 layer_factory.hpp:77] Creating layer relu_t_2
I0802 23:39:05.953672  2922 net.cpp:84] Creating Layer relu_t_2
I0802 23:39:05.953675  2922 net.cpp:406] relu_t_2 <- conv_t_2
I0802 23:39:05.953677  2922 net.cpp:367] relu_t_2 -> conv_t_2 (in-place)
I0802 23:39:05.953790  2922 net.cpp:122] Setting up relu_t_2
I0802 23:39:05.953796  2922 net.cpp:129] Top shape: 100 32 16 16 (819200)
I0802 23:39:05.953809  2922 net.cpp:137] Memory required for data: 67998000
I0802 23:39:05.953810  2922 layer_factory.hpp:77] Creating layer pool_t_2
I0802 23:39:05.953814  2922 net.cpp:84] Creating Layer pool_t_2
I0802 23:39:05.953815  2922 net.cpp:406] pool_t_2 <- conv_t_2
I0802 23:39:05.953819  2922 net.cpp:380] pool_t_2 -> pool_t_2
I0802 23:39:05.954126  2922 net.cpp:122] Setting up pool_t_2
I0802 23:39:05.954133  2922 net.cpp:129] Top shape: 100 32 8 8 (204800)
I0802 23:39:05.954135  2922 net.cpp:137] Memory required for data: 68817200
I0802 23:39:05.954138  2922 layer_factory.hpp:77] Creating layer norm_t_2
I0802 23:39:05.954143  2922 net.cpp:84] Creating Layer norm_t_2
I0802 23:39:05.954144  2922 net.cpp:406] norm_t_2 <- pool_t_2
I0802 23:39:05.954149  2922 net.cpp:380] norm_t_2 -> norm_t_2
I0802 23:39:05.954331  2922 net.cpp:122] Setting up norm_t_2
I0802 23:39:05.954337  2922 net.cpp:129] Top shape: 100 32 8 8 (204800)
I0802 23:39:05.954339  2922 net.cpp:137] Memory required for data: 69636400
I0802 23:39:05.954340  2922 layer_factory.hpp:77] Creating layer conv_t_3
I0802 23:39:05.954347  2922 net.cpp:84] Creating Layer conv_t_3
I0802 23:39:05.954349  2922 net.cpp:406] conv_t_3 <- norm_t_2
I0802 23:39:05.954352  2922 net.cpp:380] conv_t_3 -> conv_t_3
I0802 23:39:05.955345  2922 net.cpp:122] Setting up conv_t_3
I0802 23:39:05.955353  2922 net.cpp:129] Top shape: 100 64 8 8 (409600)
I0802 23:39:05.955354  2922 net.cpp:137] Memory required for data: 71274800
I0802 23:39:05.955358  2922 layer_factory.hpp:77] Creating layer relu_t_3
I0802 23:39:05.955360  2922 net.cpp:84] Creating Layer relu_t_3
I0802 23:39:05.955363  2922 net.cpp:406] relu_t_3 <- conv_t_3
I0802 23:39:05.955366  2922 net.cpp:367] relu_t_3 -> conv_t_3 (in-place)
I0802 23:39:05.955479  2922 net.cpp:122] Setting up relu_t_3
I0802 23:39:05.955484  2922 net.cpp:129] Top shape: 100 64 8 8 (409600)
I0802 23:39:05.955487  2922 net.cpp:137] Memory required for data: 72913200
I0802 23:39:05.955488  2922 layer_factory.hpp:77] Creating layer pool_t_3
I0802 23:39:05.955492  2922 net.cpp:84] Creating Layer pool_t_3
I0802 23:39:05.955493  2922 net.cpp:406] pool_t_3 <- conv_t_3
I0802 23:39:05.955497  2922 net.cpp:380] pool_t_3 -> pool_t_3
I0802 23:39:05.955806  2922 net.cpp:122] Setting up pool_t_3
I0802 23:39:05.955811  2922 net.cpp:129] Top shape: 100 64 4 4 (102400)
I0802 23:39:05.955813  2922 net.cpp:137] Memory required for data: 73322800
I0802 23:39:05.955816  2922 layer_factory.hpp:77] Creating layer ip_t_1
I0802 23:39:05.955821  2922 net.cpp:84] Creating Layer ip_t_1
I0802 23:39:05.955822  2922 net.cpp:406] ip_t_1 <- pool_t_3
I0802 23:39:05.955826  2922 net.cpp:380] ip_t_1 -> ip_t_1
I0802 23:39:05.955955  2922 net.cpp:122] Setting up ip_t_1
I0802 23:39:05.955960  2922 net.cpp:129] Top shape: 100 10 (1000)
I0802 23:39:05.955960  2922 net.cpp:137] Memory required for data: 73326800
I0802 23:39:05.955965  2922 layer_factory.hpp:77] Creating layer sm_s_1
I0802 23:39:05.955967  2922 net.cpp:84] Creating Layer sm_s_1
I0802 23:39:05.955970  2922 net.cpp:406] sm_s_1 <- ip_s_1
I0802 23:39:05.955972  2922 net.cpp:380] sm_s_1 -> sm_s_1
I0802 23:39:05.956128  2922 net.cpp:122] Setting up sm_s_1
I0802 23:39:05.956146  2922 net.cpp:129] Top shape: 100 10 (1000)
I0802 23:39:05.956153  2922 net.cpp:137] Memory required for data: 73330800
I0802 23:39:05.956159  2922 layer_factory.hpp:77] Creating layer sm_t_1
I0802 23:39:05.956167  2922 net.cpp:84] Creating Layer sm_t_1
I0802 23:39:05.956173  2922 net.cpp:406] sm_t_1 <- ip_t_1
I0802 23:39:05.956181  2922 net.cpp:380] sm_t_1 -> sm_t_1
I0802 23:39:05.956341  2922 net.cpp:122] Setting up sm_t_1
I0802 23:39:05.956352  2922 net.cpp:129] Top shape: 100 10 (1000)
I0802 23:39:05.956357  2922 net.cpp:137] Memory required for data: 73334800
I0802 23:39:05.956363  2922 layer_factory.hpp:77] Creating layer ts_loss
I0802 23:39:05.956372  2922 net.cpp:84] Creating Layer ts_loss
I0802 23:39:05.956379  2922 net.cpp:406] ts_loss <- sm_s_1
I0802 23:39:05.956385  2922 net.cpp:406] ts_loss <- sm_t_1
I0802 23:39:05.956403  2922 net.cpp:380] ts_loss -> ts_loss
…
I0802 23:39:05.956908  2922 net.cpp:294] The NetState phase (1) differed from the phase (0) specified by a rule in layer cifar
I0802 23:39:05.957027  2922 net.cpp:51] Initializing net from parameters: 
name: "CIFAR10_full"
state {
  phase: TEST
}
layer {
  name: "cifar"
  type: "Data"
  top: "data"
  top: "label"
  include {
    phase: TEST
  }
  transform_param {
    mean_file: "/opt/caffe/examples/cifar10/mean.binaryproto"
  }
  data_param {
    source: "/opt/caffe/examples/cifar10/cifar10_test_lmdb"
    batch_size: 100
    backend: LMDB
  }
}
layer {
  name: "conv_s_1"
  type: "Convolution"
  bottom: "data"
  top: "conv_s_1"
  param {
    lr_mult: 1
  }
  param {
    lr_mult: 2
  }
  convolution_param {
    num_output: 32
    pad: 2
    kernel_size: 5
    stride: 1
    weight_filler {
      type: "gaussian"
      std: 0.0001
    }
    bias_filler {
      type: "constant"
    }
  }
}
layer {
  name: "pool_s_1"
  type: "Pooling"
  bottom: "conv_s_1"
  top: "pool_s_1"
  pooling_param {
    pool: MAX
    kernel_size: 3
    stride: 2
  }
}
layer {
  name: "relu_s_1"
  type: "ReLU"
  bottom: "pool_s_1"
  top: "pool_s_1"
}
layer {
  name: "norm_s_1"
  type: "LRN"
  bottom: "pool_s_1"
  top: "norm_s_1"
  lrn_param {
    local_size: 3
    alpha: 5e-05
    beta: 0.75
    norm_region: WITHIN_CHANNEL
  }
}
layer {
  name: "conv_s_2"
  type: "Convolution"
  bottom: "norm_s_1"
  top: "conv_s_2"
  param {
    lr_mult: 1
  }
  param {
    lr_mult: 2
  }
  convolution_param {
    num_output: 32
    pad: 2
    kernel_size: 5
    stride: 1
    weight_filler {
      type: "gaussian"
      std: 0.01
    }
    bias_filler {
      type: "constant"
    }
  }
}
layer {
  name: "relu_s_2"
  type: "ReLU"
  bottom: "conv_s_2"
  top: "conv_s_2"
}
layer {
  name: "pool_s_2"
  type: "Pooling"
  bottom: "conv_s_2"
  top: "pool_s_2"
  pooling_param {
    pool: AVE
    kernel_size: 3
    stride: 2
  }
}
layer {
  name: "norm_s_2"
  type: "LRN"
  bottom: "pool_s_2"
  top: "norm_s_2"
  lrn_param {
    local_size: 3
    alpha: 5e-05
    beta: 0.75
    norm_region: WITHIN_CHANNEL
  }
}
layer {
  name: "conv_s_3"
  type: "Convolution"
  bottom: "norm_s_2"
  top: "conv_s_3"
  param {
    lr_mult: 1
  }
  param {
    lr_mult: 2
  }
  convolution_param {
    num_output: 64
    pad: 2
    kernel_size: 5
    stride: 1
    weight_filler {
      type: "gaussian"
      std: 0.01
    }
    bias_filler {
      type: "constant"
    }
  }
}
layer {
  name: "relu_s_3"
  type: "ReLU"
  bottom: "conv_s_3"
  top: "conv_s_3"
}
layer {
  name: "pool_s_3"
  type: "Pooling"
  bottom: "conv_s_3"
  top: "pool_s_3"
  pooling_param {
    pool: AVE
    kernel_size: 3
    stride: 2
  }
}
layer {
  name: "ip_s_1"
  type: "InnerProduct"
  bottom: "pool_s_3"
  top: "ip_s_1"
  param {
    lr_mult: 1
    decay_mult: 250
  }
  param {
    lr_mult: 2
    decay_mult: 0
  }
  inner_product_param {
    num_output: 10
    weight_filler {
      type: "gaussian"
      std: 0.01
    }
    bias_filler {
      type: "constant"
    }
  }
}
layer {
  name: "conv_t_1"
  type: "Convolution"
  bottom: "data"
  top: "conv_t_1"
  param {
    lr_mult: 0
  }
  param {
    lr_mult: 0
  }
  convolution_param {
    num_output: 32
    pad: 2
    kernel_size: 5
    stride: 1
    weight_filler {
      type: "gaussian"
      std: 0.0001
    }
    bias_filler {
      type: "constant"
    }
  }
}
layer {
  name: "pool_t_1"
  type: "Pooling"
  bottom: "conv_t_1"
  top: "pool_t_1"
  pooling_param {
    pool: MAX
    kernel_size: 3
    stride: 2
  }
}
layer {
  name: "relu_t_1"
  type: "ReLU"
  bottom: "pool_t_1"
  top: "pool_t_1"
}
layer {
  name: "norm_t_1"
  type: "LRN"
  bottom: "pool_t_1"
  top: "norm_t_1"
  lrn_param {
    local_size: 3
    alpha: 5e-05
    beta: 0.75
    norm_region: WITHIN_CHANNEL
  }
}
layer {
  name: "conv_t_2"
  type: "Convolution"
  bottom: "norm_t_1"
  top: "conv_t_2"
  param {
    lr_mult: 0
  }
  param {
    lr_mult: 0
  }
  convolution_param {
    num_output: 32
    pad: 2
    kernel_size: 5
    stride: 1
    weight_filler {
      type: "gaussian"
      std: 0.01
    }
    bias_filler {
      type: "constant"
    }
  }
}
layer {
  name: "relu_t_2"
  type: "ReLU"
  bottom: "conv_t_2"
  top: "conv_t_2"
}
layer {
  name: "pool_t_2"
  type: "Pooling"
  bottom: "conv_t_2"
  top: "pool_t_2"
  pooling_param {
    pool: AVE
    kernel_size: 3
    stride: 2
  }
}
layer {
  name: "norm_t_2"
  type: "LRN"
  bottom: "pool_t_2"
  top: "norm_t_2"
  lrn_param {
    local_size: 3
    alpha: 5e-05
    beta: 0.75
    norm_region: WITHIN_CHANNEL
  }
}
layer {
  name: "conv_t_3"
  type: "Convolution"
  bottom: "norm_t_2"
  top: "conv_t_3"
  param {
    lr_mult: 0
  }
  param {
    lr_mult: 0
  }
  convolution_param {
    num_output: 64
    pad: 2
    kernel_size: 5
    stride: 1
    weight_filler {
      type: "gaussian"
      std: 0.01
    }
    bias_filler {
      type: "constant"
    }
  }
}
layer {
  name: "relu_t_3"
  type: "ReLU"
  bottom: "conv_t_3"
  top: "conv_t_3"
}
layer {
  name: "pool_t_3"
  type: "Pooling"
  bottom: "conv_t_3"
  top: "pool_t_3"
  pooling_param {
    pool: AVE
    kernel_size: 3
    stride: 2
  }
}
layer {
  name: "ip_t_1"
  type: "InnerProduct"
  bottom: "pool_t_3"
  top: "ip_t_1"
  param {
    lr_mult: 0
  }
  param {
    lr_mult: 0
  }
  inner_product_param {
    num_output: 10
    weight_filler {
      type: "gaussian"
      std: 0.01
    }
    bias_filler {
      type: "constant"
    }
  }
}
layer {
  name: "sm_s_1"
  type: "Softmax"
  bottom: "ip_s_1"
  top: "sm_s_1"
}
layer {
  name: "sm_t_1"
  type: "Softmax"
  bottom: "ip_t_1"
  top: "sm_t_1"
}
layer {
  name: "accuracy"
  type: "Accuracy"
  bottom: "ip_s_1"
  bottom: "label"
  top: "accuracy"
  include {
    phase: TEST
  }
}
layer {
  name: "ts_loss"
  type: "SigmoidCrossEntropyLoss"
  bottom: "sm_s_1"
  bottom: "sm_t_1"
  top: "ts_loss"
  loss_weight: 1
}
I0802 23:39:05.957170  2922 layer_factory.hpp:77] Creating layer cifar
I0802 23:39:05.957247  2922 db_lmdb.cpp:35] Opened lmdb /opt/caffe/examples/cifar10/cifar10_test_lmdb
I0802 23:39:05.957265  2922 net.cpp:84] Creating Layer cifar
I0802 23:39:05.957278  2922 net.cpp:380] cifar -> data
I0802 23:39:05.957288  2922 net.cpp:380] cifar -> label
I0802 23:39:05.957298  2922 data_transformer.cpp:25] Loading mean file from: /opt/caffe/examples/cifar10/mean.binaryproto
I0802 23:39:05.957445  2922 data_layer.cpp:45] output data size: 100,3,32,32
I0802 23:39:05.961333  2922 net.cpp:122] Setting up cifar
I0802 23:39:05.961375  2922 net.cpp:129] Top shape: 100 3 32 32 (307200)
I0802 23:39:05.961383  2922 net.cpp:129] Top shape: 100 (100)
I0802 23:39:05.961391  2922 net.cpp:137] Memory required for data: 1229200
I0802 23:39:05.961400  2922 layer_factory.hpp:77] Creating layer data_cifar_0_split
I0802 23:39:05.961414  2922 net.cpp:84] Creating Layer data_cifar_0_split
I0802 23:39:05.961421  2922 net.cpp:406] data_cifar_0_split <- data
I0802 23:39:05.961432  2922 net.cpp:380] data_cifar_0_split -> data_cifar_0_split_0
I0802 23:39:05.961444  2922 net.cpp:380] data_cifar_0_split -> data_cifar_0_split_1
I0802 23:39:05.961490  2922 net.cpp:122] Setting up data_cifar_0_split
I0802 23:39:05.961500  2922 net.cpp:129] Top shape: 100 3 32 32 (307200)
I0802 23:39:05.961508  2922 net.cpp:129] Top shape: 100 3 32 32 (307200)
I0802 23:39:05.961513  2922 net.cpp:137] Memory required for data: 3686800
I0802 23:39:05.961519  2922 layer_factory.hpp:77] Creating layer conv_s_1
I0802 23:39:05.961531  2922 net.cpp:84] Creating Layer conv_s_1
I0802 23:39:05.961539  2922 net.cpp:406] conv_s_1 <- data_cifar_0_split_0
I0802 23:39:05.961549  2922 net.cpp:380] conv_s_1 -> conv_s_1
I0802 23:39:05.962503  2922 net.cpp:122] Setting up conv_s_1
I0802 23:39:05.962522  2922 net.cpp:129] Top shape: 100 32 32 32 (3276800)
I0802 23:39:05.962529  2922 net.cpp:137] Memory required for data: 16794000
I0802 23:39:05.962541  2922 layer_factory.hpp:77] Creating layer pool_s_1
I0802 23:39:05.962554  2922 net.cpp:84] Creating Layer pool_s_1
I0802 23:39:05.962560  2922 net.cpp:406] pool_s_1 <- conv_s_1
I0802 23:39:05.962569  2922 net.cpp:380] pool_s_1 -> pool_s_1
I0802 23:39:05.962604  2922 net.cpp:122] Setting up pool_s_1
I0802 23:39:05.962615  2922 net.cpp:129] Top shape: 100 32 16 16 (819200)
I0802 23:39:05.962622  2922 net.cpp:137] Memory required for data: 20070800
I0802 23:39:05.962628  2922 layer_factory.hpp:77] Creating layer relu_s_1
I0802 23:39:05.962638  2922 net.cpp:84] Creating Layer relu_s_1
I0802 23:39:05.962644  2922 net.cpp:406] relu_s_1 <- pool_s_1
I0802 23:39:05.962652  2922 net.cpp:367] relu_s_1 -> pool_s_1 (in-place)
I0802 23:39:05.963091  2922 net.cpp:122] Setting up relu_s_1
I0802 23:39:05.963106  2922 net.cpp:129] Top shape: 100 32 16 16 (819200)
I0802 23:39:05.963114  2922 net.cpp:137] Memory required for data: 23347600
I0802 23:39:05.963120  2922 layer_factory.hpp:77] Creating layer norm_s_1
I0802 23:39:05.963131  2922 net.cpp:84] Creating Layer norm_s_1
I0802 23:39:05.963138  2922 net.cpp:406] norm_s_1 <- pool_s_1
I0802 23:39:05.963146  2922 net.cpp:380] norm_s_1 -> norm_s_1
I0802 23:39:05.963714  2922 net.cpp:122] Setting up norm_s_1
I0802 23:39:05.963732  2922 net.cpp:129] Top shape: 100 32 16 16 (819200)
I0802 23:39:05.963752  2922 net.cpp:137] Memory required for data: 26624400
I0802 23:39:05.963773  2922 layer_factory.hpp:77] Creating layer conv_s_2
I0802 23:39:05.963788  2922 net.cpp:84] Creating Layer conv_s_2
I0802 23:39:05.963796  2922 net.cpp:406] conv_s_2 <- norm_s_1
I0802 23:39:05.963807  2922 net.cpp:380] conv_s_2 -> conv_s_2
I0802 23:39:05.964768  2922 net.cpp:122] Setting up conv_s_2
I0802 23:39:05.964785  2922 net.cpp:129] Top shape: 100 32 16 16 (819200)
I0802 23:39:05.964793  2922 net.cpp:137] Memory required for data: 29901200
I0802 23:39:05.964804  2922 layer_factory.hpp:77] Creating layer relu_s_2
I0802 23:39:05.964813  2922 net.cpp:84] Creating Layer relu_s_2
I0802 23:39:05.964820  2922 net.cpp:406] relu_s_2 <- conv_s_2
I0802 23:39:05.964828  2922 net.cpp:367] relu_s_2 -> conv_s_2 (in-place)
I0802 23:39:05.965005  2922 net.cpp:122] Setting up relu_s_2
I0802 23:39:05.965018  2922 net.cpp:129] Top shape: 100 32 16 16 (819200)
I0802 23:39:05.965023  2922 net.cpp:137] Memory required for data: 33178000
I0802 23:39:05.965030  2922 layer_factory.hpp:77] Creating layer pool_s_2
I0802 23:39:05.965042  2922 net.cpp:84] Creating Layer pool_s_2
I0802 23:39:05.965050  2922 net.cpp:406] pool_s_2 <- conv_s_2
I0802 23:39:05.965059  2922 net.cpp:380] pool_s_2 -> pool_s_2
I0802 23:39:05.965219  2922 net.cpp:122] Setting up pool_s_2
I0802 23:39:05.965232  2922 net.cpp:129] Top shape: 100 32 8 8 (204800)
I0802 23:39:05.965240  2922 net.cpp:137] Memory required for data: 33997200
I0802 23:39:05.965245  2922 layer_factory.hpp:77] Creating layer norm_s_2
I0802 23:39:05.965255  2922 net.cpp:84] Creating Layer norm_s_2
I0802 23:39:05.965262  2922 net.cpp:406] norm_s_2 <- pool_s_2
I0802 23:39:05.965271  2922 net.cpp:380] norm_s_2 -> norm_s_2
I0802 23:39:05.965699  2922 net.cpp:122] Setting up norm_s_2
I0802 23:39:05.965716  2922 net.cpp:129] Top shape: 100 32 8 8 (204800)
I0802 23:39:05.965723  2922 net.cpp:137] Memory required for data: 34816400
I0802 23:39:05.965729  2922 layer_factory.hpp:77] Creating layer conv_s_3
I0802 23:39:05.965742  2922 net.cpp:84] Creating Layer conv_s_3
I0802 23:39:05.965750  2922 net.cpp:406] conv_s_3 <- norm_s_2
I0802 23:39:05.965759  2922 net.cpp:380] conv_s_3 -> conv_s_3
I0802 23:39:05.966795  2922 net.cpp:122] Setting up conv_s_3
I0802 23:39:05.966811  2922 net.cpp:129] Top shape: 100 64 8 8 (409600)
I0802 23:39:05.966820  2922 net.cpp:137] Memory required for data: 36454800
I0802 23:39:05.966830  2922 layer_factory.hpp:77] Creating layer relu_s_3
I0802 23:39:05.966838  2922 net.cpp:84] Creating Layer relu_s_3
I0802 23:39:05.966845  2922 net.cpp:406] relu_s_3 <- conv_s_3
I0802 23:39:05.966855  2922 net.cpp:367] relu_s_3 -> conv_s_3 (in-place)
I0802 23:39:05.966980  2922 net.cpp:122] Setting up relu_s_3
I0802 23:39:05.966991  2922 net.cpp:129] Top shape: 100 64 8 8 (409600)
I0802 23:39:05.966998  2922 net.cpp:137] Memory required for data: 38093200
I0802 23:39:05.967005  2922 layer_factory.hpp:77] Creating layer pool_s_3
I0802 23:39:05.967015  2922 net.cpp:84] Creating Layer pool_s_3
I0802 23:39:05.967020  2922 net.cpp:406] pool_s_3 <- conv_s_3
I0802 23:39:05.967028  2922 net.cpp:380] pool_s_3 -> pool_s_3
I0802 23:39:05.967162  2922 net.cpp:122] Setting up pool_s_3
I0802 23:39:05.967175  2922 net.cpp:129] Top shape: 100 64 4 4 (102400)
I0802 23:39:05.967180  2922 net.cpp:137] Memory required for data: 38502800
I0802 23:39:05.967186  2922 layer_factory.hpp:77] Creating layer ip_s_1
I0802 23:39:05.967196  2922 net.cpp:84] Creating Layer ip_s_1
I0802 23:39:05.967202  2922 net.cpp:406] ip_s_1 <- pool_s_3
I0802 23:39:05.967212  2922 net.cpp:380] ip_s_1 -> ip_s_1
I0802 23:39:05.967356  2922 net.cpp:122] Setting up ip_s_1
I0802 23:39:05.967366  2922 net.cpp:129] Top shape: 100 10 (1000)
I0802 23:39:05.967372  2922 net.cpp:137] Memory required for data: 38506800
I0802 23:39:05.967381  2922 layer_factory.hpp:77] Creating layer ip_s_1_ip_s_1_0_split
I0802 23:39:05.967389  2922 net.cpp:84] Creating Layer ip_s_1_ip_s_1_0_split
I0802 23:39:05.967397  2922 net.cpp:406] ip_s_1_ip_s_1_0_split <- ip_s_1
I0802 23:39:05.967409  2922 net.cpp:380] ip_s_1_ip_s_1_0_split -> ip_s_1_ip_s_1_0_split_0
I0802 23:39:05.967425  2922 net.cpp:380] ip_s_1_ip_s_1_0_split -> ip_s_1_ip_s_1_0_split_1
I0802 23:39:05.967459  2922 net.cpp:122] Setting up ip_s_1_ip_s_1_0_split
I0802 23:39:05.967469  2922 net.cpp:129] Top shape: 100 10 (1000)
I0802 23:39:05.967475  2922 net.cpp:129] Top shape: 100 10 (1000)
I0802 23:39:05.967481  2922 net.cpp:137] Memory required for data: 38514800
I0802 23:39:05.967489  2922 layer_factory.hpp:77] Creating layer conv_t_1
I0802 23:39:05.967499  2922 net.cpp:84] Creating Layer conv_t_1
I0802 23:39:05.967505  2922 net.cpp:406] conv_t_1 <- data_cifar_0_split_1
I0802 23:39:05.967514  2922 net.cpp:380] conv_t_1 -> conv_t_1
I0802 23:39:05.968268  2922 net.cpp:122] Setting up conv_t_1
I0802 23:39:05.968284  2922 net.cpp:129] Top shape: 100 32 32 32 (3276800)
I0802 23:39:05.968291  2922 net.cpp:137] Memory required for data: 51622000
I0802 23:39:05.968302  2922 layer_factory.hpp:77] Creating layer pool_t_1
I0802 23:39:05.968312  2922 net.cpp:84] Creating Layer pool_t_1
I0802 23:39:05.968320  2922 net.cpp:406] pool_t_1 <- conv_t_1
I0802 23:39:05.968328  2922 net.cpp:380] pool_t_1 -> pool_t_1
I0802 23:39:05.968364  2922 net.cpp:122] Setting up pool_t_1
I0802 23:39:05.968374  2922 net.cpp:129] Top shape: 100 32 16 16 (819200)
I0802 23:39:05.968380  2922 net.cpp:137] Memory required for data: 54898800
I0802 23:39:05.968386  2922 layer_factory.hpp:77] Creating layer relu_t_1
I0802 23:39:05.968394  2922 net.cpp:84] Creating Layer relu_t_1
I0802 23:39:05.968401  2922 net.cpp:406] relu_t_1 <- pool_t_1
I0802 23:39:05.968410  2922 net.cpp:367] relu_t_1 -> pool_t_1 (in-place)
I0802 23:39:05.968729  2922 net.cpp:122] Setting up relu_t_1
I0802 23:39:05.968742  2922 net.cpp:129] Top shape: 100 32 16 16 (819200)
I0802 23:39:05.968750  2922 net.cpp:137] Memory required for data: 58175600
I0802 23:39:05.968756  2922 layer_factory.hpp:77] Creating layer norm_t_1
I0802 23:39:05.968767  2922 net.cpp:84] Creating Layer norm_t_1
I0802 23:39:05.968775  2922 net.cpp:406] norm_t_1 <- pool_t_1
I0802 23:39:05.968782  2922 net.cpp:380] norm_t_1 -> norm_t_1
I0802 23:39:05.969353  2922 net.cpp:122] Setting up norm_t_1
I0802 23:39:05.969369  2922 net.cpp:129] Top shape: 100 32 16 16 (819200)
I0802 23:39:05.969377  2922 net.cpp:137] Memory required for data: 61452400
I0802 23:39:05.969383  2922 layer_factory.hpp:77] Creating layer conv_t_2
I0802 23:39:05.969394  2922 net.cpp:84] Creating Layer conv_t_2
I0802 23:39:05.969401  2922 net.cpp:406] conv_t_2 <- norm_t_1
I0802 23:39:05.969411  2922 net.cpp:380] conv_t_2 -> conv_t_2
I0802 23:39:05.970314  2922 net.cpp:122] Setting up conv_t_2
I0802 23:39:05.970331  2922 net.cpp:129] Top shape: 100 32 16 16 (819200)
I0802 23:39:05.970338  2922 net.cpp:137] Memory required for data: 64729200
I0802 23:39:05.970347  2922 layer_factory.hpp:77] Creating layer relu_t_2
I0802 23:39:05.970355  2922 net.cpp:84] Creating Layer relu_t_2
I0802 23:39:05.970362  2922 net.cpp:406] relu_t_2 <- conv_t_2
I0802 23:39:05.970371  2922 net.cpp:367] relu_t_2 -> conv_t_2 (in-place)
I0802 23:39:05.970685  2922 net.cpp:122] Setting up relu_t_2
I0802 23:39:05.970700  2922 net.cpp:129] Top shape: 100 32 16 16 (819200)
I0802 23:39:05.970707  2922 net.cpp:137] Memory required for data: 68006000
I0802 23:39:05.970713  2922 layer_factory.hpp:77] Creating layer pool_t_2
I0802 23:39:05.970723  2922 net.cpp:84] Creating Layer pool_t_2
I0802 23:39:05.970731  2922 net.cpp:406] pool_t_2 <- conv_t_2
I0802 23:39:05.970738  2922 net.cpp:380] pool_t_2 -> pool_t_2
I0802 23:39:05.971062  2922 net.cpp:122] Setting up pool_t_2
I0802 23:39:05.971076  2922 net.cpp:129] Top shape: 100 32 8 8 (204800)
I0802 23:39:05.971083  2922 net.cpp:137] Memory required for data: 68825200
I0802 23:39:05.971091  2922 layer_factory.hpp:77] Creating layer norm_t_2
I0802 23:39:05.971099  2922 net.cpp:84] Creating Layer norm_t_2
I0802 23:39:05.971107  2922 net.cpp:406] norm_t_2 <- pool_t_2
I0802 23:39:05.971115  2922 net.cpp:380] norm_t_2 -> norm_t_2
I0802 23:39:05.971313  2922 net.cpp:122] Setting up norm_t_2
I0802 23:39:05.971329  2922 net.cpp:129] Top shape: 100 32 8 8 (204800)
I0802 23:39:05.971341  2922 net.cpp:137] Memory required for data: 69644400
I0802 23:39:05.971349  2922 layer_factory.hpp:77] Creating layer conv_t_3
I0802 23:39:05.971361  2922 net.cpp:84] Creating Layer conv_t_3
I0802 23:39:05.971369  2922 net.cpp:406] conv_t_3 <- norm_t_2
I0802 23:39:05.971379  2922 net.cpp:380] conv_t_3 -> conv_t_3
I0802 23:39:05.972462  2922 net.cpp:122] Setting up conv_t_3
I0802 23:39:05.972479  2922 net.cpp:129] Top shape: 100 64 8 8 (409600)
I0802 23:39:05.972486  2922 net.cpp:137] Memory required for data: 71282800
I0802 23:39:05.972494  2922 layer_factory.hpp:77] Creating layer relu_t_3
I0802 23:39:05.972502  2922 net.cpp:84] Creating Layer relu_t_3
I0802 23:39:05.972509  2922 net.cpp:406] relu_t_3 <- conv_t_3
I0802 23:39:05.972517  2922 net.cpp:367] relu_t_3 -> conv_t_3 (in-place)
I0802 23:39:05.972643  2922 net.cpp:122] Setting up relu_t_3
I0802 23:39:05.972654  2922 net.cpp:129] Top shape: 100 64 8 8 (409600)
I0802 23:39:05.972661  2922 net.cpp:137] Memory required for data: 72921200
I0802 23:39:05.972666  2922 layer_factory.hpp:77] Creating layer pool_t_3
I0802 23:39:05.972674  2922 net.cpp:84] Creating Layer pool_t_3
I0802 23:39:05.972681  2922 net.cpp:406] pool_t_3 <- conv_t_3
I0802 23:39:05.972688  2922 net.cpp:380] pool_t_3 -> pool_t_3
I0802 23:39:05.972825  2922 net.cpp:122] Setting up pool_t_3
I0802 23:39:05.972836  2922 net.cpp:129] Top shape: 100 64 4 4 (102400)
I0802 23:39:05.972842  2922 net.cpp:137] Memory required for data: 73330800
I0802 23:39:05.972848  2922 layer_factory.hpp:77] Creating layer ip_t_1
I0802 23:39:05.972857  2922 net.cpp:84] Creating Layer ip_t_1
I0802 23:39:05.972864  2922 net.cpp:406] ip_t_1 <- pool_t_3
I0802 23:39:05.972872  2922 net.cpp:380] ip_t_1 -> ip_t_1
I0802 23:39:05.973021  2922 net.cpp:122] Setting up ip_t_1
I0802 23:39:05.973031  2922 net.cpp:129] Top shape: 100 10 (1000)
I0802 23:39:05.973037  2922 net.cpp:137] Memory required for data: 73334800
I0802 23:39:05.973043  2922 layer_factory.hpp:77] Creating layer sm_s_1
I0802 23:39:05.973053  2922 net.cpp:84] Creating Layer sm_s_1
I0802 23:39:05.973059  2922 net.cpp:406] sm_s_1 <- ip_s_1_ip_s_1_0_split_0
I0802 23:39:05.973067  2922 net.cpp:380] sm_s_1 -> sm_s_1
I0802 23:39:05.973493  2922 net.cpp:122] Setting up sm_s_1
I0802 23:39:05.973511  2922 net.cpp:129] Top shape: 100 10 (1000)
I0802 23:39:05.973517  2922 net.cpp:137] Memory required for data: 73338800
I0802 23:39:05.973523  2922 layer_factory.hpp:77] Creating layer sm_t_1
I0802 23:39:05.973531  2922 net.cpp:84] Creating Layer sm_t_1
I0802 23:39:05.973538  2922 net.cpp:406] sm_t_1 <- ip_t_1
I0802 23:39:05.973546  2922 net.cpp:380] sm_t_1 -> sm_t_1
I0802 23:39:05.974551  2922 net.cpp:122] Setting up sm_t_1
I0802 23:39:05.974565  2922 net.cpp:129] Top shape: 100 10 (1000)
I0802 23:39:05.974571  2922 net.cpp:137] Memory required for data: 73342800
I0802 23:39:05.974577  2922 layer_factory.hpp:77] Creating layer accuracy
I0802 23:39:05.974586  2922 net.cpp:84] Creating Layer accuracy
I0802 23:39:05.974594  2922 net.cpp:406] accuracy <- ip_s_1_ip_s_1_0_split_1
I0802 23:39:05.974602  2922 net.cpp:406] accuracy <- label
I0802 23:39:05.974611  2922 net.cpp:380] accuracy -> accuracy
…
