…
I0802 23:55:22.917668  2932 net.cpp:294] The NetState phase (0) differed from the phase (1) specified by a rule in layer accuracy
I0802 23:55:22.918205  2932 net.cpp:51] Initializing net from parameters: 
name: "CIFAR10_full"
state {
  phase: TRAIN
  level: 0
  stage: ""
}
layer {
  name: "cifar"
  type: "Data"
  top: "data"
  top: "label"
  include {
    phase: TRAIN
  }
  transform_param {
    mean_file: "/opt/caffe/examples/cifar10/mean.binaryproto"
  }
  data_param {
    source: "/opt/caffe/examples/cifar10/cifar10_train_lmdb"
    batch_size: 100
    backend: LMDB
  }
}
layer {
  name: "conv_s_1"
  type: "Convolution"
  bottom: "data"
  top: "conv_s_1"
  param {
    lr_mult: 1
  }
  param {
    lr_mult: 2
  }
  convolution_param {
    num_output: 32
    pad: 2
    kernel_size: 5
    stride: 1
    weight_filler {
      type: "gaussian"
      std: 0.0001
    }
    bias_filler {
      type: "constant"
    }
  }
}
layer {
  name: "pool_s_1"
  type: "Pooling"
  bottom: "conv_s_1"
  top: "pool_s_1"
  pooling_param {
    pool: MAX
    kernel_size: 3
    stride: 2
  }
}
layer {
  name: "relu_s_1"
  type: "ReLU"
  bottom: "pool_s_1"
  top: "pool_s_1"
}
layer {
  name: "norm_s_1"
  type: "LRN"
  bottom: "pool_s_1"
  top: "norm_s_1"
  lrn_param {
    local_size: 3
    alpha: 5e-05
    beta: 0.75
    norm_region: WITHIN_CHANNEL
  }
}
layer {
  name: "conv_s_2"
  type: "Convolution"
  bottom: "norm_s_1"
  top: "conv_s_2"
  param {
    lr_mult: 1
  }
  param {
    lr_mult: 2
  }
  convolution_param {
    num_output: 32
    pad: 2
    kernel_size: 5
    stride: 1
    weight_filler {
      type: "gaussian"
      std: 0.01
    }
    bias_filler {
      type: "constant"
    }
  }
}
layer {
  name: "relu_s_2"
  type: "ReLU"
  bottom: "conv_s_2"
  top: "conv_s_2"
}
layer {
  name: "pool_s_2"
  type: "Pooling"
  bottom: "conv_s_2"
  top: "pool_s_2"
  pooling_param {
    pool: AVE
    kernel_size: 3
    stride: 2
  }
}
layer {
  name: "norm_s_2"
  type: "LRN"
  bottom: "pool_s_2"
  top: "norm_s_2"
  lrn_param {
    local_size: 3
    alpha: 5e-05
    beta: 0.75
    norm_region: WITHIN_CHANNEL
  }
}
layer {
  name: "conv_s_3"
  type: "Convolution"
  bottom: "norm_s_2"
  top: "conv_s_3"
  param {
    lr_mult: 1
  }
  param {
    lr_mult: 2
  }
  convolution_param {
    num_output: 64
    pad: 2
    kernel_size: 5
    stride: 1
    weight_filler {
      type: "gaussian"
      std: 0.01
    }
    bias_filler {
      type: "constant"
    }
  }
}
layer {
  name: "relu_s_3"
  type: "ReLU"
  bottom: "conv_s_3"
  top: "conv_s_3"
}
layer {
  name: "pool_s_3"
  type: "Pooling"
  bottom: "conv_s_3"
  top: "pool_s_3"
  pooling_param {
    pool: AVE
    kernel_size: 3
    stride: 2
  }
}
layer {
  name: "ip_s_1"
  type: "InnerProduct"
  bottom: "pool_s_3"
  top: "ip_s_1"
  param {
    lr_mult: 1
    decay_mult: 250
  }
  param {
    lr_mult: 2
    decay_mult: 0
  }
  inner_product_param {
    num_output: 10
    weight_filler {
      type: "gaussian"
      std: 0.01
    }
    bias_filler {
      type: "constant"
    }
  }
}
layer {
  name: "conv_t_1"
  type: "Convolution"
  bottom: "data"
  top: "conv_t_1"
  param {
    lr_mult: 0
  }
  param {
    lr_mult: 0
  }
  convolution_param {
    num_output: 32
    pad: 2
    kernel_size: 5
    stride: 1
    weight_filler {
      type: "gaussian"
      std: 0.0001
    }
    bias_filler {
      type: "constant"
    }
  }
}
layer {
  name: "pool_t_1"
  type: "Pooling"
  bottom: "conv_t_1"
  top: "pool_t_1"
  pooling_param {
    pool: MAX
    kernel_size: 3
    stride: 2
  }
}
layer {
  name: "relu_t_1"
  type: "ReLU"
  bottom: "pool_t_1"
  top: "pool_t_1"
}
layer {
  name: "norm_t_1"
  type: "LRN"
  bottom: "pool_t_1"
  top: "norm_t_1"
  lrn_param {
    local_size: 3
    alpha: 5e-05
    beta: 0.75
    norm_region: WITHIN_CHANNEL
  }
}
layer {
  name: "conv_t_2"
  type: "Convolution"
  bottom: "norm_t_1"
  top: "conv_t_2"
  param {
    lr_mult: 0
  }
  param {
    lr_mult: 0
  }
  convolution_param {
    num_output: 32
    pad: 2
    kernel_size: 5
    stride: 1
    weight_filler {
      type: "gaussian"
      std: 0.01
    }
    bias_filler {
      type: "constant"
    }
  }
}
layer {
  name: "relu_t_2"
  type: "ReLU"
  bottom: "conv_t_2"
  top: "conv_t_2"
}
layer {
  name: "pool_t_2"
  type: "Pooling"
  bottom: "conv_t_2"
  top: "pool_t_2"
  pooling_param {
    pool: AVE
    kernel_size: 3
    stride: 2
  }
}
layer {
  name: "norm_t_2"
  type: "LRN"
  bottom: "pool_t_2"
  top: "norm_t_2"
  lrn_param {
    local_size: 3
    alpha: 5e-05
    beta: 0.75
    norm_region: WITHIN_CHANNEL
  }
}
layer {
  name: "conv_t_3"
  type: "Convolution"
  bottom: "norm_t_2"
  top: "conv_t_3"
  param {
    lr_mult: 0
  }
  param {
    lr_mult: 0
  }
  convolution_param {
    num_output: 64
    pad: 2
    kernel_size: 5
    stride: 1
    weight_filler {
      type: "gaussian"
      std: 0.01
    }
    bias_filler {
      type: "constant"
    }
  }
}
layer {
  name: "relu_t_3"
  type: "ReLU"
  bottom: "conv_t_3"
  top: "conv_t_3"
}
layer {
  name: "pool_t_3"
  type: "Pooling"
  bottom: "conv_t_3"
  top: "pool_t_3"
  pooling_param {
    pool: AVE
    kernel_size: 3
    stride: 2
  }
}
layer {
  name: "ip_t_1"
  type: "InnerProduct"
  bottom: "pool_t_3"
  top: "ip_t_1"
  param {
    lr_mult: 0
  }
  param {
    lr_mult: 0
  }
  inner_product_param {
    num_output: 10
    weight_filler {
      type: "gaussian"
      std: 0.01
    }
    bias_filler {
      type: "constant"
    }
  }
}
layer {
  name: "sm_s_1"
  type: "Softmax"
  bottom: "ip_s_1"
  top: "sm_s_1"
}
layer {
  name: "sm_t_1"
  type: "Softmax"
  bottom: "ip_t_1"
  top: "sm_t_1"
}
layer {
  name: "ts_loss"
  type: "SigmoidCrossEntropyLoss"
  bottom: "sm_s_1"
  bottom: "sm_t_1"
  top: "ts_loss"
  loss_weight: 0.1
}
layer {
  name: "loss"
  type: "SoftmaxWithLoss"
  bottom: "ip_s_1"
  bottom: "label"
  top: "loss"
  loss_weight: 0.9
}
I0802 23:55:22.918867  2932 layer_factory.hpp:77] Creating layer cifar
I0802 23:55:23.325399  2932 db_lmdb.cpp:35] Opened lmdb /opt/caffe/examples/cifar10/cifar10_train_lmdb
I0802 23:55:23.336328  2932 net.cpp:84] Creating Layer cifar
I0802 23:55:23.336443  2932 net.cpp:380] cifar -> data
I0802 23:55:23.349323  2932 net.cpp:380] cifar -> label
I0802 23:55:23.349469  2932 data_transformer.cpp:25] Loading mean file from: /opt/caffe/examples/cifar10/mean.binaryproto
I0802 23:55:23.371464  2932 data_layer.cpp:45] output data size: 100,3,32,32
I0802 23:55:23.485623  2932 net.cpp:122] Setting up cifar
I0802 23:55:23.486124  2932 net.cpp:129] Top shape: 100 3 32 32 (307200)
I0802 23:55:23.486418  2932 net.cpp:129] Top shape: 100 (100)
I0802 23:55:23.486671  2932 net.cpp:137] Memory required for data: 1229200
I0802 23:55:23.486939  2932 layer_factory.hpp:77] Creating layer data_cifar_0_split
I0802 23:55:23.487229  2932 net.cpp:84] Creating Layer data_cifar_0_split
I0802 23:55:23.487488  2932 net.cpp:406] data_cifar_0_split <- data
I0802 23:55:23.487802  2932 net.cpp:380] data_cifar_0_split -> data_cifar_0_split_0
I0802 23:55:23.488108  2932 net.cpp:380] data_cifar_0_split -> data_cifar_0_split_1
I0802 23:55:23.488544  2932 net.cpp:122] Setting up data_cifar_0_split
I0802 23:55:23.488839  2932 net.cpp:129] Top shape: 100 3 32 32 (307200)
I0802 23:55:23.489132  2932 net.cpp:129] Top shape: 100 3 32 32 (307200)
I0802 23:55:23.489415  2932 net.cpp:137] Memory required for data: 3686800
I0802 23:55:23.489684  2932 layer_factory.hpp:77] Creating layer conv_s_1
I0802 23:55:23.490227  2932 net.cpp:84] Creating Layer conv_s_1
I0802 23:55:23.490571  2932 net.cpp:406] conv_s_1 <- data_cifar_0_split_0
I0802 23:55:23.490864  2932 net.cpp:380] conv_s_1 -> conv_s_1
I0802 23:55:34.100944  2932 net.cpp:122] Setting up conv_s_1
I0802 23:55:34.101083  2932 net.cpp:129] Top shape: 100 32 32 32 (3276800)
I0802 23:55:34.101158  2932 net.cpp:137] Memory required for data: 16794000
I0802 23:55:34.101236  2932 layer_factory.hpp:77] Creating layer pool_s_1
I0802 23:55:34.101617  2932 net.cpp:84] Creating Layer pool_s_1
I0802 23:55:34.101680  2932 net.cpp:406] pool_s_1 <- conv_s_1
I0802 23:55:34.101722  2932 net.cpp:380] pool_s_1 -> pool_s_1
I0802 23:55:34.102232  2932 net.cpp:122] Setting up pool_s_1
I0802 23:55:34.102293  2932 net.cpp:129] Top shape: 100 32 16 16 (819200)
I0802 23:55:34.102324  2932 net.cpp:137] Memory required for data: 20070800
I0802 23:55:34.102355  2932 layer_factory.hpp:77] Creating layer relu_s_1
I0802 23:55:34.102394  2932 net.cpp:84] Creating Layer relu_s_1
I0802 23:55:34.102425  2932 net.cpp:406] relu_s_1 <- pool_s_1
I0802 23:55:34.102458  2932 net.cpp:367] relu_s_1 -> pool_s_1 (in-place)
I0802 23:55:34.103983  2932 net.cpp:122] Setting up relu_s_1
I0802 23:55:34.104177  2932 net.cpp:129] Top shape: 100 32 16 16 (819200)
I0802 23:55:34.104266  2932 net.cpp:137] Memory required for data: 23347600
I0802 23:55:34.104353  2932 layer_factory.hpp:77] Creating layer norm_s_1
I0802 23:55:34.104460  2932 net.cpp:84] Creating Layer norm_s_1
I0802 23:55:34.104547  2932 net.cpp:406] norm_s_1 <- pool_s_1
I0802 23:55:34.104640  2932 net.cpp:380] norm_s_1 -> norm_s_1
I0802 23:55:34.107079  2932 net.cpp:122] Setting up norm_s_1
I0802 23:55:34.107246  2932 net.cpp:129] Top shape: 100 32 16 16 (819200)
I0802 23:55:34.107336  2932 net.cpp:137] Memory required for data: 26624400
I0802 23:55:34.107422  2932 layer_factory.hpp:77] Creating layer conv_s_2
I0802 23:55:34.107532  2932 net.cpp:84] Creating Layer conv_s_2
I0802 23:55:34.107640  2932 net.cpp:406] conv_s_2 <- norm_s_1
I0802 23:55:34.107736  2932 net.cpp:380] conv_s_2 -> conv_s_2
I0802 23:55:34.115525  2932 net.cpp:122] Setting up conv_s_2
I0802 23:55:34.115743  2932 net.cpp:129] Top shape: 100 32 16 16 (819200)
I0802 23:55:34.115826  2932 net.cpp:137] Memory required for data: 29901200
I0802 23:55:34.115939  2932 layer_factory.hpp:77] Creating layer relu_s_2
I0802 23:55:34.116027  2932 net.cpp:84] Creating Layer relu_s_2
I0802 23:55:34.116102  2932 net.cpp:406] relu_s_2 <- conv_s_2
I0802 23:55:34.116185  2932 net.cpp:367] relu_s_2 -> conv_s_2 (in-place)
I0802 23:55:34.116794  2932 net.cpp:122] Setting up relu_s_2
I0802 23:55:34.116901  2932 net.cpp:129] Top shape: 100 32 16 16 (819200)
I0802 23:55:34.116973  2932 net.cpp:137] Memory required for data: 33178000
I0802 23:55:34.117049  2932 layer_factory.hpp:77] Creating layer pool_s_2
I0802 23:55:34.117157  2932 net.cpp:84] Creating Layer pool_s_2
I0802 23:55:34.117235  2932 net.cpp:406] pool_s_2 <- conv_s_2
I0802 23:55:34.117316  2932 net.cpp:380] pool_s_2 -> pool_s_2
I0802 23:55:34.125279  2932 net.cpp:122] Setting up pool_s_2
I0802 23:55:34.125327  2932 net.cpp:129] Top shape: 100 32 8 8 (204800)
I0802 23:55:34.125339  2932 net.cpp:137] Memory required for data: 33997200
I0802 23:55:34.125349  2932 layer_factory.hpp:77] Creating layer norm_s_2
I0802 23:55:34.125372  2932 net.cpp:84] Creating Layer norm_s_2
I0802 23:55:34.125381  2932 net.cpp:406] norm_s_2 <- pool_s_2
I0802 23:55:34.125397  2932 net.cpp:380] norm_s_2 -> norm_s_2
I0802 23:55:34.126252  2932 net.cpp:122] Setting up norm_s_2
I0802 23:55:34.126277  2932 net.cpp:129] Top shape: 100 32 8 8 (204800)
I0802 23:55:34.126286  2932 net.cpp:137] Memory required for data: 34816400
I0802 23:55:34.126293  2932 layer_factory.hpp:77] Creating layer conv_s_3
I0802 23:55:34.126319  2932 net.cpp:84] Creating Layer conv_s_3
I0802 23:55:34.126330  2932 net.cpp:406] conv_s_3 <- norm_s_2
I0802 23:55:34.126344  2932 net.cpp:380] conv_s_3 -> conv_s_3
I0802 23:55:34.131579  2932 net.cpp:122] Setting up conv_s_3
I0802 23:55:34.131835  2932 net.cpp:129] Top shape: 100 64 8 8 (409600)
I0802 23:55:34.131850  2932 net.cpp:137] Memory required for data: 36454800
I0802 23:55:34.131920  2932 layer_factory.hpp:77] Creating layer relu_s_3
I0802 23:55:34.132124  2932 net.cpp:84] Creating Layer relu_s_3
I0802 23:55:34.132138  2932 net.cpp:406] relu_s_3 <- conv_s_3
I0802 23:55:34.132150  2932 net.cpp:367] relu_s_3 -> conv_s_3 (in-place)
I0802 23:55:34.134733  2932 net.cpp:122] Setting up relu_s_3
I0802 23:55:34.134768  2932 net.cpp:129] Top shape: 100 64 8 8 (409600)
I0802 23:55:34.134773  2932 net.cpp:137] Memory required for data: 38093200
I0802 23:55:34.134780  2932 layer_factory.hpp:77] Creating layer pool_s_3
I0802 23:55:34.134809  2932 net.cpp:84] Creating Layer pool_s_3
I0802 23:55:34.134816  2932 net.cpp:406] pool_s_3 <- conv_s_3
I0802 23:55:34.134826  2932 net.cpp:380] pool_s_3 -> pool_s_3
I0802 23:55:34.135439  2932 net.cpp:122] Setting up pool_s_3
I0802 23:55:34.135455  2932 net.cpp:129] Top shape: 100 64 4 4 (102400)
I0802 23:55:34.135460  2932 net.cpp:137] Memory required for data: 38502800
I0802 23:55:34.135464  2932 layer_factory.hpp:77] Creating layer ip_s_1
I0802 23:55:34.135479  2932 net.cpp:84] Creating Layer ip_s_1
I0802 23:55:34.135483  2932 net.cpp:406] ip_s_1 <- pool_s_3
I0802 23:55:34.135491  2932 net.cpp:380] ip_s_1 -> ip_s_1
I0802 23:55:34.137035  2932 net.cpp:122] Setting up ip_s_1
I0802 23:55:34.137056  2932 net.cpp:129] Top shape: 100 10 (1000)
I0802 23:55:34.137060  2932 net.cpp:137] Memory required for data: 38506800
I0802 23:55:34.137071  2932 layer_factory.hpp:77] Creating layer ip_s_1_ip_s_1_0_split
I0802 23:55:34.137081  2932 net.cpp:84] Creating Layer ip_s_1_ip_s_1_0_split
I0802 23:55:34.137096  2932 net.cpp:406] ip_s_1_ip_s_1_0_split <- ip_s_1
I0802 23:55:34.137105  2932 net.cpp:380] ip_s_1_ip_s_1_0_split -> ip_s_1_ip_s_1_0_split_0
I0802 23:55:34.137115  2932 net.cpp:380] ip_s_1_ip_s_1_0_split -> ip_s_1_ip_s_1_0_split_1
I0802 23:55:34.137179  2932 net.cpp:122] Setting up ip_s_1_ip_s_1_0_split
I0802 23:55:34.137187  2932 net.cpp:129] Top shape: 100 10 (1000)
I0802 23:55:34.137192  2932 net.cpp:129] Top shape: 100 10 (1000)
I0802 23:55:34.137197  2932 net.cpp:137] Memory required for data: 38514800
I0802 23:55:34.137200  2932 layer_factory.hpp:77] Creating layer conv_t_1
I0802 23:55:34.137214  2932 net.cpp:84] Creating Layer conv_t_1
I0802 23:55:34.137218  2932 net.cpp:406] conv_t_1 <- data_cifar_0_split_1
I0802 23:55:34.137226  2932 net.cpp:380] conv_t_1 -> conv_t_1
I0802 23:55:34.138933  2932 net.cpp:122] Setting up conv_t_1
I0802 23:55:34.138952  2932 net.cpp:129] Top shape: 100 32 32 32 (3276800)
I0802 23:55:34.138957  2932 net.cpp:137] Memory required for data: 51622000
I0802 23:55:34.138972  2932 layer_factory.hpp:77] Creating layer pool_t_1
I0802 23:55:34.138983  2932 net.cpp:84] Creating Layer pool_t_1
I0802 23:55:34.138993  2932 net.cpp:406] pool_t_1 <- conv_t_1
I0802 23:55:34.139000  2932 net.cpp:380] pool_t_1 -> pool_t_1
I0802 23:55:34.139061  2932 net.cpp:122] Setting up pool_t_1
I0802 23:55:34.139072  2932 net.cpp:129] Top shape: 100 32 16 16 (819200)
I0802 23:55:34.139077  2932 net.cpp:137] Memory required for data: 54898800
I0802 23:55:34.139081  2932 layer_factory.hpp:77] Creating layer relu_t_1
I0802 23:55:34.139088  2932 net.cpp:84] Creating Layer relu_t_1
I0802 23:55:34.139092  2932 net.cpp:406] relu_t_1 <- pool_t_1
I0802 23:55:34.139099  2932 net.cpp:367] relu_t_1 -> pool_t_1 (in-place)
I0802 23:55:34.139763  2932 net.cpp:122] Setting up relu_t_1
I0802 23:55:34.139776  2932 net.cpp:129] Top shape: 100 32 16 16 (819200)
I0802 23:55:34.139780  2932 net.cpp:137] Memory required for data: 58175600
I0802 23:55:34.139784  2932 layer_factory.hpp:77] Creating layer norm_t_1
I0802 23:55:34.139792  2932 net.cpp:84] Creating Layer norm_t_1
I0802 23:55:34.139796  2932 net.cpp:406] norm_t_1 <- pool_t_1
I0802 23:55:34.139801  2932 net.cpp:380] norm_t_1 -> norm_t_1
I0802 23:55:34.140782  2932 net.cpp:122] Setting up norm_t_1
I0802 23:55:34.140795  2932 net.cpp:129] Top shape: 100 32 16 16 (819200)
I0802 23:55:34.140799  2932 net.cpp:137] Memory required for data: 61452400
I0802 23:55:34.140802  2932 layer_factory.hpp:77] Creating layer conv_t_2
I0802 23:55:34.140838  2932 net.cpp:84] Creating Layer conv_t_2
I0802 23:55:34.140843  2932 net.cpp:406] conv_t_2 <- norm_t_1
I0802 23:55:34.140851  2932 net.cpp:380] conv_t_2 -> conv_t_2
I0802 23:55:34.142480  2932 net.cpp:122] Setting up conv_t_2
I0802 23:55:34.142495  2932 net.cpp:129] Top shape: 100 32 16 16 (819200)
I0802 23:55:34.142499  2932 net.cpp:137] Memory required for data: 64729200
I0802 23:55:34.142506  2932 layer_factory.hpp:77] Creating layer relu_t_2
I0802 23:55:34.142513  2932 net.cpp:84] Creating Layer relu_t_2
I0802 23:55:34.142518  2932 net.cpp:406] relu_t_2 <- conv_t_2
I0802 23:55:34.142523  2932 net.cpp:367] relu_t_2 -> conv_t_2 (in-place)
I0802 23:55:34.142735  2932 net.cpp:122] Setting up relu_t_2
I0802 23:55:34.142745  2932 net.cpp:129] Top shape: 100 32 16 16 (819200)
I0802 23:55:34.142750  2932 net.cpp:137] Memory required for data: 68006000
I0802 23:55:34.142752  2932 layer_factory.hpp:77] Creating layer pool_t_2
I0802 23:55:34.142758  2932 net.cpp:84] Creating Layer pool_t_2
I0802 23:55:34.142761  2932 net.cpp:406] pool_t_2 <- conv_t_2
I0802 23:55:34.142767  2932 net.cpp:380] pool_t_2 -> pool_t_2
I0802 23:55:34.143335  2932 net.cpp:122] Setting up pool_t_2
I0802 23:55:34.143349  2932 net.cpp:129] Top shape: 100 32 8 8 (204800)
I0802 23:55:34.143352  2932 net.cpp:137] Memory required for data: 68825200
I0802 23:55:34.143357  2932 layer_factory.hpp:77] Creating layer norm_t_2
I0802 23:55:34.143365  2932 net.cpp:84] Creating Layer norm_t_2
I0802 23:55:34.143369  2932 net.cpp:406] norm_t_2 <- pool_t_2
I0802 23:55:34.143375  2932 net.cpp:380] norm_t_2 -> norm_t_2
I0802 23:55:34.143728  2932 net.cpp:122] Setting up norm_t_2
I0802 23:55:34.143767  2932 net.cpp:129] Top shape: 100 32 8 8 (204800)
I0802 23:55:34.143784  2932 net.cpp:137] Memory required for data: 69644400
I0802 23:55:34.143798  2932 layer_factory.hpp:77] Creating layer conv_t_3
I0802 23:55:34.143821  2932 net.cpp:84] Creating Layer conv_t_3
I0802 23:55:34.143836  2932 net.cpp:406] conv_t_3 <- norm_t_2
I0802 23:55:34.143852  2932 net.cpp:380] conv_t_3 -> conv_t_3
I0802 23:55:34.145781  2932 net.cpp:122] Setting up conv_t_3
I0802 23:55:34.145823  2932 net.cpp:129] Top shape: 100 64 8 8 (409600)
I0802 23:55:34.145836  2932 net.cpp:137] Memory required for data: 71282800
I0802 23:55:34.145855  2932 layer_factory.hpp:77] Creating layer relu_t_3
I0802 23:55:34.145874  2932 net.cpp:84] Creating Layer relu_t_3
I0802 23:55:34.145886  2932 net.cpp:406] relu_t_3 <- conv_t_3
I0802 23:55:34.145901  2932 net.cpp:367] relu_t_3 -> conv_t_3 (in-place)
I0802 23:55:34.146139  2932 net.cpp:122] Setting up relu_t_3
I0802 23:55:34.146160  2932 net.cpp:129] Top shape: 100 64 8 8 (409600)
I0802 23:55:34.146172  2932 net.cpp:137] Memory required for data: 72921200
I0802 23:55:34.146183  2932 layer_factory.hpp:77] Creating layer pool_t_3
I0802 23:55:34.146196  2932 net.cpp:84] Creating Layer pool_t_3
I0802 23:55:34.146209  2932 net.cpp:406] pool_t_3 <- conv_t_3
I0802 23:55:34.146229  2932 net.cpp:380] pool_t_3 -> pool_t_3
I0802 23:55:34.146847  2932 net.cpp:122] Setting up pool_t_3
I0802 23:55:34.146878  2932 net.cpp:129] Top shape: 100 64 4 4 (102400)
I0802 23:55:34.146889  2932 net.cpp:137] Memory required for data: 73330800
I0802 23:55:34.146903  2932 layer_factory.hpp:77] Creating layer ip_t_1
I0802 23:55:34.146919  2932 net.cpp:84] Creating Layer ip_t_1
I0802 23:55:34.146931  2932 net.cpp:406] ip_t_1 <- pool_t_3
I0802 23:55:34.146945  2932 net.cpp:380] ip_t_1 -> ip_t_1
I0802 23:55:34.147187  2932 net.cpp:122] Setting up ip_t_1
I0802 23:55:34.147207  2932 net.cpp:129] Top shape: 100 10 (1000)
I0802 23:55:34.147217  2932 net.cpp:137] Memory required for data: 73334800
I0802 23:55:34.147231  2932 layer_factory.hpp:77] Creating layer sm_s_1
I0802 23:55:34.147248  2932 net.cpp:84] Creating Layer sm_s_1
I0802 23:55:34.147259  2932 net.cpp:406] sm_s_1 <- ip_s_1_ip_s_1_0_split_0
I0802 23:55:34.147271  2932 net.cpp:380] sm_s_1 -> sm_s_1
I0802 23:55:34.147545  2932 net.cpp:122] Setting up sm_s_1
I0802 23:55:34.147575  2932 net.cpp:129] Top shape: 100 10 (1000)
I0802 23:55:34.147598  2932 net.cpp:137] Memory required for data: 73338800
I0802 23:55:34.147609  2932 layer_factory.hpp:77] Creating layer sm_t_1
I0802 23:55:34.147622  2932 net.cpp:84] Creating Layer sm_t_1
I0802 23:55:34.147634  2932 net.cpp:406] sm_t_1 <- ip_t_1
I0802 23:55:34.147647  2932 net.cpp:380] sm_t_1 -> sm_t_1
I0802 23:55:34.147919  2932 net.cpp:122] Setting up sm_t_1
I0802 23:55:34.147940  2932 net.cpp:129] Top shape: 100 10 (1000)
I0802 23:55:34.147951  2932 net.cpp:137] Memory required for data: 73342800
I0802 23:55:34.147963  2932 layer_factory.hpp:77] Creating layer ts_loss
I0802 23:55:34.147977  2932 net.cpp:84] Creating Layer ts_loss
I0802 23:55:34.147989  2932 net.cpp:406] ts_loss <- sm_s_1
I0802 23:55:34.148002  2932 net.cpp:406] ts_loss <- sm_t_1
I0802 23:55:34.148015  2932 net.cpp:380] ts_loss -> ts_loss
…
I0802 23:55:34.250502  2932 net.cpp:294] The NetState phase (1) differed from the phase (0) specified by a rule in layer cifar
I0802 23:55:34.250632  2932 net.cpp:51] Initializing net from parameters: 
name: "CIFAR10_full"
state {
  phase: TEST
}
layer {
  name: "cifar"
  type: "Data"
  top: "data"
  top: "label"
  include {
    phase: TEST
  }
  transform_param {
    mean_file: "/opt/caffe/examples/cifar10/mean.binaryproto"
  }
  data_param {
    source: "/opt/caffe/examples/cifar10/cifar10_test_lmdb"
    batch_size: 100
    backend: LMDB
  }
}
layer {
  name: "conv_s_1"
  type: "Convolution"
  bottom: "data"
  top: "conv_s_1"
  param {
    lr_mult: 1
  }
  param {
    lr_mult: 2
  }
  convolution_param {
    num_output: 32
    pad: 2
    kernel_size: 5
    stride: 1
    weight_filler {
      type: "gaussian"
      std: 0.0001
    }
    bias_filler {
      type: "constant"
    }
  }
}
layer {
  name: "pool_s_1"
  type: "Pooling"
  bottom: "conv_s_1"
  top: "pool_s_1"
  pooling_param {
    pool: MAX
    kernel_size: 3
    stride: 2
  }
}
layer {
  name: "relu_s_1"
  type: "ReLU"
  bottom: "pool_s_1"
  top: "pool_s_1"
}
layer {
  name: "norm_s_1"
  type: "LRN"
  bottom: "pool_s_1"
  top: "norm_s_1"
  lrn_param {
    local_size: 3
    alpha: 5e-05
    beta: 0.75
    norm_region: WITHIN_CHANNEL
  }
}
layer {
  name: "conv_s_2"
  type: "Convolution"
  bottom: "norm_s_1"
  top: "conv_s_2"
  param {
    lr_mult: 1
  }
  param {
    lr_mult: 2
  }
  convolution_param {
    num_output: 32
    pad: 2
    kernel_size: 5
    stride: 1
    weight_filler {
      type: "gaussian"
      std: 0.01
    }
    bias_filler {
      type: "constant"
    }
  }
}
layer {
  name: "relu_s_2"
  type: "ReLU"
  bottom: "conv_s_2"
  top: "conv_s_2"
}
layer {
  name: "pool_s_2"
  type: "Pooling"
  bottom: "conv_s_2"
  top: "pool_s_2"
  pooling_param {
    pool: AVE
    kernel_size: 3
    stride: 2
  }
}
layer {
  name: "norm_s_2"
  type: "LRN"
  bottom: "pool_s_2"
  top: "norm_s_2"
  lrn_param {
    local_size: 3
    alpha: 5e-05
    beta: 0.75
    norm_region: WITHIN_CHANNEL
  }
}
layer {
  name: "conv_s_3"
  type: "Convolution"
  bottom: "norm_s_2"
  top: "conv_s_3"
  param {
    lr_mult: 1
  }
  param {
    lr_mult: 2
  }
  convolution_param {
    num_output: 64
    pad: 2
    kernel_size: 5
    stride: 1
    weight_filler {
      type: "gaussian"
      std: 0.01
    }
    bias_filler {
      type: "constant"
    }
  }
}
layer {
  name: "relu_s_3"
  type: "ReLU"
  bottom: "conv_s_3"
  top: "conv_s_3"
}
layer {
  name: "pool_s_3"
  type: "Pooling"
  bottom: "conv_s_3"
  top: "pool_s_3"
  pooling_param {
    pool: AVE
    kernel_size: 3
    stride: 2
  }
}
layer {
  name: "ip_s_1"
  type: "InnerProduct"
  bottom: "pool_s_3"
  top: "ip_s_1"
  param {
    lr_mult: 1
    decay_mult: 250
  }
  param {
    lr_mult: 2
    decay_mult: 0
  }
  inner_product_param {
    num_output: 10
    weight_filler {
      type: "gaussian"
      std: 0.01
    }
    bias_filler {
      type: "constant"
    }
  }
}
layer {
  name: "conv_t_1"
  type: "Convolution"
  bottom: "data"
  top: "conv_t_1"
  param {
    lr_mult: 0
  }
  param {
    lr_mult: 0
  }
  convolution_param {
    num_output: 32
    pad: 2
    kernel_size: 5
    stride: 1
    weight_filler {
      type: "gaussian"
      std: 0.0001
    }
    bias_filler {
      type: "constant"
    }
  }
}
layer {
  name: "pool_t_1"
  type: "Pooling"
  bottom: "conv_t_1"
  top: "pool_t_1"
  pooling_param {
    pool: MAX
    kernel_size: 3
    stride: 2
  }
}
layer {
  name: "relu_t_1"
  type: "ReLU"
  bottom: "pool_t_1"
  top: "pool_t_1"
}
layer {
  name: "norm_t_1"
  type: "LRN"
  bottom: "pool_t_1"
  top: "norm_t_1"
  lrn_param {
    local_size: 3
    alpha: 5e-05
    beta: 0.75
    norm_region: WITHIN_CHANNEL
  }
}
layer {
  name: "conv_t_2"
  type: "Convolution"
  bottom: "norm_t_1"
  top: "conv_t_2"
  param {
    lr_mult: 0
  }
  param {
    lr_mult: 0
  }
  convolution_param {
    num_output: 32
    pad: 2
    kernel_size: 5
    stride: 1
    weight_filler {
      type: "gaussian"
      std: 0.01
    }
    bias_filler {
      type: "constant"
    }
  }
}
layer {
  name: "relu_t_2"
  type: "ReLU"
  bottom: "conv_t_2"
  top: "conv_t_2"
}
layer {
  name: "pool_t_2"
  type: "Pooling"
  bottom: "conv_t_2"
  top: "pool_t_2"
  pooling_param {
    pool: AVE
    kernel_size: 3
    stride: 2
  }
}
layer {
  name: "norm_t_2"
  type: "LRN"
  bottom: "pool_t_2"
  top: "norm_t_2"
  lrn_param {
    local_size: 3
    alpha: 5e-05
    beta: 0.75
    norm_region: WITHIN_CHANNEL
  }
}
layer {
  name: "conv_t_3"
  type: "Convolution"
  bottom: "norm_t_2"
  top: "conv_t_3"
  param {
    lr_mult: 0
  }
  param {
    lr_mult: 0
  }
  convolution_param {
    num_output: 64
    pad: 2
    kernel_size: 5
    stride: 1
    weight_filler {
      type: "gaussian"
      std: 0.01
    }
    bias_filler {
      type: "constant"
    }
  }
}
layer {
  name: "relu_t_3"
  type: "ReLU"
  bottom: "conv_t_3"
  top: "conv_t_3"
}
layer {
  name: "pool_t_3"
  type: "Pooling"
  bottom: "conv_t_3"
  top: "pool_t_3"
  pooling_param {
    pool: AVE
    kernel_size: 3
    stride: 2
  }
}
layer {
  name: "ip_t_1"
  type: "InnerProduct"
  bottom: "pool_t_3"
  top: "ip_t_1"
  param {
    lr_mult: 0
  }
  param {
    lr_mult: 0
  }
  inner_product_param {
    num_output: 10
    weight_filler {
      type: "gaussian"
      std: 0.01
    }
    bias_filler {
      type: "constant"
    }
  }
}
layer {
  name: "sm_s_1"
  type: "Softmax"
  bottom: "ip_s_1"
  top: "sm_s_1"
}
layer {
  name: "sm_t_1"
  type: "Softmax"
  bottom: "ip_t_1"
  top: "sm_t_1"
}
layer {
  name: "accuracy"
  type: "Accuracy"
  bottom: "ip_s_1"
  bottom: "label"
  top: "accuracy"
  include {
    phase: TEST
  }
}
layer {
  name: "ts_loss"
  type: "SigmoidCrossEntropyLoss"
  bottom: "sm_s_1"
  bottom: "sm_t_1"
  top: "ts_loss"
  loss_weight: 0.1
}
layer {
  name: "loss"
  type: "SoftmaxWithLoss"
  bottom: "ip_s_1"
  bottom: "label"
  top: "loss"
  loss_weight: 0.9
}
I0802 23:55:34.250777  2932 layer_factory.hpp:77] Creating layer cifar
I0802 23:55:34.383517  2932 db_lmdb.cpp:35] Opened lmdb /opt/caffe/examples/cifar10/cifar10_test_lmdb
I0802 23:55:34.387836  2932 net.cpp:84] Creating Layer cifar
I0802 23:55:34.387933  2932 net.cpp:380] cifar -> data
I0802 23:55:34.387996  2932 net.cpp:380] cifar -> label
I0802 23:55:34.388049  2932 data_transformer.cpp:25] Loading mean file from: /opt/caffe/examples/cifar10/mean.binaryproto
I0802 23:55:34.388633  2932 data_layer.cpp:45] output data size: 100,3,32,32
I0802 23:55:34.403216  2932 net.cpp:122] Setting up cifar
I0802 23:55:34.403324  2932 net.cpp:129] Top shape: 100 3 32 32 (307200)
I0802 23:55:34.403369  2932 net.cpp:129] Top shape: 100 (100)
I0802 23:55:34.403456  2932 net.cpp:137] Memory required for data: 1229200
I0802 23:55:34.403522  2932 layer_factory.hpp:77] Creating layer data_cifar_0_split
I0802 23:55:34.403601  2932 net.cpp:84] Creating Layer data_cifar_0_split
I0802 23:55:34.403821  2932 net.cpp:406] data_cifar_0_split <- data
I0802 23:55:34.403936  2932 net.cpp:380] data_cifar_0_split -> data_cifar_0_split_0
I0802 23:55:34.404361  2932 net.cpp:380] data_cifar_0_split -> data_cifar_0_split_1
I0802 23:55:34.405333  2932 net.cpp:122] Setting up data_cifar_0_split
I0802 23:55:34.405593  2932 net.cpp:129] Top shape: 100 3 32 32 (307200)
I0802 23:55:34.405748  2932 net.cpp:129] Top shape: 100 3 32 32 (307200)
I0802 23:55:34.405957  2932 net.cpp:137] Memory required for data: 3686800
I0802 23:55:34.406270  2932 layer_factory.hpp:77] Creating layer label_cifar_1_split
I0802 23:55:34.406484  2932 net.cpp:84] Creating Layer label_cifar_1_split
I0802 23:55:34.406663  2932 net.cpp:406] label_cifar_1_split <- label
I0802 23:55:34.406878  2932 net.cpp:380] label_cifar_1_split -> label_cifar_1_split_0
I0802 23:55:34.407104  2932 net.cpp:380] label_cifar_1_split -> label_cifar_1_split_1
I0802 23:55:34.407541  2932 net.cpp:122] Setting up label_cifar_1_split
I0802 23:55:34.407644  2932 net.cpp:129] Top shape: 100 (100)
I0802 23:55:34.407883  2932 net.cpp:129] Top shape: 100 (100)
I0802 23:55:34.408027  2932 net.cpp:137] Memory required for data: 3687600
I0802 23:55:34.408228  2932 layer_factory.hpp:77] Creating layer conv_s_1
I0802 23:55:34.408334  2932 net.cpp:84] Creating Layer conv_s_1
I0802 23:55:34.408510  2932 net.cpp:406] conv_s_1 <- data_cifar_0_split_0
I0802 23:55:34.408665  2932 net.cpp:380] conv_s_1 -> conv_s_1
I0802 23:55:34.412271  2932 net.cpp:122] Setting up conv_s_1
I0802 23:55:34.412511  2932 net.cpp:129] Top shape: 100 32 32 32 (3276800)
I0802 23:55:34.412662  2932 net.cpp:137] Memory required for data: 16794800
I0802 23:55:34.412883  2932 layer_factory.hpp:77] Creating layer pool_s_1
I0802 23:55:34.413076  2932 net.cpp:84] Creating Layer pool_s_1
I0802 23:55:34.413305  2932 net.cpp:406] pool_s_1 <- conv_s_1
I0802 23:55:34.413501  2932 net.cpp:380] pool_s_1 -> pool_s_1
I0802 23:55:34.413887  2932 net.cpp:122] Setting up pool_s_1
I0802 23:55:34.414089  2932 net.cpp:129] Top shape: 100 32 16 16 (819200)
I0802 23:55:34.414191  2932 net.cpp:137] Memory required for data: 20071600
I0802 23:55:34.414482  2932 layer_factory.hpp:77] Creating layer relu_s_1
I0802 23:55:34.414667  2932 net.cpp:84] Creating Layer relu_s_1
I0802 23:55:34.414772  2932 net.cpp:406] relu_s_1 <- pool_s_1
I0802 23:55:34.414897  2932 net.cpp:367] relu_s_1 -> pool_s_1 (in-place)
I0802 23:55:34.415666  2932 net.cpp:122] Setting up relu_s_1
I0802 23:55:34.415763  2932 net.cpp:129] Top shape: 100 32 16 16 (819200)
I0802 23:55:34.415891  2932 net.cpp:137] Memory required for data: 23348400
I0802 23:55:34.416049  2932 layer_factory.hpp:77] Creating layer norm_s_1
I0802 23:55:34.416127  2932 net.cpp:84] Creating Layer norm_s_1
I0802 23:55:34.416249  2932 net.cpp:406] norm_s_1 <- pool_s_1
I0802 23:55:34.416407  2932 net.cpp:380] norm_s_1 -> norm_s_1
I0802 23:55:34.418330  2932 net.cpp:122] Setting up norm_s_1
I0802 23:55:34.418520  2932 net.cpp:129] Top shape: 100 32 16 16 (819200)
I0802 23:55:34.418599  2932 net.cpp:137] Memory required for data: 26625200
I0802 23:55:34.418762  2932 layer_factory.hpp:77] Creating layer conv_s_2
I0802 23:55:34.418848  2932 net.cpp:84] Creating Layer conv_s_2
I0802 23:55:34.418972  2932 net.cpp:406] conv_s_2 <- norm_s_1
I0802 23:55:34.419133  2932 net.cpp:380] conv_s_2 -> conv_s_2
I0802 23:55:34.421591  2932 net.cpp:122] Setting up conv_s_2
I0802 23:55:34.421677  2932 net.cpp:129] Top shape: 100 32 16 16 (819200)
I0802 23:55:34.421815  2932 net.cpp:137] Memory required for data: 29902000
I0802 23:55:34.421882  2932 layer_factory.hpp:77] Creating layer relu_s_2
I0802 23:55:34.422013  2932 net.cpp:84] Creating Layer relu_s_2
I0802 23:55:34.422067  2932 net.cpp:406] relu_s_2 <- conv_s_2
I0802 23:55:34.422155  2932 net.cpp:367] relu_s_2 -> conv_s_2 (in-place)
I0802 23:55:34.422569  2932 net.cpp:122] Setting up relu_s_2
I0802 23:55:34.422636  2932 net.cpp:129] Top shape: 100 32 16 16 (819200)
I0802 23:55:34.422729  2932 net.cpp:137] Memory required for data: 33178800
I0802 23:55:34.422806  2932 layer_factory.hpp:77] Creating layer pool_s_2
I0802 23:55:34.422863  2932 net.cpp:84] Creating Layer pool_s_2
I0802 23:55:34.422948  2932 net.cpp:406] pool_s_2 <- conv_s_2
I0802 23:55:34.423036  2932 net.cpp:380] pool_s_2 -> pool_s_2
I0802 23:55:34.423928  2932 net.cpp:122] Setting up pool_s_2
I0802 23:55:34.424010  2932 net.cpp:129] Top shape: 100 32 8 8 (204800)
I0802 23:55:34.424142  2932 net.cpp:137] Memory required for data: 33998000
I0802 23:55:34.424197  2932 layer_factory.hpp:77] Creating layer norm_s_2
I0802 23:55:34.424286  2932 net.cpp:84] Creating Layer norm_s_2
I0802 23:55:34.424377  2932 net.cpp:406] norm_s_2 <- pool_s_2
I0802 23:55:34.424499  2932 net.cpp:380] norm_s_2 -> norm_s_2
I0802 23:55:34.424989  2932 net.cpp:122] Setting up norm_s_2
I0802 23:55:34.425047  2932 net.cpp:129] Top shape: 100 32 8 8 (204800)
I0802 23:55:34.425127  2932 net.cpp:137] Memory required for data: 34817200
I0802 23:55:34.425367  2932 layer_factory.hpp:77] Creating layer conv_s_3
I0802 23:55:34.425443  2932 net.cpp:84] Creating Layer conv_s_3
I0802 23:55:34.425488  2932 net.cpp:406] conv_s_3 <- norm_s_2
I0802 23:55:34.425565  2932 net.cpp:380] conv_s_3 -> conv_s_3
I0802 23:55:34.428261  2932 net.cpp:122] Setting up conv_s_3
I0802 23:55:34.428339  2932 net.cpp:129] Top shape: 100 64 8 8 (409600)
I0802 23:55:34.428426  2932 net.cpp:137] Memory required for data: 36455600
I0802 23:55:34.428508  2932 layer_factory.hpp:77] Creating layer relu_s_3
I0802 23:55:34.428583  2932 net.cpp:84] Creating Layer relu_s_3
I0802 23:55:34.428627  2932 net.cpp:406] relu_s_3 <- conv_s_3
I0802 23:55:34.428690  2932 net.cpp:367] relu_s_3 -> conv_s_3 (in-place)
I0802 23:55:34.429010  2932 net.cpp:122] Setting up relu_s_3
I0802 23:55:34.429064  2932 net.cpp:129] Top shape: 100 64 8 8 (409600)
I0802 23:55:34.429136  2932 net.cpp:137] Memory required for data: 38094000
I0802 23:55:34.429178  2932 layer_factory.hpp:77] Creating layer pool_s_3
I0802 23:55:34.429245  2932 net.cpp:84] Creating Layer pool_s_3
I0802 23:55:34.429288  2932 net.cpp:406] pool_s_3 <- conv_s_3
I0802 23:55:34.429352  2932 net.cpp:380] pool_s_3 -> pool_s_3
I0802 23:55:34.429998  2932 net.cpp:122] Setting up pool_s_3
I0802 23:55:34.430053  2932 net.cpp:129] Top shape: 100 64 4 4 (102400)
I0802 23:55:34.430081  2932 net.cpp:137] Memory required for data: 38503600
I0802 23:55:34.430150  2932 layer_factory.hpp:77] Creating layer ip_s_1
I0802 23:55:34.430181  2932 net.cpp:84] Creating Layer ip_s_1
I0802 23:55:34.430241  2932 net.cpp:406] ip_s_1 <- pool_s_3
I0802 23:55:34.430274  2932 net.cpp:380] ip_s_1 -> ip_s_1
I0802 23:55:34.430594  2932 net.cpp:122] Setting up ip_s_1
I0802 23:55:34.430635  2932 net.cpp:129] Top shape: 100 10 (1000)
I0802 23:55:34.430665  2932 net.cpp:137] Memory required for data: 38507600
I0802 23:55:34.430729  2932 layer_factory.hpp:77] Creating layer ip_s_1_ip_s_1_0_split
I0802 23:55:34.430760  2932 net.cpp:84] Creating Layer ip_s_1_ip_s_1_0_split
I0802 23:55:34.430821  2932 net.cpp:406] ip_s_1_ip_s_1_0_split <- ip_s_1
I0802 23:55:34.430852  2932 net.cpp:380] ip_s_1_ip_s_1_0_split -> ip_s_1_ip_s_1_0_split_0
I0802 23:55:34.430917  2932 net.cpp:380] ip_s_1_ip_s_1_0_split -> ip_s_1_ip_s_1_0_split_1
I0802 23:55:34.430979  2932 net.cpp:380] ip_s_1_ip_s_1_0_split -> ip_s_1_ip_s_1_0_split_2
I0802 23:55:34.431112  2932 net.cpp:122] Setting up ip_s_1_ip_s_1_0_split
I0802 23:55:34.431152  2932 net.cpp:129] Top shape: 100 10 (1000)
I0802 23:55:34.431180  2932 net.cpp:129] Top shape: 100 10 (1000)
I0802 23:55:34.431239  2932 net.cpp:129] Top shape: 100 10 (1000)
I0802 23:55:34.431289  2932 net.cpp:137] Memory required for data: 38519600
I0802 23:55:34.431324  2932 layer_factory.hpp:77] Creating layer conv_t_1
I0802 23:55:34.431360  2932 net.cpp:84] Creating Layer conv_t_1
I0802 23:55:34.431421  2932 net.cpp:406] conv_t_1 <- data_cifar_0_split_1
I0802 23:55:34.431453  2932 net.cpp:380] conv_t_1 -> conv_t_1
I0802 23:55:34.432780  2932 net.cpp:122] Setting up conv_t_1
I0802 23:55:34.432839  2932 net.cpp:129] Top shape: 100 32 32 32 (3276800)
I0802 23:55:34.432904  2932 net.cpp:137] Memory required for data: 51626800
I0802 23:55:34.432951  2932 layer_factory.hpp:77] Creating layer pool_t_1
I0802 23:55:34.433010  2932 net.cpp:84] Creating Layer pool_t_1
I0802 23:55:34.433048  2932 net.cpp:406] pool_t_1 <- conv_t_1
I0802 23:55:34.433078  2932 net.cpp:380] pool_t_1 -> pool_t_1
I0802 23:55:34.433229  2932 net.cpp:122] Setting up pool_t_1
I0802 23:55:34.433271  2932 net.cpp:129] Top shape: 100 32 16 16 (819200)
I0802 23:55:34.433298  2932 net.cpp:137] Memory required for data: 54903600
I0802 23:55:34.433357  2932 layer_factory.hpp:77] Creating layer relu_t_1
I0802 23:55:34.433418  2932 net.cpp:84] Creating Layer relu_t_1
I0802 23:55:34.433465  2932 net.cpp:406] relu_t_1 <- pool_t_1
I0802 23:55:34.433493  2932 net.cpp:367] relu_t_1 -> pool_t_1 (in-place)
I0802 23:55:34.433789  2932 net.cpp:122] Setting up relu_t_1
I0802 23:55:34.433835  2932 net.cpp:129] Top shape: 100 32 16 16 (819200)
I0802 23:55:34.433863  2932 net.cpp:137] Memory required for data: 58180400
I0802 23:55:34.433925  2932 layer_factory.hpp:77] Creating layer norm_t_1
I0802 23:55:34.433955  2932 net.cpp:84] Creating Layer norm_t_1
I0802 23:55:34.434015  2932 net.cpp:406] norm_t_1 <- pool_t_1
I0802 23:55:34.434070  2932 net.cpp:380] norm_t_1 -> norm_t_1
I0802 23:55:34.435010  2932 net.cpp:122] Setting up norm_t_1
I0802 23:55:34.435056  2932 net.cpp:129] Top shape: 100 32 16 16 (819200)
I0802 23:55:34.435082  2932 net.cpp:137] Memory required for data: 61457200
I0802 23:55:34.435147  2932 layer_factory.hpp:77] Creating layer conv_t_2
I0802 23:55:34.435196  2932 net.cpp:84] Creating Layer conv_t_2
I0802 23:55:34.435230  2932 net.cpp:406] conv_t_2 <- norm_t_1
I0802 23:55:34.435256  2932 net.cpp:380] conv_t_2 -> conv_t_2
I0802 23:55:34.436831  2932 net.cpp:122] Setting up conv_t_2
I0802 23:55:34.436882  2932 net.cpp:129] Top shape: 100 32 16 16 (819200)
I0802 23:55:34.436908  2932 net.cpp:137] Memory required for data: 64734000
I0802 23:55:34.436970  2932 layer_factory.hpp:77] Creating layer relu_t_2
I0802 23:55:34.437019  2932 net.cpp:84] Creating Layer relu_t_2
I0802 23:55:34.437050  2932 net.cpp:406] relu_t_2 <- conv_t_2
I0802 23:55:34.437075  2932 net.cpp:367] relu_t_2 -> conv_t_2 (in-place)
I0802 23:55:34.437880  2932 net.cpp:122] Setting up relu_t_2
I0802 23:55:34.437930  2932 net.cpp:129] Top shape: 100 32 16 16 (819200)
I0802 23:55:34.437955  2932 net.cpp:137] Memory required for data: 68010800
I0802 23:55:34.438109  2932 layer_factory.hpp:77] Creating layer pool_t_2
I0802 23:55:34.438138  2932 net.cpp:84] Creating Layer pool_t_2
I0802 23:55:34.438194  2932 net.cpp:406] pool_t_2 <- conv_t_2
I0802 23:55:34.438241  2932 net.cpp:380] pool_t_2 -> pool_t_2
I0802 23:55:34.438591  2932 net.cpp:122] Setting up pool_t_2
I0802 23:55:34.438707  2932 net.cpp:129] Top shape: 100 32 8 8 (204800)
I0802 23:55:34.438740  2932 net.cpp:137] Memory required for data: 68830000
I0802 23:55:34.438761  2932 layer_factory.hpp:77] Creating layer norm_t_2
I0802 23:55:34.438809  2932 net.cpp:84] Creating Layer norm_t_2
I0802 23:55:34.438839  2932 net.cpp:406] norm_t_2 <- pool_t_2
I0802 23:55:34.438865  2932 net.cpp:380] norm_t_2 -> norm_t_2
I0802 23:55:34.439244  2932 net.cpp:122] Setting up norm_t_2
I0802 23:55:34.439286  2932 net.cpp:129] Top shape: 100 32 8 8 (204800)
I0802 23:55:34.439311  2932 net.cpp:137] Memory required for data: 69649200
I0802 23:55:34.439366  2932 layer_factory.hpp:77] Creating layer conv_t_3
I0802 23:55:34.439404  2932 net.cpp:84] Creating Layer conv_t_3
I0802 23:55:34.439457  2932 net.cpp:406] conv_t_3 <- norm_t_2
I0802 23:55:34.439507  2932 net.cpp:380] conv_t_3 -> conv_t_3
I0802 23:55:34.440945  2932 net.cpp:122] Setting up conv_t_3
I0802 23:55:34.440989  2932 net.cpp:129] Top shape: 100 64 8 8 (409600)
I0802 23:55:34.441012  2932 net.cpp:137] Memory required for data: 71287600
I0802 23:55:34.441068  2932 layer_factory.hpp:77] Creating layer relu_t_3
I0802 23:55:34.441118  2932 net.cpp:84] Creating Layer relu_t_3
I0802 23:55:34.441148  2932 net.cpp:406] relu_t_3 <- conv_t_3
I0802 23:55:34.441170  2932 net.cpp:367] relu_t_3 -> conv_t_3 (in-place)
I0802 23:55:34.441371  2932 net.cpp:122] Setting up relu_t_3
I0802 23:55:34.441406  2932 net.cpp:129] Top shape: 100 64 8 8 (409600)
I0802 23:55:34.441426  2932 net.cpp:137] Memory required for data: 72926000
I0802 23:55:34.441469  2932 layer_factory.hpp:77] Creating layer pool_t_3
I0802 23:55:34.441500  2932 net.cpp:84] Creating Layer pool_t_3
I0802 23:55:34.441520  2932 net.cpp:406] pool_t_3 <- conv_t_3
I0802 23:55:34.441565  2932 net.cpp:380] pool_t_3 -> pool_t_3
I0802 23:55:34.442035  2932 net.cpp:122] Setting up pool_t_3
I0802 23:55:34.442075  2932 net.cpp:129] Top shape: 100 64 4 4 (102400)
I0802 23:55:34.442101  2932 net.cpp:137] Memory required for data: 73335600
I0802 23:55:34.442172  2932 layer_factory.hpp:77] Creating layer ip_t_1
I0802 23:55:34.442195  2932 net.cpp:84] Creating Layer ip_t_1
I0802 23:55:34.442236  2932 net.cpp:406] ip_t_1 <- pool_t_3
I0802 23:55:34.442268  2932 net.cpp:380] ip_t_1 -> ip_t_1
I0802 23:55:34.442494  2932 net.cpp:122] Setting up ip_t_1
I0802 23:55:34.442526  2932 net.cpp:129] Top shape: 100 10 (1000)
I0802 23:55:34.442546  2932 net.cpp:137] Memory required for data: 73339600
I0802 23:55:34.442590  2932 layer_factory.hpp:77] Creating layer sm_s_1
I0802 23:55:34.442620  2932 net.cpp:84] Creating Layer sm_s_1
I0802 23:55:34.442639  2932 net.cpp:406] sm_s_1 <- ip_s_1_ip_s_1_0_split_0
I0802 23:55:34.442683  2932 net.cpp:380] sm_s_1 -> sm_s_1
I0802 23:55:34.442946  2932 net.cpp:122] Setting up sm_s_1
I0802 23:55:34.442982  2932 net.cpp:129] Top shape: 100 10 (1000)
I0802 23:55:34.443004  2932 net.cpp:137] Memory required for data: 73343600
I0802 23:55:34.443047  2932 layer_factory.hpp:77] Creating layer sm_t_1
I0802 23:55:34.443074  2932 net.cpp:84] Creating Layer sm_t_1
I0802 23:55:34.443094  2932 net.cpp:406] sm_t_1 <- ip_t_1
I0802 23:55:34.443137  2932 net.cpp:380] sm_t_1 -> sm_t_1
I0802 23:55:34.443394  2932 net.cpp:122] Setting up sm_t_1
I0802 23:55:34.443429  2932 net.cpp:129] Top shape: 100 10 (1000)
I0802 23:55:34.443449  2932 net.cpp:137] Memory required for data: 73347600
I0802 23:55:34.443492  2932 layer_factory.hpp:77] Creating layer accuracy
I0802 23:55:34.443523  2932 net.cpp:84] Creating Layer accuracy
I0802 23:55:34.443544  2932 net.cpp:406] accuracy <- ip_s_1_ip_s_1_0_split_1
I0802 23:55:34.443586  2932 net.cpp:406] accuracy <- label_cifar_1_split_0
I0802 23:55:34.443615  2932 net.cpp:380] accuracy -> accuracy
…
