…
I0801 16:11:44.253212  2105 net.cpp:294] The NetState phase (0) differed from the phase (1) specified by a rule in layer accuracy
I0801 16:11:44.253312  2105 net.cpp:51] Initializing net from parameters: 
name: "CIFAR10_full"
state {
  phase: TRAIN
  level: 0
  stage: ""
}
layer {
  name: "cifar"
  type: "Data"
  top: "data"
  top: "label"
  include {
    phase: TRAIN
  }
  transform_param {
    mean_file: "/opt/caffe/examples/cifar10/mean.binaryproto"
  }
  data_param {
    source: "/opt/caffe/examples/cifar10/cifar10_train_lmdb"
    batch_size: 100
    backend: LMDB
  }
}
layer {
  name: "conv_s_1"
  type: "Convolution"
  bottom: "data"
  top: "conv_s_1"
  param {
    lr_mult: 1
  }
  param {
    lr_mult: 2
  }
  convolution_param {
    num_output: 32
    pad: 2
    kernel_size: 5
    stride: 1
    weight_filler {
      type: "gaussian"
      std: 0.0001
    }
    bias_filler {
      type: "constant"
    }
  }
}
layer {
  name: "pool_s_1"
  type: "Pooling"
  bottom: "conv_s_1"
  top: "pool_s_1"
  pooling_param {
    pool: MAX
    kernel_size: 3
    stride: 2
  }
}
layer {
  name: "relu_s_1"
  type: "ReLU"
  bottom: "pool_s_1"
  top: "pool_s_1"
}
layer {
  name: "norm_s_1"
  type: "LRN"
  bottom: "pool_s_1"
  top: "norm_s_1"
  lrn_param {
    local_size: 3
    alpha: 5e-05
    beta: 0.75
    norm_region: WITHIN_CHANNEL
  }
}
layer {
  name: "conv_s_2"
  type: "Convolution"
  bottom: "norm_s_1"
  top: "conv_s_2"
  param {
    lr_mult: 1
  }
  param {
    lr_mult: 2
  }
  convolution_param {
    num_output: 32
    pad: 2
    kernel_size: 5
    stride: 1
    weight_filler {
      type: "gaussian"
      std: 0.01
    }
    bias_filler {
      type: "constant"
    }
  }
}
layer {
  name: "relu_s_2"
  type: "ReLU"
  bottom: "conv_s_2"
  top: "conv_s_2"
}
layer {
  name: "pool_s_2"
  type: "Pooling"
  bottom: "conv_s_2"
  top: "pool_s_2"
  pooling_param {
    pool: AVE
    kernel_size: 3
    stride: 2
  }
}
layer {
  name: "norm_s_2"
  type: "LRN"
  bottom: "pool_s_2"
  top: "norm_s_2"
  lrn_param {
    local_size: 3
    alpha: 5e-05
    beta: 0.75
    norm_region: WITHIN_CHANNEL
  }
}
layer {
  name: "conv_s_3"
  type: "Convolution"
  bottom: "norm_s_2"
  top: "conv_s_3"
  param {
    lr_mult: 1
  }
  param {
    lr_mult: 2
  }
  convolution_param {
    num_output: 64
    pad: 2
    kernel_size: 5
    stride: 1
    weight_filler {
      type: "gaussian"
      std: 0.01
    }
    bias_filler {
      type: "constant"
    }
  }
}
layer {
  name: "relu_s_3"
  type: "ReLU"
  bottom: "conv_s_3"
  top: "conv_s_3"
}
layer {
  name: "pool_s_3"
  type: "Pooling"
  bottom: "conv_s_3"
  top: "pool_s_3"
  pooling_param {
    pool: AVE
    kernel_size: 3
    stride: 2
  }
}
layer {
  name: "ip_s_1"
  type: "InnerProduct"
  bottom: "pool_s_3"
  top: "ip_s_1"
  param {
    lr_mult: 1
    decay_mult: 250
  }
  param {
    lr_mult: 2
    decay_mult: 0
  }
  inner_product_param {
    num_output: 10
    weight_filler {
      type: "gaussian"
      std: 0.01
    }
    bias_filler {
      type: "constant"
    }
  }
}
layer {
  name: "conv_t_1"
  type: "Convolution"
  bottom: "data"
  top: "conv_t_1"
  param {
    lr_mult: 0
  }
  param {
    lr_mult: 0
  }
  convolution_param {
    num_output: 32
    pad: 2
    kernel_size: 5
    stride: 1
    weight_filler {
      type: "gaussian"
      std: 0.0001
    }
    bias_filler {
      type: "constant"
    }
  }
}
layer {
  name: "pool_t_1"
  type: "Pooling"
  bottom: "conv_t_1"
  top: "pool_t_1"
  pooling_param {
    pool: MAX
    kernel_size: 3
    stride: 2
  }
}
layer {
  name: "relu_t_1"
  type: "ReLU"
  bottom: "pool_t_1"
  top: "pool_t_1"
}
layer {
  name: "norm_t_1"
  type: "LRN"
  bottom: "pool_t_1"
  top: "norm_t_1"
  lrn_param {
    local_size: 3
    alpha: 5e-05
    beta: 0.75
    norm_region: WITHIN_CHANNEL
  }
}
layer {
  name: "conv_t_2"
  type: "Convolution"
  bottom: "norm_t_1"
  top: "conv_t_2"
  param {
    lr_mult: 0
  }
  param {
    lr_mult: 0
  }
  convolution_param {
    num_output: 32
    pad: 2
    kernel_size: 5
    stride: 1
    weight_filler {
      type: "gaussian"
      std: 0.01
    }
    bias_filler {
      type: "constant"
    }
  }
}
layer {
  name: "relu_t_2"
  type: "ReLU"
  bottom: "conv_t_2"
  top: "conv_t_2"
}
layer {
  name: "pool_t_2"
  type: "Pooling"
  bottom: "conv_t_2"
  top: "pool_t_2"
  pooling_param {
    pool: AVE
    kernel_size: 3
    stride: 2
  }
}
layer {
  name: "norm_t_2"
  type: "LRN"
  bottom: "pool_t_2"
  top: "norm_t_2"
  lrn_param {
    local_size: 3
    alpha: 5e-05
    beta: 0.75
    norm_region: WITHIN_CHANNEL
  }
}
layer {
  name: "conv_t_3"
  type: "Convolution"
  bottom: "norm_t_2"
  top: "conv_t_3"
  param {
    lr_mult: 0
  }
  param {
    lr_mult: 0
  }
  convolution_param {
    num_output: 64
    pad: 2
    kernel_size: 5
    stride: 1
    weight_filler {
      type: "gaussian"
      std: 0.01
    }
    bias_filler {
      type: "constant"
    }
  }
}
layer {
  name: "relu_t_3"
  type: "ReLU"
  bottom: "conv_t_3"
  top: "conv_t_3"
}
layer {
  name: "pool_t_3"
  type: "Pooling"
  bottom: "conv_t_3"
  top: "pool_t_3"
  pooling_param {
    pool: AVE
    kernel_size: 3
    stride: 2
  }
}
layer {
  name: "ip_t_1"
  type: "InnerProduct"
  bottom: "pool_t_3"
  top: "ip_t_1"
  param {
    lr_mult: 0
  }
  param {
    lr_mult: 0
  }
  inner_product_param {
    num_output: 10
    weight_filler {
      type: "gaussian"
      std: 0.01
    }
    bias_filler {
      type: "constant"
    }
  }
}
layer {
  name: "sm_s_1"
  type: "Softmax"
  bottom: "ip_s_1"
  top: "sm_s_1"
}
layer {
  name: "sm_t_1"
  type: "Softmax"
  bottom: "ip_t_1"
  top: "sm_t_1"
}
layer {
  name: "ts_loss"
  type: "SigmoidCrossEntropyLoss"
  bottom: "sm_s_1"
  bottom: "sm_t_1"
  top: "ts_loss"
  loss_weight: 0.2
}
layer {
  name: "loss"
  type: "SoftmaxWithLoss"
  bottom: "ip_s_1"
  bottom: "label"
  top: "loss"
  loss_weight: 0.8
}
I0801 16:11:44.253403  2105 layer_factory.hpp:77] Creating layer cifar
I0801 16:11:44.253489  2105 db_lmdb.cpp:35] Opened lmdb /opt/caffe/examples/cifar10/cifar10_train_lmdb
I0801 16:11:44.253505  2105 net.cpp:84] Creating Layer cifar
I0801 16:11:44.253511  2105 net.cpp:380] cifar -> data
I0801 16:11:44.253525  2105 net.cpp:380] cifar -> label
I0801 16:11:44.253531  2105 data_transformer.cpp:25] Loading mean file from: /opt/caffe/examples/cifar10/mean.binaryproto
I0801 16:11:44.254678  2105 data_layer.cpp:45] output data size: 100,3,32,32
I0801 16:11:44.258199  2105 net.cpp:122] Setting up cifar
I0801 16:11:44.258215  2105 net.cpp:129] Top shape: 100 3 32 32 (307200)
I0801 16:11:44.258218  2105 net.cpp:129] Top shape: 100 (100)
I0801 16:11:44.258219  2105 net.cpp:137] Memory required for data: 1229200
I0801 16:11:44.258227  2105 layer_factory.hpp:77] Creating layer data_cifar_0_split
I0801 16:11:44.258260  2105 net.cpp:84] Creating Layer data_cifar_0_split
I0801 16:11:44.258263  2105 net.cpp:406] data_cifar_0_split <- data
I0801 16:11:44.258273  2105 net.cpp:380] data_cifar_0_split -> data_cifar_0_split_0
I0801 16:11:44.258280  2105 net.cpp:380] data_cifar_0_split -> data_cifar_0_split_1
I0801 16:11:44.258316  2105 net.cpp:122] Setting up data_cifar_0_split
I0801 16:11:44.258321  2105 net.cpp:129] Top shape: 100 3 32 32 (307200)
I0801 16:11:44.258323  2105 net.cpp:129] Top shape: 100 3 32 32 (307200)
I0801 16:11:44.258324  2105 net.cpp:137] Memory required for data: 3686800
I0801 16:11:44.258327  2105 layer_factory.hpp:77] Creating layer conv_s_1
I0801 16:11:44.258337  2105 net.cpp:84] Creating Layer conv_s_1
I0801 16:11:44.258358  2105 net.cpp:406] conv_s_1 <- data_cifar_0_split_0
I0801 16:11:44.258363  2105 net.cpp:380] conv_s_1 -> conv_s_1
I0801 16:11:44.565196  2105 net.cpp:122] Setting up conv_s_1
I0801 16:11:44.565215  2105 net.cpp:129] Top shape: 100 32 32 32 (3276800)
I0801 16:11:44.565218  2105 net.cpp:137] Memory required for data: 16794000
I0801 16:11:44.565232  2105 layer_factory.hpp:77] Creating layer pool_s_1
I0801 16:11:44.565239  2105 net.cpp:84] Creating Layer pool_s_1
I0801 16:11:44.565241  2105 net.cpp:406] pool_s_1 <- conv_s_1
I0801 16:11:44.565246  2105 net.cpp:380] pool_s_1 -> pool_s_1
I0801 16:11:44.565286  2105 net.cpp:122] Setting up pool_s_1
I0801 16:11:44.565290  2105 net.cpp:129] Top shape: 100 32 16 16 (819200)
I0801 16:11:44.565292  2105 net.cpp:137] Memory required for data: 20070800
I0801 16:11:44.565294  2105 layer_factory.hpp:77] Creating layer relu_s_1
I0801 16:11:44.565297  2105 net.cpp:84] Creating Layer relu_s_1
I0801 16:11:44.565299  2105 net.cpp:406] relu_s_1 <- pool_s_1
I0801 16:11:44.565302  2105 net.cpp:367] relu_s_1 -> pool_s_1 (in-place)
I0801 16:11:44.565623  2105 net.cpp:122] Setting up relu_s_1
I0801 16:11:44.565629  2105 net.cpp:129] Top shape: 100 32 16 16 (819200)
I0801 16:11:44.565631  2105 net.cpp:137] Memory required for data: 23347600
I0801 16:11:44.565634  2105 layer_factory.hpp:77] Creating layer norm_s_1
I0801 16:11:44.565640  2105 net.cpp:84] Creating Layer norm_s_1
I0801 16:11:44.565644  2105 net.cpp:406] norm_s_1 <- pool_s_1
I0801 16:11:44.565646  2105 net.cpp:380] norm_s_1 -> norm_s_1
I0801 16:11:44.566167  2105 net.cpp:122] Setting up norm_s_1
I0801 16:11:44.566174  2105 net.cpp:129] Top shape: 100 32 16 16 (819200)
I0801 16:11:44.566176  2105 net.cpp:137] Memory required for data: 26624400
I0801 16:11:44.566179  2105 layer_factory.hpp:77] Creating layer conv_s_2
I0801 16:11:44.566184  2105 net.cpp:84] Creating Layer conv_s_2
I0801 16:11:44.566187  2105 net.cpp:406] conv_s_2 <- norm_s_1
I0801 16:11:44.566190  2105 net.cpp:380] conv_s_2 -> conv_s_2
I0801 16:11:44.567656  2105 net.cpp:122] Setting up conv_s_2
I0801 16:11:44.567665  2105 net.cpp:129] Top shape: 100 32 16 16 (819200)
I0801 16:11:44.567667  2105 net.cpp:137] Memory required for data: 29901200
I0801 16:11:44.567673  2105 layer_factory.hpp:77] Creating layer relu_s_2
I0801 16:11:44.567677  2105 net.cpp:84] Creating Layer relu_s_2
I0801 16:11:44.567680  2105 net.cpp:406] relu_s_2 <- conv_s_2
I0801 16:11:44.567683  2105 net.cpp:367] relu_s_2 -> conv_s_2 (in-place)
I0801 16:11:44.567793  2105 net.cpp:122] Setting up relu_s_2
I0801 16:11:44.567811  2105 net.cpp:129] Top shape: 100 32 16 16 (819200)
I0801 16:11:44.567819  2105 net.cpp:137] Memory required for data: 33178000
I0801 16:11:44.567826  2105 layer_factory.hpp:77] Creating layer pool_s_2
I0801 16:11:44.567836  2105 net.cpp:84] Creating Layer pool_s_2
I0801 16:11:44.567842  2105 net.cpp:406] pool_s_2 <- conv_s_2
I0801 16:11:44.567849  2105 net.cpp:380] pool_s_2 -> pool_s_2
I0801 16:11:44.568163  2105 net.cpp:122] Setting up pool_s_2
I0801 16:11:44.568179  2105 net.cpp:129] Top shape: 100 32 8 8 (204800)
I0801 16:11:44.568187  2105 net.cpp:137] Memory required for data: 33997200
I0801 16:11:44.568193  2105 layer_factory.hpp:77] Creating layer norm_s_2
I0801 16:11:44.568203  2105 net.cpp:84] Creating Layer norm_s_2
I0801 16:11:44.568210  2105 net.cpp:406] norm_s_2 <- pool_s_2
I0801 16:11:44.568218  2105 net.cpp:380] norm_s_2 -> norm_s_2
I0801 16:11:44.568404  2105 net.cpp:122] Setting up norm_s_2
I0801 16:11:44.568418  2105 net.cpp:129] Top shape: 100 32 8 8 (204800)
I0801 16:11:44.568425  2105 net.cpp:137] Memory required for data: 34816400
I0801 16:11:44.568431  2105 layer_factory.hpp:77] Creating layer conv_s_3
I0801 16:11:44.568444  2105 net.cpp:84] Creating Layer conv_s_3
I0801 16:11:44.568451  2105 net.cpp:406] conv_s_3 <- norm_s_2
I0801 16:11:44.568460  2105 net.cpp:380] conv_s_3 -> conv_s_3
I0801 16:11:44.569464  2105 net.cpp:122] Setting up conv_s_3
I0801 16:11:44.569483  2105 net.cpp:129] Top shape: 100 64 8 8 (409600)
I0801 16:11:44.569496  2105 net.cpp:137] Memory required for data: 36454800
I0801 16:11:44.569514  2105 layer_factory.hpp:77] Creating layer relu_s_3
I0801 16:11:44.569525  2105 net.cpp:84] Creating Layer relu_s_3
I0801 16:11:44.569532  2105 net.cpp:406] relu_s_3 <- conv_s_3
I0801 16:11:44.569541  2105 net.cpp:367] relu_s_3 -> conv_s_3 (in-place)
I0801 16:11:44.569661  2105 net.cpp:122] Setting up relu_s_3
I0801 16:11:44.569672  2105 net.cpp:129] Top shape: 100 64 8 8 (409600)
I0801 16:11:44.569679  2105 net.cpp:137] Memory required for data: 38093200
I0801 16:11:44.569686  2105 layer_factory.hpp:77] Creating layer pool_s_3
I0801 16:11:44.569694  2105 net.cpp:84] Creating Layer pool_s_3
I0801 16:11:44.569700  2105 net.cpp:406] pool_s_3 <- conv_s_3
I0801 16:11:44.569710  2105 net.cpp:380] pool_s_3 -> pool_s_3
I0801 16:11:44.569839  2105 net.cpp:122] Setting up pool_s_3
I0801 16:11:44.569850  2105 net.cpp:129] Top shape: 100 64 4 4 (102400)
I0801 16:11:44.569856  2105 net.cpp:137] Memory required for data: 38502800
I0801 16:11:44.569864  2105 layer_factory.hpp:77] Creating layer ip_s_1
I0801 16:11:44.569874  2105 net.cpp:84] Creating Layer ip_s_1
I0801 16:11:44.569880  2105 net.cpp:406] ip_s_1 <- pool_s_3
I0801 16:11:44.569890  2105 net.cpp:380] ip_s_1 -> ip_s_1
I0801 16:11:44.570511  2105 net.cpp:122] Setting up ip_s_1
I0801 16:11:44.570529  2105 net.cpp:129] Top shape: 100 10 (1000)
I0801 16:11:44.570536  2105 net.cpp:137] Memory required for data: 38506800
I0801 16:11:44.570545  2105 layer_factory.hpp:77] Creating layer ip_s_1_ip_s_1_0_split
I0801 16:11:44.570555  2105 net.cpp:84] Creating Layer ip_s_1_ip_s_1_0_split
I0801 16:11:44.570564  2105 net.cpp:406] ip_s_1_ip_s_1_0_split <- ip_s_1
I0801 16:11:44.570571  2105 net.cpp:380] ip_s_1_ip_s_1_0_split -> ip_s_1_ip_s_1_0_split_0
I0801 16:11:44.570582  2105 net.cpp:380] ip_s_1_ip_s_1_0_split -> ip_s_1_ip_s_1_0_split_1
I0801 16:11:44.570618  2105 net.cpp:122] Setting up ip_s_1_ip_s_1_0_split
I0801 16:11:44.570627  2105 net.cpp:129] Top shape: 100 10 (1000)
I0801 16:11:44.570634  2105 net.cpp:129] Top shape: 100 10 (1000)
I0801 16:11:44.570641  2105 net.cpp:137] Memory required for data: 38514800
I0801 16:11:44.570648  2105 layer_factory.hpp:77] Creating layer conv_t_1
I0801 16:11:44.570660  2105 net.cpp:84] Creating Layer conv_t_1
I0801 16:11:44.570667  2105 net.cpp:406] conv_t_1 <- data_cifar_0_split_1
I0801 16:11:44.570677  2105 net.cpp:380] conv_t_1 -> conv_t_1
I0801 16:11:44.571410  2105 net.cpp:122] Setting up conv_t_1
I0801 16:11:44.571427  2105 net.cpp:129] Top shape: 100 32 32 32 (3276800)
I0801 16:11:44.571434  2105 net.cpp:137] Memory required for data: 51622000
I0801 16:11:44.571446  2105 layer_factory.hpp:77] Creating layer pool_t_1
I0801 16:11:44.571458  2105 net.cpp:84] Creating Layer pool_t_1
I0801 16:11:44.571465  2105 net.cpp:406] pool_t_1 <- conv_t_1
I0801 16:11:44.571475  2105 net.cpp:380] pool_t_1 -> pool_t_1
I0801 16:11:44.571509  2105 net.cpp:122] Setting up pool_t_1
I0801 16:11:44.571519  2105 net.cpp:129] Top shape: 100 32 16 16 (819200)
I0801 16:11:44.571527  2105 net.cpp:137] Memory required for data: 54898800
I0801 16:11:44.571533  2105 layer_factory.hpp:77] Creating layer relu_t_1
I0801 16:11:44.571542  2105 net.cpp:84] Creating Layer relu_t_1
I0801 16:11:44.571550  2105 net.cpp:406] relu_t_1 <- pool_t_1
I0801 16:11:44.571557  2105 net.cpp:367] relu_t_1 -> pool_t_1 (in-place)
I0801 16:11:44.571866  2105 net.cpp:122] Setting up relu_t_1
I0801 16:11:44.571882  2105 net.cpp:129] Top shape: 100 32 16 16 (819200)
I0801 16:11:44.571888  2105 net.cpp:137] Memory required for data: 58175600
I0801 16:11:44.571895  2105 layer_factory.hpp:77] Creating layer norm_t_1
I0801 16:11:44.571904  2105 net.cpp:84] Creating Layer norm_t_1
I0801 16:11:44.571912  2105 net.cpp:406] norm_t_1 <- pool_t_1
I0801 16:11:44.571919  2105 net.cpp:380] norm_t_1 -> norm_t_1
I0801 16:11:44.572489  2105 net.cpp:122] Setting up norm_t_1
I0801 16:11:44.572504  2105 net.cpp:129] Top shape: 100 32 16 16 (819200)
I0801 16:11:44.572511  2105 net.cpp:137] Memory required for data: 61452400
I0801 16:11:44.572522  2105 layer_factory.hpp:77] Creating layer conv_t_2
I0801 16:11:44.572540  2105 net.cpp:84] Creating Layer conv_t_2
I0801 16:11:44.572548  2105 net.cpp:406] conv_t_2 <- norm_t_1
I0801 16:11:44.572558  2105 net.cpp:380] conv_t_2 -> conv_t_2
I0801 16:11:44.573441  2105 net.cpp:122] Setting up conv_t_2
I0801 16:11:44.573459  2105 net.cpp:129] Top shape: 100 32 16 16 (819200)
I0801 16:11:44.573467  2105 net.cpp:137] Memory required for data: 64729200
I0801 16:11:44.573477  2105 layer_factory.hpp:77] Creating layer relu_t_2
I0801 16:11:44.573485  2105 net.cpp:84] Creating Layer relu_t_2
I0801 16:11:44.573493  2105 net.cpp:406] relu_t_2 <- conv_t_2
I0801 16:11:44.573500  2105 net.cpp:367] relu_t_2 -> conv_t_2 (in-place)
I0801 16:11:44.573624  2105 net.cpp:122] Setting up relu_t_2
I0801 16:11:44.573637  2105 net.cpp:129] Top shape: 100 32 16 16 (819200)
I0801 16:11:44.573643  2105 net.cpp:137] Memory required for data: 68006000
I0801 16:11:44.573649  2105 layer_factory.hpp:77] Creating layer pool_t_2
I0801 16:11:44.573657  2105 net.cpp:84] Creating Layer pool_t_2
I0801 16:11:44.573664  2105 net.cpp:406] pool_t_2 <- conv_t_2
I0801 16:11:44.573673  2105 net.cpp:380] pool_t_2 -> pool_t_2
I0801 16:11:44.573992  2105 net.cpp:122] Setting up pool_t_2
I0801 16:11:44.574007  2105 net.cpp:129] Top shape: 100 32 8 8 (204800)
I0801 16:11:44.574013  2105 net.cpp:137] Memory required for data: 68825200
I0801 16:11:44.574020  2105 layer_factory.hpp:77] Creating layer norm_t_2
I0801 16:11:44.574030  2105 net.cpp:84] Creating Layer norm_t_2
I0801 16:11:44.574038  2105 net.cpp:406] norm_t_2 <- pool_t_2
I0801 16:11:44.574045  2105 net.cpp:380] norm_t_2 -> norm_t_2
I0801 16:11:44.574237  2105 net.cpp:122] Setting up norm_t_2
I0801 16:11:44.574251  2105 net.cpp:129] Top shape: 100 32 8 8 (204800)
I0801 16:11:44.574259  2105 net.cpp:137] Memory required for data: 69644400
I0801 16:11:44.574265  2105 layer_factory.hpp:77] Creating layer conv_t_3
I0801 16:11:44.574275  2105 net.cpp:84] Creating Layer conv_t_3
I0801 16:11:44.574282  2105 net.cpp:406] conv_t_3 <- norm_t_2
I0801 16:11:44.574292  2105 net.cpp:380] conv_t_3 -> conv_t_3
I0801 16:11:44.575304  2105 net.cpp:122] Setting up conv_t_3
I0801 16:11:44.575320  2105 net.cpp:129] Top shape: 100 64 8 8 (409600)
I0801 16:11:44.575328  2105 net.cpp:137] Memory required for data: 71282800
I0801 16:11:44.575336  2105 layer_factory.hpp:77] Creating layer relu_t_3
I0801 16:11:44.575345  2105 net.cpp:84] Creating Layer relu_t_3
I0801 16:11:44.575352  2105 net.cpp:406] relu_t_3 <- conv_t_3
I0801 16:11:44.575361  2105 net.cpp:367] relu_t_3 -> conv_t_3 (in-place)
I0801 16:11:44.575485  2105 net.cpp:122] Setting up relu_t_3
I0801 16:11:44.575498  2105 net.cpp:129] Top shape: 100 64 8 8 (409600)
I0801 16:11:44.575505  2105 net.cpp:137] Memory required for data: 72921200
I0801 16:11:44.575511  2105 layer_factory.hpp:77] Creating layer pool_t_3
I0801 16:11:44.575520  2105 net.cpp:84] Creating Layer pool_t_3
I0801 16:11:44.575526  2105 net.cpp:406] pool_t_3 <- conv_t_3
I0801 16:11:44.575534  2105 net.cpp:380] pool_t_3 -> pool_t_3
I0801 16:11:44.575855  2105 net.cpp:122] Setting up pool_t_3
I0801 16:11:44.575870  2105 net.cpp:129] Top shape: 100 64 4 4 (102400)
I0801 16:11:44.575877  2105 net.cpp:137] Memory required for data: 73330800
I0801 16:11:44.575884  2105 layer_factory.hpp:77] Creating layer ip_t_1
I0801 16:11:44.575894  2105 net.cpp:84] Creating Layer ip_t_1
I0801 16:11:44.575902  2105 net.cpp:406] ip_t_1 <- pool_t_3
I0801 16:11:44.575911  2105 net.cpp:380] ip_t_1 -> ip_t_1
I0801 16:11:44.576047  2105 net.cpp:122] Setting up ip_t_1
I0801 16:11:44.576058  2105 net.cpp:129] Top shape: 100 10 (1000)
I0801 16:11:44.576064  2105 net.cpp:137] Memory required for data: 73334800
I0801 16:11:44.576072  2105 layer_factory.hpp:77] Creating layer sm_s_1
I0801 16:11:44.576081  2105 net.cpp:84] Creating Layer sm_s_1
I0801 16:11:44.576089  2105 net.cpp:406] sm_s_1 <- ip_s_1_ip_s_1_0_split_0
I0801 16:11:44.576097  2105 net.cpp:380] sm_s_1 -> sm_s_1
I0801 16:11:44.576263  2105 net.cpp:122] Setting up sm_s_1
I0801 16:11:44.576278  2105 net.cpp:129] Top shape: 100 10 (1000)
I0801 16:11:44.576292  2105 net.cpp:137] Memory required for data: 73338800
I0801 16:11:44.576298  2105 layer_factory.hpp:77] Creating layer sm_t_1
I0801 16:11:44.576308  2105 net.cpp:84] Creating Layer sm_t_1
I0801 16:11:44.576314  2105 net.cpp:406] sm_t_1 <- ip_t_1
I0801 16:11:44.576323  2105 net.cpp:380] sm_t_1 -> sm_t_1
I0801 16:11:44.576480  2105 net.cpp:122] Setting up sm_t_1
I0801 16:11:44.576493  2105 net.cpp:129] Top shape: 100 10 (1000)
I0801 16:11:44.576499  2105 net.cpp:137] Memory required for data: 73342800
I0801 16:11:44.576506  2105 layer_factory.hpp:77] Creating layer ts_loss
I0801 16:11:44.576515  2105 net.cpp:84] Creating Layer ts_loss
I0801 16:11:44.576522  2105 net.cpp:406] ts_loss <- sm_s_1
I0801 16:11:44.576530  2105 net.cpp:406] ts_loss <- sm_t_1
I0801 16:11:44.576539  2105 net.cpp:380] ts_loss -> ts_loss
…
I0801 16:11:44.577430  2105 net.cpp:294] The NetState phase (1) differed from the phase (0) specified by a rule in layer cifar
I0801 16:11:44.577545  2105 net.cpp:51] Initializing net from parameters: 
name: "CIFAR10_full"
state {
  phase: TEST
}
layer {
  name: "cifar"
  type: "Data"
  top: "data"
  top: "label"
  include {
    phase: TEST
  }
  transform_param {
    mean_file: "/opt/caffe/examples/cifar10/mean.binaryproto"
  }
  data_param {
    source: "/opt/caffe/examples/cifar10/cifar10_test_lmdb"
    batch_size: 100
    backend: LMDB
  }
}
layer {
  name: "conv_s_1"
  type: "Convolution"
  bottom: "data"
  top: "conv_s_1"
  param {
    lr_mult: 1
  }
  param {
    lr_mult: 2
  }
  convolution_param {
    num_output: 32
    pad: 2
    kernel_size: 5
    stride: 1
    weight_filler {
      type: "gaussian"
      std: 0.0001
    }
    bias_filler {
      type: "constant"
    }
  }
}
layer {
  name: "pool_s_1"
  type: "Pooling"
  bottom: "conv_s_1"
  top: "pool_s_1"
  pooling_param {
    pool: MAX
    kernel_size: 3
    stride: 2
  }
}
layer {
  name: "relu_s_1"
  type: "ReLU"
  bottom: "pool_s_1"
  top: "pool_s_1"
}
layer {
  name: "norm_s_1"
  type: "LRN"
  bottom: "pool_s_1"
  top: "norm_s_1"
  lrn_param {
    local_size: 3
    alpha: 5e-05
    beta: 0.75
    norm_region: WITHIN_CHANNEL
  }
}
layer {
  name: "conv_s_2"
  type: "Convolution"
  bottom: "norm_s_1"
  top: "conv_s_2"
  param {
    lr_mult: 1
  }
  param {
    lr_mult: 2
  }
  convolution_param {
    num_output: 32
    pad: 2
    kernel_size: 5
    stride: 1
    weight_filler {
      type: "gaussian"
      std: 0.01
    }
    bias_filler {
      type: "constant"
    }
  }
}
layer {
  name: "relu_s_2"
  type: "ReLU"
  bottom: "conv_s_2"
  top: "conv_s_2"
}
layer {
  name: "pool_s_2"
  type: "Pooling"
  bottom: "conv_s_2"
  top: "pool_s_2"
  pooling_param {
    pool: AVE
    kernel_size: 3
    stride: 2
  }
}
layer {
  name: "norm_s_2"
  type: "LRN"
  bottom: "pool_s_2"
  top: "norm_s_2"
  lrn_param {
    local_size: 3
    alpha: 5e-05
    beta: 0.75
    norm_region: WITHIN_CHANNEL
  }
}
layer {
  name: "conv_s_3"
  type: "Convolution"
  bottom: "norm_s_2"
  top: "conv_s_3"
  param {
    lr_mult: 1
  }
  param {
    lr_mult: 2
  }
  convolution_param {
    num_output: 64
    pad: 2
    kernel_size: 5
    stride: 1
    weight_filler {
      type: "gaussian"
      std: 0.01
    }
    bias_filler {
      type: "constant"
    }
  }
}
layer {
  name: "relu_s_3"
  type: "ReLU"
  bottom: "conv_s_3"
  top: "conv_s_3"
}
layer {
  name: "pool_s_3"
  type: "Pooling"
  bottom: "conv_s_3"
  top: "pool_s_3"
  pooling_param {
    pool: AVE
    kernel_size: 3
    stride: 2
  }
}
layer {
  name: "ip_s_1"
  type: "InnerProduct"
  bottom: "pool_s_3"
  top: "ip_s_1"
  param {
    lr_mult: 1
    decay_mult: 250
  }
  param {
    lr_mult: 2
    decay_mult: 0
  }
  inner_product_param {
    num_output: 10
    weight_filler {
      type: "gaussian"
      std: 0.01
    }
    bias_filler {
      type: "constant"
    }
  }
}
layer {
  name: "conv_t_1"
  type: "Convolution"
  bottom: "data"
  top: "conv_t_1"
  param {
    lr_mult: 0
  }
  param {
    lr_mult: 0
  }
  convolution_param {
    num_output: 32
    pad: 2
    kernel_size: 5
    stride: 1
    weight_filler {
      type: "gaussian"
      std: 0.0001
    }
    bias_filler {
      type: "constant"
    }
  }
}
layer {
  name: "pool_t_1"
  type: "Pooling"
  bottom: "conv_t_1"
  top: "pool_t_1"
  pooling_param {
    pool: MAX
    kernel_size: 3
    stride: 2
  }
}
layer {
  name: "relu_t_1"
  type: "ReLU"
  bottom: "pool_t_1"
  top: "pool_t_1"
}
layer {
  name: "norm_t_1"
  type: "LRN"
  bottom: "pool_t_1"
  top: "norm_t_1"
  lrn_param {
    local_size: 3
    alpha: 5e-05
    beta: 0.75
    norm_region: WITHIN_CHANNEL
  }
}
layer {
  name: "conv_t_2"
  type: "Convolution"
  bottom: "norm_t_1"
  top: "conv_t_2"
  param {
    lr_mult: 0
  }
  param {
    lr_mult: 0
  }
  convolution_param {
    num_output: 32
    pad: 2
    kernel_size: 5
    stride: 1
    weight_filler {
      type: "gaussian"
      std: 0.01
    }
    bias_filler {
      type: "constant"
    }
  }
}
layer {
  name: "relu_t_2"
  type: "ReLU"
  bottom: "conv_t_2"
  top: "conv_t_2"
}
layer {
  name: "pool_t_2"
  type: "Pooling"
  bottom: "conv_t_2"
  top: "pool_t_2"
  pooling_param {
    pool: AVE
    kernel_size: 3
    stride: 2
  }
}
layer {
  name: "norm_t_2"
  type: "LRN"
  bottom: "pool_t_2"
  top: "norm_t_2"
  lrn_param {
    local_size: 3
    alpha: 5e-05
    beta: 0.75
    norm_region: WITHIN_CHANNEL
  }
}
layer {
  name: "conv_t_3"
  type: "Convolution"
  bottom: "norm_t_2"
  top: "conv_t_3"
  param {
    lr_mult: 0
  }
  param {
    lr_mult: 0
  }
  convolution_param {
    num_output: 64
    pad: 2
    kernel_size: 5
    stride: 1
    weight_filler {
      type: "gaussian"
      std: 0.01
    }
    bias_filler {
      type: "constant"
    }
  }
}
layer {
  name: "relu_t_3"
  type: "ReLU"
  bottom: "conv_t_3"
  top: "conv_t_3"
}
layer {
  name: "pool_t_3"
  type: "Pooling"
  bottom: "conv_t_3"
  top: "pool_t_3"
  pooling_param {
    pool: AVE
    kernel_size: 3
    stride: 2
  }
}
layer {
  name: "ip_t_1"
  type: "InnerProduct"
  bottom: "pool_t_3"
  top: "ip_t_1"
  param {
    lr_mult: 0
  }
  param {
    lr_mult: 0
  }
  inner_product_param {
    num_output: 10
    weight_filler {
      type: "gaussian"
      std: 0.01
    }
    bias_filler {
      type: "constant"
    }
  }
}
layer {
  name: "sm_s_1"
  type: "Softmax"
  bottom: "ip_s_1"
  top: "sm_s_1"
}
layer {
  name: "sm_t_1"
  type: "Softmax"
  bottom: "ip_t_1"
  top: "sm_t_1"
}
layer {
  name: "accuracy"
  type: "Accuracy"
  bottom: "ip_s_1"
  bottom: "label"
  top: "accuracy"
  include {
    phase: TEST
  }
}
layer {
  name: "ts_loss"
  type: "SigmoidCrossEntropyLoss"
  bottom: "sm_s_1"
  bottom: "sm_t_1"
  top: "ts_loss"
  loss_weight: 0.2
}
layer {
  name: "loss"
  type: "SoftmaxWithLoss"
  bottom: "ip_s_1"
  bottom: "label"
  top: "loss"
  loss_weight: 0.8
}
I0801 16:11:44.577785  2105 layer_factory.hpp:77] Creating layer cifar
I0801 16:11:44.577848  2105 db_lmdb.cpp:35] Opened lmdb /opt/caffe/examples/cifar10/cifar10_test_lmdb
I0801 16:11:44.577865  2105 net.cpp:84] Creating Layer cifar
I0801 16:11:44.577875  2105 net.cpp:380] cifar -> data
I0801 16:11:44.577886  2105 net.cpp:380] cifar -> label
I0801 16:11:44.577896  2105 data_transformer.cpp:25] Loading mean file from: /opt/caffe/examples/cifar10/mean.binaryproto
I0801 16:11:44.578027  2105 data_layer.cpp:45] output data size: 100,3,32,32
I0801 16:11:44.582077  2105 net.cpp:122] Setting up cifar
I0801 16:11:44.582119  2105 net.cpp:129] Top shape: 100 3 32 32 (307200)
I0801 16:11:44.582129  2105 net.cpp:129] Top shape: 100 (100)
I0801 16:11:44.582136  2105 net.cpp:137] Memory required for data: 1229200
I0801 16:11:44.582146  2105 layer_factory.hpp:77] Creating layer data_cifar_0_split
I0801 16:11:44.582164  2105 net.cpp:84] Creating Layer data_cifar_0_split
I0801 16:11:44.582171  2105 net.cpp:406] data_cifar_0_split <- data
I0801 16:11:44.582182  2105 net.cpp:380] data_cifar_0_split -> data_cifar_0_split_0
I0801 16:11:44.582195  2105 net.cpp:380] data_cifar_0_split -> data_cifar_0_split_1
I0801 16:11:44.582239  2105 net.cpp:122] Setting up data_cifar_0_split
I0801 16:11:44.582250  2105 net.cpp:129] Top shape: 100 3 32 32 (307200)
I0801 16:11:44.582257  2105 net.cpp:129] Top shape: 100 3 32 32 (307200)
I0801 16:11:44.582264  2105 net.cpp:137] Memory required for data: 3686800
I0801 16:11:44.582270  2105 layer_factory.hpp:77] Creating layer label_cifar_1_split
I0801 16:11:44.582286  2105 net.cpp:84] Creating Layer label_cifar_1_split
I0801 16:11:44.582301  2105 net.cpp:406] label_cifar_1_split <- label
I0801 16:11:44.582311  2105 net.cpp:380] label_cifar_1_split -> label_cifar_1_split_0
I0801 16:11:44.582321  2105 net.cpp:380] label_cifar_1_split -> label_cifar_1_split_1
I0801 16:11:44.582357  2105 net.cpp:122] Setting up label_cifar_1_split
I0801 16:11:44.582367  2105 net.cpp:129] Top shape: 100 (100)
I0801 16:11:44.582375  2105 net.cpp:129] Top shape: 100 (100)
I0801 16:11:44.582381  2105 net.cpp:137] Memory required for data: 3687600
I0801 16:11:44.582387  2105 layer_factory.hpp:77] Creating layer conv_s_1
I0801 16:11:44.582401  2105 net.cpp:84] Creating Layer conv_s_1
I0801 16:11:44.582409  2105 net.cpp:406] conv_s_1 <- data_cifar_0_split_0
I0801 16:11:44.582418  2105 net.cpp:380] conv_s_1 -> conv_s_1
I0801 16:11:44.583580  2105 net.cpp:122] Setting up conv_s_1
I0801 16:11:44.583597  2105 net.cpp:129] Top shape: 100 32 32 32 (3276800)
I0801 16:11:44.583605  2105 net.cpp:137] Memory required for data: 16794800
I0801 16:11:44.583617  2105 layer_factory.hpp:77] Creating layer pool_s_1
I0801 16:11:44.583631  2105 net.cpp:84] Creating Layer pool_s_1
I0801 16:11:44.583637  2105 net.cpp:406] pool_s_1 <- conv_s_1
I0801 16:11:44.583647  2105 net.cpp:380] pool_s_1 -> pool_s_1
I0801 16:11:44.583712  2105 net.cpp:122] Setting up pool_s_1
I0801 16:11:44.583724  2105 net.cpp:129] Top shape: 100 32 16 16 (819200)
I0801 16:11:44.583730  2105 net.cpp:137] Memory required for data: 20071600
I0801 16:11:44.583737  2105 layer_factory.hpp:77] Creating layer relu_s_1
I0801 16:11:44.583746  2105 net.cpp:84] Creating Layer relu_s_1
I0801 16:11:44.583753  2105 net.cpp:406] relu_s_1 <- pool_s_1
I0801 16:11:44.583761  2105 net.cpp:367] relu_s_1 -> pool_s_1 (in-place)
I0801 16:11:44.583899  2105 net.cpp:122] Setting up relu_s_1
I0801 16:11:44.583910  2105 net.cpp:129] Top shape: 100 32 16 16 (819200)
I0801 16:11:44.583917  2105 net.cpp:137] Memory required for data: 23348400
I0801 16:11:44.583925  2105 layer_factory.hpp:77] Creating layer norm_s_1
I0801 16:11:44.583935  2105 net.cpp:84] Creating Layer norm_s_1
I0801 16:11:44.583942  2105 net.cpp:406] norm_s_1 <- pool_s_1
I0801 16:11:44.583950  2105 net.cpp:380] norm_s_1 -> norm_s_1
I0801 16:11:44.584565  2105 net.cpp:122] Setting up norm_s_1
I0801 16:11:44.584583  2105 net.cpp:129] Top shape: 100 32 16 16 (819200)
I0801 16:11:44.584589  2105 net.cpp:137] Memory required for data: 26625200
I0801 16:11:44.584596  2105 layer_factory.hpp:77] Creating layer conv_s_2
I0801 16:11:44.584609  2105 net.cpp:84] Creating Layer conv_s_2
I0801 16:11:44.584616  2105 net.cpp:406] conv_s_2 <- norm_s_1
I0801 16:11:44.584626  2105 net.cpp:380] conv_s_2 -> conv_s_2
I0801 16:11:44.585775  2105 net.cpp:122] Setting up conv_s_2
I0801 16:11:44.585794  2105 net.cpp:129] Top shape: 100 32 16 16 (819200)
I0801 16:11:44.585803  2105 net.cpp:137] Memory required for data: 29902000
I0801 16:11:44.585813  2105 layer_factory.hpp:77] Creating layer relu_s_2
I0801 16:11:44.585824  2105 net.cpp:84] Creating Layer relu_s_2
I0801 16:11:44.585831  2105 net.cpp:406] relu_s_2 <- conv_s_2
I0801 16:11:44.585840  2105 net.cpp:367] relu_s_2 -> conv_s_2 (in-place)
I0801 16:11:44.585981  2105 net.cpp:122] Setting up relu_s_2
I0801 16:11:44.585994  2105 net.cpp:129] Top shape: 100 32 16 16 (819200)
I0801 16:11:44.586001  2105 net.cpp:137] Memory required for data: 33178800
I0801 16:11:44.586009  2105 layer_factory.hpp:77] Creating layer pool_s_2
I0801 16:11:44.586019  2105 net.cpp:84] Creating Layer pool_s_2
I0801 16:11:44.586025  2105 net.cpp:406] pool_s_2 <- conv_s_2
I0801 16:11:44.586033  2105 net.cpp:380] pool_s_2 -> pool_s_2
I0801 16:11:44.586370  2105 net.cpp:122] Setting up pool_s_2
I0801 16:11:44.586385  2105 net.cpp:129] Top shape: 100 32 8 8 (204800)
I0801 16:11:44.586392  2105 net.cpp:137] Memory required for data: 33998000
I0801 16:11:44.586398  2105 layer_factory.hpp:77] Creating layer norm_s_2
I0801 16:11:44.586408  2105 net.cpp:84] Creating Layer norm_s_2
I0801 16:11:44.586416  2105 net.cpp:406] norm_s_2 <- pool_s_2
I0801 16:11:44.586436  2105 net.cpp:380] norm_s_2 -> norm_s_2
I0801 16:11:44.586628  2105 net.cpp:122] Setting up norm_s_2
I0801 16:11:44.586642  2105 net.cpp:129] Top shape: 100 32 8 8 (204800)
I0801 16:11:44.586648  2105 net.cpp:137] Memory required for data: 34817200
I0801 16:11:44.586654  2105 layer_factory.hpp:77] Creating layer conv_s_3
I0801 16:11:44.586666  2105 net.cpp:84] Creating Layer conv_s_3
I0801 16:11:44.586674  2105 net.cpp:406] conv_s_3 <- norm_s_2
I0801 16:11:44.586683  2105 net.cpp:380] conv_s_3 -> conv_s_3
I0801 16:11:44.587713  2105 net.cpp:122] Setting up conv_s_3
I0801 16:11:44.587729  2105 net.cpp:129] Top shape: 100 64 8 8 (409600)
I0801 16:11:44.587738  2105 net.cpp:137] Memory required for data: 36455600
I0801 16:11:44.587749  2105 layer_factory.hpp:77] Creating layer relu_s_3
I0801 16:11:44.587757  2105 net.cpp:84] Creating Layer relu_s_3
I0801 16:11:44.587764  2105 net.cpp:406] relu_s_3 <- conv_s_3
I0801 16:11:44.587774  2105 net.cpp:367] relu_s_3 -> conv_s_3 (in-place)
I0801 16:11:44.587900  2105 net.cpp:122] Setting up relu_s_3
I0801 16:11:44.587913  2105 net.cpp:129] Top shape: 100 64 8 8 (409600)
I0801 16:11:44.587918  2105 net.cpp:137] Memory required for data: 38094000
I0801 16:11:44.587925  2105 layer_factory.hpp:77] Creating layer pool_s_3
I0801 16:11:44.587934  2105 net.cpp:84] Creating Layer pool_s_3
I0801 16:11:44.587940  2105 net.cpp:406] pool_s_3 <- conv_s_3
I0801 16:11:44.587949  2105 net.cpp:380] pool_s_3 -> pool_s_3
I0801 16:11:44.588277  2105 net.cpp:122] Setting up pool_s_3
I0801 16:11:44.588294  2105 net.cpp:129] Top shape: 100 64 4 4 (102400)
I0801 16:11:44.588300  2105 net.cpp:137] Memory required for data: 38503600
I0801 16:11:44.588307  2105 layer_factory.hpp:77] Creating layer ip_s_1
I0801 16:11:44.588317  2105 net.cpp:84] Creating Layer ip_s_1
I0801 16:11:44.588325  2105 net.cpp:406] ip_s_1 <- pool_s_3
I0801 16:11:44.588333  2105 net.cpp:380] ip_s_1 -> ip_s_1
I0801 16:11:44.588479  2105 net.cpp:122] Setting up ip_s_1
I0801 16:11:44.588490  2105 net.cpp:129] Top shape: 100 10 (1000)
I0801 16:11:44.588495  2105 net.cpp:137] Memory required for data: 38507600
I0801 16:11:44.588503  2105 layer_factory.hpp:77] Creating layer ip_s_1_ip_s_1_0_split
I0801 16:11:44.588513  2105 net.cpp:84] Creating Layer ip_s_1_ip_s_1_0_split
I0801 16:11:44.588521  2105 net.cpp:406] ip_s_1_ip_s_1_0_split <- ip_s_1
I0801 16:11:44.588528  2105 net.cpp:380] ip_s_1_ip_s_1_0_split -> ip_s_1_ip_s_1_0_split_0
I0801 16:11:44.588538  2105 net.cpp:380] ip_s_1_ip_s_1_0_split -> ip_s_1_ip_s_1_0_split_1
I0801 16:11:44.588549  2105 net.cpp:380] ip_s_1_ip_s_1_0_split -> ip_s_1_ip_s_1_0_split_2
I0801 16:11:44.588593  2105 net.cpp:122] Setting up ip_s_1_ip_s_1_0_split
I0801 16:11:44.588603  2105 net.cpp:129] Top shape: 100 10 (1000)
I0801 16:11:44.588610  2105 net.cpp:129] Top shape: 100 10 (1000)
I0801 16:11:44.588618  2105 net.cpp:129] Top shape: 100 10 (1000)
I0801 16:11:44.588624  2105 net.cpp:137] Memory required for data: 38519600
I0801 16:11:44.588631  2105 layer_factory.hpp:77] Creating layer conv_t_1
I0801 16:11:44.588644  2105 net.cpp:84] Creating Layer conv_t_1
I0801 16:11:44.588651  2105 net.cpp:406] conv_t_1 <- data_cifar_0_split_1
I0801 16:11:44.588660  2105 net.cpp:380] conv_t_1 -> conv_t_1
I0801 16:11:44.589437  2105 net.cpp:122] Setting up conv_t_1
I0801 16:11:44.589453  2105 net.cpp:129] Top shape: 100 32 32 32 (3276800)
I0801 16:11:44.589462  2105 net.cpp:137] Memory required for data: 51626800
I0801 16:11:44.589473  2105 layer_factory.hpp:77] Creating layer pool_t_1
I0801 16:11:44.589483  2105 net.cpp:84] Creating Layer pool_t_1
I0801 16:11:44.589489  2105 net.cpp:406] pool_t_1 <- conv_t_1
I0801 16:11:44.589498  2105 net.cpp:380] pool_t_1 -> pool_t_1
I0801 16:11:44.589534  2105 net.cpp:122] Setting up pool_t_1
I0801 16:11:44.589545  2105 net.cpp:129] Top shape: 100 32 16 16 (819200)
I0801 16:11:44.589551  2105 net.cpp:137] Memory required for data: 54903600
I0801 16:11:44.589557  2105 layer_factory.hpp:77] Creating layer relu_t_1
I0801 16:11:44.589565  2105 net.cpp:84] Creating Layer relu_t_1
I0801 16:11:44.589581  2105 net.cpp:406] relu_t_1 <- pool_t_1
I0801 16:11:44.589589  2105 net.cpp:367] relu_t_1 -> pool_t_1 (in-place)
I0801 16:11:44.589720  2105 net.cpp:122] Setting up relu_t_1
I0801 16:11:44.589731  2105 net.cpp:129] Top shape: 100 32 16 16 (819200)
I0801 16:11:44.589738  2105 net.cpp:137] Memory required for data: 58180400
I0801 16:11:44.589745  2105 layer_factory.hpp:77] Creating layer norm_t_1
I0801 16:11:44.589753  2105 net.cpp:84] Creating Layer norm_t_1
I0801 16:11:44.589761  2105 net.cpp:406] norm_t_1 <- pool_t_1
I0801 16:11:44.589768  2105 net.cpp:380] norm_t_1 -> norm_t_1
I0801 16:11:44.590328  2105 net.cpp:122] Setting up norm_t_1
I0801 16:11:44.590343  2105 net.cpp:129] Top shape: 100 32 16 16 (819200)
I0801 16:11:44.590351  2105 net.cpp:137] Memory required for data: 61457200
I0801 16:11:44.590358  2105 layer_factory.hpp:77] Creating layer conv_t_2
I0801 16:11:44.590369  2105 net.cpp:84] Creating Layer conv_t_2
I0801 16:11:44.590376  2105 net.cpp:406] conv_t_2 <- norm_t_1
I0801 16:11:44.590386  2105 net.cpp:380] conv_t_2 -> conv_t_2
I0801 16:11:44.591466  2105 net.cpp:122] Setting up conv_t_2
I0801 16:11:44.591482  2105 net.cpp:129] Top shape: 100 32 16 16 (819200)
I0801 16:11:44.591490  2105 net.cpp:137] Memory required for data: 64734000
I0801 16:11:44.591498  2105 layer_factory.hpp:77] Creating layer relu_t_2
I0801 16:11:44.591507  2105 net.cpp:84] Creating Layer relu_t_2
I0801 16:11:44.591514  2105 net.cpp:406] relu_t_2 <- conv_t_2
I0801 16:11:44.591523  2105 net.cpp:367] relu_t_2 -> conv_t_2 (in-place)
I0801 16:11:44.591848  2105 net.cpp:122] Setting up relu_t_2
I0801 16:11:44.591864  2105 net.cpp:129] Top shape: 100 32 16 16 (819200)
I0801 16:11:44.591871  2105 net.cpp:137] Memory required for data: 68010800
I0801 16:11:44.591878  2105 layer_factory.hpp:77] Creating layer pool_t_2
I0801 16:11:44.591887  2105 net.cpp:84] Creating Layer pool_t_2
I0801 16:11:44.591895  2105 net.cpp:406] pool_t_2 <- conv_t_2
I0801 16:11:44.591903  2105 net.cpp:380] pool_t_2 -> pool_t_2
I0801 16:11:44.592039  2105 net.cpp:122] Setting up pool_t_2
I0801 16:11:44.592053  2105 net.cpp:129] Top shape: 100 32 8 8 (204800)
I0801 16:11:44.592061  2105 net.cpp:137] Memory required for data: 68830000
I0801 16:11:44.592067  2105 layer_factory.hpp:77] Creating layer norm_t_2
I0801 16:11:44.592075  2105 net.cpp:84] Creating Layer norm_t_2
I0801 16:11:44.592082  2105 net.cpp:406] norm_t_2 <- pool_t_2
I0801 16:11:44.592092  2105 net.cpp:380] norm_t_2 -> norm_t_2
I0801 16:11:44.592288  2105 net.cpp:122] Setting up norm_t_2
I0801 16:11:44.592300  2105 net.cpp:129] Top shape: 100 32 8 8 (204800)
I0801 16:11:44.592306  2105 net.cpp:137] Memory required for data: 69649200
I0801 16:11:44.592314  2105 layer_factory.hpp:77] Creating layer conv_t_3
I0801 16:11:44.592324  2105 net.cpp:84] Creating Layer conv_t_3
I0801 16:11:44.592332  2105 net.cpp:406] conv_t_3 <- norm_t_2
I0801 16:11:44.592341  2105 net.cpp:380] conv_t_3 -> conv_t_3
I0801 16:11:44.593438  2105 net.cpp:122] Setting up conv_t_3
I0801 16:11:44.593463  2105 net.cpp:129] Top shape: 100 64 8 8 (409600)
I0801 16:11:44.593472  2105 net.cpp:137] Memory required for data: 71287600
I0801 16:11:44.593482  2105 layer_factory.hpp:77] Creating layer relu_t_3
I0801 16:11:44.593493  2105 net.cpp:84] Creating Layer relu_t_3
I0801 16:11:44.593500  2105 net.cpp:406] relu_t_3 <- conv_t_3
I0801 16:11:44.593509  2105 net.cpp:367] relu_t_3 -> conv_t_3 (in-place)
I0801 16:11:44.593644  2105 net.cpp:122] Setting up relu_t_3
I0801 16:11:44.593657  2105 net.cpp:129] Top shape: 100 64 8 8 (409600)
I0801 16:11:44.593663  2105 net.cpp:137] Memory required for data: 72926000
I0801 16:11:44.593670  2105 layer_factory.hpp:77] Creating layer pool_t_3
I0801 16:11:44.593678  2105 net.cpp:84] Creating Layer pool_t_3
I0801 16:11:44.593686  2105 net.cpp:406] pool_t_3 <- conv_t_3
I0801 16:11:44.593694  2105 net.cpp:380] pool_t_3 -> pool_t_3
I0801 16:11:44.594665  2105 net.cpp:122] Setting up pool_t_3
I0801 16:11:44.594681  2105 net.cpp:129] Top shape: 100 64 4 4 (102400)
I0801 16:11:44.594692  2105 net.cpp:137] Memory required for data: 73335600
I0801 16:11:44.594707  2105 layer_factory.hpp:77] Creating layer ip_t_1
I0801 16:11:44.594718  2105 net.cpp:84] Creating Layer ip_t_1
I0801 16:11:44.594727  2105 net.cpp:406] ip_t_1 <- pool_t_3
I0801 16:11:44.594736  2105 net.cpp:380] ip_t_1 -> ip_t_1
I0801 16:11:44.594883  2105 net.cpp:122] Setting up ip_t_1
I0801 16:11:44.594893  2105 net.cpp:129] Top shape: 100 10 (1000)
I0801 16:11:44.594900  2105 net.cpp:137] Memory required for data: 73339600
I0801 16:11:44.594909  2105 layer_factory.hpp:77] Creating layer sm_s_1
I0801 16:11:44.594918  2105 net.cpp:84] Creating Layer sm_s_1
I0801 16:11:44.594925  2105 net.cpp:406] sm_s_1 <- ip_s_1_ip_s_1_0_split_0
I0801 16:11:44.594933  2105 net.cpp:380] sm_s_1 -> sm_s_1
I0801 16:11:44.595108  2105 net.cpp:122] Setting up sm_s_1
I0801 16:11:44.595120  2105 net.cpp:129] Top shape: 100 10 (1000)
I0801 16:11:44.595127  2105 net.cpp:137] Memory required for data: 73343600
I0801 16:11:44.595134  2105 layer_factory.hpp:77] Creating layer sm_t_1
I0801 16:11:44.595141  2105 net.cpp:84] Creating Layer sm_t_1
I0801 16:11:44.595149  2105 net.cpp:406] sm_t_1 <- ip_t_1
I0801 16:11:44.595157  2105 net.cpp:380] sm_t_1 -> sm_t_1
I0801 16:11:44.595321  2105 net.cpp:122] Setting up sm_t_1
I0801 16:11:44.595333  2105 net.cpp:129] Top shape: 100 10 (1000)
I0801 16:11:44.595340  2105 net.cpp:137] Memory required for data: 73347600
I0801 16:11:44.595346  2105 layer_factory.hpp:77] Creating layer accuracy
I0801 16:11:44.595355  2105 net.cpp:84] Creating Layer accuracy
I0801 16:11:44.595362  2105 net.cpp:406] accuracy <- ip_s_1_ip_s_1_0_split_1
I0801 16:11:44.595371  2105 net.cpp:406] accuracy <- label_cifar_1_split_0
I0801 16:11:44.595379  2105 net.cpp:380] accuracy -> accuracy
…
