…
I0814 21:51:17.207180  2973 net.cpp:313] The NetState phase (0) differed from the phase (1) specified by a rule in layer accuracy
I0814 21:51:17.207383  2973 net.cpp:49] Initializing net from parameters: 
name: "CIFAR10_full"
state {
  phase: TRAIN
}
layer {
  name: "cifar"
  type: "Data"
  top: "data"
  top: "label"
  include {
    phase: TRAIN
  }
  transform_param {
    mean_file: "/home/ubuntu/caffe/examples/cifar10/mean.binaryproto"
  }
  data_param {
    source: "/home/ubuntu/caffe/examples/cifar10/cifar10_train_lmdb"
    batch_size: 100
    backend: LMDB
  }
}
layer {
  name: "conv_s_1"
  type: "Convolution"
  bottom: "data"
  top: "conv_s_1"
  param {
    lr_mult: 1
  }
  param {
    lr_mult: 2
  }
  convolution_param {
    num_output: 32
    pad: 2
    kernel_size: 5
    stride: 1
    weight_filler {
      type: "gaussian"
      std: 0.0001
    }
    bias_filler {
      type: "constant"
    }
  }
}
layer {
  name: "pool_s_1"
  type: "Pooling"
  bottom: "conv_s_1"
  top: "pool_s_1"
  pooling_param {
    pool: MAX
    kernel_size: 3
    stride: 2
  }
}
layer {
  name: "relu_s_1"
  type: "ReLU"
  bottom: "pool_s_1"
  top: "pool_s_1"
}
layer {
  name: "norm_s_1"
  type: "LRN"
  bottom: "pool_s_1"
  top: "norm_s_1"
  lrn_param {
    local_size: 3
    alpha: 5e-05
    beta: 0.75
    norm_region: WITHIN_CHANNEL
  }
}
layer {
  name: "conv_s_2"
  type: "Convolution"
  bottom: "norm_s_1"
  top: "conv_s_2"
  param {
    lr_mult: 1
  }
  param {
    lr_mult: 2
  }
  convolution_param {
    num_output: 32
    pad: 2
    kernel_size: 5
    stride: 1
    weight_filler {
      type: "gaussian"
      std: 0.01
    }
    bias_filler {
      type: "constant"
    }
  }
}
layer {
  name: "relu_s_2"
  type: "ReLU"
  bottom: "conv_s_2"
  top: "conv_s_2"
}
layer {
  name: "pool_s_2"
  type: "Pooling"
  bottom: "conv_s_2"
  top: "pool_s_2"
  pooling_param {
    pool: AVE
    kernel_size: 3
    stride: 2
  }
}
layer {
  name: "norm_s_2"
  type: "LRN"
  bottom: "pool_s_2"
  top: "norm_s_2"
  lrn_param {
    local_size: 3
    alpha: 5e-05
    beta: 0.75
    norm_region: WITHIN_CHANNEL
  }
}
layer {
  name: "conv_s_3"
  type: "Convolution"
  bottom: "norm_s_2"
  top: "conv_s_3"
  param {
    lr_mult: 1
  }
  param {
    lr_mult: 2
  }
  convolution_param {
    num_output: 64
    pad: 2
    kernel_size: 5
    stride: 1
    weight_filler {
      type: "gaussian"
      std: 0.01
    }
    bias_filler {
      type: "constant"
    }
  }
}
layer {
  name: "relu_s_3"
  type: "ReLU"
  bottom: "conv_s_3"
  top: "conv_s_3"
}
layer {
  name: "pool_s_3"
  type: "Pooling"
  bottom: "conv_s_3"
  top: "pool_s_3"
  pooling_param {
    pool: AVE
    kernel_size: 3
    stride: 2
  }
}
layer {
  name: "ip_s_1"
  type: "InnerProduct"
  bottom: "pool_s_3"
  top: "ip_s_1"
  param {
    lr_mult: 1
    decay_mult: 250
  }
  param {
    lr_mult: 2
    decay_mult: 0
  }
  inner_product_param {
    num_output: 10
    weight_filler {
      type: "gaussian"
      std: 0.01
    }
    bias_filler {
      type: "constant"
    }
  }
}
layer {
  name: "conv_t_1"
  type: "Convolution"
  bottom: "data"
  top: "conv_t_1"
  param {
    lr_mult: 0
  }
  param {
    lr_mult: 0
  }
  convolution_param {
    num_output: 32
    pad: 2
    kernel_size: 5
    stride: 1
    weight_filler {
      type: "gaussian"
      std: 0.0001
    }
    bias_filler {
      type: "constant"
    }
  }
}
layer {
  name: "pool_t_1"
  type: "Pooling"
  bottom: "conv_t_1"
  top: "pool_t_1"
  pooling_param {
    pool: MAX
    kernel_size: 3
    stride: 2
  }
}
layer {
  name: "relu_t_1"
  type: "ReLU"
  bottom: "pool_t_1"
  top: "pool_t_1"
}
layer {
  name: "norm_t_1"
  type: "LRN"
  bottom: "pool_t_1"
  top: "norm_t_1"
  lrn_param {
    local_size: 3
    alpha: 5e-05
    beta: 0.75
    norm_region: WITHIN_CHANNEL
  }
}
layer {
  name: "conv_t_2"
  type: "Convolution"
  bottom: "norm_t_1"
  top: "conv_t_2"
  param {
    lr_mult: 0
  }
  param {
    lr_mult: 0
  }
  convolution_param {
    num_output: 32
    pad: 2
    kernel_size: 5
    stride: 1
    weight_filler {
      type: "gaussian"
      std: 0.01
    }
    bias_filler {
      type: "constant"
    }
  }
}
layer {
  name: "relu_t_2"
  type: "ReLU"
  bottom: "conv_t_2"
  top: "conv_t_2"
}
layer {
  name: "pool_t_2"
  type: "Pooling"
  bottom: "conv_t_2"
  top: "pool_t_2"
  pooling_param {
    pool: AVE
    kernel_size: 3
    stride: 2
  }
}
layer {
  name: "norm_t_2"
  type: "LRN"
  bottom: "pool_t_2"
  top: "norm_t_2"
  lrn_param {
    local_size: 3
    alpha: 5e-05
    beta: 0.75
    norm_region: WITHIN_CHANNEL
  }
}
layer {
  name: "conv_t_3"
  type: "Convolution"
  bottom: "norm_t_2"
  top: "conv_t_3"
  param {
    lr_mult: 0
  }
  param {
    lr_mult: 0
  }
  convolution_param {
    num_output: 64
    pad: 2
    kernel_size: 5
    stride: 1
    weight_filler {
      type: "gaussian"
      std: 0.01
    }
    bias_filler {
      type: "constant"
    }
  }
}
layer {
  name: "relu_t_3"
  type: "ReLU"
  bottom: "conv_t_3"
  top: "conv_t_3"
}
layer {
  name: "pool_t_3"
  type: "Pooling"
  bottom: "conv_t_3"
  top: "pool_t_3"
  pooling_param {
    pool: AVE
    kernel_size: 3
    stride: 2
  }
}
layer {
  name: "ip_t_1"
  type: "InnerProduct"
  bottom: "pool_t_3"
  top: "ip_t_1"
  param {
    lr_mult: 0
  }
  param {
    lr_mult: 0
  }
  inner_product_param {
    num_output: 10
    weight_filler {
      type: "gaussian"
      std: 0.01
    }
    bias_filler {
      type: "constant"
    }
  }
}
layer {
  name: "sm_s_1"
  type: "Softmax"
  bottom: "ip_s_1"
  top: "sm_s_1"
}
layer {
  name: "sm_t_1"
  type: "Softmax"
  bottom: "ip_t_1"
  top: "sm_t_1"
}
layer {
  name: "ts_loss"
  type: "SigmoidCrossEntropyLoss"
  bottom: "sm_s_1"
  bottom: "sm_t_1"
  top: "ts_loss"
  loss_weight: 0.05
}
layer {
  name: "loss"
  type: "SoftmaxWithLoss"
  bottom: "ip_s_1"
  bottom: "label"
  top: "loss"
  loss_weight: 0.95
}
I0814 21:51:17.207597  2973 layer_factory.hpp:77] Creating layer cifar
I0814 21:51:17.208737  2973 net.cpp:91] Creating Layer cifar
I0814 21:51:17.208768  2973 net.cpp:399] cifar -> data
I0814 21:51:17.208819  2973 net.cpp:399] cifar -> label
I0814 21:51:17.208851  2973 data_transformer.cpp:25] Loading mean file from: /home/ubuntu/caffe/examples/cifar10/mean.binaryproto
I0814 21:51:17.209561  2976 db_lmdb.cpp:35] Opened lmdb /home/ubuntu/caffe/examples/cifar10/cifar10_train_lmdb
I0814 21:51:17.221343  2973 data_layer.cpp:41] output data size: 100,3,32,32
I0814 21:51:17.225584  2973 net.cpp:141] Setting up cifar
I0814 21:51:17.225610  2973 net.cpp:148] Top shape: 100 3 32 32 (307200)
I0814 21:51:17.225620  2973 net.cpp:148] Top shape: 100 (100)
I0814 21:51:17.225625  2973 net.cpp:156] Memory required for data: 1229200
I0814 21:51:17.225639  2973 layer_factory.hpp:77] Creating layer data_cifar_0_split
I0814 21:51:17.225664  2973 net.cpp:91] Creating Layer data_cifar_0_split
I0814 21:51:17.225677  2973 net.cpp:425] data_cifar_0_split <- data
I0814 21:51:17.225705  2973 net.cpp:399] data_cifar_0_split -> data_cifar_0_split_0
I0814 21:51:17.225724  2973 net.cpp:399] data_cifar_0_split -> data_cifar_0_split_1
I0814 21:51:17.225785  2973 net.cpp:141] Setting up data_cifar_0_split
I0814 21:51:17.225801  2973 net.cpp:148] Top shape: 100 3 32 32 (307200)
I0814 21:51:17.225810  2973 net.cpp:148] Top shape: 100 3 32 32 (307200)
I0814 21:51:17.225816  2973 net.cpp:156] Memory required for data: 3686800
I0814 21:51:17.225822  2973 layer_factory.hpp:77] Creating layer conv_s_1
I0814 21:51:17.225857  2973 net.cpp:91] Creating Layer conv_s_1
I0814 21:51:17.225888  2973 net.cpp:425] conv_s_1 <- data_cifar_0_split_0
I0814 21:51:17.225905  2973 net.cpp:399] conv_s_1 -> conv_s_1
I0814 21:51:17.397233  2973 net.cpp:141] Setting up conv_s_1
I0814 21:51:17.397277  2973 net.cpp:148] Top shape: 100 32 32 32 (3276800)
I0814 21:51:17.397285  2973 net.cpp:156] Memory required for data: 16794000
I0814 21:51:17.397317  2973 layer_factory.hpp:77] Creating layer pool_s_1
I0814 21:51:17.397343  2973 net.cpp:91] Creating Layer pool_s_1
I0814 21:51:17.397351  2973 net.cpp:425] pool_s_1 <- conv_s_1
I0814 21:51:17.397366  2973 net.cpp:399] pool_s_1 -> pool_s_1
I0814 21:51:17.397442  2973 net.cpp:141] Setting up pool_s_1
I0814 21:51:17.397459  2973 net.cpp:148] Top shape: 100 32 16 16 (819200)
I0814 21:51:17.397465  2973 net.cpp:156] Memory required for data: 20070800
I0814 21:51:17.397471  2973 layer_factory.hpp:77] Creating layer relu_s_1
I0814 21:51:17.397486  2973 net.cpp:91] Creating Layer relu_s_1
I0814 21:51:17.397514  2973 net.cpp:425] relu_s_1 <- pool_s_1
I0814 21:51:17.397524  2973 net.cpp:386] relu_s_1 -> pool_s_1 (in-place)
I0814 21:51:17.397744  2973 net.cpp:141] Setting up relu_s_1
I0814 21:51:17.397764  2973 net.cpp:148] Top shape: 100 32 16 16 (819200)
I0814 21:51:17.397770  2973 net.cpp:156] Memory required for data: 23347600
I0814 21:51:17.397778  2973 layer_factory.hpp:77] Creating layer norm_s_1
I0814 21:51:17.397799  2973 net.cpp:91] Creating Layer norm_s_1
I0814 21:51:17.397807  2973 net.cpp:425] norm_s_1 <- pool_s_1
I0814 21:51:17.397816  2973 net.cpp:399] norm_s_1 -> norm_s_1
I0814 21:51:17.398438  2973 net.cpp:141] Setting up norm_s_1
I0814 21:51:17.398463  2973 net.cpp:148] Top shape: 100 32 16 16 (819200)
I0814 21:51:17.398469  2973 net.cpp:156] Memory required for data: 26624400
I0814 21:51:17.398475  2973 layer_factory.hpp:77] Creating layer conv_s_2
I0814 21:51:17.398499  2973 net.cpp:91] Creating Layer conv_s_2
I0814 21:51:17.398506  2973 net.cpp:425] conv_s_2 <- norm_s_1
I0814 21:51:17.398521  2973 net.cpp:399] conv_s_2 -> conv_s_2
I0814 21:51:17.401034  2973 net.cpp:141] Setting up conv_s_2
I0814 21:51:17.401060  2973 net.cpp:148] Top shape: 100 32 16 16 (819200)
I0814 21:51:17.401067  2973 net.cpp:156] Memory required for data: 29901200
I0814 21:51:17.401083  2973 layer_factory.hpp:77] Creating layer relu_s_2
I0814 21:51:17.401095  2973 net.cpp:91] Creating Layer relu_s_2
I0814 21:51:17.401101  2973 net.cpp:425] relu_s_2 <- conv_s_2
I0814 21:51:17.401116  2973 net.cpp:386] relu_s_2 -> conv_s_2 (in-place)
I0814 21:51:17.401311  2973 net.cpp:141] Setting up relu_s_2
I0814 21:51:17.401332  2973 net.cpp:148] Top shape: 100 32 16 16 (819200)
I0814 21:51:17.401340  2973 net.cpp:156] Memory required for data: 33178000
I0814 21:51:17.401345  2973 layer_factory.hpp:77] Creating layer pool_s_2
I0814 21:51:17.401358  2973 net.cpp:91] Creating Layer pool_s_2
I0814 21:51:17.401365  2973 net.cpp:425] pool_s_2 <- conv_s_2
I0814 21:51:17.401376  2973 net.cpp:399] pool_s_2 -> pool_s_2
I0814 21:51:17.401697  2973 net.cpp:141] Setting up pool_s_2
I0814 21:51:17.401720  2973 net.cpp:148] Top shape: 100 32 8 8 (204800)
I0814 21:51:17.401726  2973 net.cpp:156] Memory required for data: 33997200
I0814 21:51:17.401733  2973 layer_factory.hpp:77] Creating layer norm_s_2
I0814 21:51:17.401747  2973 net.cpp:91] Creating Layer norm_s_2
I0814 21:51:17.401756  2973 net.cpp:425] norm_s_2 <- pool_s_2
I0814 21:51:17.401764  2973 net.cpp:399] norm_s_2 -> norm_s_2
I0814 21:51:17.402252  2973 net.cpp:141] Setting up norm_s_2
I0814 21:51:17.402274  2973 net.cpp:148] Top shape: 100 32 8 8 (204800)
I0814 21:51:17.402281  2973 net.cpp:156] Memory required for data: 34816400
I0814 21:51:17.402288  2973 layer_factory.hpp:77] Creating layer conv_s_3
I0814 21:51:17.402308  2973 net.cpp:91] Creating Layer conv_s_3
I0814 21:51:17.402315  2973 net.cpp:425] conv_s_3 <- norm_s_2
I0814 21:51:17.402331  2973 net.cpp:399] conv_s_3 -> conv_s_3
I0814 21:51:17.404723  2973 net.cpp:141] Setting up conv_s_3
I0814 21:51:17.404748  2973 net.cpp:148] Top shape: 100 64 8 8 (409600)
I0814 21:51:17.404783  2973 net.cpp:156] Memory required for data: 36454800
I0814 21:51:17.404801  2973 layer_factory.hpp:77] Creating layer relu_s_3
I0814 21:51:17.404814  2973 net.cpp:91] Creating Layer relu_s_3
I0814 21:51:17.404820  2973 net.cpp:425] relu_s_3 <- conv_s_3
I0814 21:51:17.404830  2973 net.cpp:386] relu_s_3 -> conv_s_3 (in-place)
I0814 21:51:17.405133  2973 net.cpp:141] Setting up relu_s_3
I0814 21:51:17.405154  2973 net.cpp:148] Top shape: 100 64 8 8 (409600)
I0814 21:51:17.405161  2973 net.cpp:156] Memory required for data: 38093200
I0814 21:51:17.405169  2973 layer_factory.hpp:77] Creating layer pool_s_3
I0814 21:51:17.405179  2973 net.cpp:91] Creating Layer pool_s_3
I0814 21:51:17.405185  2973 net.cpp:425] pool_s_3 <- conv_s_3
I0814 21:51:17.405199  2973 net.cpp:399] pool_s_3 -> pool_s_3
I0814 21:51:17.405411  2973 net.cpp:141] Setting up pool_s_3
I0814 21:51:17.405431  2973 net.cpp:148] Top shape: 100 64 4 4 (102400)
I0814 21:51:17.405436  2973 net.cpp:156] Memory required for data: 38502800
I0814 21:51:17.405442  2973 layer_factory.hpp:77] Creating layer ip_s_1
I0814 21:51:17.405458  2973 net.cpp:91] Creating Layer ip_s_1
I0814 21:51:17.405465  2973 net.cpp:425] ip_s_1 <- pool_s_3
I0814 21:51:17.405480  2973 net.cpp:399] ip_s_1 -> ip_s_1
I0814 21:51:17.406613  2973 net.cpp:141] Setting up ip_s_1
I0814 21:51:17.406635  2973 net.cpp:148] Top shape: 100 10 (1000)
I0814 21:51:17.406641  2973 net.cpp:156] Memory required for data: 38506800
I0814 21:51:17.406652  2973 layer_factory.hpp:77] Creating layer ip_s_1_ip_s_1_0_split
I0814 21:51:17.406666  2973 net.cpp:91] Creating Layer ip_s_1_ip_s_1_0_split
I0814 21:51:17.406673  2973 net.cpp:425] ip_s_1_ip_s_1_0_split <- ip_s_1
I0814 21:51:17.406682  2973 net.cpp:399] ip_s_1_ip_s_1_0_split -> ip_s_1_ip_s_1_0_split_0
I0814 21:51:17.406694  2973 net.cpp:399] ip_s_1_ip_s_1_0_split -> ip_s_1_ip_s_1_0_split_1
I0814 21:51:17.406761  2973 net.cpp:141] Setting up ip_s_1_ip_s_1_0_split
I0814 21:51:17.406776  2973 net.cpp:148] Top shape: 100 10 (1000)
I0814 21:51:17.406785  2973 net.cpp:148] Top shape: 100 10 (1000)
I0814 21:51:17.406790  2973 net.cpp:156] Memory required for data: 38514800
I0814 21:51:17.406795  2973 layer_factory.hpp:77] Creating layer conv_t_1
I0814 21:51:17.406814  2973 net.cpp:91] Creating Layer conv_t_1
I0814 21:51:17.406821  2973 net.cpp:425] conv_t_1 <- data_cifar_0_split_1
I0814 21:51:17.406836  2973 net.cpp:399] conv_t_1 -> conv_t_1
I0814 21:51:17.407863  2973 net.cpp:141] Setting up conv_t_1
I0814 21:51:17.407887  2973 net.cpp:148] Top shape: 100 32 32 32 (3276800)
I0814 21:51:17.407894  2973 net.cpp:156] Memory required for data: 51622000
I0814 21:51:17.407910  2973 layer_factory.hpp:77] Creating layer pool_t_1
I0814 21:51:17.407928  2973 net.cpp:91] Creating Layer pool_t_1
I0814 21:51:17.407935  2973 net.cpp:425] pool_t_1 <- conv_t_1
I0814 21:51:17.407946  2973 net.cpp:399] pool_t_1 -> pool_t_1
I0814 21:51:17.408012  2973 net.cpp:141] Setting up pool_t_1
I0814 21:51:17.408030  2973 net.cpp:148] Top shape: 100 32 16 16 (819200)
I0814 21:51:17.408035  2973 net.cpp:156] Memory required for data: 54898800
I0814 21:51:17.408041  2973 layer_factory.hpp:77] Creating layer relu_t_1
I0814 21:51:17.408051  2973 net.cpp:91] Creating Layer relu_t_1
I0814 21:51:17.408057  2973 net.cpp:425] relu_t_1 <- pool_t_1
I0814 21:51:17.408069  2973 net.cpp:386] relu_t_1 -> pool_t_1 (in-place)
I0814 21:51:17.408362  2973 net.cpp:141] Setting up relu_t_1
I0814 21:51:17.408383  2973 net.cpp:148] Top shape: 100 32 16 16 (819200)
I0814 21:51:17.408390  2973 net.cpp:156] Memory required for data: 58175600
I0814 21:51:17.408396  2973 layer_factory.hpp:77] Creating layer norm_t_1
I0814 21:51:17.408411  2973 net.cpp:91] Creating Layer norm_t_1
I0814 21:51:17.408418  2973 net.cpp:425] norm_t_1 <- pool_t_1
I0814 21:51:17.408447  2973 net.cpp:399] norm_t_1 -> norm_t_1
I0814 21:51:17.408958  2973 net.cpp:141] Setting up norm_t_1
I0814 21:51:17.408980  2973 net.cpp:148] Top shape: 100 32 16 16 (819200)
I0814 21:51:17.408987  2973 net.cpp:156] Memory required for data: 61452400
I0814 21:51:17.409011  2973 layer_factory.hpp:77] Creating layer conv_t_2
I0814 21:51:17.409037  2973 net.cpp:91] Creating Layer conv_t_2
I0814 21:51:17.409049  2973 net.cpp:425] conv_t_2 <- norm_t_1
I0814 21:51:17.409061  2973 net.cpp:399] conv_t_2 -> conv_t_2
I0814 21:51:17.410780  2973 net.cpp:141] Setting up conv_t_2
I0814 21:51:17.410805  2973 net.cpp:148] Top shape: 100 32 16 16 (819200)
I0814 21:51:17.410812  2973 net.cpp:156] Memory required for data: 64729200
I0814 21:51:17.410823  2973 layer_factory.hpp:77] Creating layer relu_t_2
I0814 21:51:17.410838  2973 net.cpp:91] Creating Layer relu_t_2
I0814 21:51:17.410845  2973 net.cpp:425] relu_t_2 <- conv_t_2
I0814 21:51:17.410856  2973 net.cpp:386] relu_t_2 -> conv_t_2 (in-place)
I0814 21:51:17.411058  2973 net.cpp:141] Setting up relu_t_2
I0814 21:51:17.411077  2973 net.cpp:148] Top shape: 100 32 16 16 (819200)
I0814 21:51:17.411082  2973 net.cpp:156] Memory required for data: 68006000
I0814 21:51:17.411088  2973 layer_factory.hpp:77] Creating layer pool_t_2
I0814 21:51:17.411099  2973 net.cpp:91] Creating Layer pool_t_2
I0814 21:51:17.411106  2973 net.cpp:425] pool_t_2 <- conv_t_2
I0814 21:51:17.411118  2973 net.cpp:399] pool_t_2 -> pool_t_2
I0814 21:51:17.411419  2973 net.cpp:141] Setting up pool_t_2
I0814 21:51:17.411440  2973 net.cpp:148] Top shape: 100 32 8 8 (204800)
I0814 21:51:17.411448  2973 net.cpp:156] Memory required for data: 68825200
I0814 21:51:17.411453  2973 layer_factory.hpp:77] Creating layer norm_t_2
I0814 21:51:17.411468  2973 net.cpp:91] Creating Layer norm_t_2
I0814 21:51:17.411474  2973 net.cpp:425] norm_t_2 <- pool_t_2
I0814 21:51:17.411484  2973 net.cpp:399] norm_t_2 -> norm_t_2
I0814 21:51:17.412063  2973 net.cpp:141] Setting up norm_t_2
I0814 21:51:17.412086  2973 net.cpp:148] Top shape: 100 32 8 8 (204800)
I0814 21:51:17.412093  2973 net.cpp:156] Memory required for data: 69644400
I0814 21:51:17.412099  2973 layer_factory.hpp:77] Creating layer conv_t_3
I0814 21:51:17.412122  2973 net.cpp:91] Creating Layer conv_t_3
I0814 21:51:17.412130  2973 net.cpp:425] conv_t_3 <- norm_t_2
I0814 21:51:17.412143  2973 net.cpp:399] conv_t_3 -> conv_t_3
I0814 21:51:17.414602  2973 net.cpp:141] Setting up conv_t_3
I0814 21:51:17.414628  2973 net.cpp:148] Top shape: 100 64 8 8 (409600)
I0814 21:51:17.414634  2973 net.cpp:156] Memory required for data: 71282800
I0814 21:51:17.414645  2973 layer_factory.hpp:77] Creating layer relu_t_3
I0814 21:51:17.414657  2973 net.cpp:91] Creating Layer relu_t_3
I0814 21:51:17.414664  2973 net.cpp:425] relu_t_3 <- conv_t_3
I0814 21:51:17.414677  2973 net.cpp:386] relu_t_3 -> conv_t_3 (in-place)
I0814 21:51:17.414978  2973 net.cpp:141] Setting up relu_t_3
I0814 21:51:17.414999  2973 net.cpp:148] Top shape: 100 64 8 8 (409600)
I0814 21:51:17.415006  2973 net.cpp:156] Memory required for data: 72921200
I0814 21:51:17.415012  2973 layer_factory.hpp:77] Creating layer pool_t_3
I0814 21:51:17.415030  2973 net.cpp:91] Creating Layer pool_t_3
I0814 21:51:17.415037  2973 net.cpp:425] pool_t_3 <- conv_t_3
I0814 21:51:17.415047  2973 net.cpp:399] pool_t_3 -> pool_t_3
I0814 21:51:17.415271  2973 net.cpp:141] Setting up pool_t_3
I0814 21:51:17.415288  2973 net.cpp:148] Top shape: 100 64 4 4 (102400)
I0814 21:51:17.415294  2973 net.cpp:156] Memory required for data: 73330800
I0814 21:51:17.415300  2973 layer_factory.hpp:77] Creating layer ip_t_1
I0814 21:51:17.415315  2973 net.cpp:91] Creating Layer ip_t_1
I0814 21:51:17.415323  2973 net.cpp:425] ip_t_1 <- pool_t_3
I0814 21:51:17.415333  2973 net.cpp:399] ip_t_1 -> ip_t_1
I0814 21:51:17.415745  2973 net.cpp:141] Setting up ip_t_1
I0814 21:51:17.415760  2973 net.cpp:148] Top shape: 100 10 (1000)
I0814 21:51:17.415767  2973 net.cpp:156] Memory required for data: 73334800
I0814 21:51:17.415777  2973 layer_factory.hpp:77] Creating layer sm_s_1
I0814 21:51:17.415788  2973 net.cpp:91] Creating Layer sm_s_1
I0814 21:51:17.415796  2973 net.cpp:425] sm_s_1 <- ip_s_1_ip_s_1_0_split_0
I0814 21:51:17.415805  2973 net.cpp:399] sm_s_1 -> sm_s_1
I0814 21:51:17.416190  2973 net.cpp:141] Setting up sm_s_1
I0814 21:51:17.416227  2973 net.cpp:148] Top shape: 100 10 (1000)
I0814 21:51:17.416235  2973 net.cpp:156] Memory required for data: 73338800
I0814 21:51:17.416241  2973 layer_factory.hpp:77] Creating layer sm_t_1
I0814 21:51:17.416251  2973 net.cpp:91] Creating Layer sm_t_1
I0814 21:51:17.416259  2973 net.cpp:425] sm_t_1 <- ip_t_1
I0814 21:51:17.416268  2973 net.cpp:399] sm_t_1 -> sm_t_1
I0814 21:51:17.416550  2973 net.cpp:141] Setting up sm_t_1
I0814 21:51:17.416569  2973 net.cpp:148] Top shape: 100 10 (1000)
I0814 21:51:17.416575  2973 net.cpp:156] Memory required for data: 73342800
I0814 21:51:17.416581  2973 layer_factory.hpp:77] Creating layer ts_loss
I0814 21:51:17.416605  2973 net.cpp:91] Creating Layer ts_loss
I0814 21:51:17.416612  2973 net.cpp:425] ts_loss <- sm_s_1
I0814 21:51:17.416620  2973 net.cpp:425] ts_loss <- sm_t_1
I0814 21:51:17.416630  2973 net.cpp:399] ts_loss -> ts_loss
…
I0814 21:51:17.418483  2973 net.cpp:313] The NetState phase (1) differed from the phase (0) specified by a rule in layer cifar
I0814 21:51:17.418776  2973 net.cpp:49] Initializing net from parameters: 
name: "CIFAR10_full"
state {
  phase: TEST
}
layer {
  name: "cifar"
  type: "Data"
  top: "data"
  top: "label"
  include {
    phase: TEST
  }
  transform_param {
    mean_file: "/home/ubuntu/caffe/examples/cifar10/mean.binaryproto"
  }
  data_param {
    source: "/home/ubuntu/caffe/examples/cifar10/cifar10_test_lmdb"
    batch_size: 100
    backend: LMDB
  }
}
layer {
  name: "conv_s_1"
  type: "Convolution"
  bottom: "data"
  top: "conv_s_1"
  param {
    lr_mult: 1
  }
  param {
    lr_mult: 2
  }
  convolution_param {
    num_output: 32
    pad: 2
    kernel_size: 5
    stride: 1
    weight_filler {
      type: "gaussian"
      std: 0.0001
    }
    bias_filler {
      type: "constant"
    }
  }
}
layer {
  name: "pool_s_1"
  type: "Pooling"
  bottom: "conv_s_1"
  top: "pool_s_1"
  pooling_param {
    pool: MAX
    kernel_size: 3
    stride: 2
  }
}
layer {
  name: "relu_s_1"
  type: "ReLU"
  bottom: "pool_s_1"
  top: "pool_s_1"
}
layer {
  name: "norm_s_1"
  type: "LRN"
  bottom: "pool_s_1"
  top: "norm_s_1"
  lrn_param {
    local_size: 3
    alpha: 5e-05
    beta: 0.75
    norm_region: WITHIN_CHANNEL
  }
}
layer {
  name: "conv_s_2"
  type: "Convolution"
  bottom: "norm_s_1"
  top: "conv_s_2"
  param {
    lr_mult: 1
  }
  param {
    lr_mult: 2
  }
  convolution_param {
    num_output: 32
    pad: 2
    kernel_size: 5
    stride: 1
    weight_filler {
      type: "gaussian"
      std: 0.01
    }
    bias_filler {
      type: "constant"
    }
  }
}
layer {
  name: "relu_s_2"
  type: "ReLU"
  bottom: "conv_s_2"
  top: "conv_s_2"
}
layer {
  name: "pool_s_2"
  type: "Pooling"
  bottom: "conv_s_2"
  top: "pool_s_2"
  pooling_param {
    pool: AVE
    kernel_size: 3
    stride: 2
  }
}
layer {
  name: "norm_s_2"
  type: "LRN"
  bottom: "pool_s_2"
  top: "norm_s_2"
  lrn_param {
    local_size: 3
    alpha: 5e-05
    beta: 0.75
    norm_region: WITHIN_CHANNEL
  }
}
layer {
  name: "conv_s_3"
  type: "Convolution"
  bottom: "norm_s_2"
  top: "conv_s_3"
  param {
    lr_mult: 1
  }
  param {
    lr_mult: 2
  }
  convolution_param {
    num_output: 64
    pad: 2
    kernel_size: 5
    stride: 1
    weight_filler {
      type: "gaussian"
      std: 0.01
    }
    bias_filler {
      type: "constant"
    }
  }
}
layer {
  name: "relu_s_3"
  type: "ReLU"
  bottom: "conv_s_3"
  top: "conv_s_3"
}
layer {
  name: "pool_s_3"
  type: "Pooling"
  bottom: "conv_s_3"
  top: "pool_s_3"
  pooling_param {
    pool: AVE
    kernel_size: 3
    stride: 2
  }
}
layer {
  name: "ip_s_1"
  type: "InnerProduct"
  bottom: "pool_s_3"
  top: "ip_s_1"
  param {
    lr_mult: 1
    decay_mult: 250
  }
  param {
    lr_mult: 2
    decay_mult: 0
  }
  inner_product_param {
    num_output: 10
    weight_filler {
      type: "gaussian"
      std: 0.01
    }
    bias_filler {
      type: "constant"
    }
  }
}
layer {
  name: "conv_t_1"
  type: "Convolution"
  bottom: "data"
  top: "conv_t_1"
  param {
    lr_mult: 0
  }
  param {
    lr_mult: 0
  }
  convolution_param {
    num_output: 32
    pad: 2
    kernel_size: 5
    stride: 1
    weight_filler {
      type: "gaussian"
      std: 0.0001
    }
    bias_filler {
      type: "constant"
    }
  }
}
layer {
  name: "pool_t_1"
  type: "Pooling"
  bottom: "conv_t_1"
  top: "pool_t_1"
  pooling_param {
    pool: MAX
    kernel_size: 3
    stride: 2
  }
}
layer {
  name: "relu_t_1"
  type: "ReLU"
  bottom: "pool_t_1"
  top: "pool_t_1"
}
layer {
  name: "norm_t_1"
  type: "LRN"
  bottom: "pool_t_1"
  top: "norm_t_1"
  lrn_param {
    local_size: 3
    alpha: 5e-05
    beta: 0.75
    norm_region: WITHIN_CHANNEL
  }
}
layer {
  name: "conv_t_2"
  type: "Convolution"
  bottom: "norm_t_1"
  top: "conv_t_2"
  param {
    lr_mult: 0
  }
  param {
    lr_mult: 0
  }
  convolution_param {
    num_output: 32
    pad: 2
    kernel_size: 5
    stride: 1
    weight_filler {
      type: "gaussian"
      std: 0.01
    }
    bias_filler {
      type: "constant"
    }
  }
}
layer {
  name: "relu_t_2"
  type: "ReLU"
  bottom: "conv_t_2"
  top: "conv_t_2"
}
layer {
  name: "pool_t_2"
  type: "Pooling"
  bottom: "conv_t_2"
  top: "pool_t_2"
  pooling_param {
    pool: AVE
    kernel_size: 3
    stride: 2
  }
}
layer {
  name: "norm_t_2"
  type: "LRN"
  bottom: "pool_t_2"
  top: "norm_t_2"
  lrn_param {
    local_size: 3
    alpha: 5e-05
    beta: 0.75
    norm_region: WITHIN_CHANNEL
  }
}
layer {
  name: "conv_t_3"
  type: "Convolution"
  bottom: "norm_t_2"
  top: "conv_t_3"
  param {
    lr_mult: 0
  }
  param {
    lr_mult: 0
  }
  convolution_param {
    num_output: 64
    pad: 2
    kernel_size: 5
    stride: 1
    weight_filler {
      type: "gaussian"
      std: 0.01
    }
    bias_filler {
      type: "constant"
    }
  }
}
layer {
  name: "relu_t_3"
  type: "ReLU"
  bottom: "conv_t_3"
  top: "conv_t_3"
}
layer {
  name: "pool_t_3"
  type: "Pooling"
  bottom: "conv_t_3"
  top: "pool_t_3"
  pooling_param {
    pool: AVE
    kernel_size: 3
    stride: 2
  }
}
layer {
  name: "ip_t_1"
  type: "InnerProduct"
  bottom: "pool_t_3"
  top: "ip_t_1"
  param {
    lr_mult: 0
  }
  param {
    lr_mult: 0
  }
  inner_product_param {
    num_output: 10
    weight_filler {
      type: "gaussian"
      std: 0.01
    }
    bias_filler {
      type: "constant"
    }
  }
}
layer {
  name: "sm_s_1"
  type: "Softmax"
  bottom: "ip_s_1"
  top: "sm_s_1"
}
layer {
  name: "sm_t_1"
  type: "Softmax"
  bottom: "ip_t_1"
  top: "sm_t_1"
}
layer {
  name: "accuracy"
  type: "Accuracy"
  bottom: "ip_s_1"
  bottom: "label"
  top: "accuracy"
  include {
    phase: TEST
  }
}
layer {
  name: "ts_loss"
  type: "SigmoidCrossEntropyLoss"
  bottom: "sm_s_1"
  bottom: "sm_t_1"
  top: "ts_loss"
  loss_weight: 0.05
}
layer {
  name: "loss"
  type: "SoftmaxWithLoss"
  bottom: "ip_s_1"
  bottom: "label"
  top: "loss"
  loss_weight: 0.95
}
I0814 21:51:17.419040  2973 layer_factory.hpp:77] Creating layer cifar
I0814 21:51:17.419236  2973 net.cpp:91] Creating Layer cifar
I0814 21:51:17.419250  2973 net.cpp:399] cifar -> data
I0814 21:51:17.419265  2973 net.cpp:399] cifar -> label
I0814 21:51:17.419278  2973 data_transformer.cpp:25] Loading mean file from: /home/ubuntu/caffe/examples/cifar10/mean.binaryproto
I0814 21:51:17.420341  2978 db_lmdb.cpp:35] Opened lmdb /home/ubuntu/caffe/examples/cifar10/cifar10_test_lmdb
I0814 21:51:17.420495  2973 data_layer.cpp:41] output data size: 100,3,32,32
I0814 21:51:17.424458  2973 net.cpp:141] Setting up cifar
I0814 21:51:17.424484  2973 net.cpp:148] Top shape: 100 3 32 32 (307200)
I0814 21:51:17.424492  2973 net.cpp:148] Top shape: 100 (100)
I0814 21:51:17.424499  2973 net.cpp:156] Memory required for data: 1229200
I0814 21:51:17.424504  2973 layer_factory.hpp:77] Creating layer data_cifar_0_split
I0814 21:51:17.424520  2973 net.cpp:91] Creating Layer data_cifar_0_split
I0814 21:51:17.424526  2973 net.cpp:425] data_cifar_0_split <- data
I0814 21:51:17.424540  2973 net.cpp:399] data_cifar_0_split -> data_cifar_0_split_0
I0814 21:51:17.424554  2973 net.cpp:399] data_cifar_0_split -> data_cifar_0_split_1
I0814 21:51:17.424643  2973 net.cpp:141] Setting up data_cifar_0_split
I0814 21:51:17.424664  2973 net.cpp:148] Top shape: 100 3 32 32 (307200)
I0814 21:51:17.424672  2973 net.cpp:148] Top shape: 100 3 32 32 (307200)
I0814 21:51:17.424677  2973 net.cpp:156] Memory required for data: 3686800
I0814 21:51:17.424685  2973 layer_factory.hpp:77] Creating layer label_cifar_1_split
I0814 21:51:17.424710  2973 net.cpp:91] Creating Layer label_cifar_1_split
I0814 21:51:17.424717  2973 net.cpp:425] label_cifar_1_split <- label
I0814 21:51:17.424726  2973 net.cpp:399] label_cifar_1_split -> label_cifar_1_split_0
I0814 21:51:17.424738  2973 net.cpp:399] label_cifar_1_split -> label_cifar_1_split_1
I0814 21:51:17.424798  2973 net.cpp:141] Setting up label_cifar_1_split
I0814 21:51:17.424814  2973 net.cpp:148] Top shape: 100 (100)
I0814 21:51:17.424821  2973 net.cpp:148] Top shape: 100 (100)
I0814 21:51:17.424827  2973 net.cpp:156] Memory required for data: 3687600
I0814 21:51:17.424834  2973 layer_factory.hpp:77] Creating layer conv_s_1
I0814 21:51:17.424854  2973 net.cpp:91] Creating Layer conv_s_1
I0814 21:51:17.424860  2973 net.cpp:425] conv_s_1 <- data_cifar_0_split_0
I0814 21:51:17.424875  2973 net.cpp:399] conv_s_1 -> conv_s_1
I0814 21:51:17.426475  2973 net.cpp:141] Setting up conv_s_1
I0814 21:51:17.426497  2973 net.cpp:148] Top shape: 100 32 32 32 (3276800)
I0814 21:51:17.426506  2973 net.cpp:156] Memory required for data: 16794800
I0814 21:51:17.426523  2973 layer_factory.hpp:77] Creating layer pool_s_1
I0814 21:51:17.426543  2973 net.cpp:91] Creating Layer pool_s_1
I0814 21:51:17.426551  2973 net.cpp:425] pool_s_1 <- conv_s_1
I0814 21:51:17.426566  2973 net.cpp:399] pool_s_1 -> pool_s_1
I0814 21:51:17.426641  2973 net.cpp:141] Setting up pool_s_1
I0814 21:51:17.426657  2973 net.cpp:148] Top shape: 100 32 16 16 (819200)
I0814 21:51:17.426664  2973 net.cpp:156] Memory required for data: 20071600
I0814 21:51:17.426671  2973 layer_factory.hpp:77] Creating layer relu_s_1
I0814 21:51:17.426683  2973 net.cpp:91] Creating Layer relu_s_1
I0814 21:51:17.426690  2973 net.cpp:425] relu_s_1 <- pool_s_1
I0814 21:51:17.426698  2973 net.cpp:386] relu_s_1 -> pool_s_1 (in-place)
I0814 21:51:17.426905  2973 net.cpp:141] Setting up relu_s_1
I0814 21:51:17.426926  2973 net.cpp:148] Top shape: 100 32 16 16 (819200)
I0814 21:51:17.426934  2973 net.cpp:156] Memory required for data: 23348400
I0814 21:51:17.426939  2973 layer_factory.hpp:77] Creating layer norm_s_1
I0814 21:51:17.426954  2973 net.cpp:91] Creating Layer norm_s_1
I0814 21:51:17.426960  2973 net.cpp:425] norm_s_1 <- pool_s_1
I0814 21:51:17.426970  2973 net.cpp:399] norm_s_1 -> norm_s_1
I0814 21:51:17.427595  2973 net.cpp:141] Setting up norm_s_1
I0814 21:51:17.427620  2973 net.cpp:148] Top shape: 100 32 16 16 (819200)
I0814 21:51:17.427628  2973 net.cpp:156] Memory required for data: 26625200
I0814 21:51:17.427634  2973 layer_factory.hpp:77] Creating layer conv_s_2
I0814 21:51:17.427654  2973 net.cpp:91] Creating Layer conv_s_2
I0814 21:51:17.427660  2973 net.cpp:425] conv_s_2 <- norm_s_1
I0814 21:51:17.427676  2973 net.cpp:399] conv_s_2 -> conv_s_2
I0814 21:51:17.429522  2973 net.cpp:141] Setting up conv_s_2
I0814 21:51:17.429548  2973 net.cpp:148] Top shape: 100 32 16 16 (819200)
I0814 21:51:17.429554  2973 net.cpp:156] Memory required for data: 29902000
I0814 21:51:17.429574  2973 layer_factory.hpp:77] Creating layer relu_s_2
I0814 21:51:17.429589  2973 net.cpp:91] Creating Layer relu_s_2
I0814 21:51:17.429596  2973 net.cpp:425] relu_s_2 <- conv_s_2
I0814 21:51:17.429606  2973 net.cpp:386] relu_s_2 -> conv_s_2 (in-place)
I0814 21:51:17.429814  2973 net.cpp:141] Setting up relu_s_2
I0814 21:51:17.429834  2973 net.cpp:148] Top shape: 100 32 16 16 (819200)
I0814 21:51:17.429841  2973 net.cpp:156] Memory required for data: 33178800
I0814 21:51:17.429847  2973 layer_factory.hpp:77] Creating layer pool_s_2
I0814 21:51:17.429857  2973 net.cpp:91] Creating Layer pool_s_2
I0814 21:51:17.429865  2973 net.cpp:425] pool_s_2 <- conv_s_2
I0814 21:51:17.429877  2973 net.cpp:399] pool_s_2 -> pool_s_2
I0814 21:51:17.430196  2973 net.cpp:141] Setting up pool_s_2
I0814 21:51:17.430218  2973 net.cpp:148] Top shape: 100 32 8 8 (204800)
I0814 21:51:17.430224  2973 net.cpp:156] Memory required for data: 33998000
I0814 21:51:17.430230  2973 layer_factory.hpp:77] Creating layer norm_s_2
I0814 21:51:17.430245  2973 net.cpp:91] Creating Layer norm_s_2
I0814 21:51:17.430274  2973 net.cpp:425] norm_s_2 <- pool_s_2
I0814 21:51:17.430284  2973 net.cpp:399] norm_s_2 -> norm_s_2
I0814 21:51:17.430881  2973 net.cpp:141] Setting up norm_s_2
I0814 21:51:17.430899  2973 net.cpp:148] Top shape: 100 32 8 8 (204800)
I0814 21:51:17.430907  2973 net.cpp:156] Memory required for data: 34817200
I0814 21:51:17.430912  2973 layer_factory.hpp:77] Creating layer conv_s_3
I0814 21:51:17.430934  2973 net.cpp:91] Creating Layer conv_s_3
I0814 21:51:17.430943  2973 net.cpp:425] conv_s_3 <- norm_s_2
I0814 21:51:17.430955  2973 net.cpp:399] conv_s_3 -> conv_s_3
I0814 21:51:17.433692  2973 net.cpp:141] Setting up conv_s_3
I0814 21:51:17.433714  2973 net.cpp:148] Top shape: 100 64 8 8 (409600)
I0814 21:51:17.433722  2973 net.cpp:156] Memory required for data: 36455600
I0814 21:51:17.433737  2973 layer_factory.hpp:77] Creating layer relu_s_3
I0814 21:51:17.433753  2973 net.cpp:91] Creating Layer relu_s_3
I0814 21:51:17.433760  2973 net.cpp:425] relu_s_3 <- conv_s_3
I0814 21:51:17.433770  2973 net.cpp:386] relu_s_3 -> conv_s_3 (in-place)
I0814 21:51:17.434866  2973 net.cpp:141] Setting up relu_s_3
I0814 21:51:17.434890  2973 net.cpp:148] Top shape: 100 64 8 8 (409600)
I0814 21:51:17.434895  2973 net.cpp:156] Memory required for data: 38094000
I0814 21:51:17.434901  2973 layer_factory.hpp:77] Creating layer pool_s_3
I0814 21:51:17.434916  2973 net.cpp:91] Creating Layer pool_s_3
I0814 21:51:17.434923  2973 net.cpp:425] pool_s_3 <- conv_s_3
I0814 21:51:17.434936  2973 net.cpp:399] pool_s_3 -> pool_s_3
I0814 21:51:17.435158  2973 net.cpp:141] Setting up pool_s_3
I0814 21:51:17.435178  2973 net.cpp:148] Top shape: 100 64 4 4 (102400)
I0814 21:51:17.435184  2973 net.cpp:156] Memory required for data: 38503600
I0814 21:51:17.435189  2973 layer_factory.hpp:77] Creating layer ip_s_1
I0814 21:51:17.435205  2973 net.cpp:91] Creating Layer ip_s_1
I0814 21:51:17.435214  2973 net.cpp:425] ip_s_1 <- pool_s_3
I0814 21:51:17.435223  2973 net.cpp:399] ip_s_1 -> ip_s_1
I0814 21:51:17.435672  2973 net.cpp:141] Setting up ip_s_1
I0814 21:51:17.435689  2973 net.cpp:148] Top shape: 100 10 (1000)
I0814 21:51:17.435695  2973 net.cpp:156] Memory required for data: 38507600
I0814 21:51:17.435706  2973 layer_factory.hpp:77] Creating layer ip_s_1_ip_s_1_0_split
I0814 21:51:17.435716  2973 net.cpp:91] Creating Layer ip_s_1_ip_s_1_0_split
I0814 21:51:17.435724  2973 net.cpp:425] ip_s_1_ip_s_1_0_split <- ip_s_1
I0814 21:51:17.435735  2973 net.cpp:399] ip_s_1_ip_s_1_0_split -> ip_s_1_ip_s_1_0_split_0
I0814 21:51:17.435746  2973 net.cpp:399] ip_s_1_ip_s_1_0_split -> ip_s_1_ip_s_1_0_split_1
I0814 21:51:17.435766  2973 net.cpp:399] ip_s_1_ip_s_1_0_split -> ip_s_1_ip_s_1_0_split_2
I0814 21:51:17.435835  2973 net.cpp:141] Setting up ip_s_1_ip_s_1_0_split
I0814 21:51:17.435850  2973 net.cpp:148] Top shape: 100 10 (1000)
I0814 21:51:17.435859  2973 net.cpp:148] Top shape: 100 10 (1000)
I0814 21:51:17.435866  2973 net.cpp:148] Top shape: 100 10 (1000)
I0814 21:51:17.435873  2973 net.cpp:156] Memory required for data: 38519600
I0814 21:51:17.435878  2973 layer_factory.hpp:77] Creating layer conv_t_1
I0814 21:51:17.435901  2973 net.cpp:91] Creating Layer conv_t_1
I0814 21:51:17.435909  2973 net.cpp:425] conv_t_1 <- data_cifar_0_split_1
I0814 21:51:17.435921  2973 net.cpp:399] conv_t_1 -> conv_t_1
I0814 21:51:17.437059  2973 net.cpp:141] Setting up conv_t_1
I0814 21:51:17.437084  2973 net.cpp:148] Top shape: 100 32 32 32 (3276800)
I0814 21:51:17.437091  2973 net.cpp:156] Memory required for data: 51626800
I0814 21:51:17.437111  2973 layer_factory.hpp:77] Creating layer pool_t_1
I0814 21:51:17.437124  2973 net.cpp:91] Creating Layer pool_t_1
I0814 21:51:17.437131  2973 net.cpp:425] pool_t_1 <- conv_t_1
I0814 21:51:17.437144  2973 net.cpp:399] pool_t_1 -> pool_t_1
I0814 21:51:17.437212  2973 net.cpp:141] Setting up pool_t_1
I0814 21:51:17.437230  2973 net.cpp:148] Top shape: 100 32 16 16 (819200)
I0814 21:51:17.437237  2973 net.cpp:156] Memory required for data: 54903600
I0814 21:51:17.437242  2973 layer_factory.hpp:77] Creating layer relu_t_1
I0814 21:51:17.437269  2973 net.cpp:91] Creating Layer relu_t_1
I0814 21:51:17.437278  2973 net.cpp:425] relu_t_1 <- pool_t_1
I0814 21:51:17.437286  2973 net.cpp:386] relu_t_1 -> pool_t_1 (in-place)
I0814 21:51:17.437585  2973 net.cpp:141] Setting up relu_t_1
I0814 21:51:17.437609  2973 net.cpp:148] Top shape: 100 32 16 16 (819200)
I0814 21:51:17.437615  2973 net.cpp:156] Memory required for data: 58180400
I0814 21:51:17.437623  2973 layer_factory.hpp:77] Creating layer norm_t_1
I0814 21:51:17.437633  2973 net.cpp:91] Creating Layer norm_t_1
I0814 21:51:17.437639  2973 net.cpp:425] norm_t_1 <- pool_t_1
I0814 21:51:17.437654  2973 net.cpp:399] norm_t_1 -> norm_t_1
I0814 21:51:17.438194  2973 net.cpp:141] Setting up norm_t_1
I0814 21:51:17.438217  2973 net.cpp:148] Top shape: 100 32 16 16 (819200)
I0814 21:51:17.438225  2973 net.cpp:156] Memory required for data: 61457200
I0814 21:51:17.438230  2973 layer_factory.hpp:77] Creating layer conv_t_2
I0814 21:51:17.438251  2973 net.cpp:91] Creating Layer conv_t_2
I0814 21:51:17.438258  2973 net.cpp:425] conv_t_2 <- norm_t_1
I0814 21:51:17.438273  2973 net.cpp:399] conv_t_2 -> conv_t_2
I0814 21:51:17.440017  2973 net.cpp:141] Setting up conv_t_2
I0814 21:51:17.440042  2973 net.cpp:148] Top shape: 100 32 16 16 (819200)
I0814 21:51:17.440048  2973 net.cpp:156] Memory required for data: 64734000
I0814 21:51:17.440058  2973 layer_factory.hpp:77] Creating layer relu_t_2
I0814 21:51:17.440074  2973 net.cpp:91] Creating Layer relu_t_2
I0814 21:51:17.440083  2973 net.cpp:425] relu_t_2 <- conv_t_2
I0814 21:51:17.440093  2973 net.cpp:386] relu_t_2 -> conv_t_2 (in-place)
I0814 21:51:17.440402  2973 net.cpp:141] Setting up relu_t_2
I0814 21:51:17.440425  2973 net.cpp:148] Top shape: 100 32 16 16 (819200)
I0814 21:51:17.440454  2973 net.cpp:156] Memory required for data: 68010800
I0814 21:51:17.440460  2973 layer_factory.hpp:77] Creating layer pool_t_2
I0814 21:51:17.440471  2973 net.cpp:91] Creating Layer pool_t_2
I0814 21:51:17.440479  2973 net.cpp:425] pool_t_2 <- conv_t_2
I0814 21:51:17.440488  2973 net.cpp:399] pool_t_2 -> pool_t_2
I0814 21:51:17.440804  2973 net.cpp:141] Setting up pool_t_2
I0814 21:51:17.440824  2973 net.cpp:148] Top shape: 100 32 8 8 (204800)
I0814 21:51:17.440831  2973 net.cpp:156] Memory required for data: 68830000
I0814 21:51:17.440837  2973 layer_factory.hpp:77] Creating layer norm_t_2
I0814 21:51:17.440851  2973 net.cpp:91] Creating Layer norm_t_2
I0814 21:51:17.440858  2973 net.cpp:425] norm_t_2 <- pool_t_2
I0814 21:51:17.440871  2973 net.cpp:399] norm_t_2 -> norm_t_2
I0814 21:51:17.441391  2973 net.cpp:141] Setting up norm_t_2
I0814 21:51:17.441416  2973 net.cpp:148] Top shape: 100 32 8 8 (204800)
I0814 21:51:17.441423  2973 net.cpp:156] Memory required for data: 69649200
I0814 21:51:17.441429  2973 layer_factory.hpp:77] Creating layer conv_t_3
I0814 21:51:17.441449  2973 net.cpp:91] Creating Layer conv_t_3
I0814 21:51:17.441457  2973 net.cpp:425] conv_t_3 <- norm_t_2
I0814 21:51:17.441473  2973 net.cpp:399] conv_t_3 -> conv_t_3
I0814 21:51:17.444643  2973 net.cpp:141] Setting up conv_t_3
I0814 21:51:17.444666  2973 net.cpp:148] Top shape: 100 64 8 8 (409600)
I0814 21:51:17.444674  2973 net.cpp:156] Memory required for data: 71287600
I0814 21:51:17.444684  2973 layer_factory.hpp:77] Creating layer relu_t_3
I0814 21:51:17.444699  2973 net.cpp:91] Creating Layer relu_t_3
I0814 21:51:17.444707  2973 net.cpp:425] relu_t_3 <- conv_t_3
I0814 21:51:17.444716  2973 net.cpp:386] relu_t_3 -> conv_t_3 (in-place)
I0814 21:51:17.445026  2973 net.cpp:141] Setting up relu_t_3
I0814 21:51:17.445047  2973 net.cpp:148] Top shape: 100 64 8 8 (409600)
I0814 21:51:17.445055  2973 net.cpp:156] Memory required for data: 72926000
I0814 21:51:17.445060  2973 layer_factory.hpp:77] Creating layer pool_t_3
I0814 21:51:17.445075  2973 net.cpp:91] Creating Layer pool_t_3
I0814 21:51:17.445082  2973 net.cpp:425] pool_t_3 <- conv_t_3
I0814 21:51:17.445092  2973 net.cpp:399] pool_t_3 -> pool_t_3
I0814 21:51:17.445314  2973 net.cpp:141] Setting up pool_t_3
I0814 21:51:17.445346  2973 net.cpp:148] Top shape: 100 64 4 4 (102400)
I0814 21:51:17.445353  2973 net.cpp:156] Memory required for data: 73335600
I0814 21:51:17.445359  2973 layer_factory.hpp:77] Creating layer ip_t_1
I0814 21:51:17.445374  2973 net.cpp:91] Creating Layer ip_t_1
I0814 21:51:17.445381  2973 net.cpp:425] ip_t_1 <- pool_t_3
I0814 21:51:17.445392  2973 net.cpp:399] ip_t_1 -> ip_t_1
I0814 21:51:17.445843  2973 net.cpp:141] Setting up ip_t_1
I0814 21:51:17.445861  2973 net.cpp:148] Top shape: 100 10 (1000)
I0814 21:51:17.445868  2973 net.cpp:156] Memory required for data: 73339600
I0814 21:51:17.445878  2973 layer_factory.hpp:77] Creating layer sm_s_1
I0814 21:51:17.445889  2973 net.cpp:91] Creating Layer sm_s_1
I0814 21:51:17.445895  2973 net.cpp:425] sm_s_1 <- ip_s_1_ip_s_1_0_split_0
I0814 21:51:17.445909  2973 net.cpp:399] sm_s_1 -> sm_s_1
I0814 21:51:17.446283  2973 net.cpp:141] Setting up sm_s_1
I0814 21:51:17.446305  2973 net.cpp:148] Top shape: 100 10 (1000)
I0814 21:51:17.446312  2973 net.cpp:156] Memory required for data: 73343600
I0814 21:51:17.446318  2973 layer_factory.hpp:77] Creating layer sm_t_1
I0814 21:51:17.446328  2973 net.cpp:91] Creating Layer sm_t_1
I0814 21:51:17.446336  2973 net.cpp:425] sm_t_1 <- ip_t_1
I0814 21:51:17.446348  2973 net.cpp:399] sm_t_1 -> sm_t_1
I0814 21:51:17.446616  2973 net.cpp:141] Setting up sm_t_1
I0814 21:51:17.446635  2973 net.cpp:148] Top shape: 100 10 (1000)
I0814 21:51:17.446641  2973 net.cpp:156] Memory required for data: 73347600
I0814 21:51:17.446647  2973 layer_factory.hpp:77] Creating layer accuracy
I0814 21:51:17.446665  2973 net.cpp:91] Creating Layer accuracy
I0814 21:51:17.446671  2973 net.cpp:425] accuracy <- ip_s_1_ip_s_1_0_split_1
I0814 21:51:17.446679  2973 net.cpp:425] accuracy <- label_cifar_1_split_0
I0814 21:51:17.446692  2973 net.cpp:399] accuracy -> accuracy
…
